Args: ../Polygeist/build/bin/cgeist ../in/test.c -S --function=example --debug -opaque-pointers=0 
Load new dialect in Context builtin
ImplicitTypeIDRegistry::lookupOrInsert(mlir::SubElementTypeInterface)
ImplicitTypeIDRegistry::lookupOrInsert(mlir::ShapedType)
ImplicitTypeIDRegistry::lookupOrInsert(mlir::MemRefLayoutAttrInterface)
ImplicitTypeIDRegistry::lookupOrInsert(mlir::SubElementAttrInterface)
ImplicitTypeIDRegistry::lookupOrInsert(mlir::ElementsAttr)
ImplicitTypeIDRegistry::lookupOrInsert(mlir::TypedAttr)
ImplicitTypeIDRegistry::lookupOrInsert(mlir::SymbolOpInterface)
ImplicitTypeIDRegistry::lookupOrInsert(mlir::OpAsmOpInterface)
ImplicitTypeIDRegistry::lookupOrInsert(mlir::RegionKindInterface)
ImplicitTypeIDRegistry::lookupOrInsert(mlir::CastOpInterface)
ImplicitTypeIDRegistry::lookupOrInsert(mlir::MemoryEffectOpInterface)
ImplicitTypeIDRegistry::lookupOrInsert(mlir::ResourceBlobManagerDialectInterface)
ImplicitTypeIDRegistry::lookupOrInsert(mlir::OpAsmDialectInterface)
ImplicitTypeIDRegistry::lookupOrInsert(mlir::BytecodeDialectInterface)
ImplicitTypeIDRegistry::lookupOrInsert(mlir::detail::AffineBinaryOpExprStorage)
ImplicitTypeIDRegistry::lookupOrInsert(mlir::detail::AffineConstantExprStorage)
ImplicitTypeIDRegistry::lookupOrInsert(mlir::detail::AffineDimExprStorage)
ImplicitTypeIDRegistry::lookupOrInsert(mlir::detail::AffineMapStorage)
ImplicitTypeIDRegistry::lookupOrInsert(mlir::detail::IntegerSetStorage)
Load new dialect in Context affine
Load new dialect in Context arith
ImplicitTypeIDRegistry::lookupOrInsert(mlir::VectorUnrollOpInterface)
ImplicitTypeIDRegistry::lookupOrInsert(mlir::InferTypeOpInterface)
ImplicitTypeIDRegistry::lookupOrInsert(mlir::InferIntRangeInterface)
ImplicitTypeIDRegistry::lookupOrInsert(mlir::DialectInlinerInterface)
ImplicitTypeIDRegistry::lookupOrInsert(mlir::AffineDmaStartOp)
ImplicitTypeIDRegistry::lookupOrInsert(mlir::AffineMapAccessInterface)
ImplicitTypeIDRegistry::lookupOrInsert(mlir::AffineDmaWaitOp)
ImplicitTypeIDRegistry::lookupOrInsert(mlir::LoopLikeOpInterface)
ImplicitTypeIDRegistry::lookupOrInsert(mlir::RegionBranchOpInterface)
ImplicitTypeIDRegistry::lookupOrInsert(mlir::AffineReadOpInterface)
ImplicitTypeIDRegistry::lookupOrInsert(mlir::AffineWriteOpInterface)
Load new dialect in Context func
Load new dialect in Context cf
ImplicitTypeIDRegistry::lookupOrInsert(mlir::BranchOpInterface)
ImplicitTypeIDRegistry::lookupOrInsert(mlir::CallOpInterface)
ImplicitTypeIDRegistry::lookupOrInsert(mlir::SymbolUserOpInterface)
ImplicitTypeIDRegistry::lookupOrInsert(mlir::CallableOpInterface)
ImplicitTypeIDRegistry::lookupOrInsert(mlir::FunctionOpInterface)
Load new dialect in Context dlti
ImplicitTypeIDRegistry::lookupOrInsert(mlir::DataLayoutEntryAttr)
ImplicitTypeIDRegistry::lookupOrInsert(mlir::DataLayoutEntryInterface)
ImplicitTypeIDRegistry::lookupOrInsert(mlir::DataLayoutSpecAttr)
ImplicitTypeIDRegistry::lookupOrInsert(mlir::DataLayoutSpecInterface)
ImplicitTypeIDRegistry::lookupOrInsert(mlir::DataLayoutDialectInterface)
Load new dialect in Context scf
ImplicitTypeIDRegistry::lookupOrInsert(mlir::RegionBranchTerminatorOpInterface)
ImplicitTypeIDRegistry::lookupOrInsert(mlir::ParallelCombiningOpInterface)
Load new dialect in Context async
Load new dialect in Context llvm
ImplicitTypeIDRegistry::lookupOrInsert(mlir::LLVM::LLVMVoidType)
ImplicitTypeIDRegistry::lookupOrInsert(mlir::LLVM::LLVMPPCFP128Type)
ImplicitTypeIDRegistry::lookupOrInsert(mlir::LLVM::LLVMX86MMXType)
ImplicitTypeIDRegistry::lookupOrInsert(mlir::LLVM::LLVMTokenType)
ImplicitTypeIDRegistry::lookupOrInsert(mlir::LLVM::LLVMLabelType)
ImplicitTypeIDRegistry::lookupOrInsert(mlir::LLVM::LLVMMetadataType)
ImplicitTypeIDRegistry::lookupOrInsert(mlir::LLVM::LLVMFunctionType)
ImplicitTypeIDRegistry::lookupOrInsert(mlir::LLVM::LLVMPointerType)
ImplicitTypeIDRegistry::lookupOrInsert(mlir::DataLayoutTypeInterface)
ImplicitTypeIDRegistry::lookupOrInsert(mlir::LLVM::LLVMFixedVectorType)
ImplicitTypeIDRegistry::lookupOrInsert(mlir::LLVM::LLVMScalableVectorType)
ImplicitTypeIDRegistry::lookupOrInsert(mlir::LLVM::LLVMArrayType)
ImplicitTypeIDRegistry::lookupOrInsert(mlir::LLVM::LLVMStructType)
ImplicitTypeIDRegistry::lookupOrInsert(mlir::LLVM::FastmathFlagsInterface)
ImplicitTypeIDRegistry::lookupOrInsert(mlir::LLVMTranslationDialectInterface)
Load new dialect in Context nvvm
Load new dialect in Context gpu
ImplicitTypeIDRegistry::lookupOrInsert(mlir::gpu::AsyncTokenType)
ImplicitTypeIDRegistry::lookupOrInsert(mlir::gpu::MMAMatrixType)
ImplicitTypeIDRegistry::lookupOrInsert(mlir::gpu::AsyncOpInterface)
ImplicitTypeIDRegistry::lookupOrInsert(mlir::DataLayoutOpInterface)
Load new dialect in Context omp
ImplicitTypeIDRegistry::lookupOrInsert(mlir::omp::OutlineableOpenMPOpInterface)
ImplicitTypeIDRegistry::lookupOrInsert(mlir::omp::ReductionClauseInterface)
ImplicitTypeIDRegistry::lookupOrInsert(mlir::omp::PointerLikeType)
Load new dialect in Context math
Load new dialect in Context memref
ImplicitTypeIDRegistry::lookupOrInsert(mlir::CopyOpInterface)
ImplicitTypeIDRegistry::lookupOrInsert(mlir::ViewLikeOpInterface)
ImplicitTypeIDRegistry::lookupOrInsert(mlir::OffsetSizeAndStrideOpInterface)
Load new dialect in Context linalg
Load new dialect in Context tensor
Load new dialect in Context complex
ImplicitTypeIDRegistry::lookupOrInsert(mlir::ReifyRankedShapedTypeOpInterface)
ImplicitTypeIDRegistry::lookupOrInsert(mlir::linalg::DestinationStyleOpInterface)
ImplicitTypeIDRegistry::lookupOrInsert(mlir::linalg::LinalgOp)
ImplicitTypeIDRegistry::lookupOrInsert(mlir::linalg::ContractionOpInterface)
ImplicitTypeIDRegistry::lookupOrInsert(mlir::linalg::ConvolutionOpInterface)
ImplicitTypeIDRegistry::lookupOrInsert(mlir::linalg::FillOpInterface)
Load new dialect in Context polygeist
ImplicitTypeIDRegistry::lookupOrInsert(mlir::MemRefElementTypeInterface)
ImplicitTypeIDRegistry::lookupOrInsert(mlir::LLVM::PointerElementTypeInterface)
ImplicitTypeIDRegistry::lookupOrInsert(mlir::OpTrait::ZeroOperands<Empty>)
ImplicitTypeIDRegistry::lookupOrInsert(mlir::OpTrait::OneRegion<Empty>)
ImplicitTypeIDRegistry::lookupOrInsert(mlir::OpTrait::ZeroResults<Empty>)
ImplicitTypeIDRegistry::lookupOrInsert(mlir::OpTrait::ZeroSuccessors<Empty>)
ImplicitTypeIDRegistry::lookupOrInsert(mlir::OpTrait::NoRegionArguments<Empty>)
ImplicitTypeIDRegistry::lookupOrInsert(mlir::OpTrait::NoTerminator<Empty>)
ImplicitTypeIDRegistry::lookupOrInsert(mlir::OpTrait::SingleBlock<Empty>)
ImplicitTypeIDRegistry::lookupOrInsert(mlir::OpTrait::OpInvariants<Empty>)
ImplicitTypeIDRegistry::lookupOrInsert(mlir::OpTrait::AffineScope<Empty>)
ImplicitTypeIDRegistry::lookupOrInsert(mlir::OpTrait::IsIsolatedFromAbove<Empty>)
ImplicitTypeIDRegistry::lookupOrInsert(mlir::OpTrait::SymbolTable<Empty>)
ImplicitTypeIDRegistry::lookupOrInsert(mlir::SymbolOpInterface::Trait<Empty>)
ImplicitTypeIDRegistry::lookupOrInsert(mlir::OpAsmOpInterface::Trait<Empty>)
ImplicitTypeIDRegistry::lookupOrInsert(mlir::RegionKindInterface::Trait<Empty>)
ImplicitTypeIDRegistry::lookupOrInsert(mlir::OpTrait::HasOnlyGraphRegion<Empty>)
../in/test.c:4:10: fatal error: 'math.h' file not found
#include <math.h>
         ^~~~~~~~
ImplicitTypeIDRegistry::lookupOrInsert(mlir::OpTrait::AutomaticAllocationScope<Empty>)
ImplicitTypeIDRegistry::lookupOrInsert(mlir::CallableOpInterface::Trait<Empty>)
ImplicitTypeIDRegistry::lookupOrInsert(mlir::FunctionOpInterface::Trait<Empty>)
ImplicitTypeIDRegistry::lookupOrInsert(mlir::OpTrait::ZeroRegions<Empty>)
ImplicitTypeIDRegistry::lookupOrInsert(mlir::OpTrait::OneResult<Empty>)
ImplicitTypeIDRegistry::lookupOrInsert(mlir::OpTrait::OneTypedResult<mlir::MemRefType>::Impl<Empty>)
ImplicitTypeIDRegistry::lookupOrInsert(mlir::OpTrait::VariadicOperands<Empty>)
ImplicitTypeIDRegistry::lookupOrInsert(mlir::OpTrait::AttrSizedOperandSegments<Empty>)
ImplicitTypeIDRegistry::lookupOrInsert(mlir::MemoryEffectOpInterface::Trait<Empty>)
ImplicitTypeIDRegistry::lookupOrInsert(mlir::OpTrait::OneTypedResult<mlir::Type>::Impl<Empty>)
ImplicitTypeIDRegistry::lookupOrInsert(mlir::OpTrait::ConstantLike<Empty>)
ImplicitTypeIDRegistry::lookupOrInsert(mlir::InferIntRangeInterface::Trait<Empty>)
ImplicitTypeIDRegistry::lookupOrInsert(mlir::InferTypeOpInterface::Trait<Empty>)
ImplicitTypeIDRegistry::lookupOrInsert(mlir::OpTrait::HasParent<mlir::scf::ExecuteRegionOp, mlir::scf::ForOp, mlir::scf::IfOp, mlir::scf::ParallelOp, mlir::scf::WhileOp>::Impl<Empty>)
ImplicitTypeIDRegistry::lookupOrInsert(mlir::OpTrait::ReturnLike<Empty>)
ImplicitTypeIDRegistry::lookupOrInsert(mlir::OpTrait::IsTerminator<Empty>)
ImplicitTypeIDRegistry::lookupOrInsert(mlir::OpTrait::VariadicResults<Empty>)
ImplicitTypeIDRegistry::lookupOrInsert(mlir::RegionBranchOpInterface::Trait<Empty>)
ImplicitTypeIDRegistry::lookupOrInsert(mlir::SymbolUserOpInterface::Trait<Empty>)
ImplicitTypeIDRegistry::lookupOrInsert(mlir::OpTrait::OneSuccessor<Empty>)
ImplicitTypeIDRegistry::lookupOrInsert(mlir::BranchOpInterface::Trait<Empty>)
ImplicitTypeIDRegistry::lookupOrInsert(mlir::OpTrait::NSuccessors<2>::Impl<Empty>)
ImplicitTypeIDRegistry::lookupOrInsert(mlir::OpTrait::AtLeastNOperands<1>::Impl<Empty>)
ImplicitTypeIDRegistry::lookupOrInsert(mlir::OpTrait::NRegions<2>::Impl<Empty>)
ImplicitTypeIDRegistry::lookupOrInsert(mlir::OpTrait::OneOperand<Empty>)
ImplicitTypeIDRegistry::lookupOrInsert(mlir::OpTrait::SingleBlockImplicitTerminator<mlir::scf::YieldOp>::Impl<Empty>)
ImplicitTypeIDRegistry::lookupOrInsert(mlir::OpTrait::HasRecursiveSideEffects<Empty>)
ImplicitTypeIDRegistry::lookupOrInsert(mlir::OpTrait::HasParent<mlir::func::FuncOp>::Impl<Empty>)
ImplicitTypeIDRegistry::lookupOrInsert(mlir::OpTrait::MemRefsNormalizable<Empty>)
ImplicitTypeIDRegistry::lookupOrInsert(mlir::detail::OpToOpPassAdaptor)
ImplicitTypeIDRegistry::lookupOrInsert(mlir::DominanceInfo)
ImplicitTypeIDRegistry::lookupOrInsert(mlir::OpTrait::IsCommutative<Empty>)
ImplicitTypeIDRegistry::lookupOrInsert(mlir::MemoryEffects::Allocate)
ImplicitTypeIDRegistry::lookupOrInsert(mlir::SideEffects::AutomaticAllocationScopeResource)
ImplicitTypeIDRegistry::lookupOrInsert(mlir::MemoryEffects::Read)
ImplicitTypeIDRegistry::lookupOrInsert(mlir::OpTrait::SameOperandsAndResultShape<Empty>)
ImplicitTypeIDRegistry::lookupOrInsert(mlir::CastOpInterface::Trait<Empty>)
ImplicitTypeIDRegistry::lookupOrInsert(mlir::ViewLikeOpInterface::Trait<Empty>)
ImplicitTypeIDRegistry::lookupOrInsert(mlir::OpTrait::AtLeastNOperands<2>::Impl<Empty>)
ImplicitTypeIDRegistry::lookupOrInsert(mlir::MemoryEffects::Write)
ImplicitTypeIDRegistry::lookupOrInsert(mlir::SideEffects::DefaultResource)
ImplicitTypeIDRegistry::lookupOrInsert(mlir::OpTrait::NOperands<2>::Impl<Empty>)
ImplicitTypeIDRegistry::lookupOrInsert(mlir::OpTrait::SameTypeOperands<Empty>)
ImplicitTypeIDRegistry::lookupOrInsert(mlir::VectorUnrollOpInterface::Trait<Empty>)
ImplicitTypeIDRegistry::lookupOrInsert(mlir::OpTrait::Elementwise<Empty>)
ImplicitTypeIDRegistry::lookupOrInsert(mlir::OpTrait::Scalarizable<Empty>)
ImplicitTypeIDRegistry::lookupOrInsert(mlir::OpTrait::Vectorizable<Empty>)
ImplicitTypeIDRegistry::lookupOrInsert(mlir::OpTrait::Tensorizable<Empty>)
ImplicitTypeIDRegistry::lookupOrInsert(mlir::OpTrait::IsIdempotent<Empty>)
ImplicitTypeIDRegistry::lookupOrInsert(mlir::OpTrait::SameOperandsAndResultType<Empty>)
ImplicitTypeIDRegistry::lookupOrInsert(mlir::PostDominanceInfo)
ImplicitTypeIDRegistry::lookupOrInsert(mlir::detail::PreservedAnalyses::AllAnalysesType)
ImplicitTypeIDRegistry::lookupOrInsert(mlir::DialectFoldInterface)

//===-------------------------------------------===//
Processing operation : 'func.return'(0x7fbd9800c610) {
  "func.return"() : () -> ()

} -> failure : pattern failed to match
//===-------------------------------------------===//

//===-------------------------------------------===//
Processing operation : 'scf.if'(0x7fbd98166820) {

  * Pattern MoveIntoIfs : 'scf.if -> ()' {
Trying to match "MoveIntoIfs"
"MoveIntoIfs" result 0
  } -> failure : pattern failed to match

  * Pattern MoveOutOfIfs : 'scf.if -> ()' {
Trying to match "MoveOutOfIfs"
"MoveOutOfIfs" result 0
  } -> failure : pattern failed to match

  * Pattern IfAndLazy : 'scf.if -> ()' {
Trying to match "IfAndLazy"
"IfAndLazy" result 0
  } -> failure : pattern failed to match

  * Pattern (anonymous namespace)::CombineIfs : 'scf.if -> ()' {
Trying to match "(anonymous namespace)::CombineIfs"
"(anonymous namespace)::CombineIfs" result 0
  } -> failure : pattern failed to match

  * Pattern (anonymous namespace)::CombineNestedIfs : 'scf.if -> ()' {
Trying to match "(anonymous namespace)::CombineNestedIfs"
"(anonymous namespace)::CombineNestedIfs" result 0
  } -> failure : pattern failed to match

  * Pattern (anonymous namespace)::ConditionPropagation : 'scf.if -> ()' {
Trying to match "(anonymous namespace)::ConditionPropagation"
"(anonymous namespace)::ConditionPropagation" result 0
  } -> failure : pattern failed to match

  * Pattern (anonymous namespace)::ConvertTrivialIfToSelect : 'scf.if -> ()' {
Trying to match "(anonymous namespace)::ConvertTrivialIfToSelect"
"(anonymous namespace)::ConvertTrivialIfToSelect" result 0
  } -> failure : pattern failed to match

  * Pattern (anonymous namespace)::RemoveEmptyElseBranch : 'scf.if -> ()' {
Trying to match "(anonymous namespace)::RemoveEmptyElseBranch"
"(anonymous namespace)::RemoveEmptyElseBranch" result 0
  } -> failure : pattern failed to match

  * Pattern (anonymous namespace)::RemoveStaticCondition : 'scf.if -> ()' {
Trying to match "(anonymous namespace)::RemoveStaticCondition"
"(anonymous namespace)::RemoveStaticCondition" result 0
  } -> failure : pattern failed to match

  * Pattern (anonymous namespace)::RemoveUnusedResults : 'scf.if -> ()' {
Trying to match "(anonymous namespace)::RemoveUnusedResults"
"(anonymous namespace)::RemoveUnusedResults" result 0
  } -> failure : pattern failed to match

  * Pattern (anonymous namespace)::ReplaceIfYieldWithConditionOrValue : 'scf.if -> ()' {
Trying to match "(anonymous namespace)::ReplaceIfYieldWithConditionOrValue"
"(anonymous namespace)::ReplaceIfYieldWithConditionOrValue" result 0
  } -> failure : pattern failed to match
} -> failure : pattern failed to match
//===-------------------------------------------===//

//===-------------------------------------------===//
Processing operation : 'scf.yield'(0x7fbd98166790) {
  "scf.yield"() : () -> ()

} -> failure : pattern failed to match
//===-------------------------------------------===//

//===-------------------------------------------===//
Processing operation : 'scf.execute_region'(0x7fbd981668c0) {

  * Pattern SingleBlockExecuteInliner : 'scf.execute_region -> ()' {
Trying to match "SingleBlockExecuteInliner"
    ** Replace : 'scf.execute_region'(0x7fbd981668c0)
    ** Erase   : 'scf.yield'(0x7fbd9800c5c0)
"SingleBlockExecuteInliner" result 1
  } -> success : pattern applied successfully
// *** IR Dump After Pattern Application ***
mlir-asm-printer: Verifying operation: func.func
func.func @example(%arg0: memref<?xf32>, %arg1: memref<?xf32>, %arg2: memref<?xf32>, %arg3: memref<?xf32>, %arg4: i32) attributes {llvm.linkage = #llvm.linkage<external>} {
  %c1_i32 = arith.constant 1 : i32
  %c0_i32 = arith.constant 0 : i32
  %true = arith.constant true
  %c0 = arith.constant 0 : index
  %0 = memref.alloca() : memref<1xi32>
  %1 = memref.cast %0 : memref<1xi32> to memref<?xi32>
  %2 = llvm.mlir.undef : i32
  memref.store %2, %1[%c0] : memref<?xi32>
  %3 = memref.alloca() : memref<1xi32>
  %4 = memref.cast %3 : memref<1xi32> to memref<?xi32>
  memref.store %2, %4[%c0] : memref<?xi32>
  %5 = memref.alloca() : memref<1xi32>
  %6 = memref.cast %5 : memref<1xi32> to memref<?xi32>
  memref.store %2, %6[%c0] : memref<?xi32>
  %7 = memref.alloca() : memref<1xi32>
  %8 = memref.cast %7 : memref<1xi32> to memref<?xi32>
  memref.store %2, %8[%c0] : memref<?xi32>
  %9 = memref.alloca() : memref<1xmemref<?xf32>>
  %10 = memref.cast %9 : memref<1xmemref<?xf32>> to memref<?xmemref<?xf32>>
  %11 = memref.alloca() : memref<1xmemref<?xf32>>
  %12 = memref.cast %11 : memref<1xmemref<?xf32>> to memref<?xmemref<?xf32>>
  %13 = memref.alloca() : memref<1xmemref<?xf32>>
  %14 = memref.cast %13 : memref<1xmemref<?xf32>> to memref<?xmemref<?xf32>>
  %15 = memref.alloca() : memref<1xmemref<?xf32>>
  %16 = memref.cast %15 : memref<1xmemref<?xf32>> to memref<?xmemref<?xf32>>
  memref.store %arg0, %16[%c0] : memref<?xmemref<?xf32>>
  memref.store %arg1, %14[%c0] : memref<?xmemref<?xf32>>
  memref.store %arg2, %12[%c0] : memref<?xmemref<?xf32>>
  memref.store %arg3, %10[%c0] : memref<?xmemref<?xf32>>
  memref.store %arg4, %8[%c0] : memref<?xi32>
  %17 = memref.alloca() : memref<i1>
  %18 = memref.alloca() : memref<i1>
  memref.store %true, %18[] : memref<i1>
  memref.store %true, %17[] : memref<i1>
  %19 = memref.load %17[] : memref<i1>
  scf.if %19 {
    %20 = memref.load %17[] : memref<i1>
    scf.if %20 {
      scf.execute_region {
        %21 = memref.load %17[] : memref<i1>
        scf.if %21 {
          scf.execute_region {
            %34 = memref.get_global @kbm3 : memref<1xi32>
            %35 = memref.cast %34 : memref<1xi32> to memref<?xi32>
            %36 = memref.load %35[%c0] : memref<?xi32>
            memref.store %36, %6[%c0] : memref<?xi32>
            scf.yield
          }
        }
        %22 = memref.alloca() : memref<i1>
        %23 = memref.alloca() : memref<i1>
        memref.store %true, %23[] : memref<i1>
        cf.br ^bb1
      ^bb1:  // 2 preds: ^bb0, ^bb2
        %24 = memref.load %6[%c0] : memref<?xi32>
        %25 = arith.cmpi sgt, %24, %c0_i32 : i32
        %26 = arith.extsi %25 : i1 to i32
        %27 = arith.cmpi ne, %26, %c0_i32 : i32
        %28 = memref.load %23[] : memref<i1>
        %29 = arith.andi %27, %28 : i1
        cf.cond_br %29, ^bb2, ^bb3
      ^bb2:  // pred: ^bb1
        %30 = memref.load %23[] : memref<i1>
        memref.store %30, %22[] : memref<i1>
        %31 = memref.load %22[] : memref<i1>
        scf.if %31 {
          scf.execute_region {
            %34 = memref.load %22[] : memref<i1>
            scf.if %34 {
              scf.execute_region {
                %35 = memref.load %22[] : memref<i1>
                scf.if %35 {
                  scf.execute_region {
                    memref.store %c0_i32, %4[%c0] : memref<?xi32>
                    scf.yield
                  }
                }
                %36 = memref.alloca() : memref<i1>
                %37 = memref.alloca() : memref<i1>
                memref.store %true, %37[] : memref<i1>
                cf.br ^bb1
              ^bb1:  // 2 preds: ^bb0, ^bb2
                %38 = memref.load %4[%c0] : memref<?xi32>
                %39 = memref.get_global @jm : memref<1xi32>
                %40 = memref.cast %39 : memref<1xi32> to memref<?xi32>
                %41 = memref.load %40[%c0] : memref<?xi32>
                %42 = arith.cmpi slt, %38, %41 : i32
                %43 = arith.extsi %42 : i1 to i32
                %44 = arith.cmpi ne, %43, %c0_i32 : i32
                %45 = memref.load %37[] : memref<i1>
                %46 = arith.andi %44, %45 : i1
                cf.cond_br %46, ^bb2, ^bb3
              ^bb2:  // pred: ^bb1
                %47 = memref.load %37[] : memref<i1>
                memref.store %47, %36[] : memref<i1>
                %48 = memref.load %36[] : memref<i1>
                scf.if %48 {
                  scf.execute_region {
                    %51 = memref.load %36[] : memref<i1>
                    scf.if %51 {
                      scf.execute_region {
                        %52 = memref.load %36[] : memref<i1>
                        scf.if %52 {
                          scf.execute_region {
                            memref.store %c0_i32, %1[%c0] : memref<?xi32>
                            scf.yield
                          }
                        }
                        %53 = memref.alloca() : memref<i1>
                        %54 = memref.alloca() : memref<i1>
                        memref.store %true, %54[] : memref<i1>
                        cf.br ^bb1
                      ^bb1:  // 2 preds: ^bb0, ^bb2
                        %55 = memref.load %1[%c0] : memref<?xi32>
                        %56 = memref.get_global @im : memref<1xi32>
                        %57 = memref.cast %56 : memref<1xi32> to memref<?xi32>
                        %58 = memref.load %57[%c0] : memref<?xi32>
                        %59 = arith.cmpi slt, %55, %58 : i32
                        %60 = arith.extsi %59 : i1 to i32
                        %61 = arith.cmpi ne, %60, %c0_i32 : i32
                        %62 = memref.load %54[] : memref<i1>
                        %63 = arith.andi %61, %62 : i1
                        cf.cond_br %63, ^bb2, ^bb3
                      ^bb2:  // pred: ^bb1
                        %64 = memref.load %54[] : memref<i1>
                        memref.store %64, %53[] : memref<i1>
                        %65 = memref.load %53[] : memref<i1>
                        scf.if %65 {
                          scf.execute_region {
                            %68 = memref.load %12[%c0] : memref<?xmemref<?xf32>>
                            %69 = memref.load %1[%c0] : memref<?xi32>
                            %70 = memref.load %4[%c0] : memref<?xi32>
                            %71 = memref.load %57[%c0] : memref<?xi32>
                            %72 = arith.muli %70, %71 : i32
                            %73 = arith.addi %69, %72 : i32
                            %74 = memref.load %6[%c0] : memref<?xi32>
                            %75 = arith.muli %74, %71 : i32
                            %76 = memref.load %40[%c0] : memref<?xi32>
                            %77 = arith.muli %75, %76 : i32
                            %78 = arith.addi %73, %77 : i32
                            %79 = arith.index_cast %78 : i32 to index
                            %80 = "polygeist.subindex"(%68, %79) : (memref<?xf32>, index) -> memref<?xf32>
                            %81 = "polygeist.subindex"(%80, %c0) : (memref<?xf32>, index) -> memref<?xf32>
                            %82 = memref.load %16[%c0] : memref<?xmemref<?xf32>>
                            %83 = arith.subi %74, %c1_i32 : i32
                            %84 = arith.muli %83, %71 : i32
                            %85 = arith.muli %84, %76 : i32
                            %86 = arith.addi %73, %85 : i32
                            %87 = arith.index_cast %86 : i32 to index
                            %88 = "polygeist.subindex"(%82, %87) : (memref<?xf32>, index) -> memref<?xf32>
                            %89 = "polygeist.subindex"(%88, %c0) : (memref<?xf32>, index) -> memref<?xf32>
                            %90 = memref.load %89[%c0] : memref<?xf32>
                            memref.store %90, %81[%c0] : memref<?xf32>
                            scf.yield
                          }
                        }
                        %66 = memref.load %54[] : memref<i1>
                        memref.store %66, %53[] : memref<i1>
                        %67 = memref.load %53[] : memref<i1>
                        scf.if %67 {
                          scf.execute_region {
                            %68 = memref.load %1[%c0] : memref<?xi32>
                            %69 = arith.addi %68, %c1_i32 : i32
                            memref.store %69, %1[%c0] : memref<?xi32>
                            scf.yield
                          }
                        }
                        cf.br ^bb1
                      ^bb3:  // pred: ^bb1
                        scf.yield
                      }
                    }
                    scf.yield
                  }
                }
                %49 = memref.load %37[] : memref<i1>
                memref.store %49, %36[] : memref<i1>
                %50 = memref.load %36[] : memref<i1>
                scf.if %50 {
                  scf.execute_region {
                    %51 = memref.load %4[%c0] : memref<?xi32>
                    %52 = arith.addi %51, %c1_i32 : i32
                    memref.store %52, %4[%c0] : memref<?xi32>
                    scf.yield
                  }
                }
                cf.br ^bb1
              ^bb3:  // pred: ^bb1
                scf.yield
              }
            }
            scf.yield
          }
        }
        %32 = memref.load %23[] : memref<i1>
        memref.store %32, %22[] : memref<i1>
        %33 = memref.load %22[] : memref<i1>
        scf.if %33 {
          scf.execute_region {
            %34 = memref.load %6[%c0] : memref<?xi32>
            %35 = arith.subi %34, %c1_i32 : i32
            memref.store %35, %6[%c0] : memref<?xi32>
            scf.yield
          }
        }
        cf.br ^bb1
      ^bb3:  // pred: ^bb1
        scf.yield
      }
    }
  }
  return
}


} -> success : pattern matched
//===-------------------------------------------===//

//===-------------------------------------------===//
Processing operation : 'scf.if'(0x7fbd98166a90) {

  * Pattern MoveIntoIfs : 'scf.if -> ()' {
Trying to match "MoveIntoIfs"
"MoveIntoIfs" result 0
  } -> failure : pattern failed to match

  * Pattern MoveOutOfIfs : 'scf.if -> ()' {
Trying to match "MoveOutOfIfs"
"MoveOutOfIfs" result 0
  } -> failure : pattern failed to match

  * Pattern IfAndLazy : 'scf.if -> ()' {
Trying to match "IfAndLazy"
"IfAndLazy" result 0
  } -> failure : pattern failed to match

  * Pattern (anonymous namespace)::CombineIfs : 'scf.if -> ()' {
Trying to match "(anonymous namespace)::CombineIfs"
"(anonymous namespace)::CombineIfs" result 0
  } -> failure : pattern failed to match

  * Pattern (anonymous namespace)::CombineNestedIfs : 'scf.if -> ()' {
Trying to match "(anonymous namespace)::CombineNestedIfs"
"(anonymous namespace)::CombineNestedIfs" result 0
  } -> failure : pattern failed to match

  * Pattern (anonymous namespace)::ConditionPropagation : 'scf.if -> ()' {
Trying to match "(anonymous namespace)::ConditionPropagation"
"(anonymous namespace)::ConditionPropagation" result 0
  } -> failure : pattern failed to match

  * Pattern (anonymous namespace)::ConvertTrivialIfToSelect : 'scf.if -> ()' {
Trying to match "(anonymous namespace)::ConvertTrivialIfToSelect"
"(anonymous namespace)::ConvertTrivialIfToSelect" result 0
  } -> failure : pattern failed to match

  * Pattern (anonymous namespace)::RemoveEmptyElseBranch : 'scf.if -> ()' {
Trying to match "(anonymous namespace)::RemoveEmptyElseBranch"
"(anonymous namespace)::RemoveEmptyElseBranch" result 0
  } -> failure : pattern failed to match

  * Pattern (anonymous namespace)::RemoveStaticCondition : 'scf.if -> ()' {
Trying to match "(anonymous namespace)::RemoveStaticCondition"
"(anonymous namespace)::RemoveStaticCondition" result 0
  } -> failure : pattern failed to match

  * Pattern (anonymous namespace)::RemoveUnusedResults : 'scf.if -> ()' {
Trying to match "(anonymous namespace)::RemoveUnusedResults"
"(anonymous namespace)::RemoveUnusedResults" result 0
  } -> failure : pattern failed to match

  * Pattern (anonymous namespace)::ReplaceIfYieldWithConditionOrValue : 'scf.if -> ()' {
Trying to match "(anonymous namespace)::ReplaceIfYieldWithConditionOrValue"
"(anonymous namespace)::ReplaceIfYieldWithConditionOrValue" result 0
  } -> failure : pattern failed to match
} -> failure : pattern failed to match
//===-------------------------------------------===//

//===-------------------------------------------===//
Processing operation : 'scf.yield'(0x7fbd98166a40) {
  "scf.yield"() : () -> ()

} -> failure : pattern failed to match
//===-------------------------------------------===//

//===-------------------------------------------===//
Processing operation : 'scf.execute_region'(0x7fbd98166b30) {

  * Pattern SingleBlockExecuteInliner : 'scf.execute_region -> ()' {
Trying to match "SingleBlockExecuteInliner"
"SingleBlockExecuteInliner" result 0
  } -> failure : pattern failed to match

  * Pattern MultiBlockExecuteInliner : 'scf.execute_region -> ()' {
Trying to match "MultiBlockExecuteInliner"
"MultiBlockExecuteInliner" result 0
  } -> failure : pattern failed to match
} -> failure : pattern failed to match
//===-------------------------------------------===//

//===-------------------------------------------===//
Processing operation : 'scf.yield'(0x7fbd9800c570) {
  "scf.yield"() : () -> ()

} -> failure : pattern failed to match
//===-------------------------------------------===//

//===-------------------------------------------===//
Processing operation : 'cf.br'(0x7fbd9800c500) {
  "cf.br"()[^bb1] : () -> ()


  * Pattern  : 'cf.br -> ()' {
Trying to match ""
"" result 0
  } -> failure : pattern failed to match
} -> failure : pattern failed to match
//===-------------------------------------------===//

//===-------------------------------------------===//
Processing operation : 'scf.if'(0x7fbd9800c080) {

  * Pattern MoveIntoIfs : 'scf.if -> ()' {
Trying to match "MoveIntoIfs"
"MoveIntoIfs" result 0
  } -> failure : pattern failed to match

  * Pattern MoveOutOfIfs : 'scf.if -> ()' {
Trying to match "MoveOutOfIfs"
"MoveOutOfIfs" result 0
  } -> failure : pattern failed to match

  * Pattern IfAndLazy : 'scf.if -> ()' {
Trying to match "IfAndLazy"
"IfAndLazy" result 0
  } -> failure : pattern failed to match

  * Pattern (anonymous namespace)::CombineIfs : 'scf.if -> ()' {
Trying to match "(anonymous namespace)::CombineIfs"
"(anonymous namespace)::CombineIfs" result 0
  } -> failure : pattern failed to match

  * Pattern (anonymous namespace)::CombineNestedIfs : 'scf.if -> ()' {
Trying to match "(anonymous namespace)::CombineNestedIfs"
"(anonymous namespace)::CombineNestedIfs" result 0
  } -> failure : pattern failed to match

  * Pattern (anonymous namespace)::ConditionPropagation : 'scf.if -> ()' {
Trying to match "(anonymous namespace)::ConditionPropagation"
"(anonymous namespace)::ConditionPropagation" result 0
  } -> failure : pattern failed to match

  * Pattern (anonymous namespace)::ConvertTrivialIfToSelect : 'scf.if -> ()' {
Trying to match "(anonymous namespace)::ConvertTrivialIfToSelect"
"(anonymous namespace)::ConvertTrivialIfToSelect" result 0
  } -> failure : pattern failed to match

  * Pattern (anonymous namespace)::RemoveEmptyElseBranch : 'scf.if -> ()' {
Trying to match "(anonymous namespace)::RemoveEmptyElseBranch"
"(anonymous namespace)::RemoveEmptyElseBranch" result 0
  } -> failure : pattern failed to match

  * Pattern (anonymous namespace)::RemoveStaticCondition : 'scf.if -> ()' {
Trying to match "(anonymous namespace)::RemoveStaticCondition"
"(anonymous namespace)::RemoveStaticCondition" result 0
  } -> failure : pattern failed to match

  * Pattern (anonymous namespace)::RemoveUnusedResults : 'scf.if -> ()' {
Trying to match "(anonymous namespace)::RemoveUnusedResults"
"(anonymous namespace)::RemoveUnusedResults" result 0
  } -> failure : pattern failed to match

  * Pattern (anonymous namespace)::ReplaceIfYieldWithConditionOrValue : 'scf.if -> ()' {
Trying to match "(anonymous namespace)::ReplaceIfYieldWithConditionOrValue"
"(anonymous namespace)::ReplaceIfYieldWithConditionOrValue" result 0
  } -> failure : pattern failed to match
} -> failure : pattern failed to match
//===-------------------------------------------===//

//===-------------------------------------------===//
Processing operation : 'scf.yield'(0x7fbd9800c010) {
  "scf.yield"() : () -> ()

} -> failure : pattern failed to match
//===-------------------------------------------===//

//===-------------------------------------------===//
Processing operation : 'scf.execute_region'(0x7fbd9800c120) {

  * Pattern SingleBlockExecuteInliner : 'scf.execute_region -> ()' {
Trying to match "SingleBlockExecuteInliner"
    ** Replace : 'scf.execute_region'(0x7fbd9800c120)
    ** Erase   : 'scf.yield'(0x7fbd9800c4b0)
"SingleBlockExecuteInliner" result 1
  } -> success : pattern applied successfully
// *** IR Dump After Pattern Application ***
mlir-asm-printer: Verifying operation: func.func
func.func @example(%arg0: memref<?xf32>, %arg1: memref<?xf32>, %arg2: memref<?xf32>, %arg3: memref<?xf32>, %arg4: i32) attributes {llvm.linkage = #llvm.linkage<external>} {
  %c1_i32 = arith.constant 1 : i32
  %c0_i32 = arith.constant 0 : i32
  %true = arith.constant true
  %c0 = arith.constant 0 : index
  %0 = memref.alloca() : memref<1xi32>
  %1 = memref.cast %0 : memref<1xi32> to memref<?xi32>
  %2 = llvm.mlir.undef : i32
  memref.store %2, %1[%c0] : memref<?xi32>
  %3 = memref.alloca() : memref<1xi32>
  %4 = memref.cast %3 : memref<1xi32> to memref<?xi32>
  memref.store %2, %4[%c0] : memref<?xi32>
  %5 = memref.alloca() : memref<1xi32>
  %6 = memref.cast %5 : memref<1xi32> to memref<?xi32>
  memref.store %2, %6[%c0] : memref<?xi32>
  %7 = memref.alloca() : memref<1xi32>
  %8 = memref.cast %7 : memref<1xi32> to memref<?xi32>
  memref.store %2, %8[%c0] : memref<?xi32>
  %9 = memref.alloca() : memref<1xmemref<?xf32>>
  %10 = memref.cast %9 : memref<1xmemref<?xf32>> to memref<?xmemref<?xf32>>
  %11 = memref.alloca() : memref<1xmemref<?xf32>>
  %12 = memref.cast %11 : memref<1xmemref<?xf32>> to memref<?xmemref<?xf32>>
  %13 = memref.alloca() : memref<1xmemref<?xf32>>
  %14 = memref.cast %13 : memref<1xmemref<?xf32>> to memref<?xmemref<?xf32>>
  %15 = memref.alloca() : memref<1xmemref<?xf32>>
  %16 = memref.cast %15 : memref<1xmemref<?xf32>> to memref<?xmemref<?xf32>>
  memref.store %arg0, %16[%c0] : memref<?xmemref<?xf32>>
  memref.store %arg1, %14[%c0] : memref<?xmemref<?xf32>>
  memref.store %arg2, %12[%c0] : memref<?xmemref<?xf32>>
  memref.store %arg3, %10[%c0] : memref<?xmemref<?xf32>>
  memref.store %arg4, %8[%c0] : memref<?xi32>
  %17 = memref.alloca() : memref<i1>
  %18 = memref.alloca() : memref<i1>
  memref.store %true, %18[] : memref<i1>
  memref.store %true, %17[] : memref<i1>
  %19 = memref.load %17[] : memref<i1>
  scf.if %19 {
    %20 = memref.load %17[] : memref<i1>
    scf.if %20 {
      scf.execute_region {
        %21 = memref.load %17[] : memref<i1>
        scf.if %21 {
          scf.execute_region {
            %34 = memref.get_global @kbm3 : memref<1xi32>
            %35 = memref.cast %34 : memref<1xi32> to memref<?xi32>
            %36 = memref.load %35[%c0] : memref<?xi32>
            memref.store %36, %6[%c0] : memref<?xi32>
            scf.yield
          }
        }
        %22 = memref.alloca() : memref<i1>
        %23 = memref.alloca() : memref<i1>
        memref.store %true, %23[] : memref<i1>
        cf.br ^bb1
      ^bb1:  // 2 preds: ^bb0, ^bb2
        %24 = memref.load %6[%c0] : memref<?xi32>
        %25 = arith.cmpi sgt, %24, %c0_i32 : i32
        %26 = arith.extsi %25 : i1 to i32
        %27 = arith.cmpi ne, %26, %c0_i32 : i32
        %28 = memref.load %23[] : memref<i1>
        %29 = arith.andi %27, %28 : i1
        cf.cond_br %29, ^bb2, ^bb3
      ^bb2:  // pred: ^bb1
        %30 = memref.load %23[] : memref<i1>
        memref.store %30, %22[] : memref<i1>
        %31 = memref.load %22[] : memref<i1>
        scf.if %31 {
          scf.execute_region {
            %34 = memref.load %22[] : memref<i1>
            scf.if %34 {
              scf.execute_region {
                %35 = memref.load %22[] : memref<i1>
                scf.if %35 {
                  scf.execute_region {
                    memref.store %c0_i32, %4[%c0] : memref<?xi32>
                    scf.yield
                  }
                }
                %36 = memref.alloca() : memref<i1>
                %37 = memref.alloca() : memref<i1>
                memref.store %true, %37[] : memref<i1>
                cf.br ^bb1
              ^bb1:  // 2 preds: ^bb0, ^bb2
                %38 = memref.load %4[%c0] : memref<?xi32>
                %39 = memref.get_global @jm : memref<1xi32>
                %40 = memref.cast %39 : memref<1xi32> to memref<?xi32>
                %41 = memref.load %40[%c0] : memref<?xi32>
                %42 = arith.cmpi slt, %38, %41 : i32
                %43 = arith.extsi %42 : i1 to i32
                %44 = arith.cmpi ne, %43, %c0_i32 : i32
                %45 = memref.load %37[] : memref<i1>
                %46 = arith.andi %44, %45 : i1
                cf.cond_br %46, ^bb2, ^bb3
              ^bb2:  // pred: ^bb1
                %47 = memref.load %37[] : memref<i1>
                memref.store %47, %36[] : memref<i1>
                %48 = memref.load %36[] : memref<i1>
                scf.if %48 {
                  scf.execute_region {
                    %51 = memref.load %36[] : memref<i1>
                    scf.if %51 {
                      scf.execute_region {
                        %52 = memref.load %36[] : memref<i1>
                        scf.if %52 {
                          scf.execute_region {
                            memref.store %c0_i32, %1[%c0] : memref<?xi32>
                            scf.yield
                          }
                        }
                        %53 = memref.alloca() : memref<i1>
                        %54 = memref.alloca() : memref<i1>
                        memref.store %true, %54[] : memref<i1>
                        cf.br ^bb1
                      ^bb1:  // 2 preds: ^bb0, ^bb2
                        %55 = memref.load %1[%c0] : memref<?xi32>
                        %56 = memref.get_global @im : memref<1xi32>
                        %57 = memref.cast %56 : memref<1xi32> to memref<?xi32>
                        %58 = memref.load %57[%c0] : memref<?xi32>
                        %59 = arith.cmpi slt, %55, %58 : i32
                        %60 = arith.extsi %59 : i1 to i32
                        %61 = arith.cmpi ne, %60, %c0_i32 : i32
                        %62 = memref.load %54[] : memref<i1>
                        %63 = arith.andi %61, %62 : i1
                        cf.cond_br %63, ^bb2, ^bb3
                      ^bb2:  // pred: ^bb1
                        %64 = memref.load %54[] : memref<i1>
                        memref.store %64, %53[] : memref<i1>
                        %65 = memref.load %53[] : memref<i1>
                        scf.if %65 {
                          scf.execute_region {
                            %68 = memref.load %12[%c0] : memref<?xmemref<?xf32>>
                            %69 = memref.load %1[%c0] : memref<?xi32>
                            %70 = memref.load %4[%c0] : memref<?xi32>
                            %71 = memref.load %57[%c0] : memref<?xi32>
                            %72 = arith.muli %70, %71 : i32
                            %73 = arith.addi %69, %72 : i32
                            %74 = memref.load %6[%c0] : memref<?xi32>
                            %75 = arith.muli %74, %71 : i32
                            %76 = memref.load %40[%c0] : memref<?xi32>
                            %77 = arith.muli %75, %76 : i32
                            %78 = arith.addi %73, %77 : i32
                            %79 = arith.index_cast %78 : i32 to index
                            %80 = "polygeist.subindex"(%68, %79) : (memref<?xf32>, index) -> memref<?xf32>
                            %81 = "polygeist.subindex"(%80, %c0) : (memref<?xf32>, index) -> memref<?xf32>
                            %82 = memref.load %16[%c0] : memref<?xmemref<?xf32>>
                            %83 = arith.subi %74, %c1_i32 : i32
                            %84 = arith.muli %83, %71 : i32
                            %85 = arith.muli %84, %76 : i32
                            %86 = arith.addi %73, %85 : i32
                            %87 = arith.index_cast %86 : i32 to index
                            %88 = "polygeist.subindex"(%82, %87) : (memref<?xf32>, index) -> memref<?xf32>
                            %89 = "polygeist.subindex"(%88, %c0) : (memref<?xf32>, index) -> memref<?xf32>
                            %90 = memref.load %89[%c0] : memref<?xf32>
                            memref.store %90, %81[%c0] : memref<?xf32>
                            scf.yield
                          }
                        }
                        %66 = memref.load %54[] : memref<i1>
                        memref.store %66, %53[] : memref<i1>
                        %67 = memref.load %53[] : memref<i1>
                        scf.if %67 {
                          scf.execute_region {
                            %68 = memref.load %1[%c0] : memref<?xi32>
                            %69 = arith.addi %68, %c1_i32 : i32
                            memref.store %69, %1[%c0] : memref<?xi32>
                            scf.yield
                          }
                        }
                        cf.br ^bb1
                      ^bb3:  // pred: ^bb1
                        scf.yield
                      }
                    }
                    scf.yield
                  }
                }
                %49 = memref.load %37[] : memref<i1>
                memref.store %49, %36[] : memref<i1>
                %50 = memref.load %36[] : memref<i1>
                scf.if %50 {
                  scf.execute_region {
                    %51 = memref.load %4[%c0] : memref<?xi32>
                    %52 = arith.addi %51, %c1_i32 : i32
                    memref.store %52, %4[%c0] : memref<?xi32>
                    scf.yield
                  }
                }
                cf.br ^bb1
              ^bb3:  // pred: ^bb1
                scf.yield
              }
            }
            scf.yield
          }
        }
        %32 = memref.load %23[] : memref<i1>
        memref.store %32, %22[] : memref<i1>
        %33 = memref.load %22[] : memref<i1>
        scf.if %33 {
          %34 = memref.load %6[%c0] : memref<?xi32>
          %35 = arith.subi %34, %c1_i32 : i32
          memref.store %35, %6[%c0] : memref<?xi32>
        }
        cf.br ^bb1
      ^bb3:  // pred: ^bb1
        scf.yield
      }
    }
  }
  return
}


} -> success : pattern matched
//===-------------------------------------------===//

//===-------------------------------------------===//
Processing operation : 'memref.store'(0x7fbd9800c400) {
  "memref.store"(%39, %10, %3) : (i32, memref<?xi32>, index) -> ()

} -> success : operation was folded
//===-------------------------------------------===//

* Pattern MetaPointer2Memref<mlir::memref::StoreOp> : 'memref.store -> ()' {
Trying to match "MetaPointer2Memref<mlir::memref::StoreOp>"
"MetaPointer2Memref<mlir::memref::StoreOp>" result 0
} -> failure : pattern failed to match
} -> failure : pattern failed to match
//===-------------------------------------------===//

//===-------------------------------------------===//
Processing operation : 'arith.subi'(0x7fbd9800c320) {
  %39 = "arith.subi"(%38, %0) : (i32, i32) -> i32


  * Pattern (anonymous namespace)::SubIRHSAddConstant : 'arith.subi -> (arith.addi, arith.constant)' {
Trying to match "(anonymous namespace)::SubIRHSAddConstant"
    ** Failure : castedOp1 is not ::mlir::arith::AddIOp type
"(anonymous namespace)::SubIRHSAddConstant" result 0
  } -> failure : pattern failed to match

  * Pattern (anonymous namespace)::SubILHSAddConstant : 'arith.subi -> (arith.constant, arith.subi)' {
Trying to match "(anonymous namespace)::SubILHSAddConstant"
    ** Failure : castedOp1 is not ::mlir::arith::ConstantOp type
"(anonymous namespace)::SubILHSAddConstant" result 0
  } -> failure : pattern failed to match

  * Pattern (anonymous namespace)::SubIRHSSubConstantRHS : 'arith.subi -> (arith.constant, arith.subi)' {
Trying to match "(anonymous namespace)::SubIRHSSubConstantRHS"
    ** Failure : castedOp1 is not ::mlir::arith::SubIOp type
"(anonymous namespace)::SubIRHSSubConstantRHS" result 0
  } -> failure : pattern failed to match

  * Pattern (anonymous namespace)::SubIRHSSubConstantLHS : 'arith.subi -> (arith.constant, arith.subi)' {
Trying to match "(anonymous namespace)::SubIRHSSubConstantLHS"
    ** Failure : castedOp1 is not ::mlir::arith::SubIOp type
"(anonymous namespace)::SubIRHSSubConstantLHS" result 0
  } -> failure : pattern failed to match

  * Pattern (anonymous namespace)::SubILHSSubConstantRHS : 'arith.subi -> (arith.constant, arith.subi)' {
Trying to match "(anonymous namespace)::SubILHSSubConstantRHS"
    ** Failure : castedOp1 is not ::mlir::arith::ConstantOp type
"(anonymous namespace)::SubILHSSubConstantRHS" result 0
  } -> failure : pattern failed to match

  * Pattern (anonymous namespace)::SubILHSSubConstantLHS : 'arith.subi -> (arith.addi, arith.constant)' {
Trying to match "(anonymous namespace)::SubILHSSubConstantLHS"
    ** Failure : castedOp1 is not ::mlir::arith::ConstantOp type
"(anonymous namespace)::SubILHSSubConstantLHS" result 0
  } -> failure : pattern failed to match

  * Pattern (anonymous namespace)::SubISubILHSRHSLHS : 'arith.subi -> (arith.constant, arith.subi)' {
Trying to match "(anonymous namespace)::SubISubILHSRHSLHS"
    ** Failure : castedOp1 is not ::mlir::arith::SubIOp type
"(anonymous namespace)::SubISubILHSRHSLHS" result 0
  } -> failure : pattern failed to match
} -> failure : pattern failed to match
//===-------------------------------------------===//

//===-------------------------------------------===//
Processing operation : 'memref.load'(0x7fbd9800c230) {
  %38 = "memref.load"(%10, %3) : (memref<?xi32>, index) -> i32

} -> success : operation was folded
//===-------------------------------------------===//

* Pattern LoadSelect<mlir::memref::LoadOp> : 'memref.load -> ()' {
Trying to match "LoadSelect<mlir::memref::LoadOp>"
"LoadSelect<mlir::memref::LoadOp>" result 0
} -> failure : pattern failed to match

* Pattern MetaPointer2Memref<mlir::memref::LoadOp> : 'memref.load -> ()' {
Trying to match "MetaPointer2Memref<mlir::memref::LoadOp>"
"MetaPointer2Memref<mlir::memref::LoadOp>" result 0
} -> failure : pattern failed to match
} -> failure : pattern failed to match
//===-------------------------------------------===//

//===-------------------------------------------===//
Processing operation : 'memref.load'(0x7fbd9800bf50) {
  %37 = "memref.load"(%26) : (memref<i1>) -> i1


  * Pattern LoadSelect<mlir::memref::LoadOp> : 'memref.load -> ()' {
Trying to match "LoadSelect<mlir::memref::LoadOp>"
"LoadSelect<mlir::memref::LoadOp>" result 0
  } -> failure : pattern failed to match

  * Pattern MetaPointer2Memref<mlir::memref::LoadOp> : 'memref.load -> ()' {
Trying to match "MetaPointer2Memref<mlir::memref::LoadOp>"
"MetaPointer2Memref<mlir::memref::LoadOp>" result 0
  } -> failure : pattern failed to match
} -> failure : pattern failed to match
//===-------------------------------------------===//

//===-------------------------------------------===//
Processing operation : 'memref.store'(0x7fbd9800beb0) {
  "memref.store"(%36, %26) : (i1, memref<i1>) -> ()


  * Pattern MetaPointer2Memref<mlir::memref::StoreOp> : 'memref.store -> ()' {
Trying to match "MetaPointer2Memref<mlir::memref::StoreOp>"
"MetaPointer2Memref<mlir::memref::StoreOp>" result 0
  } -> failure : pattern failed to match
} -> failure : pattern failed to match
//===-------------------------------------------===//

//===-------------------------------------------===//
Processing operation : 'memref.load'(0x7fbd9800be40) {
  %36 = "memref.load"(%27) : (memref<i1>) -> i1


  * Pattern LoadSelect<mlir::memref::LoadOp> : 'memref.load -> ()' {
Trying to match "LoadSelect<mlir::memref::LoadOp>"
"LoadSelect<mlir::memref::LoadOp>" result 0
  } -> failure : pattern failed to match

  * Pattern MetaPointer2Memref<mlir::memref::LoadOp> : 'memref.load -> ()' {
Trying to match "MetaPointer2Memref<mlir::memref::LoadOp>"
"MetaPointer2Memref<mlir::memref::LoadOp>" result 0
  } -> failure : pattern failed to match
} -> failure : pattern failed to match
//===-------------------------------------------===//

//===-------------------------------------------===//
Processing operation : 'scf.if'(0x7fbd981688b0) {

  * Pattern MoveIntoIfs : 'scf.if -> ()' {
Trying to match "MoveIntoIfs"
"MoveIntoIfs" result 0
  } -> failure : pattern failed to match

  * Pattern MoveOutOfIfs : 'scf.if -> ()' {
Trying to match "MoveOutOfIfs"
"MoveOutOfIfs" result 0
  } -> failure : pattern failed to match

  * Pattern IfAndLazy : 'scf.if -> ()' {
Trying to match "IfAndLazy"
"IfAndLazy" result 0
  } -> failure : pattern failed to match

  * Pattern (anonymous namespace)::CombineIfs : 'scf.if -> ()' {
Trying to match "(anonymous namespace)::CombineIfs"
"(anonymous namespace)::CombineIfs" result 0
  } -> failure : pattern failed to match

  * Pattern (anonymous namespace)::CombineNestedIfs : 'scf.if -> ()' {
Trying to match "(anonymous namespace)::CombineNestedIfs"
"(anonymous namespace)::CombineNestedIfs" result 0
  } -> failure : pattern failed to match

  * Pattern (anonymous namespace)::ConditionPropagation : 'scf.if -> ()' {
Trying to match "(anonymous namespace)::ConditionPropagation"
"(anonymous namespace)::ConditionPropagation" result 0
  } -> failure : pattern failed to match

  * Pattern (anonymous namespace)::ConvertTrivialIfToSelect : 'scf.if -> ()' {
Trying to match "(anonymous namespace)::ConvertTrivialIfToSelect"
"(anonymous namespace)::ConvertTrivialIfToSelect" result 0
  } -> failure : pattern failed to match

  * Pattern (anonymous namespace)::RemoveEmptyElseBranch : 'scf.if -> ()' {
Trying to match "(anonymous namespace)::RemoveEmptyElseBranch"
"(anonymous namespace)::RemoveEmptyElseBranch" result 0
  } -> failure : pattern failed to match

  * Pattern (anonymous namespace)::RemoveStaticCondition : 'scf.if -> ()' {
Trying to match "(anonymous namespace)::RemoveStaticCondition"
"(anonymous namespace)::RemoveStaticCondition" result 0
  } -> failure : pattern failed to match

  * Pattern (anonymous namespace)::RemoveUnusedResults : 'scf.if -> ()' {
Trying to match "(anonymous namespace)::RemoveUnusedResults"
"(anonymous namespace)::RemoveUnusedResults" result 0
  } -> failure : pattern failed to match

  * Pattern (anonymous namespace)::ReplaceIfYieldWithConditionOrValue : 'scf.if -> ()' {
Trying to match "(anonymous namespace)::ReplaceIfYieldWithConditionOrValue"
"(anonymous namespace)::ReplaceIfYieldWithConditionOrValue" result 0
  } -> failure : pattern failed to match
} -> failure : pattern failed to match
//===-------------------------------------------===//

//===-------------------------------------------===//
Processing operation : 'scf.yield'(0x7fbd98168820) {
  "scf.yield"() : () -> ()

} -> failure : pattern failed to match
//===-------------------------------------------===//

//===-------------------------------------------===//
Processing operation : 'scf.execute_region'(0x7fbd98168950) {

  * Pattern SingleBlockExecuteInliner : 'scf.execute_region -> ()' {
Trying to match "SingleBlockExecuteInliner"
    ** Replace : 'scf.execute_region'(0x7fbd98168950)
    ** Erase   : 'scf.yield'(0x7fbd9800bde0)
"SingleBlockExecuteInliner" result 1
  } -> success : pattern applied successfully
// *** IR Dump After Pattern Application ***
mlir-asm-printer: Verifying operation: func.func
func.func @example(%arg0: memref<?xf32>, %arg1: memref<?xf32>, %arg2: memref<?xf32>, %arg3: memref<?xf32>, %arg4: i32) attributes {llvm.linkage = #llvm.linkage<external>} {
  %c1_i32 = arith.constant 1 : i32
  %c0_i32 = arith.constant 0 : i32
  %true = arith.constant true
  %c0 = arith.constant 0 : index
  %0 = memref.alloca() : memref<1xi32>
  %1 = memref.cast %0 : memref<1xi32> to memref<?xi32>
  %2 = llvm.mlir.undef : i32
  memref.store %2, %1[%c0] : memref<?xi32>
  %3 = memref.alloca() : memref<1xi32>
  %4 = memref.cast %3 : memref<1xi32> to memref<?xi32>
  memref.store %2, %4[%c0] : memref<?xi32>
  %5 = memref.alloca() : memref<1xi32>
  %6 = memref.cast %5 : memref<1xi32> to memref<?xi32>
  memref.store %2, %6[%c0] : memref<?xi32>
  %7 = memref.alloca() : memref<1xi32>
  %8 = memref.cast %7 : memref<1xi32> to memref<?xi32>
  memref.store %2, %8[%c0] : memref<?xi32>
  %9 = memref.alloca() : memref<1xmemref<?xf32>>
  %10 = memref.cast %9 : memref<1xmemref<?xf32>> to memref<?xmemref<?xf32>>
  %11 = memref.alloca() : memref<1xmemref<?xf32>>
  %12 = memref.cast %11 : memref<1xmemref<?xf32>> to memref<?xmemref<?xf32>>
  %13 = memref.alloca() : memref<1xmemref<?xf32>>
  %14 = memref.cast %13 : memref<1xmemref<?xf32>> to memref<?xmemref<?xf32>>
  %15 = memref.alloca() : memref<1xmemref<?xf32>>
  %16 = memref.cast %15 : memref<1xmemref<?xf32>> to memref<?xmemref<?xf32>>
  memref.store %arg0, %16[%c0] : memref<?xmemref<?xf32>>
  memref.store %arg1, %14[%c0] : memref<?xmemref<?xf32>>
  memref.store %arg2, %12[%c0] : memref<?xmemref<?xf32>>
  memref.store %arg3, %10[%c0] : memref<?xmemref<?xf32>>
  memref.store %arg4, %8[%c0] : memref<?xi32>
  %17 = memref.alloca() : memref<i1>
  %18 = memref.alloca() : memref<i1>
  memref.store %true, %18[] : memref<i1>
  memref.store %true, %17[] : memref<i1>
  %19 = memref.load %17[] : memref<i1>
  scf.if %19 {
    %20 = memref.load %17[] : memref<i1>
    scf.if %20 {
      scf.execute_region {
        %21 = memref.load %17[] : memref<i1>
        scf.if %21 {
          scf.execute_region {
            %34 = memref.get_global @kbm3 : memref<1xi32>
            %35 = memref.cast %34 : memref<1xi32> to memref<?xi32>
            %36 = memref.load %35[%c0] : memref<?xi32>
            memref.store %36, %6[%c0] : memref<?xi32>
            scf.yield
          }
        }
        %22 = memref.alloca() : memref<i1>
        %23 = memref.alloca() : memref<i1>
        memref.store %true, %23[] : memref<i1>
        cf.br ^bb1
      ^bb1:  // 2 preds: ^bb0, ^bb2
        %24 = memref.load %6[%c0] : memref<?xi32>
        %25 = arith.cmpi sgt, %24, %c0_i32 : i32
        %26 = arith.extsi %25 : i1 to i32
        %27 = arith.cmpi ne, %26, %c0_i32 : i32
        %28 = memref.load %23[] : memref<i1>
        %29 = arith.andi %27, %28 : i1
        cf.cond_br %29, ^bb2, ^bb3
      ^bb2:  // pred: ^bb1
        %30 = memref.load %23[] : memref<i1>
        memref.store %30, %22[] : memref<i1>
        %31 = memref.load %22[] : memref<i1>
        scf.if %31 {
          %34 = memref.load %22[] : memref<i1>
          scf.if %34 {
            scf.execute_region {
              %35 = memref.load %22[] : memref<i1>
              scf.if %35 {
                scf.execute_region {
                  memref.store %c0_i32, %4[%c0] : memref<?xi32>
                  scf.yield
                }
              }
              %36 = memref.alloca() : memref<i1>
              %37 = memref.alloca() : memref<i1>
              memref.store %true, %37[] : memref<i1>
              cf.br ^bb1
            ^bb1:  // 2 preds: ^bb0, ^bb2
              %38 = memref.load %4[%c0] : memref<?xi32>
              %39 = memref.get_global @jm : memref<1xi32>
              %40 = memref.cast %39 : memref<1xi32> to memref<?xi32>
              %41 = memref.load %40[%c0] : memref<?xi32>
              %42 = arith.cmpi slt, %38, %41 : i32
              %43 = arith.extsi %42 : i1 to i32
              %44 = arith.cmpi ne, %43, %c0_i32 : i32
              %45 = memref.load %37[] : memref<i1>
              %46 = arith.andi %44, %45 : i1
              cf.cond_br %46, ^bb2, ^bb3
            ^bb2:  // pred: ^bb1
              %47 = memref.load %37[] : memref<i1>
              memref.store %47, %36[] : memref<i1>
              %48 = memref.load %36[] : memref<i1>
              scf.if %48 {
                scf.execute_region {
                  %51 = memref.load %36[] : memref<i1>
                  scf.if %51 {
                    scf.execute_region {
                      %52 = memref.load %36[] : memref<i1>
                      scf.if %52 {
                        scf.execute_region {
                          memref.store %c0_i32, %1[%c0] : memref<?xi32>
                          scf.yield
                        }
                      }
                      %53 = memref.alloca() : memref<i1>
                      %54 = memref.alloca() : memref<i1>
                      memref.store %true, %54[] : memref<i1>
                      cf.br ^bb1
                    ^bb1:  // 2 preds: ^bb0, ^bb2
                      %55 = memref.load %1[%c0] : memref<?xi32>
                      %56 = memref.get_global @im : memref<1xi32>
                      %57 = memref.cast %56 : memref<1xi32> to memref<?xi32>
                      %58 = memref.load %57[%c0] : memref<?xi32>
                      %59 = arith.cmpi slt, %55, %58 : i32
                      %60 = arith.extsi %59 : i1 to i32
                      %61 = arith.cmpi ne, %60, %c0_i32 : i32
                      %62 = memref.load %54[] : memref<i1>
                      %63 = arith.andi %61, %62 : i1
                      cf.cond_br %63, ^bb2, ^bb3
                    ^bb2:  // pred: ^bb1
                      %64 = memref.load %54[] : memref<i1>
                      memref.store %64, %53[] : memref<i1>
                      %65 = memref.load %53[] : memref<i1>
                      scf.if %65 {
                        scf.execute_region {
                          %68 = memref.load %12[%c0] : memref<?xmemref<?xf32>>
                          %69 = memref.load %1[%c0] : memref<?xi32>
                          %70 = memref.load %4[%c0] : memref<?xi32>
                          %71 = memref.load %57[%c0] : memref<?xi32>
                          %72 = arith.muli %70, %71 : i32
                          %73 = arith.addi %69, %72 : i32
                          %74 = memref.load %6[%c0] : memref<?xi32>
                          %75 = arith.muli %74, %71 : i32
                          %76 = memref.load %40[%c0] : memref<?xi32>
                          %77 = arith.muli %75, %76 : i32
                          %78 = arith.addi %73, %77 : i32
                          %79 = arith.index_cast %78 : i32 to index
                          %80 = "polygeist.subindex"(%68, %79) : (memref<?xf32>, index) -> memref<?xf32>
                          %81 = "polygeist.subindex"(%80, %c0) : (memref<?xf32>, index) -> memref<?xf32>
                          %82 = memref.load %16[%c0] : memref<?xmemref<?xf32>>
                          %83 = arith.subi %74, %c1_i32 : i32
                          %84 = arith.muli %83, %71 : i32
                          %85 = arith.muli %84, %76 : i32
                          %86 = arith.addi %73, %85 : i32
                          %87 = arith.index_cast %86 : i32 to index
                          %88 = "polygeist.subindex"(%82, %87) : (memref<?xf32>, index) -> memref<?xf32>
                          %89 = "polygeist.subindex"(%88, %c0) : (memref<?xf32>, index) -> memref<?xf32>
                          %90 = memref.load %89[%c0] : memref<?xf32>
                          memref.store %90, %81[%c0] : memref<?xf32>
                          scf.yield
                        }
                      }
                      %66 = memref.load %54[] : memref<i1>
                      memref.store %66, %53[] : memref<i1>
                      %67 = memref.load %53[] : memref<i1>
                      scf.if %67 {
                        scf.execute_region {
                          %68 = memref.load %1[%c0] : memref<?xi32>
                          %69 = arith.addi %68, %c1_i32 : i32
                          memref.store %69, %1[%c0] : memref<?xi32>
                          scf.yield
                        }
                      }
                      cf.br ^bb1
                    ^bb3:  // pred: ^bb1
                      scf.yield
                    }
                  }
                  scf.yield
                }
              }
              %49 = memref.load %37[] : memref<i1>
              memref.store %49, %36[] : memref<i1>
              %50 = memref.load %36[] : memref<i1>
              scf.if %50 {
                scf.execute_region {
                  %51 = memref.load %4[%c0] : memref<?xi32>
                  %52 = arith.addi %51, %c1_i32 : i32
                  memref.store %52, %4[%c0] : memref<?xi32>
                  scf.yield
                }
              }
              cf.br ^bb1
            ^bb3:  // pred: ^bb1
              scf.yield
            }
          }
        }
        %32 = memref.load %23[] : memref<i1>
        memref.store %32, %22[] : memref<i1>
        %33 = memref.load %22[] : memref<i1>
        scf.if %33 {
          %34 = memref.load %5[%c0] : memref<1xi32>
          %35 = arith.subi %34, %c1_i32 : i32
          memref.store %35, %5[%c0] : memref<1xi32>
        }
        cf.br ^bb1
      ^bb3:  // pred: ^bb1
        scf.yield
      }
    }
  }
  return
}


} -> success : pattern matched
//===-------------------------------------------===//

//===-------------------------------------------===//
Processing operation : 'scf.if'(0x7fbd98168b20) {

  * Pattern MoveIntoIfs : 'scf.if -> ()' {
Trying to match "MoveIntoIfs"
"MoveIntoIfs" result 0
  } -> failure : pattern failed to match

  * Pattern MoveOutOfIfs : 'scf.if -> ()' {
Trying to match "MoveOutOfIfs"
"MoveOutOfIfs" result 0
  } -> failure : pattern failed to match

  * Pattern IfAndLazy : 'scf.if -> ()' {
Trying to match "IfAndLazy"
"IfAndLazy" result 0
  } -> failure : pattern failed to match

  * Pattern (anonymous namespace)::CombineIfs : 'scf.if -> ()' {
Trying to match "(anonymous namespace)::CombineIfs"
"(anonymous namespace)::CombineIfs" result 0
  } -> failure : pattern failed to match

  * Pattern (anonymous namespace)::CombineNestedIfs : 'scf.if -> ()' {
Trying to match "(anonymous namespace)::CombineNestedIfs"
"(anonymous namespace)::CombineNestedIfs" result 0
  } -> failure : pattern failed to match

  * Pattern (anonymous namespace)::ConditionPropagation : 'scf.if -> ()' {
Trying to match "(anonymous namespace)::ConditionPropagation"
"(anonymous namespace)::ConditionPropagation" result 0
  } -> failure : pattern failed to match

  * Pattern (anonymous namespace)::ConvertTrivialIfToSelect : 'scf.if -> ()' {
Trying to match "(anonymous namespace)::ConvertTrivialIfToSelect"
"(anonymous namespace)::ConvertTrivialIfToSelect" result 0
  } -> failure : pattern failed to match

  * Pattern (anonymous namespace)::RemoveEmptyElseBranch : 'scf.if -> ()' {
Trying to match "(anonymous namespace)::RemoveEmptyElseBranch"
"(anonymous namespace)::RemoveEmptyElseBranch" result 0
  } -> failure : pattern failed to match

  * Pattern (anonymous namespace)::RemoveStaticCondition : 'scf.if -> ()' {
Trying to match "(anonymous namespace)::RemoveStaticCondition"
"(anonymous namespace)::RemoveStaticCondition" result 0
  } -> failure : pattern failed to match

  * Pattern (anonymous namespace)::RemoveUnusedResults : 'scf.if -> ()' {
Trying to match "(anonymous namespace)::RemoveUnusedResults"
"(anonymous namespace)::RemoveUnusedResults" result 0
  } -> failure : pattern failed to match

  * Pattern (anonymous namespace)::ReplaceIfYieldWithConditionOrValue : 'scf.if -> ()' {
Trying to match "(anonymous namespace)::ReplaceIfYieldWithConditionOrValue"
"(anonymous namespace)::ReplaceIfYieldWithConditionOrValue" result 0
  } -> failure : pattern failed to match
} -> failure : pattern failed to match
//===-------------------------------------------===//

//===-------------------------------------------===//
Processing operation : 'scf.yield'(0x7fbd98168ad0) {
  "scf.yield"() : () -> ()

} -> failure : pattern failed to match
//===-------------------------------------------===//

//===-------------------------------------------===//
Processing operation : 'scf.execute_region'(0x7fbd98168bc0) {

  * Pattern SingleBlockExecuteInliner : 'scf.execute_region -> ()' {
Trying to match "SingleBlockExecuteInliner"
"SingleBlockExecuteInliner" result 0
  } -> failure : pattern failed to match

  * Pattern MultiBlockExecuteInliner : 'scf.execute_region -> ()' {
Trying to match "MultiBlockExecuteInliner"
"MultiBlockExecuteInliner" result 0
  } -> failure : pattern failed to match
} -> failure : pattern failed to match
//===-------------------------------------------===//

//===-------------------------------------------===//
Processing operation : 'scf.yield'(0x7fbd9800bd90) {
  "scf.yield"() : () -> ()

} -> failure : pattern failed to match
//===-------------------------------------------===//

//===-------------------------------------------===//
Processing operation : 'cf.br'(0x7fbd9800bd20) {
  "cf.br"()[^bb1] : () -> ()


  * Pattern  : 'cf.br -> ()' {
Trying to match ""
"" result 0
  } -> failure : pattern failed to match
} -> failure : pattern failed to match
//===-------------------------------------------===//

//===-------------------------------------------===//
Processing operation : 'scf.if'(0x7fbd9800a0e0) {

  * Pattern MoveIntoIfs : 'scf.if -> ()' {
Trying to match "MoveIntoIfs"
"MoveIntoIfs" result 0
  } -> failure : pattern failed to match

  * Pattern MoveOutOfIfs : 'scf.if -> ()' {
Trying to match "MoveOutOfIfs"
"MoveOutOfIfs" result 0
  } -> failure : pattern failed to match

  * Pattern IfAndLazy : 'scf.if -> ()' {
Trying to match "IfAndLazy"
"IfAndLazy" result 0
  } -> failure : pattern failed to match

  * Pattern (anonymous namespace)::CombineIfs : 'scf.if -> ()' {
Trying to match "(anonymous namespace)::CombineIfs"
"(anonymous namespace)::CombineIfs" result 0
  } -> failure : pattern failed to match

  * Pattern (anonymous namespace)::CombineNestedIfs : 'scf.if -> ()' {
Trying to match "(anonymous namespace)::CombineNestedIfs"
"(anonymous namespace)::CombineNestedIfs" result 0
  } -> failure : pattern failed to match

  * Pattern (anonymous namespace)::ConditionPropagation : 'scf.if -> ()' {
Trying to match "(anonymous namespace)::ConditionPropagation"
"(anonymous namespace)::ConditionPropagation" result 0
  } -> failure : pattern failed to match

  * Pattern (anonymous namespace)::ConvertTrivialIfToSelect : 'scf.if -> ()' {
Trying to match "(anonymous namespace)::ConvertTrivialIfToSelect"
"(anonymous namespace)::ConvertTrivialIfToSelect" result 0
  } -> failure : pattern failed to match

  * Pattern (anonymous namespace)::RemoveEmptyElseBranch : 'scf.if -> ()' {
Trying to match "(anonymous namespace)::RemoveEmptyElseBranch"
"(anonymous namespace)::RemoveEmptyElseBranch" result 0
  } -> failure : pattern failed to match

  * Pattern (anonymous namespace)::RemoveStaticCondition : 'scf.if -> ()' {
Trying to match "(anonymous namespace)::RemoveStaticCondition"
"(anonymous namespace)::RemoveStaticCondition" result 0
  } -> failure : pattern failed to match

  * Pattern (anonymous namespace)::RemoveUnusedResults : 'scf.if -> ()' {
Trying to match "(anonymous namespace)::RemoveUnusedResults"
"(anonymous namespace)::RemoveUnusedResults" result 0
  } -> failure : pattern failed to match

  * Pattern (anonymous namespace)::ReplaceIfYieldWithConditionOrValue : 'scf.if -> ()' {
Trying to match "(anonymous namespace)::ReplaceIfYieldWithConditionOrValue"
"(anonymous namespace)::ReplaceIfYieldWithConditionOrValue" result 0
  } -> failure : pattern failed to match
} -> failure : pattern failed to match
//===-------------------------------------------===//

//===-------------------------------------------===//
Processing operation : 'scf.yield'(0x7fbd9800a090) {
  "scf.yield"() : () -> ()

} -> failure : pattern failed to match
//===-------------------------------------------===//

//===-------------------------------------------===//
Processing operation : 'scf.execute_region'(0x7fbd9800a8d0) {

  * Pattern SingleBlockExecuteInliner : 'scf.execute_region -> ()' {
Trying to match "SingleBlockExecuteInliner"
    ** Replace : 'scf.execute_region'(0x7fbd9800a8d0)
    ** Erase   : 'scf.yield'(0x7fbd9800bcd0)
"SingleBlockExecuteInliner" result 1
  } -> success : pattern applied successfully
// *** IR Dump After Pattern Application ***
mlir-asm-printer: Verifying operation: func.func
func.func @example(%arg0: memref<?xf32>, %arg1: memref<?xf32>, %arg2: memref<?xf32>, %arg3: memref<?xf32>, %arg4: i32) attributes {llvm.linkage = #llvm.linkage<external>} {
  %c1_i32 = arith.constant 1 : i32
  %c0_i32 = arith.constant 0 : i32
  %true = arith.constant true
  %c0 = arith.constant 0 : index
  %0 = memref.alloca() : memref<1xi32>
  %1 = memref.cast %0 : memref<1xi32> to memref<?xi32>
  %2 = llvm.mlir.undef : i32
  memref.store %2, %1[%c0] : memref<?xi32>
  %3 = memref.alloca() : memref<1xi32>
  %4 = memref.cast %3 : memref<1xi32> to memref<?xi32>
  memref.store %2, %4[%c0] : memref<?xi32>
  %5 = memref.alloca() : memref<1xi32>
  %6 = memref.cast %5 : memref<1xi32> to memref<?xi32>
  memref.store %2, %6[%c0] : memref<?xi32>
  %7 = memref.alloca() : memref<1xi32>
  %8 = memref.cast %7 : memref<1xi32> to memref<?xi32>
  memref.store %2, %8[%c0] : memref<?xi32>
  %9 = memref.alloca() : memref<1xmemref<?xf32>>
  %10 = memref.cast %9 : memref<1xmemref<?xf32>> to memref<?xmemref<?xf32>>
  %11 = memref.alloca() : memref<1xmemref<?xf32>>
  %12 = memref.cast %11 : memref<1xmemref<?xf32>> to memref<?xmemref<?xf32>>
  %13 = memref.alloca() : memref<1xmemref<?xf32>>
  %14 = memref.cast %13 : memref<1xmemref<?xf32>> to memref<?xmemref<?xf32>>
  %15 = memref.alloca() : memref<1xmemref<?xf32>>
  %16 = memref.cast %15 : memref<1xmemref<?xf32>> to memref<?xmemref<?xf32>>
  memref.store %arg0, %16[%c0] : memref<?xmemref<?xf32>>
  memref.store %arg1, %14[%c0] : memref<?xmemref<?xf32>>
  memref.store %arg2, %12[%c0] : memref<?xmemref<?xf32>>
  memref.store %arg3, %10[%c0] : memref<?xmemref<?xf32>>
  memref.store %arg4, %8[%c0] : memref<?xi32>
  %17 = memref.alloca() : memref<i1>
  %18 = memref.alloca() : memref<i1>
  memref.store %true, %18[] : memref<i1>
  memref.store %true, %17[] : memref<i1>
  %19 = memref.load %17[] : memref<i1>
  scf.if %19 {
    %20 = memref.load %17[] : memref<i1>
    scf.if %20 {
      scf.execute_region {
        %21 = memref.load %17[] : memref<i1>
        scf.if %21 {
          scf.execute_region {
            %34 = memref.get_global @kbm3 : memref<1xi32>
            %35 = memref.cast %34 : memref<1xi32> to memref<?xi32>
            %36 = memref.load %35[%c0] : memref<?xi32>
            memref.store %36, %6[%c0] : memref<?xi32>
            scf.yield
          }
        }
        %22 = memref.alloca() : memref<i1>
        %23 = memref.alloca() : memref<i1>
        memref.store %true, %23[] : memref<i1>
        cf.br ^bb1
      ^bb1:  // 2 preds: ^bb0, ^bb2
        %24 = memref.load %6[%c0] : memref<?xi32>
        %25 = arith.cmpi sgt, %24, %c0_i32 : i32
        %26 = arith.extsi %25 : i1 to i32
        %27 = arith.cmpi ne, %26, %c0_i32 : i32
        %28 = memref.load %23[] : memref<i1>
        %29 = arith.andi %27, %28 : i1
        cf.cond_br %29, ^bb2, ^bb3
      ^bb2:  // pred: ^bb1
        %30 = memref.load %23[] : memref<i1>
        memref.store %30, %22[] : memref<i1>
        %31 = memref.load %22[] : memref<i1>
        scf.if %31 {
          %34 = memref.load %22[] : memref<i1>
          scf.if %34 {
            scf.execute_region {
              %35 = memref.load %22[] : memref<i1>
              scf.if %35 {
                scf.execute_region {
                  memref.store %c0_i32, %4[%c0] : memref<?xi32>
                  scf.yield
                }
              }
              %36 = memref.alloca() : memref<i1>
              %37 = memref.alloca() : memref<i1>
              memref.store %true, %37[] : memref<i1>
              cf.br ^bb1
            ^bb1:  // 2 preds: ^bb0, ^bb2
              %38 = memref.load %4[%c0] : memref<?xi32>
              %39 = memref.get_global @jm : memref<1xi32>
              %40 = memref.cast %39 : memref<1xi32> to memref<?xi32>
              %41 = memref.load %40[%c0] : memref<?xi32>
              %42 = arith.cmpi slt, %38, %41 : i32
              %43 = arith.extsi %42 : i1 to i32
              %44 = arith.cmpi ne, %43, %c0_i32 : i32
              %45 = memref.load %37[] : memref<i1>
              %46 = arith.andi %44, %45 : i1
              cf.cond_br %46, ^bb2, ^bb3
            ^bb2:  // pred: ^bb1
              %47 = memref.load %37[] : memref<i1>
              memref.store %47, %36[] : memref<i1>
              %48 = memref.load %36[] : memref<i1>
              scf.if %48 {
                scf.execute_region {
                  %51 = memref.load %36[] : memref<i1>
                  scf.if %51 {
                    scf.execute_region {
                      %52 = memref.load %36[] : memref<i1>
                      scf.if %52 {
                        scf.execute_region {
                          memref.store %c0_i32, %1[%c0] : memref<?xi32>
                          scf.yield
                        }
                      }
                      %53 = memref.alloca() : memref<i1>
                      %54 = memref.alloca() : memref<i1>
                      memref.store %true, %54[] : memref<i1>
                      cf.br ^bb1
                    ^bb1:  // 2 preds: ^bb0, ^bb2
                      %55 = memref.load %1[%c0] : memref<?xi32>
                      %56 = memref.get_global @im : memref<1xi32>
                      %57 = memref.cast %56 : memref<1xi32> to memref<?xi32>
                      %58 = memref.load %57[%c0] : memref<?xi32>
                      %59 = arith.cmpi slt, %55, %58 : i32
                      %60 = arith.extsi %59 : i1 to i32
                      %61 = arith.cmpi ne, %60, %c0_i32 : i32
                      %62 = memref.load %54[] : memref<i1>
                      %63 = arith.andi %61, %62 : i1
                      cf.cond_br %63, ^bb2, ^bb3
                    ^bb2:  // pred: ^bb1
                      %64 = memref.load %54[] : memref<i1>
                      memref.store %64, %53[] : memref<i1>
                      %65 = memref.load %53[] : memref<i1>
                      scf.if %65 {
                        scf.execute_region {
                          %68 = memref.load %12[%c0] : memref<?xmemref<?xf32>>
                          %69 = memref.load %1[%c0] : memref<?xi32>
                          %70 = memref.load %4[%c0] : memref<?xi32>
                          %71 = memref.load %57[%c0] : memref<?xi32>
                          %72 = arith.muli %70, %71 : i32
                          %73 = arith.addi %69, %72 : i32
                          %74 = memref.load %6[%c0] : memref<?xi32>
                          %75 = arith.muli %74, %71 : i32
                          %76 = memref.load %40[%c0] : memref<?xi32>
                          %77 = arith.muli %75, %76 : i32
                          %78 = arith.addi %73, %77 : i32
                          %79 = arith.index_cast %78 : i32 to index
                          %80 = "polygeist.subindex"(%68, %79) : (memref<?xf32>, index) -> memref<?xf32>
                          %81 = "polygeist.subindex"(%80, %c0) : (memref<?xf32>, index) -> memref<?xf32>
                          %82 = memref.load %16[%c0] : memref<?xmemref<?xf32>>
                          %83 = arith.subi %74, %c1_i32 : i32
                          %84 = arith.muli %83, %71 : i32
                          %85 = arith.muli %84, %76 : i32
                          %86 = arith.addi %73, %85 : i32
                          %87 = arith.index_cast %86 : i32 to index
                          %88 = "polygeist.subindex"(%82, %87) : (memref<?xf32>, index) -> memref<?xf32>
                          %89 = "polygeist.subindex"(%88, %c0) : (memref<?xf32>, index) -> memref<?xf32>
                          %90 = memref.load %89[%c0] : memref<?xf32>
                          memref.store %90, %81[%c0] : memref<?xf32>
                          scf.yield
                        }
                      }
                      %66 = memref.load %54[] : memref<i1>
                      memref.store %66, %53[] : memref<i1>
                      %67 = memref.load %53[] : memref<i1>
                      scf.if %67 {
                        scf.execute_region {
                          %68 = memref.load %1[%c0] : memref<?xi32>
                          %69 = arith.addi %68, %c1_i32 : i32
                          memref.store %69, %1[%c0] : memref<?xi32>
                          scf.yield
                        }
                      }
                      cf.br ^bb1
                    ^bb3:  // pred: ^bb1
                      scf.yield
                    }
                  }
                  scf.yield
                }
              }
              %49 = memref.load %37[] : memref<i1>
              memref.store %49, %36[] : memref<i1>
              %50 = memref.load %36[] : memref<i1>
              scf.if %50 {
                %51 = memref.load %4[%c0] : memref<?xi32>
                %52 = arith.addi %51, %c1_i32 : i32
                memref.store %52, %4[%c0] : memref<?xi32>
              }
              cf.br ^bb1
            ^bb3:  // pred: ^bb1
              scf.yield
            }
          }
        }
        %32 = memref.load %23[] : memref<i1>
        memref.store %32, %22[] : memref<i1>
        %33 = memref.load %22[] : memref<i1>
        scf.if %33 {
          %34 = memref.load %5[%c0] : memref<1xi32>
          %35 = arith.subi %34, %c1_i32 : i32
          memref.store %35, %5[%c0] : memref<1xi32>
        }
        cf.br ^bb1
      ^bb3:  // pred: ^bb1
        scf.yield
      }
    }
  }
  return
}


} -> success : pattern matched
//===-------------------------------------------===//

//===-------------------------------------------===//
Processing operation : 'memref.store'(0x7fbd9800bc20) {
  "memref.store"(%56, %8, %3) : (i32, memref<?xi32>, index) -> ()

} -> success : operation was folded
//===-------------------------------------------===//

* Pattern MetaPointer2Memref<mlir::memref::StoreOp> : 'memref.store -> ()' {
Trying to match "MetaPointer2Memref<mlir::memref::StoreOp>"
"MetaPointer2Memref<mlir::memref::StoreOp>" result 0
} -> failure : pattern failed to match
} -> failure : pattern failed to match
//===-------------------------------------------===//

//===-------------------------------------------===//
Processing operation : 'arith.addi'(0x7fbd9800bb40) {
  %56 = "arith.addi"(%55, %0) : (i32, i32) -> i32


  * Pattern (anonymous namespace)::AddIAddConstant : 'arith.addi -> (arith.addi, arith.constant)' {
Trying to match "(anonymous namespace)::AddIAddConstant"
    ** Failure : castedOp1 is not ::mlir::arith::AddIOp type
"(anonymous namespace)::AddIAddConstant" result 0
  } -> failure : pattern failed to match

  * Pattern (anonymous namespace)::AddISubConstantRHS : 'arith.addi -> (arith.addi, arith.constant)' {
Trying to match "(anonymous namespace)::AddISubConstantRHS"
    ** Failure : castedOp1 is not ::mlir::arith::SubIOp type
"(anonymous namespace)::AddISubConstantRHS" result 0
  } -> failure : pattern failed to match

  * Pattern (anonymous namespace)::AddISubConstantLHS : 'arith.addi -> (arith.constant, arith.subi)' {
Trying to match "(anonymous namespace)::AddISubConstantLHS"
    ** Failure : castedOp1 is not ::mlir::arith::SubIOp type
"(anonymous namespace)::AddISubConstantLHS" result 0
  } -> failure : pattern failed to match
} -> failure : pattern failed to match
//===-------------------------------------------===//

//===-------------------------------------------===//
Processing operation : 'memref.load'(0x7fbd9800baa0) {
  %55 = "memref.load"(%8, %3) : (memref<?xi32>, index) -> i32

} -> success : operation was folded
//===-------------------------------------------===//

* Pattern LoadSelect<mlir::memref::LoadOp> : 'memref.load -> ()' {
Trying to match "LoadSelect<mlir::memref::LoadOp>"
"LoadSelect<mlir::memref::LoadOp>" result 0
} -> failure : pattern failed to match

* Pattern MetaPointer2Memref<mlir::memref::LoadOp> : 'memref.load -> ()' {
Trying to match "MetaPointer2Memref<mlir::memref::LoadOp>"
"MetaPointer2Memref<mlir::memref::LoadOp>" result 0
} -> failure : pattern failed to match
} -> failure : pattern failed to match
//===-------------------------------------------===//

//===-------------------------------------------===//
Processing operation : 'memref.load'(0x7fbd98009fd0) {
  %54 = "memref.load"(%40) : (memref<i1>) -> i1


  * Pattern LoadSelect<mlir::memref::LoadOp> : 'memref.load -> ()' {
Trying to match "LoadSelect<mlir::memref::LoadOp>"
"LoadSelect<mlir::memref::LoadOp>" result 0
  } -> failure : pattern failed to match

  * Pattern MetaPointer2Memref<mlir::memref::LoadOp> : 'memref.load -> ()' {
Trying to match "MetaPointer2Memref<mlir::memref::LoadOp>"
"MetaPointer2Memref<mlir::memref::LoadOp>" result 0
  } -> failure : pattern failed to match
} -> failure : pattern failed to match
//===-------------------------------------------===//

//===-------------------------------------------===//
Processing operation : 'memref.store'(0x7fbd98009f30) {
  "memref.store"(%53, %40) : (i1, memref<i1>) -> ()


  * Pattern MetaPointer2Memref<mlir::memref::StoreOp> : 'memref.store -> ()' {
Trying to match "MetaPointer2Memref<mlir::memref::StoreOp>"
"MetaPointer2Memref<mlir::memref::StoreOp>" result 0
  } -> failure : pattern failed to match
} -> failure : pattern failed to match
//===-------------------------------------------===//

//===-------------------------------------------===//
Processing operation : 'memref.load'(0x7fbd98009ec0) {
  %53 = "memref.load"(%41) : (memref<i1>) -> i1


  * Pattern LoadSelect<mlir::memref::LoadOp> : 'memref.load -> ()' {
Trying to match "LoadSelect<mlir::memref::LoadOp>"
"LoadSelect<mlir::memref::LoadOp>" result 0
  } -> failure : pattern failed to match

  * Pattern MetaPointer2Memref<mlir::memref::LoadOp> : 'memref.load -> ()' {
Trying to match "MetaPointer2Memref<mlir::memref::LoadOp>"
"MetaPointer2Memref<mlir::memref::LoadOp>" result 0
  } -> failure : pattern failed to match
} -> failure : pattern failed to match
//===-------------------------------------------===//

//===-------------------------------------------===//
Processing operation : 'scf.if'(0x7fbd9816a370) {

  * Pattern MoveIntoIfs : 'scf.if -> ()' {
Trying to match "MoveIntoIfs"
"MoveIntoIfs" result 0
  } -> failure : pattern failed to match

  * Pattern MoveOutOfIfs : 'scf.if -> ()' {
Trying to match "MoveOutOfIfs"
"MoveOutOfIfs" result 0
  } -> failure : pattern failed to match

  * Pattern IfAndLazy : 'scf.if -> ()' {
Trying to match "IfAndLazy"
"IfAndLazy" result 0
  } -> failure : pattern failed to match

  * Pattern (anonymous namespace)::CombineIfs : 'scf.if -> ()' {
Trying to match "(anonymous namespace)::CombineIfs"
"(anonymous namespace)::CombineIfs" result 0
  } -> failure : pattern failed to match

  * Pattern (anonymous namespace)::CombineNestedIfs : 'scf.if -> ()' {
Trying to match "(anonymous namespace)::CombineNestedIfs"
"(anonymous namespace)::CombineNestedIfs" result 0
  } -> failure : pattern failed to match

  * Pattern (anonymous namespace)::ConditionPropagation : 'scf.if -> ()' {
Trying to match "(anonymous namespace)::ConditionPropagation"
"(anonymous namespace)::ConditionPropagation" result 0
  } -> failure : pattern failed to match

  * Pattern (anonymous namespace)::ConvertTrivialIfToSelect : 'scf.if -> ()' {
Trying to match "(anonymous namespace)::ConvertTrivialIfToSelect"
"(anonymous namespace)::ConvertTrivialIfToSelect" result 0
  } -> failure : pattern failed to match

  * Pattern (anonymous namespace)::RemoveEmptyElseBranch : 'scf.if -> ()' {
Trying to match "(anonymous namespace)::RemoveEmptyElseBranch"
"(anonymous namespace)::RemoveEmptyElseBranch" result 0
  } -> failure : pattern failed to match

  * Pattern (anonymous namespace)::RemoveStaticCondition : 'scf.if -> ()' {
Trying to match "(anonymous namespace)::RemoveStaticCondition"
"(anonymous namespace)::RemoveStaticCondition" result 0
  } -> failure : pattern failed to match

  * Pattern (anonymous namespace)::RemoveUnusedResults : 'scf.if -> ()' {
Trying to match "(anonymous namespace)::RemoveUnusedResults"
"(anonymous namespace)::RemoveUnusedResults" result 0
  } -> failure : pattern failed to match

  * Pattern (anonymous namespace)::ReplaceIfYieldWithConditionOrValue : 'scf.if -> ()' {
Trying to match "(anonymous namespace)::ReplaceIfYieldWithConditionOrValue"
"(anonymous namespace)::ReplaceIfYieldWithConditionOrValue" result 0
  } -> failure : pattern failed to match
} -> failure : pattern failed to match
//===-------------------------------------------===//

//===-------------------------------------------===//
Processing operation : 'scf.yield'(0x7fbd9816a300) {
  "scf.yield"() : () -> ()

} -> failure : pattern failed to match
//===-------------------------------------------===//

//===-------------------------------------------===//
Processing operation : 'scf.execute_region'(0x7fbd9816a410) {

  * Pattern SingleBlockExecuteInliner : 'scf.execute_region -> ()' {
Trying to match "SingleBlockExecuteInliner"
    ** Replace : 'scf.execute_region'(0x7fbd9816a410)
    ** Erase   : 'scf.yield'(0x7fbd9800a880)
"SingleBlockExecuteInliner" result 1
  } -> success : pattern applied successfully
// *** IR Dump After Pattern Application ***
mlir-asm-printer: Verifying operation: func.func
func.func @example(%arg0: memref<?xf32>, %arg1: memref<?xf32>, %arg2: memref<?xf32>, %arg3: memref<?xf32>, %arg4: i32) attributes {llvm.linkage = #llvm.linkage<external>} {
  %c1_i32 = arith.constant 1 : i32
  %c0_i32 = arith.constant 0 : i32
  %true = arith.constant true
  %c0 = arith.constant 0 : index
  %0 = memref.alloca() : memref<1xi32>
  %1 = memref.cast %0 : memref<1xi32> to memref<?xi32>
  %2 = llvm.mlir.undef : i32
  memref.store %2, %1[%c0] : memref<?xi32>
  %3 = memref.alloca() : memref<1xi32>
  %4 = memref.cast %3 : memref<1xi32> to memref<?xi32>
  memref.store %2, %4[%c0] : memref<?xi32>
  %5 = memref.alloca() : memref<1xi32>
  %6 = memref.cast %5 : memref<1xi32> to memref<?xi32>
  memref.store %2, %6[%c0] : memref<?xi32>
  %7 = memref.alloca() : memref<1xi32>
  %8 = memref.cast %7 : memref<1xi32> to memref<?xi32>
  memref.store %2, %8[%c0] : memref<?xi32>
  %9 = memref.alloca() : memref<1xmemref<?xf32>>
  %10 = memref.cast %9 : memref<1xmemref<?xf32>> to memref<?xmemref<?xf32>>
  %11 = memref.alloca() : memref<1xmemref<?xf32>>
  %12 = memref.cast %11 : memref<1xmemref<?xf32>> to memref<?xmemref<?xf32>>
  %13 = memref.alloca() : memref<1xmemref<?xf32>>
  %14 = memref.cast %13 : memref<1xmemref<?xf32>> to memref<?xmemref<?xf32>>
  %15 = memref.alloca() : memref<1xmemref<?xf32>>
  %16 = memref.cast %15 : memref<1xmemref<?xf32>> to memref<?xmemref<?xf32>>
  memref.store %arg0, %16[%c0] : memref<?xmemref<?xf32>>
  memref.store %arg1, %14[%c0] : memref<?xmemref<?xf32>>
  memref.store %arg2, %12[%c0] : memref<?xmemref<?xf32>>
  memref.store %arg3, %10[%c0] : memref<?xmemref<?xf32>>
  memref.store %arg4, %8[%c0] : memref<?xi32>
  %17 = memref.alloca() : memref<i1>
  %18 = memref.alloca() : memref<i1>
  memref.store %true, %18[] : memref<i1>
  memref.store %true, %17[] : memref<i1>
  %19 = memref.load %17[] : memref<i1>
  scf.if %19 {
    %20 = memref.load %17[] : memref<i1>
    scf.if %20 {
      scf.execute_region {
        %21 = memref.load %17[] : memref<i1>
        scf.if %21 {
          scf.execute_region {
            %34 = memref.get_global @kbm3 : memref<1xi32>
            %35 = memref.cast %34 : memref<1xi32> to memref<?xi32>
            %36 = memref.load %35[%c0] : memref<?xi32>
            memref.store %36, %6[%c0] : memref<?xi32>
            scf.yield
          }
        }
        %22 = memref.alloca() : memref<i1>
        %23 = memref.alloca() : memref<i1>
        memref.store %true, %23[] : memref<i1>
        cf.br ^bb1
      ^bb1:  // 2 preds: ^bb0, ^bb2
        %24 = memref.load %6[%c0] : memref<?xi32>
        %25 = arith.cmpi sgt, %24, %c0_i32 : i32
        %26 = arith.extsi %25 : i1 to i32
        %27 = arith.cmpi ne, %26, %c0_i32 : i32
        %28 = memref.load %23[] : memref<i1>
        %29 = arith.andi %27, %28 : i1
        cf.cond_br %29, ^bb2, ^bb3
      ^bb2:  // pred: ^bb1
        %30 = memref.load %23[] : memref<i1>
        memref.store %30, %22[] : memref<i1>
        %31 = memref.load %22[] : memref<i1>
        scf.if %31 {
          %34 = memref.load %22[] : memref<i1>
          scf.if %34 {
            scf.execute_region {
              %35 = memref.load %22[] : memref<i1>
              scf.if %35 {
                scf.execute_region {
                  memref.store %c0_i32, %4[%c0] : memref<?xi32>
                  scf.yield
                }
              }
              %36 = memref.alloca() : memref<i1>
              %37 = memref.alloca() : memref<i1>
              memref.store %true, %37[] : memref<i1>
              cf.br ^bb1
            ^bb1:  // 2 preds: ^bb0, ^bb2
              %38 = memref.load %4[%c0] : memref<?xi32>
              %39 = memref.get_global @jm : memref<1xi32>
              %40 = memref.cast %39 : memref<1xi32> to memref<?xi32>
              %41 = memref.load %40[%c0] : memref<?xi32>
              %42 = arith.cmpi slt, %38, %41 : i32
              %43 = arith.extsi %42 : i1 to i32
              %44 = arith.cmpi ne, %43, %c0_i32 : i32
              %45 = memref.load %37[] : memref<i1>
              %46 = arith.andi %44, %45 : i1
              cf.cond_br %46, ^bb2, ^bb3
            ^bb2:  // pred: ^bb1
              %47 = memref.load %37[] : memref<i1>
              memref.store %47, %36[] : memref<i1>
              %48 = memref.load %36[] : memref<i1>
              scf.if %48 {
                %51 = memref.load %36[] : memref<i1>
                scf.if %51 {
                  scf.execute_region {
                    %52 = memref.load %36[] : memref<i1>
                    scf.if %52 {
                      scf.execute_region {
                        memref.store %c0_i32, %1[%c0] : memref<?xi32>
                        scf.yield
                      }
                    }
                    %53 = memref.alloca() : memref<i1>
                    %54 = memref.alloca() : memref<i1>
                    memref.store %true, %54[] : memref<i1>
                    cf.br ^bb1
                  ^bb1:  // 2 preds: ^bb0, ^bb2
                    %55 = memref.load %1[%c0] : memref<?xi32>
                    %56 = memref.get_global @im : memref<1xi32>
                    %57 = memref.cast %56 : memref<1xi32> to memref<?xi32>
                    %58 = memref.load %57[%c0] : memref<?xi32>
                    %59 = arith.cmpi slt, %55, %58 : i32
                    %60 = arith.extsi %59 : i1 to i32
                    %61 = arith.cmpi ne, %60, %c0_i32 : i32
                    %62 = memref.load %54[] : memref<i1>
                    %63 = arith.andi %61, %62 : i1
                    cf.cond_br %63, ^bb2, ^bb3
                  ^bb2:  // pred: ^bb1
                    %64 = memref.load %54[] : memref<i1>
                    memref.store %64, %53[] : memref<i1>
                    %65 = memref.load %53[] : memref<i1>
                    scf.if %65 {
                      scf.execute_region {
                        %68 = memref.load %12[%c0] : memref<?xmemref<?xf32>>
                        %69 = memref.load %1[%c0] : memref<?xi32>
                        %70 = memref.load %4[%c0] : memref<?xi32>
                        %71 = memref.load %57[%c0] : memref<?xi32>
                        %72 = arith.muli %70, %71 : i32
                        %73 = arith.addi %69, %72 : i32
                        %74 = memref.load %6[%c0] : memref<?xi32>
                        %75 = arith.muli %74, %71 : i32
                        %76 = memref.load %40[%c0] : memref<?xi32>
                        %77 = arith.muli %75, %76 : i32
                        %78 = arith.addi %73, %77 : i32
                        %79 = arith.index_cast %78 : i32 to index
                        %80 = "polygeist.subindex"(%68, %79) : (memref<?xf32>, index) -> memref<?xf32>
                        %81 = "polygeist.subindex"(%80, %c0) : (memref<?xf32>, index) -> memref<?xf32>
                        %82 = memref.load %16[%c0] : memref<?xmemref<?xf32>>
                        %83 = arith.subi %74, %c1_i32 : i32
                        %84 = arith.muli %83, %71 : i32
                        %85 = arith.muli %84, %76 : i32
                        %86 = arith.addi %73, %85 : i32
                        %87 = arith.index_cast %86 : i32 to index
                        %88 = "polygeist.subindex"(%82, %87) : (memref<?xf32>, index) -> memref<?xf32>
                        %89 = "polygeist.subindex"(%88, %c0) : (memref<?xf32>, index) -> memref<?xf32>
                        %90 = memref.load %89[%c0] : memref<?xf32>
                        memref.store %90, %81[%c0] : memref<?xf32>
                        scf.yield
                      }
                    }
                    %66 = memref.load %54[] : memref<i1>
                    memref.store %66, %53[] : memref<i1>
                    %67 = memref.load %53[] : memref<i1>
                    scf.if %67 {
                      scf.execute_region {
                        %68 = memref.load %1[%c0] : memref<?xi32>
                        %69 = arith.addi %68, %c1_i32 : i32
                        memref.store %69, %1[%c0] : memref<?xi32>
                        scf.yield
                      }
                    }
                    cf.br ^bb1
                  ^bb3:  // pred: ^bb1
                    scf.yield
                  }
                }
              }
              %49 = memref.load %37[] : memref<i1>
              memref.store %49, %36[] : memref<i1>
              %50 = memref.load %36[] : memref<i1>
              scf.if %50 {
                %51 = memref.load %3[%c0] : memref<1xi32>
                %52 = arith.addi %51, %c1_i32 : i32
                memref.store %52, %3[%c0] : memref<1xi32>
              }
              cf.br ^bb1
            ^bb3:  // pred: ^bb1
              scf.yield
            }
          }
        }
        %32 = memref.load %23[] : memref<i1>
        memref.store %32, %22[] : memref<i1>
        %33 = memref.load %22[] : memref<i1>
        scf.if %33 {
          %34 = memref.load %5[%c0] : memref<1xi32>
          %35 = arith.subi %34, %c1_i32 : i32
          memref.store %35, %5[%c0] : memref<1xi32>
        }
        cf.br ^bb1
      ^bb3:  // pred: ^bb1
        scf.yield
      }
    }
  }
  return
}


} -> success : pattern matched
//===-------------------------------------------===//

//===-------------------------------------------===//
Processing operation : 'scf.if'(0x7fbd9816a5e0) {

  * Pattern MoveIntoIfs : 'scf.if -> ()' {
Trying to match "MoveIntoIfs"
"MoveIntoIfs" result 0
  } -> failure : pattern failed to match

  * Pattern MoveOutOfIfs : 'scf.if -> ()' {
Trying to match "MoveOutOfIfs"
"MoveOutOfIfs" result 0
  } -> failure : pattern failed to match

  * Pattern IfAndLazy : 'scf.if -> ()' {
Trying to match "IfAndLazy"
"IfAndLazy" result 0
  } -> failure : pattern failed to match

  * Pattern (anonymous namespace)::CombineIfs : 'scf.if -> ()' {
Trying to match "(anonymous namespace)::CombineIfs"
"(anonymous namespace)::CombineIfs" result 0
  } -> failure : pattern failed to match

  * Pattern (anonymous namespace)::CombineNestedIfs : 'scf.if -> ()' {
Trying to match "(anonymous namespace)::CombineNestedIfs"
"(anonymous namespace)::CombineNestedIfs" result 0
  } -> failure : pattern failed to match

  * Pattern (anonymous namespace)::ConditionPropagation : 'scf.if -> ()' {
Trying to match "(anonymous namespace)::ConditionPropagation"
"(anonymous namespace)::ConditionPropagation" result 0
  } -> failure : pattern failed to match

  * Pattern (anonymous namespace)::ConvertTrivialIfToSelect : 'scf.if -> ()' {
Trying to match "(anonymous namespace)::ConvertTrivialIfToSelect"
"(anonymous namespace)::ConvertTrivialIfToSelect" result 0
  } -> failure : pattern failed to match

  * Pattern (anonymous namespace)::RemoveEmptyElseBranch : 'scf.if -> ()' {
Trying to match "(anonymous namespace)::RemoveEmptyElseBranch"
"(anonymous namespace)::RemoveEmptyElseBranch" result 0
  } -> failure : pattern failed to match

  * Pattern (anonymous namespace)::RemoveStaticCondition : 'scf.if -> ()' {
Trying to match "(anonymous namespace)::RemoveStaticCondition"
"(anonymous namespace)::RemoveStaticCondition" result 0
  } -> failure : pattern failed to match

  * Pattern (anonymous namespace)::RemoveUnusedResults : 'scf.if -> ()' {
Trying to match "(anonymous namespace)::RemoveUnusedResults"
"(anonymous namespace)::RemoveUnusedResults" result 0
  } -> failure : pattern failed to match

  * Pattern (anonymous namespace)::ReplaceIfYieldWithConditionOrValue : 'scf.if -> ()' {
Trying to match "(anonymous namespace)::ReplaceIfYieldWithConditionOrValue"
"(anonymous namespace)::ReplaceIfYieldWithConditionOrValue" result 0
  } -> failure : pattern failed to match
} -> failure : pattern failed to match
//===-------------------------------------------===//

//===-------------------------------------------===//
Processing operation : 'scf.yield'(0x7fbd9816a590) {
  "scf.yield"() : () -> ()

} -> failure : pattern failed to match
//===-------------------------------------------===//

//===-------------------------------------------===//
Processing operation : 'scf.execute_region'(0x7fbd9816a680) {

  * Pattern SingleBlockExecuteInliner : 'scf.execute_region -> ()' {
Trying to match "SingleBlockExecuteInliner"
"SingleBlockExecuteInliner" result 0
  } -> failure : pattern failed to match

  * Pattern MultiBlockExecuteInliner : 'scf.execute_region -> ()' {
Trying to match "MultiBlockExecuteInliner"
"MultiBlockExecuteInliner" result 0
  } -> failure : pattern failed to match
} -> failure : pattern failed to match
//===-------------------------------------------===//

//===-------------------------------------------===//
Processing operation : 'scf.yield'(0x7fbd9800a830) {
  "scf.yield"() : () -> ()

} -> failure : pattern failed to match
//===-------------------------------------------===//

//===-------------------------------------------===//
Processing operation : 'cf.br'(0x7fbd98009270) {
  "cf.br"()[^bb1] : () -> ()


  * Pattern  : 'cf.br -> ()' {
Trying to match ""
"" result 0
  } -> failure : pattern failed to match
} -> failure : pattern failed to match
//===-------------------------------------------===//

//===-------------------------------------------===//
Processing operation : 'scf.if'(0x7fbd98305250) {

  * Pattern MoveIntoIfs : 'scf.if -> ()' {
Trying to match "MoveIntoIfs"
"MoveIntoIfs" result 0
  } -> failure : pattern failed to match

  * Pattern MoveOutOfIfs : 'scf.if -> ()' {
Trying to match "MoveOutOfIfs"
"MoveOutOfIfs" result 0
  } -> failure : pattern failed to match

  * Pattern IfAndLazy : 'scf.if -> ()' {
Trying to match "IfAndLazy"
"IfAndLazy" result 0
  } -> failure : pattern failed to match

  * Pattern (anonymous namespace)::CombineIfs : 'scf.if -> ()' {
Trying to match "(anonymous namespace)::CombineIfs"
"(anonymous namespace)::CombineIfs" result 0
  } -> failure : pattern failed to match

  * Pattern (anonymous namespace)::CombineNestedIfs : 'scf.if -> ()' {
Trying to match "(anonymous namespace)::CombineNestedIfs"
"(anonymous namespace)::CombineNestedIfs" result 0
  } -> failure : pattern failed to match

  * Pattern (anonymous namespace)::ConditionPropagation : 'scf.if -> ()' {
Trying to match "(anonymous namespace)::ConditionPropagation"
"(anonymous namespace)::ConditionPropagation" result 0
  } -> failure : pattern failed to match

  * Pattern (anonymous namespace)::ConvertTrivialIfToSelect : 'scf.if -> ()' {
Trying to match "(anonymous namespace)::ConvertTrivialIfToSelect"
"(anonymous namespace)::ConvertTrivialIfToSelect" result 0
  } -> failure : pattern failed to match

  * Pattern (anonymous namespace)::RemoveEmptyElseBranch : 'scf.if -> ()' {
Trying to match "(anonymous namespace)::RemoveEmptyElseBranch"
"(anonymous namespace)::RemoveEmptyElseBranch" result 0
  } -> failure : pattern failed to match

  * Pattern (anonymous namespace)::RemoveStaticCondition : 'scf.if -> ()' {
Trying to match "(anonymous namespace)::RemoveStaticCondition"
"(anonymous namespace)::RemoveStaticCondition" result 0
  } -> failure : pattern failed to match

  * Pattern (anonymous namespace)::RemoveUnusedResults : 'scf.if -> ()' {
Trying to match "(anonymous namespace)::RemoveUnusedResults"
"(anonymous namespace)::RemoveUnusedResults" result 0
  } -> failure : pattern failed to match

  * Pattern (anonymous namespace)::ReplaceIfYieldWithConditionOrValue : 'scf.if -> ()' {
Trying to match "(anonymous namespace)::ReplaceIfYieldWithConditionOrValue"
"(anonymous namespace)::ReplaceIfYieldWithConditionOrValue" result 0
  } -> failure : pattern failed to match
} -> failure : pattern failed to match
//===-------------------------------------------===//

//===-------------------------------------------===//
Processing operation : 'scf.yield'(0x7fbd983051c0) {
  "scf.yield"() : () -> ()

} -> failure : pattern failed to match
//===-------------------------------------------===//

//===-------------------------------------------===//
Processing operation : 'scf.execute_region'(0x7fbd983052f0) {

  * Pattern SingleBlockExecuteInliner : 'scf.execute_region -> ()' {
Trying to match "SingleBlockExecuteInliner"
    ** Replace : 'scf.execute_region'(0x7fbd983052f0)
    ** Erase   : 'scf.yield'(0x7fbd98305680)
"SingleBlockExecuteInliner" result 1
  } -> success : pattern applied successfully
// *** IR Dump After Pattern Application ***
mlir-asm-printer: Verifying operation: func.func
func.func @example(%arg0: memref<?xf32>, %arg1: memref<?xf32>, %arg2: memref<?xf32>, %arg3: memref<?xf32>, %arg4: i32) attributes {llvm.linkage = #llvm.linkage<external>} {
  %c1_i32 = arith.constant 1 : i32
  %c0_i32 = arith.constant 0 : i32
  %true = arith.constant true
  %c0 = arith.constant 0 : index
  %0 = memref.alloca() : memref<1xi32>
  %1 = memref.cast %0 : memref<1xi32> to memref<?xi32>
  %2 = llvm.mlir.undef : i32
  memref.store %2, %1[%c0] : memref<?xi32>
  %3 = memref.alloca() : memref<1xi32>
  %4 = memref.cast %3 : memref<1xi32> to memref<?xi32>
  memref.store %2, %4[%c0] : memref<?xi32>
  %5 = memref.alloca() : memref<1xi32>
  %6 = memref.cast %5 : memref<1xi32> to memref<?xi32>
  memref.store %2, %6[%c0] : memref<?xi32>
  %7 = memref.alloca() : memref<1xi32>
  %8 = memref.cast %7 : memref<1xi32> to memref<?xi32>
  memref.store %2, %8[%c0] : memref<?xi32>
  %9 = memref.alloca() : memref<1xmemref<?xf32>>
  %10 = memref.cast %9 : memref<1xmemref<?xf32>> to memref<?xmemref<?xf32>>
  %11 = memref.alloca() : memref<1xmemref<?xf32>>
  %12 = memref.cast %11 : memref<1xmemref<?xf32>> to memref<?xmemref<?xf32>>
  %13 = memref.alloca() : memref<1xmemref<?xf32>>
  %14 = memref.cast %13 : memref<1xmemref<?xf32>> to memref<?xmemref<?xf32>>
  %15 = memref.alloca() : memref<1xmemref<?xf32>>
  %16 = memref.cast %15 : memref<1xmemref<?xf32>> to memref<?xmemref<?xf32>>
  memref.store %arg0, %16[%c0] : memref<?xmemref<?xf32>>
  memref.store %arg1, %14[%c0] : memref<?xmemref<?xf32>>
  memref.store %arg2, %12[%c0] : memref<?xmemref<?xf32>>
  memref.store %arg3, %10[%c0] : memref<?xmemref<?xf32>>
  memref.store %arg4, %8[%c0] : memref<?xi32>
  %17 = memref.alloca() : memref<i1>
  %18 = memref.alloca() : memref<i1>
  memref.store %true, %18[] : memref<i1>
  memref.store %true, %17[] : memref<i1>
  %19 = memref.load %17[] : memref<i1>
  scf.if %19 {
    %20 = memref.load %17[] : memref<i1>
    scf.if %20 {
      scf.execute_region {
        %21 = memref.load %17[] : memref<i1>
        scf.if %21 {
          scf.execute_region {
            %34 = memref.get_global @kbm3 : memref<1xi32>
            %35 = memref.cast %34 : memref<1xi32> to memref<?xi32>
            %36 = memref.load %35[%c0] : memref<?xi32>
            memref.store %36, %6[%c0] : memref<?xi32>
            scf.yield
          }
        }
        %22 = memref.alloca() : memref<i1>
        %23 = memref.alloca() : memref<i1>
        memref.store %true, %23[] : memref<i1>
        cf.br ^bb1
      ^bb1:  // 2 preds: ^bb0, ^bb2
        %24 = memref.load %6[%c0] : memref<?xi32>
        %25 = arith.cmpi sgt, %24, %c0_i32 : i32
        %26 = arith.extsi %25 : i1 to i32
        %27 = arith.cmpi ne, %26, %c0_i32 : i32
        %28 = memref.load %23[] : memref<i1>
        %29 = arith.andi %27, %28 : i1
        cf.cond_br %29, ^bb2, ^bb3
      ^bb2:  // pred: ^bb1
        %30 = memref.load %23[] : memref<i1>
        memref.store %30, %22[] : memref<i1>
        %31 = memref.load %22[] : memref<i1>
        scf.if %31 {
          %34 = memref.load %22[] : memref<i1>
          scf.if %34 {
            scf.execute_region {
              %35 = memref.load %22[] : memref<i1>
              scf.if %35 {
                scf.execute_region {
                  memref.store %c0_i32, %4[%c0] : memref<?xi32>
                  scf.yield
                }
              }
              %36 = memref.alloca() : memref<i1>
              %37 = memref.alloca() : memref<i1>
              memref.store %true, %37[] : memref<i1>
              cf.br ^bb1
            ^bb1:  // 2 preds: ^bb0, ^bb2
              %38 = memref.load %4[%c0] : memref<?xi32>
              %39 = memref.get_global @jm : memref<1xi32>
              %40 = memref.cast %39 : memref<1xi32> to memref<?xi32>
              %41 = memref.load %40[%c0] : memref<?xi32>
              %42 = arith.cmpi slt, %38, %41 : i32
              %43 = arith.extsi %42 : i1 to i32
              %44 = arith.cmpi ne, %43, %c0_i32 : i32
              %45 = memref.load %37[] : memref<i1>
              %46 = arith.andi %44, %45 : i1
              cf.cond_br %46, ^bb2, ^bb3
            ^bb2:  // pred: ^bb1
              %47 = memref.load %37[] : memref<i1>
              memref.store %47, %36[] : memref<i1>
              %48 = memref.load %36[] : memref<i1>
              scf.if %48 {
                %51 = memref.load %36[] : memref<i1>
                scf.if %51 {
                  scf.execute_region {
                    %52 = memref.load %36[] : memref<i1>
                    scf.if %52 {
                      scf.execute_region {
                        memref.store %c0_i32, %1[%c0] : memref<?xi32>
                        scf.yield
                      }
                    }
                    %53 = memref.alloca() : memref<i1>
                    %54 = memref.alloca() : memref<i1>
                    memref.store %true, %54[] : memref<i1>
                    cf.br ^bb1
                  ^bb1:  // 2 preds: ^bb0, ^bb2
                    %55 = memref.load %1[%c0] : memref<?xi32>
                    %56 = memref.get_global @im : memref<1xi32>
                    %57 = memref.cast %56 : memref<1xi32> to memref<?xi32>
                    %58 = memref.load %57[%c0] : memref<?xi32>
                    %59 = arith.cmpi slt, %55, %58 : i32
                    %60 = arith.extsi %59 : i1 to i32
                    %61 = arith.cmpi ne, %60, %c0_i32 : i32
                    %62 = memref.load %54[] : memref<i1>
                    %63 = arith.andi %61, %62 : i1
                    cf.cond_br %63, ^bb2, ^bb3
                  ^bb2:  // pred: ^bb1
                    %64 = memref.load %54[] : memref<i1>
                    memref.store %64, %53[] : memref<i1>
                    %65 = memref.load %53[] : memref<i1>
                    scf.if %65 {
                      scf.execute_region {
                        %68 = memref.load %12[%c0] : memref<?xmemref<?xf32>>
                        %69 = memref.load %1[%c0] : memref<?xi32>
                        %70 = memref.load %4[%c0] : memref<?xi32>
                        %71 = memref.load %57[%c0] : memref<?xi32>
                        %72 = arith.muli %70, %71 : i32
                        %73 = arith.addi %69, %72 : i32
                        %74 = memref.load %6[%c0] : memref<?xi32>
                        %75 = arith.muli %74, %71 : i32
                        %76 = memref.load %40[%c0] : memref<?xi32>
                        %77 = arith.muli %75, %76 : i32
                        %78 = arith.addi %73, %77 : i32
                        %79 = arith.index_cast %78 : i32 to index
                        %80 = "polygeist.subindex"(%68, %79) : (memref<?xf32>, index) -> memref<?xf32>
                        %81 = "polygeist.subindex"(%80, %c0) : (memref<?xf32>, index) -> memref<?xf32>
                        %82 = memref.load %16[%c0] : memref<?xmemref<?xf32>>
                        %83 = arith.subi %74, %c1_i32 : i32
                        %84 = arith.muli %83, %71 : i32
                        %85 = arith.muli %84, %76 : i32
                        %86 = arith.addi %73, %85 : i32
                        %87 = arith.index_cast %86 : i32 to index
                        %88 = "polygeist.subindex"(%82, %87) : (memref<?xf32>, index) -> memref<?xf32>
                        %89 = "polygeist.subindex"(%88, %c0) : (memref<?xf32>, index) -> memref<?xf32>
                        %90 = memref.load %89[%c0] : memref<?xf32>
                        memref.store %90, %81[%c0] : memref<?xf32>
                        scf.yield
                      }
                    }
                    %66 = memref.load %54[] : memref<i1>
                    memref.store %66, %53[] : memref<i1>
                    %67 = memref.load %53[] : memref<i1>
                    scf.if %67 {
                      %68 = memref.load %1[%c0] : memref<?xi32>
                      %69 = arith.addi %68, %c1_i32 : i32
                      memref.store %69, %1[%c0] : memref<?xi32>
                    }
                    cf.br ^bb1
                  ^bb3:  // pred: ^bb1
                    scf.yield
                  }
                }
              }
              %49 = memref.load %37[] : memref<i1>
              memref.store %49, %36[] : memref<i1>
              %50 = memref.load %36[] : memref<i1>
              scf.if %50 {
                %51 = memref.load %3[%c0] : memref<1xi32>
                %52 = arith.addi %51, %c1_i32 : i32
                memref.store %52, %3[%c0] : memref<1xi32>
              }
              cf.br ^bb1
            ^bb3:  // pred: ^bb1
              scf.yield
            }
          }
        }
        %32 = memref.load %23[] : memref<i1>
        memref.store %32, %22[] : memref<i1>
        %33 = memref.load %22[] : memref<i1>
        scf.if %33 {
          %34 = memref.load %5[%c0] : memref<1xi32>
          %35 = arith.subi %34, %c1_i32 : i32
          memref.store %35, %5[%c0] : memref<1xi32>
        }
        cf.br ^bb1
      ^bb3:  // pred: ^bb1
        scf.yield
      }
    }
  }
  return
}


} -> success : pattern matched
//===-------------------------------------------===//

//===-------------------------------------------===//
Processing operation : 'memref.store'(0x7fbd983055d0) {
  "memref.store"(%73, %5, %3) : (i32, memref<?xi32>, index) -> ()

} -> success : operation was folded
//===-------------------------------------------===//

* Pattern MetaPointer2Memref<mlir::memref::StoreOp> : 'memref.store -> ()' {
Trying to match "MetaPointer2Memref<mlir::memref::StoreOp>"
"MetaPointer2Memref<mlir::memref::StoreOp>" result 0
} -> failure : pattern failed to match
} -> failure : pattern failed to match
//===-------------------------------------------===//

//===-------------------------------------------===//
Processing operation : 'arith.addi'(0x7fbd983054f0) {
  %73 = "arith.addi"(%72, %0) : (i32, i32) -> i32


  * Pattern (anonymous namespace)::AddIAddConstant : 'arith.addi -> (arith.addi, arith.constant)' {
Trying to match "(anonymous namespace)::AddIAddConstant"
    ** Failure : castedOp1 is not ::mlir::arith::AddIOp type
"(anonymous namespace)::AddIAddConstant" result 0
  } -> failure : pattern failed to match

  * Pattern (anonymous namespace)::AddISubConstantRHS : 'arith.addi -> (arith.addi, arith.constant)' {
Trying to match "(anonymous namespace)::AddISubConstantRHS"
    ** Failure : castedOp1 is not ::mlir::arith::SubIOp type
"(anonymous namespace)::AddISubConstantRHS" result 0
  } -> failure : pattern failed to match

  * Pattern (anonymous namespace)::AddISubConstantLHS : 'arith.addi -> (arith.constant, arith.subi)' {
Trying to match "(anonymous namespace)::AddISubConstantLHS"
    ** Failure : castedOp1 is not ::mlir::arith::SubIOp type
"(anonymous namespace)::AddISubConstantLHS" result 0
  } -> failure : pattern failed to match
} -> failure : pattern failed to match
//===-------------------------------------------===//

//===-------------------------------------------===//
Processing operation : 'memref.load'(0x7fbd98305400) {
  %72 = "memref.load"(%5, %3) : (memref<?xi32>, index) -> i32

} -> success : operation was folded
//===-------------------------------------------===//

* Pattern LoadSelect<mlir::memref::LoadOp> : 'memref.load -> ()' {
Trying to match "LoadSelect<mlir::memref::LoadOp>"
"LoadSelect<mlir::memref::LoadOp>" result 0
} -> failure : pattern failed to match

* Pattern MetaPointer2Memref<mlir::memref::LoadOp> : 'memref.load -> ()' {
Trying to match "MetaPointer2Memref<mlir::memref::LoadOp>"
"MetaPointer2Memref<mlir::memref::LoadOp>" result 0
} -> failure : pattern failed to match
} -> failure : pattern failed to match
//===-------------------------------------------===//

//===-------------------------------------------===//
Processing operation : 'memref.load'(0x7fbd983050e0) {
  %71 = "memref.load"(%57) : (memref<i1>) -> i1


  * Pattern LoadSelect<mlir::memref::LoadOp> : 'memref.load -> ()' {
Trying to match "LoadSelect<mlir::memref::LoadOp>"
"LoadSelect<mlir::memref::LoadOp>" result 0
  } -> failure : pattern failed to match

  * Pattern MetaPointer2Memref<mlir::memref::LoadOp> : 'memref.load -> ()' {
Trying to match "MetaPointer2Memref<mlir::memref::LoadOp>"
"MetaPointer2Memref<mlir::memref::LoadOp>" result 0
  } -> failure : pattern failed to match
} -> failure : pattern failed to match
//===-------------------------------------------===//

//===-------------------------------------------===//
Processing operation : 'memref.store'(0x7fbd98305040) {
  "memref.store"(%70, %57) : (i1, memref<i1>) -> ()


  * Pattern MetaPointer2Memref<mlir::memref::StoreOp> : 'memref.store -> ()' {
Trying to match "MetaPointer2Memref<mlir::memref::StoreOp>"
"MetaPointer2Memref<mlir::memref::StoreOp>" result 0
  } -> failure : pattern failed to match
} -> failure : pattern failed to match
//===-------------------------------------------===//

//===-------------------------------------------===//
Processing operation : 'memref.load'(0x7fbd98304fd0) {
  %70 = "memref.load"(%58) : (memref<i1>) -> i1


  * Pattern LoadSelect<mlir::memref::LoadOp> : 'memref.load -> ()' {
Trying to match "LoadSelect<mlir::memref::LoadOp>"
"LoadSelect<mlir::memref::LoadOp>" result 0
  } -> failure : pattern failed to match

  * Pattern MetaPointer2Memref<mlir::memref::LoadOp> : 'memref.load -> ()' {
Trying to match "MetaPointer2Memref<mlir::memref::LoadOp>"
"MetaPointer2Memref<mlir::memref::LoadOp>" result 0
  } -> failure : pattern failed to match
} -> failure : pattern failed to match
//===-------------------------------------------===//

//===-------------------------------------------===//
Processing operation : 'scf.if'(0x7fbd9816bdc0) {

  * Pattern MoveIntoIfs : 'scf.if -> ()' {
Trying to match "MoveIntoIfs"
"MoveIntoIfs" result 0
  } -> failure : pattern failed to match

  * Pattern MoveOutOfIfs : 'scf.if -> ()' {
Trying to match "MoveOutOfIfs"
"MoveOutOfIfs" result 0
  } -> failure : pattern failed to match

  * Pattern IfAndLazy : 'scf.if -> ()' {
Trying to match "IfAndLazy"
"IfAndLazy" result 0
  } -> failure : pattern failed to match

  * Pattern (anonymous namespace)::CombineIfs : 'scf.if -> ()' {
Trying to match "(anonymous namespace)::CombineIfs"
"(anonymous namespace)::CombineIfs" result 0
  } -> failure : pattern failed to match

  * Pattern (anonymous namespace)::CombineNestedIfs : 'scf.if -> ()' {
Trying to match "(anonymous namespace)::CombineNestedIfs"
"(anonymous namespace)::CombineNestedIfs" result 0
  } -> failure : pattern failed to match

  * Pattern (anonymous namespace)::ConditionPropagation : 'scf.if -> ()' {
Trying to match "(anonymous namespace)::ConditionPropagation"
"(anonymous namespace)::ConditionPropagation" result 0
  } -> failure : pattern failed to match

  * Pattern (anonymous namespace)::ConvertTrivialIfToSelect : 'scf.if -> ()' {
Trying to match "(anonymous namespace)::ConvertTrivialIfToSelect"
"(anonymous namespace)::ConvertTrivialIfToSelect" result 0
  } -> failure : pattern failed to match

  * Pattern (anonymous namespace)::RemoveEmptyElseBranch : 'scf.if -> ()' {
Trying to match "(anonymous namespace)::RemoveEmptyElseBranch"
"(anonymous namespace)::RemoveEmptyElseBranch" result 0
  } -> failure : pattern failed to match

  * Pattern (anonymous namespace)::RemoveStaticCondition : 'scf.if -> ()' {
Trying to match "(anonymous namespace)::RemoveStaticCondition"
"(anonymous namespace)::RemoveStaticCondition" result 0
  } -> failure : pattern failed to match

  * Pattern (anonymous namespace)::RemoveUnusedResults : 'scf.if -> ()' {
Trying to match "(anonymous namespace)::RemoveUnusedResults"
"(anonymous namespace)::RemoveUnusedResults" result 0
  } -> failure : pattern failed to match

  * Pattern (anonymous namespace)::ReplaceIfYieldWithConditionOrValue : 'scf.if -> ()' {
Trying to match "(anonymous namespace)::ReplaceIfYieldWithConditionOrValue"
"(anonymous namespace)::ReplaceIfYieldWithConditionOrValue" result 0
  } -> failure : pattern failed to match
} -> failure : pattern failed to match
//===-------------------------------------------===//

//===-------------------------------------------===//
Processing operation : 'scf.yield'(0x7fbd9816bd70) {
  "scf.yield"() : () -> ()

} -> failure : pattern failed to match
//===-------------------------------------------===//

//===-------------------------------------------===//
Processing operation : 'scf.execute_region'(0x7fbd9816be60) {

  * Pattern SingleBlockExecuteInliner : 'scf.execute_region -> ()' {
Trying to match "SingleBlockExecuteInliner"
    ** Replace : 'scf.execute_region'(0x7fbd9816be60)
    ** Erase   : 'scf.yield'(0x7fbd98304f70)
"SingleBlockExecuteInliner" result 1
  } -> success : pattern applied successfully
// *** IR Dump After Pattern Application ***
mlir-asm-printer: Verifying operation: func.func
func.func @example(%arg0: memref<?xf32>, %arg1: memref<?xf32>, %arg2: memref<?xf32>, %arg3: memref<?xf32>, %arg4: i32) attributes {llvm.linkage = #llvm.linkage<external>} {
  %c1_i32 = arith.constant 1 : i32
  %c0_i32 = arith.constant 0 : i32
  %true = arith.constant true
  %c0 = arith.constant 0 : index
  %0 = memref.alloca() : memref<1xi32>
  %1 = memref.cast %0 : memref<1xi32> to memref<?xi32>
  %2 = llvm.mlir.undef : i32
  memref.store %2, %1[%c0] : memref<?xi32>
  %3 = memref.alloca() : memref<1xi32>
  %4 = memref.cast %3 : memref<1xi32> to memref<?xi32>
  memref.store %2, %4[%c0] : memref<?xi32>
  %5 = memref.alloca() : memref<1xi32>
  %6 = memref.cast %5 : memref<1xi32> to memref<?xi32>
  memref.store %2, %6[%c0] : memref<?xi32>
  %7 = memref.alloca() : memref<1xi32>
  %8 = memref.cast %7 : memref<1xi32> to memref<?xi32>
  memref.store %2, %8[%c0] : memref<?xi32>
  %9 = memref.alloca() : memref<1xmemref<?xf32>>
  %10 = memref.cast %9 : memref<1xmemref<?xf32>> to memref<?xmemref<?xf32>>
  %11 = memref.alloca() : memref<1xmemref<?xf32>>
  %12 = memref.cast %11 : memref<1xmemref<?xf32>> to memref<?xmemref<?xf32>>
  %13 = memref.alloca() : memref<1xmemref<?xf32>>
  %14 = memref.cast %13 : memref<1xmemref<?xf32>> to memref<?xmemref<?xf32>>
  %15 = memref.alloca() : memref<1xmemref<?xf32>>
  %16 = memref.cast %15 : memref<1xmemref<?xf32>> to memref<?xmemref<?xf32>>
  memref.store %arg0, %16[%c0] : memref<?xmemref<?xf32>>
  memref.store %arg1, %14[%c0] : memref<?xmemref<?xf32>>
  memref.store %arg2, %12[%c0] : memref<?xmemref<?xf32>>
  memref.store %arg3, %10[%c0] : memref<?xmemref<?xf32>>
  memref.store %arg4, %8[%c0] : memref<?xi32>
  %17 = memref.alloca() : memref<i1>
  %18 = memref.alloca() : memref<i1>
  memref.store %true, %18[] : memref<i1>
  memref.store %true, %17[] : memref<i1>
  %19 = memref.load %17[] : memref<i1>
  scf.if %19 {
    %20 = memref.load %17[] : memref<i1>
    scf.if %20 {
      scf.execute_region {
        %21 = memref.load %17[] : memref<i1>
        scf.if %21 {
          scf.execute_region {
            %34 = memref.get_global @kbm3 : memref<1xi32>
            %35 = memref.cast %34 : memref<1xi32> to memref<?xi32>
            %36 = memref.load %35[%c0] : memref<?xi32>
            memref.store %36, %6[%c0] : memref<?xi32>
            scf.yield
          }
        }
        %22 = memref.alloca() : memref<i1>
        %23 = memref.alloca() : memref<i1>
        memref.store %true, %23[] : memref<i1>
        cf.br ^bb1
      ^bb1:  // 2 preds: ^bb0, ^bb2
        %24 = memref.load %6[%c0] : memref<?xi32>
        %25 = arith.cmpi sgt, %24, %c0_i32 : i32
        %26 = arith.extsi %25 : i1 to i32
        %27 = arith.cmpi ne, %26, %c0_i32 : i32
        %28 = memref.load %23[] : memref<i1>
        %29 = arith.andi %27, %28 : i1
        cf.cond_br %29, ^bb2, ^bb3
      ^bb2:  // pred: ^bb1
        %30 = memref.load %23[] : memref<i1>
        memref.store %30, %22[] : memref<i1>
        %31 = memref.load %22[] : memref<i1>
        scf.if %31 {
          %34 = memref.load %22[] : memref<i1>
          scf.if %34 {
            scf.execute_region {
              %35 = memref.load %22[] : memref<i1>
              scf.if %35 {
                scf.execute_region {
                  memref.store %c0_i32, %4[%c0] : memref<?xi32>
                  scf.yield
                }
              }
              %36 = memref.alloca() : memref<i1>
              %37 = memref.alloca() : memref<i1>
              memref.store %true, %37[] : memref<i1>
              cf.br ^bb1
            ^bb1:  // 2 preds: ^bb0, ^bb2
              %38 = memref.load %4[%c0] : memref<?xi32>
              %39 = memref.get_global @jm : memref<1xi32>
              %40 = memref.cast %39 : memref<1xi32> to memref<?xi32>
              %41 = memref.load %40[%c0] : memref<?xi32>
              %42 = arith.cmpi slt, %38, %41 : i32
              %43 = arith.extsi %42 : i1 to i32
              %44 = arith.cmpi ne, %43, %c0_i32 : i32
              %45 = memref.load %37[] : memref<i1>
              %46 = arith.andi %44, %45 : i1
              cf.cond_br %46, ^bb2, ^bb3
            ^bb2:  // pred: ^bb1
              %47 = memref.load %37[] : memref<i1>
              memref.store %47, %36[] : memref<i1>
              %48 = memref.load %36[] : memref<i1>
              scf.if %48 {
                %51 = memref.load %36[] : memref<i1>
                scf.if %51 {
                  scf.execute_region {
                    %52 = memref.load %36[] : memref<i1>
                    scf.if %52 {
                      scf.execute_region {
                        memref.store %c0_i32, %1[%c0] : memref<?xi32>
                        scf.yield
                      }
                    }
                    %53 = memref.alloca() : memref<i1>
                    %54 = memref.alloca() : memref<i1>
                    memref.store %true, %54[] : memref<i1>
                    cf.br ^bb1
                  ^bb1:  // 2 preds: ^bb0, ^bb2
                    %55 = memref.load %1[%c0] : memref<?xi32>
                    %56 = memref.get_global @im : memref<1xi32>
                    %57 = memref.cast %56 : memref<1xi32> to memref<?xi32>
                    %58 = memref.load %57[%c0] : memref<?xi32>
                    %59 = arith.cmpi slt, %55, %58 : i32
                    %60 = arith.extsi %59 : i1 to i32
                    %61 = arith.cmpi ne, %60, %c0_i32 : i32
                    %62 = memref.load %54[] : memref<i1>
                    %63 = arith.andi %61, %62 : i1
                    cf.cond_br %63, ^bb2, ^bb3
                  ^bb2:  // pred: ^bb1
                    %64 = memref.load %54[] : memref<i1>
                    memref.store %64, %53[] : memref<i1>
                    %65 = memref.load %53[] : memref<i1>
                    scf.if %65 {
                      %68 = memref.load %12[%c0] : memref<?xmemref<?xf32>>
                      %69 = memref.load %1[%c0] : memref<?xi32>
                      %70 = memref.load %4[%c0] : memref<?xi32>
                      %71 = memref.load %57[%c0] : memref<?xi32>
                      %72 = arith.muli %70, %71 : i32
                      %73 = arith.addi %69, %72 : i32
                      %74 = memref.load %6[%c0] : memref<?xi32>
                      %75 = arith.muli %74, %71 : i32
                      %76 = memref.load %40[%c0] : memref<?xi32>
                      %77 = arith.muli %75, %76 : i32
                      %78 = arith.addi %73, %77 : i32
                      %79 = arith.index_cast %78 : i32 to index
                      %80 = "polygeist.subindex"(%68, %79) : (memref<?xf32>, index) -> memref<?xf32>
                      %81 = "polygeist.subindex"(%80, %c0) : (memref<?xf32>, index) -> memref<?xf32>
                      %82 = memref.load %16[%c0] : memref<?xmemref<?xf32>>
                      %83 = arith.subi %74, %c1_i32 : i32
                      %84 = arith.muli %83, %71 : i32
                      %85 = arith.muli %84, %76 : i32
                      %86 = arith.addi %73, %85 : i32
                      %87 = arith.index_cast %86 : i32 to index
                      %88 = "polygeist.subindex"(%82, %87) : (memref<?xf32>, index) -> memref<?xf32>
                      %89 = "polygeist.subindex"(%88, %c0) : (memref<?xf32>, index) -> memref<?xf32>
                      %90 = memref.load %89[%c0] : memref<?xf32>
                      memref.store %90, %81[%c0] : memref<?xf32>
                    }
                    %66 = memref.load %54[] : memref<i1>
                    memref.store %66, %53[] : memref<i1>
                    %67 = memref.load %53[] : memref<i1>
                    scf.if %67 {
                      %68 = memref.load %0[%c0] : memref<1xi32>
                      %69 = arith.addi %68, %c1_i32 : i32
                      memref.store %69, %0[%c0] : memref<1xi32>
                    }
                    cf.br ^bb1
                  ^bb3:  // pred: ^bb1
                    scf.yield
                  }
                }
              }
              %49 = memref.load %37[] : memref<i1>
              memref.store %49, %36[] : memref<i1>
              %50 = memref.load %36[] : memref<i1>
              scf.if %50 {
                %51 = memref.load %3[%c0] : memref<1xi32>
                %52 = arith.addi %51, %c1_i32 : i32
                memref.store %52, %3[%c0] : memref<1xi32>
              }
              cf.br ^bb1
            ^bb3:  // pred: ^bb1
              scf.yield
            }
          }
        }
        %32 = memref.load %23[] : memref<i1>
        memref.store %32, %22[] : memref<i1>
        %33 = memref.load %22[] : memref<i1>
        scf.if %33 {
          %34 = memref.load %5[%c0] : memref<1xi32>
          %35 = arith.subi %34, %c1_i32 : i32
          memref.store %35, %5[%c0] : memref<1xi32>
        }
        cf.br ^bb1
      ^bb3:  // pred: ^bb1
        scf.yield
      }
    }
  }
  return
}


} -> success : pattern matched
//===-------------------------------------------===//

//===-------------------------------------------===//
Processing operation : 'memref.store'(0x7fbd98304ec0) {
  "memref.store"(%94, %85, %3) : (f32, memref<?xf32>, index) -> ()


  * Pattern MetaPointer2Memref<mlir::memref::StoreOp> : 'memref.store -> ()' {
Trying to match "MetaPointer2Memref<mlir::memref::StoreOp>"
"MetaPointer2Memref<mlir::memref::StoreOp>" result 0
  } -> failure : pattern failed to match
} -> failure : pattern failed to match
//===-------------------------------------------===//

//===-------------------------------------------===//
Processing operation : 'memref.load'(0x7fbd98304de0) {
  %94 = "memref.load"(%93, %3) : (memref<?xf32>, index) -> f32


  * Pattern LoadSelect<mlir::memref::LoadOp> : 'memref.load -> ()' {
Trying to match "LoadSelect<mlir::memref::LoadOp>"
"LoadSelect<mlir::memref::LoadOp>" result 0
  } -> failure : pattern failed to match

  * Pattern MetaPointer2Memref<mlir::memref::LoadOp> : 'memref.load -> ()' {
Trying to match "MetaPointer2Memref<mlir::memref::LoadOp>"
"MetaPointer2Memref<mlir::memref::LoadOp>" result 0
  } -> failure : pattern failed to match
} -> failure : pattern failed to match
//===-------------------------------------------===//

//===-------------------------------------------===//
Processing operation : 'polygeist.subindex'(0x7fbd98304cf0) {
  %93 = "polygeist.subindex"(%92, %3) : (memref<?xf32>, index) -> memref<?xf32>

} -> success : operation was folded
//===-------------------------------------------===//

//===-------------------------------------------===//
Processing operation : 'memref.load'(0x7fbd98304de0) {
  %93 = "memref.load"(%92, %3) : (memref<?xf32>, index) -> f32


  * Pattern LoadSelect<mlir::memref::LoadOp> : 'memref.load -> ()' {
Trying to match "LoadSelect<mlir::memref::LoadOp>"
"LoadSelect<mlir::memref::LoadOp>" result 0
  } -> failure : pattern failed to match

  * Pattern MetaPointer2Memref<mlir::memref::LoadOp> : 'memref.load -> ()' {
Trying to match "MetaPointer2Memref<mlir::memref::LoadOp>"
"MetaPointer2Memref<mlir::memref::LoadOp>" result 0
  } -> failure : pattern failed to match
} -> failure : pattern failed to match
//===-------------------------------------------===//

//===-------------------------------------------===//
Processing operation : 'polygeist.subindex'(0x7fbd98304c50) {
  %92 = "polygeist.subindex"(%86, %91) : (memref<?xf32>, index) -> memref<?xf32>


  * Pattern SubIndex2 : 'polygeist.subindex -> ()' {
Trying to match "SubIndex2"
"SubIndex2" result 0
  } -> failure : pattern failed to match

  * Pattern SubToCast : 'polygeist.subindex -> ()' {
Trying to match "SubToCast"
"SubToCast" result 0
  } -> failure : pattern failed to match

  * Pattern SimplifySubIndexUsers : 'polygeist.subindex -> ()' {
Trying to match "SimplifySubIndexUsers"
    ** Insert  : 'arith.addi'(0x7fbd9b0040e0)
    ** Insert  : 'memref.load'(0x7fbd9b004180)
    ** Replace : 'memref.load'(0x7fbd98304de0)
"SimplifySubIndexUsers" result 1
  } -> success : pattern applied successfully
// *** IR Dump After Pattern Application ***
mlir-asm-printer: Verifying operation: func.func
func.func @example(%arg0: memref<?xf32>, %arg1: memref<?xf32>, %arg2: memref<?xf32>, %arg3: memref<?xf32>, %arg4: i32) attributes {llvm.linkage = #llvm.linkage<external>} {
  %c1_i32 = arith.constant 1 : i32
  %c0_i32 = arith.constant 0 : i32
  %true = arith.constant true
  %c0 = arith.constant 0 : index
  %0 = memref.alloca() : memref<1xi32>
  %1 = memref.cast %0 : memref<1xi32> to memref<?xi32>
  %2 = llvm.mlir.undef : i32
  memref.store %2, %1[%c0] : memref<?xi32>
  %3 = memref.alloca() : memref<1xi32>
  %4 = memref.cast %3 : memref<1xi32> to memref<?xi32>
  memref.store %2, %4[%c0] : memref<?xi32>
  %5 = memref.alloca() : memref<1xi32>
  %6 = memref.cast %5 : memref<1xi32> to memref<?xi32>
  memref.store %2, %6[%c0] : memref<?xi32>
  %7 = memref.alloca() : memref<1xi32>
  %8 = memref.cast %7 : memref<1xi32> to memref<?xi32>
  memref.store %2, %8[%c0] : memref<?xi32>
  %9 = memref.alloca() : memref<1xmemref<?xf32>>
  %10 = memref.cast %9 : memref<1xmemref<?xf32>> to memref<?xmemref<?xf32>>
  %11 = memref.alloca() : memref<1xmemref<?xf32>>
  %12 = memref.cast %11 : memref<1xmemref<?xf32>> to memref<?xmemref<?xf32>>
  %13 = memref.alloca() : memref<1xmemref<?xf32>>
  %14 = memref.cast %13 : memref<1xmemref<?xf32>> to memref<?xmemref<?xf32>>
  %15 = memref.alloca() : memref<1xmemref<?xf32>>
  %16 = memref.cast %15 : memref<1xmemref<?xf32>> to memref<?xmemref<?xf32>>
  memref.store %arg0, %16[%c0] : memref<?xmemref<?xf32>>
  memref.store %arg1, %14[%c0] : memref<?xmemref<?xf32>>
  memref.store %arg2, %12[%c0] : memref<?xmemref<?xf32>>
  memref.store %arg3, %10[%c0] : memref<?xmemref<?xf32>>
  memref.store %arg4, %8[%c0] : memref<?xi32>
  %17 = memref.alloca() : memref<i1>
  %18 = memref.alloca() : memref<i1>
  memref.store %true, %18[] : memref<i1>
  memref.store %true, %17[] : memref<i1>
  %19 = memref.load %17[] : memref<i1>
  scf.if %19 {
    %20 = memref.load %17[] : memref<i1>
    scf.if %20 {
      scf.execute_region {
        %21 = memref.load %17[] : memref<i1>
        scf.if %21 {
          scf.execute_region {
            %34 = memref.get_global @kbm3 : memref<1xi32>
            %35 = memref.cast %34 : memref<1xi32> to memref<?xi32>
            %36 = memref.load %35[%c0] : memref<?xi32>
            memref.store %36, %6[%c0] : memref<?xi32>
            scf.yield
          }
        }
        %22 = memref.alloca() : memref<i1>
        %23 = memref.alloca() : memref<i1>
        memref.store %true, %23[] : memref<i1>
        cf.br ^bb1
      ^bb1:  // 2 preds: ^bb0, ^bb2
        %24 = memref.load %6[%c0] : memref<?xi32>
        %25 = arith.cmpi sgt, %24, %c0_i32 : i32
        %26 = arith.extsi %25 : i1 to i32
        %27 = arith.cmpi ne, %26, %c0_i32 : i32
        %28 = memref.load %23[] : memref<i1>
        %29 = arith.andi %27, %28 : i1
        cf.cond_br %29, ^bb2, ^bb3
      ^bb2:  // pred: ^bb1
        %30 = memref.load %23[] : memref<i1>
        memref.store %30, %22[] : memref<i1>
        %31 = memref.load %22[] : memref<i1>
        scf.if %31 {
          %34 = memref.load %22[] : memref<i1>
          scf.if %34 {
            scf.execute_region {
              %35 = memref.load %22[] : memref<i1>
              scf.if %35 {
                scf.execute_region {
                  memref.store %c0_i32, %4[%c0] : memref<?xi32>
                  scf.yield
                }
              }
              %36 = memref.alloca() : memref<i1>
              %37 = memref.alloca() : memref<i1>
              memref.store %true, %37[] : memref<i1>
              cf.br ^bb1
            ^bb1:  // 2 preds: ^bb0, ^bb2
              %38 = memref.load %4[%c0] : memref<?xi32>
              %39 = memref.get_global @jm : memref<1xi32>
              %40 = memref.cast %39 : memref<1xi32> to memref<?xi32>
              %41 = memref.load %40[%c0] : memref<?xi32>
              %42 = arith.cmpi slt, %38, %41 : i32
              %43 = arith.extsi %42 : i1 to i32
              %44 = arith.cmpi ne, %43, %c0_i32 : i32
              %45 = memref.load %37[] : memref<i1>
              %46 = arith.andi %44, %45 : i1
              cf.cond_br %46, ^bb2, ^bb3
            ^bb2:  // pred: ^bb1
              %47 = memref.load %37[] : memref<i1>
              memref.store %47, %36[] : memref<i1>
              %48 = memref.load %36[] : memref<i1>
              scf.if %48 {
                %51 = memref.load %36[] : memref<i1>
                scf.if %51 {
                  scf.execute_region {
                    %52 = memref.load %36[] : memref<i1>
                    scf.if %52 {
                      scf.execute_region {
                        memref.store %c0_i32, %1[%c0] : memref<?xi32>
                        scf.yield
                      }
                    }
                    %53 = memref.alloca() : memref<i1>
                    %54 = memref.alloca() : memref<i1>
                    memref.store %true, %54[] : memref<i1>
                    cf.br ^bb1
                  ^bb1:  // 2 preds: ^bb0, ^bb2
                    %55 = memref.load %1[%c0] : memref<?xi32>
                    %56 = memref.get_global @im : memref<1xi32>
                    %57 = memref.cast %56 : memref<1xi32> to memref<?xi32>
                    %58 = memref.load %57[%c0] : memref<?xi32>
                    %59 = arith.cmpi slt, %55, %58 : i32
                    %60 = arith.extsi %59 : i1 to i32
                    %61 = arith.cmpi ne, %60, %c0_i32 : i32
                    %62 = memref.load %54[] : memref<i1>
                    %63 = arith.andi %61, %62 : i1
                    cf.cond_br %63, ^bb2, ^bb3
                  ^bb2:  // pred: ^bb1
                    %64 = memref.load %54[] : memref<i1>
                    memref.store %64, %53[] : memref<i1>
                    %65 = memref.load %53[] : memref<i1>
                    scf.if %65 {
                      %68 = memref.load %12[%c0] : memref<?xmemref<?xf32>>
                      %69 = memref.load %1[%c0] : memref<?xi32>
                      %70 = memref.load %4[%c0] : memref<?xi32>
                      %71 = memref.load %57[%c0] : memref<?xi32>
                      %72 = arith.muli %70, %71 : i32
                      %73 = arith.addi %69, %72 : i32
                      %74 = memref.load %6[%c0] : memref<?xi32>
                      %75 = arith.muli %74, %71 : i32
                      %76 = memref.load %40[%c0] : memref<?xi32>
                      %77 = arith.muli %75, %76 : i32
                      %78 = arith.addi %73, %77 : i32
                      %79 = arith.index_cast %78 : i32 to index
                      %80 = "polygeist.subindex"(%68, %79) : (memref<?xf32>, index) -> memref<?xf32>
                      %81 = "polygeist.subindex"(%80, %c0) : (memref<?xf32>, index) -> memref<?xf32>
                      %82 = memref.load %16[%c0] : memref<?xmemref<?xf32>>
                      %83 = arith.subi %74, %c1_i32 : i32
                      %84 = arith.muli %83, %71 : i32
                      %85 = arith.muli %84, %76 : i32
                      %86 = arith.addi %73, %85 : i32
                      %87 = arith.index_cast %86 : i32 to index
                      %88 = "polygeist.subindex"(%82, %87) : (memref<?xf32>, index) -> memref<?xf32>
                      %89 = arith.addi %c0, %87 : index
                      %90 = memref.load %82[%89] : memref<?xf32>
                      memref.store %90, %81[%c0] : memref<?xf32>
                    }
                    %66 = memref.load %54[] : memref<i1>
                    memref.store %66, %53[] : memref<i1>
                    %67 = memref.load %53[] : memref<i1>
                    scf.if %67 {
                      %68 = memref.load %0[%c0] : memref<1xi32>
                      %69 = arith.addi %68, %c1_i32 : i32
                      memref.store %69, %0[%c0] : memref<1xi32>
                    }
                    cf.br ^bb1
                  ^bb3:  // pred: ^bb1
                    scf.yield
                  }
                }
              }
              %49 = memref.load %37[] : memref<i1>
              memref.store %49, %36[] : memref<i1>
              %50 = memref.load %36[] : memref<i1>
              scf.if %50 {
                %51 = memref.load %3[%c0] : memref<1xi32>
                %52 = arith.addi %51, %c1_i32 : i32
                memref.store %52, %3[%c0] : memref<1xi32>
              }
              cf.br ^bb1
            ^bb3:  // pred: ^bb1
              scf.yield
            }
          }
        }
        %32 = memref.load %23[] : memref<i1>
        memref.store %32, %22[] : memref<i1>
        %33 = memref.load %22[] : memref<i1>
        scf.if %33 {
          %34 = memref.load %5[%c0] : memref<1xi32>
          %35 = arith.subi %34, %c1_i32 : i32
          memref.store %35, %5[%c0] : memref<1xi32>
        }
        cf.br ^bb1
      ^bb3:  // pred: ^bb1
        scf.yield
      }
    }
  }
  return
}


} -> success : pattern matched
//===-------------------------------------------===//

//===-------------------------------------------===//
Processing operation : 'polygeist.subindex'(0x7fbd98304c50) {
  %92 = "polygeist.subindex"(%86, %91) : (memref<?xf32>, index) -> memref<?xf32>

} -> success : operation is trivially dead
//===-------------------------------------------===//

//===-------------------------------------------===//
Processing operation : 'memref.store'(0x7fbd98304ec0) {
  "memref.store"(%93, %85, %3) : (f32, memref<?xf32>, index) -> ()


  * Pattern MetaPointer2Memref<mlir::memref::StoreOp> : 'memref.store -> ()' {
Trying to match "MetaPointer2Memref<mlir::memref::StoreOp>"
"MetaPointer2Memref<mlir::memref::StoreOp>" result 0
  } -> failure : pattern failed to match
} -> failure : pattern failed to match
//===-------------------------------------------===//

//===-------------------------------------------===//
Processing operation : 'memref.load'(0x7fbd9b004180) {
  %93 = "memref.load"(%86, %92) : (memref<?xf32>, index) -> f32


  * Pattern LoadSelect<mlir::memref::LoadOp> : 'memref.load -> ()' {
Trying to match "LoadSelect<mlir::memref::LoadOp>"
"LoadSelect<mlir::memref::LoadOp>" result 0
  } -> failure : pattern failed to match

  * Pattern MetaPointer2Memref<mlir::memref::LoadOp> : 'memref.load -> ()' {
Trying to match "MetaPointer2Memref<mlir::memref::LoadOp>"
"MetaPointer2Memref<mlir::memref::LoadOp>" result 0
  } -> failure : pattern failed to match
} -> failure : pattern failed to match
//===-------------------------------------------===//

//===-------------------------------------------===//
Processing operation : 'arith.addi'(0x7fbd9b0040e0) {
  %92 = "arith.addi"(%3, %91) : (index, index) -> index

} -> success : operation was folded
//===-------------------------------------------===//

* Pattern (anonymous namespace)::AddIAddConstant : 'arith.addi -> (arith.addi, arith.constant)' {
Trying to match "(anonymous namespace)::AddIAddConstant"
  ** Failure : castedOp1 is not ::mlir::arith::AddIOp type
"(anonymous namespace)::AddIAddConstant" result 0
} -> failure : pattern failed to match

* Pattern (anonymous namespace)::AddISubConstantRHS : 'arith.addi -> (arith.addi, arith.constant)' {
Trying to match "(anonymous namespace)::AddISubConstantRHS"
  ** Failure : castedOp1 is not ::mlir::arith::SubIOp type
"(anonymous namespace)::AddISubConstantRHS" result 0
} -> failure : pattern failed to match

* Pattern (anonymous namespace)::AddISubConstantLHS : 'arith.addi -> (arith.constant, arith.subi)' {
Trying to match "(anonymous namespace)::AddISubConstantLHS"
  ** Failure : castedOp1 is not ::mlir::arith::SubIOp type
"(anonymous namespace)::AddISubConstantLHS" result 0
} -> failure : pattern failed to match
} -> failure : pattern failed to match
//===-------------------------------------------===//

//===-------------------------------------------===//
Processing operation : 'arith.index_cast'(0x7fbd98304bd0) {
  %91 = "arith.index_cast"(%90) : (i32) -> index


  * Pattern (anonymous namespace)::IndexCastOfIndexCast : 'arith.index_cast -> ()' {
Trying to match "(anonymous namespace)::IndexCastOfIndexCast"
    ** Failure : castedOp1 is not ::mlir::arith::IndexCastOp type
"(anonymous namespace)::IndexCastOfIndexCast" result 0
  } -> failure : pattern failed to match

  * Pattern (anonymous namespace)::IndexCastOfExtSI : 'arith.index_cast -> (arith.index_cast)' {
Trying to match "(anonymous namespace)::IndexCastOfExtSI"
    ** Failure : castedOp1 is not ::mlir::arith::ExtSIOp type
"(anonymous namespace)::IndexCastOfExtSI" result 0
  } -> failure : pattern failed to match
} -> failure : pattern failed to match
//===-------------------------------------------===//

//===-------------------------------------------===//
Processing operation : 'arith.addi'(0x7fbd98304b30) {
  %90 = "arith.addi"(%77, %89) : (i32, i32) -> i32


  * Pattern (anonymous namespace)::AddIAddConstant : 'arith.addi -> (arith.addi, arith.constant)' {
Trying to match "(anonymous namespace)::AddIAddConstant"
    ** Failure : castedOp1 is not ::mlir::arith::ConstantOp type
"(anonymous namespace)::AddIAddConstant" result 0
  } -> failure : pattern failed to match

  * Pattern (anonymous namespace)::AddISubConstantRHS : 'arith.addi -> (arith.addi, arith.constant)' {
Trying to match "(anonymous namespace)::AddISubConstantRHS"
    ** Failure : castedOp1 is not ::mlir::arith::SubIOp type
"(anonymous namespace)::AddISubConstantRHS" result 0
  } -> failure : pattern failed to match

  * Pattern (anonymous namespace)::AddISubConstantLHS : 'arith.addi -> (arith.constant, arith.subi)' {
Trying to match "(anonymous namespace)::AddISubConstantLHS"
    ** Failure : castedOp1 is not ::mlir::arith::SubIOp type
"(anonymous namespace)::AddISubConstantLHS" result 0
  } -> failure : pattern failed to match
} -> failure : pattern failed to match
//===-------------------------------------------===//

//===-------------------------------------------===//
Processing operation : 'arith.muli'(0x7fbd98304a90) {
  %89 = "arith.muli"(%88, %80) : (i32, i32) -> i32


  * Pattern MulDivMul : 'arith.muli -> ()' {
Trying to match "MulDivMul"
"MulDivMul" result 0
  } -> failure : pattern failed to match
} -> failure : pattern failed to match
//===-------------------------------------------===//

//===-------------------------------------------===//
Processing operation : 'arith.muli'(0x7fbd98304830) {
  %88 = "arith.muli"(%87, %75) : (i32, i32) -> i32


  * Pattern MulDivMul : 'arith.muli -> ()' {
Trying to match "MulDivMul"
"MulDivMul" result 0
  } -> failure : pattern failed to match
} -> failure : pattern failed to match
//===-------------------------------------------===//

//===-------------------------------------------===//
Processing operation : 'arith.subi'(0x7fbd983045d0) {
  %87 = "arith.subi"(%78, %0) : (i32, i32) -> i32


  * Pattern (anonymous namespace)::SubIRHSAddConstant : 'arith.subi -> (arith.addi, arith.constant)' {
Trying to match "(anonymous namespace)::SubIRHSAddConstant"
    ** Failure : castedOp1 is not ::mlir::arith::AddIOp type
"(anonymous namespace)::SubIRHSAddConstant" result 0
  } -> failure : pattern failed to match

  * Pattern (anonymous namespace)::SubILHSAddConstant : 'arith.subi -> (arith.constant, arith.subi)' {
Trying to match "(anonymous namespace)::SubILHSAddConstant"
    ** Failure : castedOp1 is not ::mlir::arith::ConstantOp type
"(anonymous namespace)::SubILHSAddConstant" result 0
  } -> failure : pattern failed to match

  * Pattern (anonymous namespace)::SubIRHSSubConstantRHS : 'arith.subi -> (arith.constant, arith.subi)' {
Trying to match "(anonymous namespace)::SubIRHSSubConstantRHS"
    ** Failure : castedOp1 is not ::mlir::arith::SubIOp type
"(anonymous namespace)::SubIRHSSubConstantRHS" result 0
  } -> failure : pattern failed to match

  * Pattern (anonymous namespace)::SubIRHSSubConstantLHS : 'arith.subi -> (arith.constant, arith.subi)' {
Trying to match "(anonymous namespace)::SubIRHSSubConstantLHS"
    ** Failure : castedOp1 is not ::mlir::arith::SubIOp type
"(anonymous namespace)::SubIRHSSubConstantLHS" result 0
  } -> failure : pattern failed to match

  * Pattern (anonymous namespace)::SubILHSSubConstantRHS : 'arith.subi -> (arith.constant, arith.subi)' {
Trying to match "(anonymous namespace)::SubILHSSubConstantRHS"
    ** Failure : castedOp1 is not ::mlir::arith::ConstantOp type
"(anonymous namespace)::SubILHSSubConstantRHS" result 0
  } -> failure : pattern failed to match

  * Pattern (anonymous namespace)::SubILHSSubConstantLHS : 'arith.subi -> (arith.addi, arith.constant)' {
Trying to match "(anonymous namespace)::SubILHSSubConstantLHS"
    ** Failure : castedOp1 is not ::mlir::arith::ConstantOp type
"(anonymous namespace)::SubILHSSubConstantLHS" result 0
  } -> failure : pattern failed to match

  * Pattern (anonymous namespace)::SubISubILHSRHSLHS : 'arith.subi -> (arith.constant, arith.subi)' {
Trying to match "(anonymous namespace)::SubISubILHSRHSLHS"
    ** Failure : castedOp1 is not ::mlir::arith::SubIOp type
"(anonymous namespace)::SubISubILHSRHSLHS" result 0
  } -> failure : pattern failed to match
} -> failure : pattern failed to match
//===-------------------------------------------===//

//===-------------------------------------------===//
Processing operation : 'arith.constant'(0x7fbd98304580) {
  %0 = "arith.constant"() {value = 1 : i32} : () -> i32

} -> failure : pattern failed to match
//===-------------------------------------------===//

//===-------------------------------------------===//
Processing operation : 'memref.load'(0x7fbd9816cdd0) {
  %86 = "memref.load"(%20, %3) : (memref<?xmemref<?xf32>>, index) -> memref<?xf32>

} -> success : operation was folded
//===-------------------------------------------===//

* Pattern LoadSelect<mlir::memref::LoadOp> : 'memref.load -> ()' {
Trying to match "LoadSelect<mlir::memref::LoadOp>"
"LoadSelect<mlir::memref::LoadOp>" result 0
} -> failure : pattern failed to match

* Pattern MetaPointer2Memref<mlir::memref::LoadOp> : 'memref.load -> ()' {
Trying to match "MetaPointer2Memref<mlir::memref::LoadOp>"
"MetaPointer2Memref<mlir::memref::LoadOp>" result 0
} -> failure : pattern failed to match
} -> failure : pattern failed to match
//===-------------------------------------------===//

//===-------------------------------------------===//
Processing operation : 'polygeist.subindex'(0x7fbd9816cce0) {
  %85 = "polygeist.subindex"(%84, %3) : (memref<?xf32>, index) -> memref<?xf32>

} -> success : operation was folded
//===-------------------------------------------===//

//===-------------------------------------------===//
Processing operation : 'memref.store'(0x7fbd98304ec0) {
  "memref.store"(%92, %84, %3) : (f32, memref<?xf32>, index) -> ()


  * Pattern MetaPointer2Memref<mlir::memref::StoreOp> : 'memref.store -> ()' {
Trying to match "MetaPointer2Memref<mlir::memref::StoreOp>"
"MetaPointer2Memref<mlir::memref::StoreOp>" result 0
  } -> failure : pattern failed to match
} -> failure : pattern failed to match
//===-------------------------------------------===//

//===-------------------------------------------===//
Processing operation : 'polygeist.subindex'(0x7fbd9816cbc0) {
  %84 = "polygeist.subindex"(%72, %83) : (memref<?xf32>, index) -> memref<?xf32>


  * Pattern SubIndex2 : 'polygeist.subindex -> ()' {
Trying to match "SubIndex2"
"SubIndex2" result 0
  } -> failure : pattern failed to match

  * Pattern SubToCast : 'polygeist.subindex -> ()' {
Trying to match "SubToCast"
"SubToCast" result 0
  } -> failure : pattern failed to match

  * Pattern SimplifySubIndexUsers : 'polygeist.subindex -> ()' {
Trying to match "SimplifySubIndexUsers"
    ** Insert  : 'arith.addi'(0x7fbd98165e60)
    ** Insert  : 'memref.store'(0x7fbd9816a410)
    ** Replace : 'memref.store'(0x7fbd98304ec0)
"SimplifySubIndexUsers" result 1
  } -> success : pattern applied successfully
// *** IR Dump After Pattern Application ***
mlir-asm-printer: Verifying operation: func.func
…
%10 = arith.index_cast %9 : index to i32
Checking for parallel hoist: mlir-asm-printer: Verifying operation: func.func
%12 = scf.while (%arg6 = %c0_i32) : (i32) -> i32 {
  %13 = affine.load %5[0] : memref<1xi32>
  %14 = arith.cmpi slt, %arg6, %13 : i32
  scf.condition(%14) %arg6 : i32
} do {
^bb0(%arg6: i32):
  %13:2 = scf.while (%arg7 = %c0_i32) : (i32) -> (i32, i32) {
    %15 = affine.load %6[0] : memref<1xi32>
    %16 = arith.cmpi slt, %arg7, %15 : i32
    scf.condition(%16) %15, %arg7 : i32, i32
  } do {
  ^bb0(%arg7: i32, %arg8: i32):
    %15 = arith.muli %arg6, %arg7 : i32
    %16 = arith.addi %arg8, %15 : i32
    %17 = arith.muli %10, %arg7 : i32
    %18 = affine.load %5[0] : memref<1xi32>
    %19 = arith.muli %17, %18 : i32
    %20 = arith.addi %16, %19 : i32
    %21 = arith.index_cast %20 : i32 to index
    %22 = arith.muli %11, %arg7 : i32
    %23 = arith.muli %22, %18 : i32
    %24 = arith.addi %16, %23 : i32
    %25 = arith.index_cast %24 : i32 to index
    %26 = arith.addi %25, %c0 : index
    %27 = memref.load %arg0[%26] : memref<?xf32>
    %28 = arith.addi %21, %c0 : index
    memref.store %27, %arg2[%28] : memref<?xf32>
    %29 = arith.addi %arg8, %c1_i32 : i32
    scf.yield %29 : i32
  }
  %14 = arith.addi %arg6, %c1_i32 : i32
  scf.yield %14 : i32
}
Checking for parallel hoist: mlir-asm-printer: Verifying operation: func.func
%13 = affine.load %5[0] : memref<1xi32>
ImplicitTypeIDRegistry::lookupOrInsert(mlir::MemoryEffects::Free)
Checking for parallel hoist: mlir-asm-printer: Verifying operation: func.func
%14 = arith.cmpi slt, %arg6, %13 : i32
Checking for parallel hoist: mlir-asm-printer: Verifying operation: func.func
scf.condition(%14) %arg6 : i32
Checking for parallel hoist: mlir-asm-printer: Verifying operation: func.func
%13:2 = scf.while (%arg7 = %c0_i32) : (i32) -> (i32, i32) {
  %15 = affine.load %6[0] : memref<1xi32>
  %16 = arith.cmpi slt, %arg7, %15 : i32
  scf.condition(%16) %15, %arg7 : i32, i32
} do {
^bb0(%arg7: i32, %arg8: i32):
  %15 = arith.muli %arg6, %arg7 : i32
  %16 = arith.addi %arg8, %15 : i32
  %17 = arith.muli %10, %arg7 : i32
  %18 = affine.load %5[0] : memref<1xi32>
  %19 = arith.muli %17, %18 : i32
  %20 = arith.addi %16, %19 : i32
  %21 = arith.index_cast %20 : i32 to index
  %22 = arith.muli %11, %arg7 : i32
  %23 = arith.muli %22, %18 : i32
  %24 = arith.addi %16, %23 : i32
  %25 = arith.index_cast %24 : i32 to index
  %26 = arith.addi %25, %c0 : index
  %27 = memref.load %arg0[%26] : memref<?xf32>
  %28 = arith.addi %21, %c0 : index
  memref.store %27, %arg2[%28] : memref<?xf32>
  %29 = arith.addi %arg8, %c1_i32 : i32
  scf.yield %29 : i32
}
Checking for parallel hoist: mlir-asm-printer: Verifying operation: func.func
%15 = affine.load %6[0] : memref<1xi32>
 - cannot hoist due to read->write conflict: mlir-asm-printer: Verifying operation: func.func
memref.store %27, %arg2[%28] : memref<?xf32>
 - cannot hoist due to inner: mlir-asm-printer: Verifying operation: func.func
%15 = affine.load %6[0] : memref<1xi32>
 - cannot hoist due to inner: mlir-asm-printer: Verifying operation: func.func
%13:2 = scf.while (%arg7 = %c0_i32) : (i32) -> (i32, i32) {
  %15 = affine.load %6[0] : memref<1xi32>
  %16 = arith.cmpi slt, %arg7, %15 : i32
  scf.condition(%16) %15, %arg7 : i32, i32
} do {
^bb0(%arg7: i32, %arg8: i32):
  %15 = arith.muli %arg6, %arg7 : i32
  %16 = arith.addi %arg8, %15 : i32
  %17 = arith.muli %10, %arg7 : i32
  %18 = affine.load %5[0] : memref<1xi32>
  %19 = arith.muli %17, %18 : i32
  %20 = arith.addi %16, %19 : i32
  %21 = arith.index_cast %20 : i32 to index
  %22 = arith.muli %11, %arg7 : i32
  %23 = arith.muli %22, %18 : i32
  %24 = arith.addi %16, %23 : i32
  %25 = arith.index_cast %24 : i32 to index
  %26 = arith.addi %25, %c0 : index
  %27 = memref.load %arg0[%26] : memref<?xf32>
  %28 = arith.addi %21, %c0 : index
  memref.store %27, %arg2[%28] : memref<?xf32>
  %29 = arith.addi %arg8, %c1_i32 : i32
  scf.yield %29 : i32
}
Checking for parallel hoist: mlir-asm-printer: Verifying operation: func.func
%14 = arith.cmpi slt, %arg6, %13 : i32
 - cannot hoist due to operand: <block argument> of type 'i32' at index: 0
Checking for parallel hoist: mlir-asm-printer: Verifying operation: func.func
%16 = arith.cmpi slt, %arg7, %15 : i32
 - cannot hoist due to operand: <block argument> of type 'i32' at index: 0
Checking for parallel hoist: mlir-asm-printer: Verifying operation: func.func
%15 = arith.muli %arg6, %arg7 : i32
 - cannot hoist due to operand: <block argument> of type 'i32' at index: 0
Checking for parallel hoist: mlir-asm-printer: Verifying operation: func.func
%16 = arith.addi %arg8, %15 : i32
 - cannot hoist due to operand: <block argument> of type 'i32' at index: 1
Checking for parallel hoist: mlir-asm-printer: Verifying operation: func.func
%17 = arith.muli %10, %arg7 : i32
 - cannot hoist due to operand: mlir-asm-printer: Verifying operation: builtin.module
%10 = arith.index_cast %9 : index to i32
Checking for parallel hoist: mlir-asm-printer: Verifying operation: func.func
%19 = arith.muli %17, %18 : i32
 - cannot hoist due to operand: mlir-asm-printer: Verifying operation: builtin.module
%17 = arith.muli %10, %arg7 : i32
Checking for parallel hoist: mlir-asm-printer: Verifying operation: func.func
%20 = arith.addi %16, %19 : i32
 - cannot hoist due to operand: mlir-asm-printer: Verifying operation: builtin.module
%16 = arith.addi %arg8, %15 : i32
Checking for parallel hoist: mlir-asm-printer: Verifying operation: func.func
%21 = arith.index_cast %20 : i32 to index
 - cannot hoist due to operand: mlir-asm-printer: Verifying operation: builtin.module
%20 = arith.addi %16, %19 : i32
Checking for parallel hoist: mlir-asm-printer: Verifying operation: func.func
%22 = arith.muli %11, %arg7 : i32
 - cannot hoist due to operand: mlir-asm-printer: Verifying operation: builtin.module
%11 = arith.addi %10, %c-1_i32 : i32
Checking for parallel hoist: mlir-asm-printer: Verifying operation: func.func
%23 = arith.muli %22, %18 : i32
 - cannot hoist due to operand: mlir-asm-printer: Verifying operation: builtin.module
%22 = arith.muli %11, %arg7 : i32
Checking for parallel hoist: mlir-asm-printer: Verifying operation: func.func
%24 = arith.addi %16, %23 : i32
 - cannot hoist due to operand: mlir-asm-printer: Verifying operation: builtin.module
%16 = arith.addi %arg8, %15 : i32
Checking for parallel hoist: mlir-asm-printer: Verifying operation: func.func
%25 = arith.index_cast %24 : i32 to index
 - cannot hoist due to operand: mlir-asm-printer: Verifying operation: builtin.module
%24 = arith.addi %16, %23 : i32
Checking for parallel hoist: mlir-asm-printer: Verifying operation: func.func
%26 = arith.addi %25, %c0 : index
 - cannot hoist due to operand: mlir-asm-printer: Verifying operation: builtin.module
%25 = arith.index_cast %24 : i32 to index
Checking for parallel hoist: mlir-asm-printer: Verifying operation: func.func
%28 = arith.addi %21, %c0 : index
 - cannot hoist due to operand: mlir-asm-printer: Verifying operation: builtin.module
%21 = arith.index_cast %20 : i32 to index
Checking for parallel hoist: mlir-asm-printer: Verifying operation: func.func
%29 = arith.addi %arg8, %c1_i32 : i32
 - cannot hoist due to operand: <block argument> of type 'i32' at index: 1
Checking for parallel hoist: mlir-asm-printer: Verifying operation: func.func
%14 = arith.addi %arg6, %c1_i32 : i32
 - cannot hoist due to operand: <block argument> of type 'i32' at index: 0


Modified loop:
mlir-asm-printer: Verifying operation: builtin.module
scf.for %arg5 = %c1 to %3 step %c1 {
  %7 = arith.subi %arg5, %c1 : index
  %8 = arith.muli %7, %c-1 : index
  %9 = arith.addi %4, %8 : index
  %10 = arith.index_cast %9 : index to i32
  %11 = arith.addi %10, %c-1_i32 : i32
  %12 = scf.while (%arg6 = %c0_i32) : (i32) -> i32 {
    %13 = affine.load %5[0] : memref<1xi32>
    %14 = arith.cmpi slt, %arg6, %13 : i32
    scf.condition(%14) %arg6 : i32
  } do {
  ^bb0(%arg6: i32):
    %13:2 = scf.while (%arg7 = %c0_i32) : (i32) -> (i32, i32) {
      %15 = affine.load %6[0] : memref<1xi32>
      %16 = arith.cmpi slt, %arg7, %15 : i32
      scf.condition(%16) %15, %arg7 : i32, i32
    } do {
    ^bb0(%arg7: i32, %arg8: i32):
      %15 = arith.muli %arg6, %arg7 : i32
      %16 = arith.addi %arg8, %15 : i32
      %17 = arith.muli %10, %arg7 : i32
      %18 = affine.load %5[0] : memref<1xi32>
      %19 = arith.muli %17, %18 : i32
      %20 = arith.addi %16, %19 : i32
      %21 = arith.index_cast %20 : i32 to index
      %22 = arith.muli %11, %arg7 : i32
      %23 = arith.muli %22, %18 : i32
      %24 = arith.addi %16, %23 : i32
      %25 = arith.index_cast %24 : i32 to index
      %26 = arith.addi %25, %c0 : index
      %27 = memref.load %arg0[%26] : memref<?xf32>
      %28 = arith.addi %21, %c0 : index
      memref.store %27, %arg2[%28] : memref<?xf32>
      %29 = arith.addi %arg8, %c1_i32 : i32
      scf.yield %29 : i32
    }
    %14 = arith.addi %arg6, %c1_i32 : i32
    scf.yield %14 : i32
  }
}
//===-------------------------------------------===//
Processing operation : 'func.return'(0x7fbd9800c610) {
  "func.return"() : () -> ()

} -> failure : pattern failed to match
//===-------------------------------------------===//

//===-------------------------------------------===//
Processing operation : 'scf.for'(0x7fbd9b105a30) {

  * Pattern AlwaysAllocaScopeHoister<mlir::scf::ForOp> : 'scf.for -> ()' {
Trying to match "AlwaysAllocaScopeHoister<mlir::scf::ForOp>"
"AlwaysAllocaScopeHoister<mlir::scf::ForOp>" result 0
  } -> failure : pattern failed to match

  * Pattern InductiveVarRemoval : 'scf.for -> ()' {
Trying to match "InductiveVarRemoval"
"InductiveVarRemoval" result 0
  } -> failure : pattern failed to match

  * Pattern (anonymous namespace)::ForOpIterArgsFolder : 'scf.for -> ()' {
Trying to match "(anonymous namespace)::ForOpIterArgsFolder"
"(anonymous namespace)::ForOpIterArgsFolder" result 0
  } -> failure : pattern failed to match

  * Pattern (anonymous namespace)::SimplifyTrivialLoops : 'scf.for -> ()' {
Trying to match "(anonymous namespace)::SimplifyTrivialLoops"
"(anonymous namespace)::SimplifyTrivialLoops" result 0
  } -> failure : pattern failed to match

  * Pattern (anonymous namespace)::LastTensorLoadCanonicalization : 'scf.for -> ()' {
Trying to match "(anonymous namespace)::LastTensorLoadCanonicalization"
"(anonymous namespace)::LastTensorLoadCanonicalization" result 0
  } -> failure : pattern failed to match

  * Pattern (anonymous namespace)::ForOpTensorCastFolder : 'scf.for -> ()' {
Trying to match "(anonymous namespace)::ForOpTensorCastFolder"
"(anonymous namespace)::ForOpTensorCastFolder" result 0
  } -> failure : pattern failed to match
} -> failure : pattern failed to match
//===-------------------------------------------===//

//===-------------------------------------------===//
Processing operation : 'scf.yield'(0x7fbd9b106420) {
  "scf.yield"() : () -> ()

} -> failure : pattern failed to match
//===-------------------------------------------===//

//===-------------------------------------------===//
Processing operation : 'scf.while'(0x7fbd9b106870) {

  * Pattern (anonymous namespace)::RemoveLoopInvariantArgsFromBeforeBlock : 'scf.while -> ()' {
Trying to match "(anonymous namespace)::RemoveLoopInvariantArgsFromBeforeBlock"
"(anonymous namespace)::RemoveLoopInvariantArgsFromBeforeBlock" result 0
  } -> failure : pattern failed to match

  * Pattern (anonymous namespace)::RemoveLoopInvariantValueYielded : 'scf.while -> ()' {
Trying to match "(anonymous namespace)::RemoveLoopInvariantValueYielded"
"(anonymous namespace)::RemoveLoopInvariantValueYielded" result 0
  } -> failure : pattern failed to match

  * Pattern (anonymous namespace)::WhileConditionTruth : 'scf.while -> ()' {
Trying to match "(anonymous namespace)::WhileConditionTruth"
"(anonymous namespace)::WhileConditionTruth" result 0
  } -> failure : pattern failed to match

  * Pattern (anonymous namespace)::WhileCmpCond : 'scf.while -> ()' {
Trying to match "(anonymous namespace)::WhileCmpCond"
"(anonymous namespace)::WhileCmpCond" result 0
  } -> failure : pattern failed to match

  * Pattern (anonymous namespace)::WhileUnusedResult : 'scf.while -> ()' {
Trying to match "(anonymous namespace)::WhileUnusedResult"
"(anonymous namespace)::WhileUnusedResult" result 0
  } -> failure : pattern failed to match
} -> failure : pattern failed to match
//===-------------------------------------------===//

//===-------------------------------------------===//
Processing operation : 'scf.yield'(0x7fbd9b1056d0) {
  "scf.yield"(%20) : (i32) -> ()

} -> failure : pattern failed to match
//===-------------------------------------------===//

//===-------------------------------------------===//
Processing operation : 'arith.addi'(0x7fbd9800bb40) {
  %20 = "arith.addi"(%arg6, %1) : (i32, i32) -> i32


  * Pattern (anonymous namespace)::AddIAddConstant : 'arith.addi -> (arith.addi, arith.constant)' {
Trying to match "(anonymous namespace)::AddIAddConstant"
    ** Failure : There's no operation that defines operand 0 of castedOp0
"(anonymous namespace)::AddIAddConstant" result 0
  } -> failure : pattern failed to match

  * Pattern (anonymous namespace)::AddISubConstantRHS : 'arith.addi -> (arith.addi, arith.constant)' {
Trying to match "(anonymous namespace)::AddISubConstantRHS"
    ** Failure : There's no operation that defines operand 0 of castedOp0
"(anonymous namespace)::AddISubConstantRHS" result 0
  } -> failure : pattern failed to match

  * Pattern (anonymous namespace)::AddISubConstantLHS : 'arith.addi -> (arith.constant, arith.subi)' {
Trying to match "(anonymous namespace)::AddISubConstantLHS"
    ** Failure : There's no operation that defines operand 0 of castedOp0
"(anonymous namespace)::AddISubConstantLHS" result 0
  } -> failure : pattern failed to match
} -> failure : pattern failed to match
//===-------------------------------------------===//

//===-------------------------------------------===//
Processing operation : 'scf.while'(0x7fbd9b306c90) {

  * Pattern (anonymous namespace)::RemoveLoopInvariantArgsFromBeforeBlock : 'scf.while -> ()' {
Trying to match "(anonymous namespace)::RemoveLoopInvariantArgsFromBeforeBlock"
"(anonymous namespace)::RemoveLoopInvariantArgsFromBeforeBlock" result 0
  } -> failure : pattern failed to match

  * Pattern (anonymous namespace)::RemoveLoopInvariantValueYielded : 'scf.while -> ()' {
Trying to match "(anonymous namespace)::RemoveLoopInvariantValueYielded"
"(anonymous namespace)::RemoveLoopInvariantValueYielded" result 0
  } -> failure : pattern failed to match

  * Pattern (anonymous namespace)::WhileConditionTruth : 'scf.while -> ()' {
Trying to match "(anonymous namespace)::WhileConditionTruth"
"(anonymous namespace)::WhileConditionTruth" result 0
  } -> failure : pattern failed to match

  * Pattern (anonymous namespace)::WhileCmpCond : 'scf.while -> ()' {
Trying to match "(anonymous namespace)::WhileCmpCond"
"(anonymous namespace)::WhileCmpCond" result 0
  } -> failure : pattern failed to match

  * Pattern (anonymous namespace)::WhileUnusedResult : 'scf.while -> ()' {
Trying to match "(anonymous namespace)::WhileUnusedResult"
"(anonymous namespace)::WhileUnusedResult" result 0
  } -> failure : pattern failed to match
} -> failure : pattern failed to match
//===-------------------------------------------===//

//===-------------------------------------------===//
Processing operation : 'scf.yield'(0x7fbd9b1061f0) {
  "scf.yield"(%35) : (i32) -> ()

} -> failure : pattern failed to match
//===-------------------------------------------===//

//===-------------------------------------------===//
Processing operation : 'arith.addi'(0x7fbd983054f0) {
  %35 = "arith.addi"(%arg8, %1) : (i32, i32) -> i32


  * Pattern (anonymous namespace)::AddIAddConstant : 'arith.addi -> (arith.addi, arith.constant)' {
Trying to match "(anonymous namespace)::AddIAddConstant"
    ** Failure : There's no operation that defines operand 0 of castedOp0
"(anonymous namespace)::AddIAddConstant" result 0
  } -> failure : pattern failed to match

  * Pattern (anonymous namespace)::AddISubConstantRHS : 'arith.addi -> (arith.addi, arith.constant)' {
Trying to match "(anonymous namespace)::AddISubConstantRHS"
    ** Failure : There's no operation that defines operand 0 of castedOp0
"(anonymous namespace)::AddISubConstantRHS" result 0
  } -> failure : pattern failed to match

  * Pattern (anonymous namespace)::AddISubConstantLHS : 'arith.addi -> (arith.constant, arith.subi)' {
Trying to match "(anonymous namespace)::AddISubConstantLHS"
    ** Failure : There's no operation that defines operand 0 of castedOp0
"(anonymous namespace)::AddISubConstantLHS" result 0
  } -> failure : pattern failed to match
} -> failure : pattern failed to match
//===-------------------------------------------===//

//===-------------------------------------------===//
Processing operation : 'memref.store'(0x7fbd9816a410) {
  "memref.store"(%33, %arg2, %34) : (f32, memref<?xf32>, index) -> ()


  * Pattern MetaPointer2Memref<mlir::memref::StoreOp> : 'memref.store -> ()' {
Trying to match "MetaPointer2Memref<mlir::memref::StoreOp>"
"MetaPointer2Memref<mlir::memref::StoreOp>" result 0
  } -> failure : pattern failed to match
} -> failure : pattern failed to match
//===-------------------------------------------===//

//===-------------------------------------------===//
Processing operation : 'arith.addi'(0x7fbd98165e60) {
  %34 = "arith.addi"(%27, %5) : (index, index) -> index


  * Pattern (anonymous namespace)::AddIAddConstant : 'arith.addi -> (arith.addi, arith.constant)' {
Trying to match "(anonymous namespace)::AddIAddConstant"
    ** Failure : castedOp1 is not ::mlir::arith::AddIOp type
"(anonymous namespace)::AddIAddConstant" result 0
  } -> failure : pattern failed to match

  * Pattern (anonymous namespace)::AddISubConstantRHS : 'arith.addi -> (arith.addi, arith.constant)' {
Trying to match "(anonymous namespace)::AddISubConstantRHS"
    ** Failure : castedOp1 is not ::mlir::arith::SubIOp type
"(anonymous namespace)::AddISubConstantRHS" result 0
  } -> failure : pattern failed to match

  * Pattern (anonymous namespace)::AddISubConstantLHS : 'arith.addi -> (arith.constant, arith.subi)' {
Trying to match "(anonymous namespace)::AddISubConstantLHS"
    ** Failure : castedOp1 is not ::mlir::arith::SubIOp type
"(anonymous namespace)::AddISubConstantLHS" result 0
  } -> failure : pattern failed to match
} -> failure : pattern failed to match
//===-------------------------------------------===//

//===-------------------------------------------===//
Processing operation : 'memref.load'(0x7fbd9b004180) {
  %33 = "memref.load"(%arg0, %32) : (memref<?xf32>, index) -> f32


  * Pattern LoadSelect<mlir::memref::LoadOp> : 'memref.load -> ()' {
Trying to match "LoadSelect<mlir::memref::LoadOp>"
"LoadSelect<mlir::memref::LoadOp>" result 0
  } -> failure : pattern failed to match

  * Pattern MetaPointer2Memref<mlir::memref::LoadOp> : 'memref.load -> ()' {
Trying to match "MetaPointer2Memref<mlir::memref::LoadOp>"
"MetaPointer2Memref<mlir::memref::LoadOp>" result 0
  } -> failure : pattern failed to match
} -> failure : pattern failed to match
//===-------------------------------------------===//

//===-------------------------------------------===//
Processing operation : 'arith.addi'(0x7fbd9b0040e0) {
  %32 = "arith.addi"(%31, %5) : (index, index) -> index


  * Pattern (anonymous namespace)::AddIAddConstant : 'arith.addi -> (arith.addi, arith.constant)' {
Trying to match "(anonymous namespace)::AddIAddConstant"
    ** Failure : castedOp1 is not ::mlir::arith::AddIOp type
"(anonymous namespace)::AddIAddConstant" result 0
  } -> failure : pattern failed to match

  * Pattern (anonymous namespace)::AddISubConstantRHS : 'arith.addi -> (arith.addi, arith.constant)' {
Trying to match "(anonymous namespace)::AddISubConstantRHS"
    ** Failure : castedOp1 is not ::mlir::arith::SubIOp type
"(anonymous namespace)::AddISubConstantRHS" result 0
  } -> failure : pattern failed to match

  * Pattern (anonymous namespace)::AddISubConstantLHS : 'arith.addi -> (arith.constant, arith.subi)' {
Trying to match "(anonymous namespace)::AddISubConstantLHS"
    ** Failure : castedOp1 is not ::mlir::arith::SubIOp type
"(anonymous namespace)::AddISubConstantLHS" result 0
  } -> failure : pattern failed to match
} -> failure : pattern failed to match
//===-------------------------------------------===//

//===-------------------------------------------===//
Processing operation : 'arith.index_cast'(0x7fbd98304bd0) {
  %31 = "arith.index_cast"(%30) : (i32) -> index


  * Pattern (anonymous namespace)::IndexCastOfIndexCast : 'arith.index_cast -> ()' {
Trying to match "(anonymous namespace)::IndexCastOfIndexCast"
    ** Failure : castedOp1 is not ::mlir::arith::IndexCastOp type
"(anonymous namespace)::IndexCastOfIndexCast" result 0
  } -> failure : pattern failed to match

  * Pattern (anonymous namespace)::IndexCastOfExtSI : 'arith.index_cast -> (arith.index_cast)' {
Trying to match "(anonymous namespace)::IndexCastOfExtSI"
    ** Failure : castedOp1 is not ::mlir::arith::ExtSIOp type
"(anonymous namespace)::IndexCastOfExtSI" result 0
  } -> failure : pattern failed to match
} -> failure : pattern failed to match
//===-------------------------------------------===//

//===-------------------------------------------===//
Processing operation : 'arith.addi'(0x7fbd98304b30) {
  %30 = "arith.addi"(%22, %29) : (i32, i32) -> i32


  * Pattern (anonymous namespace)::AddIAddConstant : 'arith.addi -> (arith.addi, arith.constant)' {
Trying to match "(anonymous namespace)::AddIAddConstant"
    ** Failure : castedOp1 is not ::mlir::arith::ConstantOp type
"(anonymous namespace)::AddIAddConstant" result 0
  } -> failure : pattern failed to match

  * Pattern (anonymous namespace)::AddISubConstantRHS : 'arith.addi -> (arith.addi, arith.constant)' {
Trying to match "(anonymous namespace)::AddISubConstantRHS"
    ** Failure : castedOp1 is not ::mlir::arith::SubIOp type
"(anonymous namespace)::AddISubConstantRHS" result 0
  } -> failure : pattern failed to match

  * Pattern (anonymous namespace)::AddISubConstantLHS : 'arith.addi -> (arith.constant, arith.subi)' {
Trying to match "(anonymous namespace)::AddISubConstantLHS"
    ** Failure : castedOp1 is not ::mlir::arith::SubIOp type
"(anonymous namespace)::AddISubConstantLHS" result 0
  } -> failure : pattern failed to match
} -> failure : pattern failed to match
//===-------------------------------------------===//

//===-------------------------------------------===//
Processing operation : 'arith.muli'(0x7fbd98304a90) {
  %29 = "arith.muli"(%28, %24) : (i32, i32) -> i32


  * Pattern MulDivMul : 'arith.muli -> ()' {
Trying to match "MulDivMul"
"MulDivMul" result 0
  } -> failure : pattern failed to match
} -> failure : pattern failed to match
//===-------------------------------------------===//

//===-------------------------------------------===//
Processing operation : 'arith.muli'(0x7fbd98304830) {
  %28 = "arith.muli"(%17, %arg7) : (i32, i32) -> i32


  * Pattern MulDivMul : 'arith.muli -> ()' {
Trying to match "MulDivMul"
"MulDivMul" result 0
  } -> failure : pattern failed to match
} -> failure : pattern failed to match
//===-------------------------------------------===//

//===-------------------------------------------===//
Processing operation : 'arith.index_cast'(0x7fbd9816cb40) {
  %27 = "arith.index_cast"(%26) : (i32) -> index


  * Pattern (anonymous namespace)::IndexCastOfIndexCast : 'arith.index_cast -> ()' {
Trying to match "(anonymous namespace)::IndexCastOfIndexCast"
    ** Failure : castedOp1 is not ::mlir::arith::IndexCastOp type
"(anonymous namespace)::IndexCastOfIndexCast" result 0
  } -> failure : pattern failed to match

  * Pattern (anonymous namespace)::IndexCastOfExtSI : 'arith.index_cast -> (arith.index_cast)' {
Trying to match "(anonymous namespace)::IndexCastOfExtSI"
    ** Failure : castedOp1 is not ::mlir::arith::ExtSIOp type
"(anonymous namespace)::IndexCastOfExtSI" result 0
  } -> failure : pattern failed to match
} -> failure : pattern failed to match
//===-------------------------------------------===//

//===-------------------------------------------===//
Processing operation : 'arith.addi'(0x7fbd9816caa0) {
  %26 = "arith.addi"(%22, %25) : (i32, i32) -> i32


  * Pattern (anonymous namespace)::AddIAddConstant : 'arith.addi -> (arith.addi, arith.constant)' {
Trying to match "(anonymous namespace)::AddIAddConstant"
    ** Failure : castedOp1 is not ::mlir::arith::ConstantOp type
"(anonymous namespace)::AddIAddConstant" result 0
  } -> failure : pattern failed to match

  * Pattern (anonymous namespace)::AddISubConstantRHS : 'arith.addi -> (arith.addi, arith.constant)' {
Trying to match "(anonymous namespace)::AddISubConstantRHS"
    ** Failure : castedOp1 is not ::mlir::arith::SubIOp type
"(anonymous namespace)::AddISubConstantRHS" result 0
  } -> failure : pattern failed to match

  * Pattern (anonymous namespace)::AddISubConstantLHS : 'arith.addi -> (arith.constant, arith.subi)' {
Trying to match "(anonymous namespace)::AddISubConstantLHS"
    ** Failure : castedOp1 is not ::mlir::arith::SubIOp type
"(anonymous namespace)::AddISubConstantLHS" result 0
  } -> failure : pattern failed to match
} -> failure : pattern failed to match
//===-------------------------------------------===//

//===-------------------------------------------===//
Processing operation : 'arith.muli'(0x7fbd9816ca00) {
  %25 = "arith.muli"(%23, %24) : (i32, i32) -> i32


  * Pattern MulDivMul : 'arith.muli -> ()' {
Trying to match "MulDivMul"
"MulDivMul" result 0
  } -> failure : pattern failed to match
} -> failure : pattern failed to match
//===-------------------------------------------===//

//===-------------------------------------------===//
Processing operation : 'affine.load'(0x7fbd9b104ce0) {
  %24 = "affine.load"(%11) {map = affine_map<() -> (0)>} : (memref<1xi32>) -> i32


  * Pattern LoadSelect<mlir::AffineLoadOp> : 'affine.load -> ()' {
Trying to match "LoadSelect<mlir::AffineLoadOp>"
"LoadSelect<mlir::AffineLoadOp>" result 0
  } -> failure : pattern failed to match

  * Pattern MetaPointer2Memref<mlir::AffineLoadOp> : 'affine.load -> ()' {
Trying to match "MetaPointer2Memref<mlir::AffineLoadOp>"
"MetaPointer2Memref<mlir::AffineLoadOp>" result 0
  } -> failure : pattern failed to match

  * Pattern (anonymous namespace)::SimplifyAffineOp<mlir::AffineLoadOp> : 'affine.load -> ()' {
Trying to match "(anonymous namespace)::SimplifyAffineOp<mlir::AffineLoadOp>"
"(anonymous namespace)::SimplifyAffineOp<mlir::AffineLoadOp>" result 0
  } -> failure : pattern failed to match
} -> failure : pattern failed to match
//===-------------------------------------------===//

//===-------------------------------------------===//
Processing operation : 'arith.muli'(0x7fbd9816c7a0) {
  %23 = "arith.muli"(%16, %arg7) : (i32, i32) -> i32


  * Pattern MulDivMul : 'arith.muli -> ()' {
Trying to match "MulDivMul"
"MulDivMul" result 0
  } -> failure : pattern failed to match
} -> failure : pattern failed to match
//===-------------------------------------------===//

//===-------------------------------------------===//
Processing operation : 'arith.addi'(0x7fbd9816c450) {
  %22 = "arith.addi"(%arg8, %21) : (i32, i32) -> i32


  * Pattern (anonymous namespace)::AddIAddConstant : 'arith.addi -> (arith.addi, arith.constant)' {
Trying to match "(anonymous namespace)::AddIAddConstant"
    ** Failure : There's no operation that defines operand 0 of castedOp0
"(anonymous namespace)::AddIAddConstant" result 0
  } -> failure : pattern failed to match

  * Pattern (anonymous namespace)::AddISubConstantRHS : 'arith.addi -> (arith.addi, arith.constant)' {
Trying to match "(anonymous namespace)::AddISubConstantRHS"
    ** Failure : There's no operation that defines operand 0 of castedOp0
"(anonymous namespace)::AddISubConstantRHS" result 0
  } -> failure : pattern failed to match

  * Pattern (anonymous namespace)::AddISubConstantLHS : 'arith.addi -> (arith.constant, arith.subi)' {
Trying to match "(anonymous namespace)::AddISubConstantLHS"
    ** Failure : There's no operation that defines operand 0 of castedOp0
"(anonymous namespace)::AddISubConstantLHS" result 0
  } -> failure : pattern failed to match
} -> failure : pattern failed to match
//===-------------------------------------------===//

//===-------------------------------------------===//
Processing operation : 'arith.muli'(0x7fbd9816c3b0) {
  %21 = "arith.muli"(%arg6, %arg7) : (i32, i32) -> i32


  * Pattern MulDivMul : 'arith.muli -> ()' {
Trying to match "MulDivMul"
"MulDivMul" result 0
  } -> failure : pattern failed to match
} -> failure : pattern failed to match
//===-------------------------------------------===//

//===-------------------------------------------===//
Processing operation : 'scf.condition'(0x7fbd9b306b60) {
  "scf.condition"(%22, %21, %arg7) : (i1, i32, i32) -> ()

} -> failure : pattern failed to match
//===-------------------------------------------===//

//===-------------------------------------------===//
Processing operation : 'arith.cmpi'(0x7fbd9816b7c0) {
  %22 = "arith.cmpi"(%arg7, %21) {predicate = 2 : i64} : (i32, i32) -> i1


  * Pattern (anonymous namespace)::CmpIExtSI : 'arith.cmpi -> (arith.cmpi)' {
Trying to match "(anonymous namespace)::CmpIExtSI"
    ** Failure : There's no operation that defines operand 0 of castedOp0
"(anonymous namespace)::CmpIExtSI" result 0
  } -> failure : pattern failed to match

  * Pattern (anonymous namespace)::CmpIExtUI : 'arith.cmpi -> (arith.cmpi)' {
Trying to match "(anonymous namespace)::CmpIExtUI"
    ** Failure : There's no operation that defines operand 0 of castedOp0
"(anonymous namespace)::CmpIExtUI" result 0
  } -> failure : pattern failed to match

  * Pattern CmpProp : 'arith.cmpi -> ()' {
Trying to match "CmpProp"
"CmpProp" result 0
  } -> failure : pattern failed to match

  * Pattern UndefCmpProp : 'arith.cmpi -> ()' {
Trying to match "UndefCmpProp"
"UndefCmpProp" result 0
  } -> failure : pattern failed to match
} -> failure : pattern failed to match
//===-------------------------------------------===//

//===-------------------------------------------===//
Processing operation : 'affine.load'(0x7fbd9b104b90) {
  %21 = "affine.load"(%12) {map = affine_map<() -> (0)>} : (memref<1xi32>) -> i32


  * Pattern LoadSelect<mlir::AffineLoadOp> : 'affine.load -> ()' {
Trying to match "LoadSelect<mlir::AffineLoadOp>"
"LoadSelect<mlir::AffineLoadOp>" result 0
  } -> failure : pattern failed to match

  * Pattern MetaPointer2Memref<mlir::AffineLoadOp> : 'affine.load -> ()' {
Trying to match "MetaPointer2Memref<mlir::AffineLoadOp>"
"MetaPointer2Memref<mlir::AffineLoadOp>" result 0
  } -> failure : pattern failed to match

  * Pattern (anonymous namespace)::SimplifyAffineOp<mlir::AffineLoadOp> : 'affine.load -> ()' {
Trying to match "(anonymous namespace)::SimplifyAffineOp<mlir::AffineLoadOp>"
"(anonymous namespace)::SimplifyAffineOp<mlir::AffineLoadOp>" result 0
  } -> failure : pattern failed to match
} -> failure : pattern failed to match
//===-------------------------------------------===//

//===-------------------------------------------===//
Processing operation : 'scf.condition'(0x7fbd9b1044b0) {
  "scf.condition"(%20, %arg6) : (i1, i32) -> ()

} -> failure : pattern failed to match
//===-------------------------------------------===//

//===-------------------------------------------===//
Processing operation : 'arith.cmpi'(0x7fbd98169d10) {
  %20 = "arith.cmpi"(%arg6, %19) {predicate = 2 : i64} : (i32, i32) -> i1


  * Pattern (anonymous namespace)::CmpIExtSI : 'arith.cmpi -> (arith.cmpi)' {
Trying to match "(anonymous namespace)::CmpIExtSI"
    ** Failure : There's no operation that defines operand 0 of castedOp0
"(anonymous namespace)::CmpIExtSI" result 0
  } -> failure : pattern failed to match

  * Pattern (anonymous namespace)::CmpIExtUI : 'arith.cmpi -> (arith.cmpi)' {
Trying to match "(anonymous namespace)::CmpIExtUI"
    ** Failure : There's no operation that defines operand 0 of castedOp0
"(anonymous namespace)::CmpIExtUI" result 0
  } -> failure : pattern failed to match

  * Pattern CmpProp : 'arith.cmpi -> ()' {
Trying to match "CmpProp"
"CmpProp" result 0
  } -> failure : pattern failed to match

  * Pattern UndefCmpProp : 'arith.cmpi -> ()' {
Trying to match "UndefCmpProp"
"UndefCmpProp" result 0
  } -> failure : pattern failed to match
} -> failure : pattern failed to match
//===-------------------------------------------===//

//===-------------------------------------------===//
Processing operation : 'affine.load'(0x7fbd9b104c10) {
  %19 = "affine.load"(%11) {map = affine_map<() -> (0)>} : (memref<1xi32>) -> i32


  * Pattern LoadSelect<mlir::AffineLoadOp> : 'affine.load -> ()' {
Trying to match "LoadSelect<mlir::AffineLoadOp>"
"LoadSelect<mlir::AffineLoadOp>" result 0
  } -> failure : pattern failed to match

  * Pattern MetaPointer2Memref<mlir::AffineLoadOp> : 'affine.load -> ()' {
Trying to match "MetaPointer2Memref<mlir::AffineLoadOp>"
"MetaPointer2Memref<mlir::AffineLoadOp>" result 0
  } -> failure : pattern failed to match

  * Pattern (anonymous namespace)::SimplifyAffineOp<mlir::AffineLoadOp> : 'affine.load -> ()' {
Trying to match "(anonymous namespace)::SimplifyAffineOp<mlir::AffineLoadOp>"
"(anonymous namespace)::SimplifyAffineOp<mlir::AffineLoadOp>" result 0
  } -> failure : pattern failed to match
} -> failure : pattern failed to match
//===-------------------------------------------===//

//===-------------------------------------------===//
Processing operation : 'arith.addi'(0x7fbd9b004270) {
  %17 = "arith.addi"(%16, %3) : (i32, i32) -> i32


  * Pattern (anonymous namespace)::AddIAddConstant : 'arith.addi -> (arith.addi, arith.constant)' {
Trying to match "(anonymous namespace)::AddIAddConstant"
    ** Failure : castedOp1 is not ::mlir::arith::AddIOp type
"(anonymous namespace)::AddIAddConstant" result 0
  } -> failure : pattern failed to match

  * Pattern (anonymous namespace)::AddISubConstantRHS : 'arith.addi -> (arith.addi, arith.constant)' {
Trying to match "(anonymous namespace)::AddISubConstantRHS"
    ** Failure : castedOp1 is not ::mlir::arith::SubIOp type
"(anonymous namespace)::AddISubConstantRHS" result 0
  } -> failure : pattern failed to match

  * Pattern (anonymous namespace)::AddISubConstantLHS : 'arith.addi -> (arith.constant, arith.subi)' {
Trying to match "(anonymous namespace)::AddISubConstantLHS"
    ** Failure : castedOp1 is not ::mlir::arith::SubIOp type
"(anonymous namespace)::AddISubConstantLHS" result 0
  } -> failure : pattern failed to match
} -> failure : pattern failed to match
//===-------------------------------------------===//

//===-------------------------------------------===//
Processing operation : 'arith.index_cast'(0x7fbd9b105c30) {
  %16 = "arith.index_cast"(%15) : (index) -> i32


  * Pattern (anonymous namespace)::IndexCastOfIndexCast : 'arith.index_cast -> ()' {
Trying to match "(anonymous namespace)::IndexCastOfIndexCast"
    ** Failure : castedOp1 is not ::mlir::arith::IndexCastOp type
"(anonymous namespace)::IndexCastOfIndexCast" result 0
  } -> failure : pattern failed to match

  * Pattern (anonymous namespace)::IndexCastOfExtSI : 'arith.index_cast -> (arith.index_cast)' {
Trying to match "(anonymous namespace)::IndexCastOfExtSI"
    ** Failure : castedOp1 is not ::mlir::arith::ExtSIOp type
"(anonymous namespace)::IndexCastOfExtSI" result 0
  } -> failure : pattern failed to match
} -> failure : pattern failed to match
//===-------------------------------------------===//

//===-------------------------------------------===//
Processing operation : 'arith.addi'(0x7fbd9b105750) {
  %15 = "arith.addi"(%10, %14) : (index, index) -> index


  * Pattern (anonymous namespace)::AddIAddConstant : 'arith.addi -> (arith.addi, arith.constant)' {
Trying to match "(anonymous namespace)::AddIAddConstant"
    ** Failure : castedOp1 is not ::mlir::arith::AddIOp type
"(anonymous namespace)::AddIAddConstant" result 0
  } -> failure : pattern failed to match

  * Pattern (anonymous namespace)::AddISubConstantRHS : 'arith.addi -> (arith.addi, arith.constant)' {
Trying to match "(anonymous namespace)::AddISubConstantRHS"
    ** Failure : castedOp1 is not ::mlir::arith::SubIOp type
"(anonymous namespace)::AddISubConstantRHS" result 0
  } -> failure : pattern failed to match

  * Pattern (anonymous namespace)::AddISubConstantLHS : 'arith.addi -> (arith.constant, arith.subi)' {
Trying to match "(anonymous namespace)::AddISubConstantLHS"
    ** Failure : castedOp1 is not ::mlir::arith::SubIOp type
"(anonymous namespace)::AddISubConstantLHS" result 0
  } -> failure : pattern failed to match
} -> failure : pattern failed to match
//===-------------------------------------------===//

//===-------------------------------------------===//
Processing operation : 'arith.muli'(0x7fbd9b1048d0) {
  %14 = "arith.muli"(%13, %2) : (index, index) -> index


  * Pattern MulDivMul : 'arith.muli -> ()' {
Trying to match "MulDivMul"
"MulDivMul" result 0
  } -> failure : pattern failed to match
} -> failure : pattern failed to match
//===-------------------------------------------===//

//===-------------------------------------------===//
Processing operation : 'arith.subi'(0x7fbd9b306e10) {
  %13 = "arith.subi"(%arg5, %0) : (index, index) -> index


  * Pattern (anonymous namespace)::SubIRHSAddConstant : 'arith.subi -> (arith.addi, arith.constant)' {
Trying to match "(anonymous namespace)::SubIRHSAddConstant"
    ** Failure : There's no operation that defines operand 0 of castedOp0
"(anonymous namespace)::SubIRHSAddConstant" result 0
  } -> failure : pattern failed to match

  * Pattern (anonymous namespace)::SubILHSAddConstant : 'arith.subi -> (arith.constant, arith.subi)' {
Trying to match "(anonymous namespace)::SubILHSAddConstant"
    ** Failure : There's no operation that defines operand 0 of castedOp0
"(anonymous namespace)::SubILHSAddConstant" result 0
  } -> failure : pattern failed to match

  * Pattern (anonymous namespace)::SubIRHSSubConstantRHS : 'arith.subi -> (arith.constant, arith.subi)' {
Trying to match "(anonymous namespace)::SubIRHSSubConstantRHS"
    ** Failure : There's no operation that defines operand 0 of castedOp0
"(anonymous namespace)::SubIRHSSubConstantRHS" result 0
  } -> failure : pattern failed to match

  * Pattern (anonymous namespace)::SubIRHSSubConstantLHS : 'arith.subi -> (arith.constant, arith.subi)' {
Trying to match "(anonymous namespace)::SubIRHSSubConstantLHS"
    ** Failure : There's no operation that defines operand 0 of castedOp0
"(anonymous namespace)::SubIRHSSubConstantLHS" result 0
  } -> failure : pattern failed to match

  * Pattern (anonymous namespace)::SubILHSSubConstantRHS : 'arith.subi -> (arith.constant, arith.subi)' {
Trying to match "(anonymous namespace)::SubILHSSubConstantRHS"
    ** Failure : There's no operation that defines operand 0 of castedOp0
"(anonymous namespace)::SubILHSSubConstantRHS" result 0
  } -> failure : pattern failed to match

  * Pattern (anonymous namespace)::SubILHSSubConstantLHS : 'arith.subi -> (arith.addi, arith.constant)' {
Trying to match "(anonymous namespace)::SubILHSSubConstantLHS"
    ** Failure : There's no operation that defines operand 0 of castedOp0
"(anonymous namespace)::SubILHSSubConstantLHS" result 0
  } -> failure : pattern failed to match

  * Pattern (anonymous namespace)::SubISubILHSRHSLHS : 'arith.subi -> (arith.constant, arith.subi)' {
Trying to match "(anonymous namespace)::SubISubILHSRHSLHS"
    ** Failure : There's no operation that defines operand 0 of castedOp0
"(anonymous namespace)::SubISubILHSRHSLHS" result 0
  } -> failure : pattern failed to match
} -> failure : pattern failed to match
//===-------------------------------------------===//

//===-------------------------------------------===//
Processing operation : 'memref.get_global'(0x7fbd9816b600) {
  %12 = "memref.get_global"() {name = @im} : () -> memref<1xi32>

} -> failure : pattern failed to match
//===-------------------------------------------===//

//===-------------------------------------------===//
Processing operation : 'memref.get_global'(0x7fbd98169a20) {
  %11 = "memref.get_global"() {name = @jm} : () -> memref<1xi32>

} -> failure : pattern failed to match
//===-------------------------------------------===//

//===-------------------------------------------===//
Processing operation : 'arith.index_cast'(0x7fbd9b104380) {
  %10 = "arith.index_cast"(%7) : (i32) -> index


  * Pattern (anonymous namespace)::IndexCastOfIndexCast : 'arith.index_cast -> ()' {
Trying to match "(anonymous namespace)::IndexCastOfIndexCast"
    ** Failure : castedOp1 is not ::mlir::arith::IndexCastOp type
"(anonymous namespace)::IndexCastOfIndexCast" result 0
  } -> failure : pattern failed to match

  * Pattern (anonymous namespace)::IndexCastOfExtSI : 'arith.index_cast -> (arith.index_cast)' {
Trying to match "(anonymous namespace)::IndexCastOfExtSI"
    ** Failure : castedOp1 is not ::mlir::arith::ExtSIOp type
"(anonymous namespace)::IndexCastOfExtSI" result 0
  } -> failure : pattern failed to match
} -> failure : pattern failed to match
//===-------------------------------------------===//

//===-------------------------------------------===//
Processing operation : 'arith.index_cast'(0x7fbd9800baa0) {
  %9 = "arith.index_cast"(%8) : (i32) -> index


  * Pattern (anonymous namespace)::IndexCastOfIndexCast : 'arith.index_cast -> ()' {
Trying to match "(anonymous namespace)::IndexCastOfIndexCast"
    ** Failure : castedOp1 is not ::mlir::arith::IndexCastOp type
"(anonymous namespace)::IndexCastOfIndexCast" result 0
  } -> failure : pattern failed to match

  * Pattern (anonymous namespace)::IndexCastOfExtSI : 'arith.index_cast -> (arith.index_cast)' {
Trying to match "(anonymous namespace)::IndexCastOfExtSI"
    ** Failure : castedOp1 is not ::mlir::arith::ExtSIOp type
"(anonymous namespace)::IndexCastOfExtSI" result 0
  } -> failure : pattern failed to match
} -> failure : pattern failed to match
//===-------------------------------------------===//

//===-------------------------------------------===//
Processing operation : 'arith.addi'(0x7fbd9800a840) {
  %8 = "arith.addi"(%7, %1) : (i32, i32) -> i32


  * Pattern (anonymous namespace)::AddIAddConstant : 'arith.addi -> (arith.addi, arith.constant)' {
Trying to match "(anonymous namespace)::AddIAddConstant"
    ** Failure : castedOp1 is not ::mlir::arith::AddIOp type
"(anonymous namespace)::AddIAddConstant" result 0
  } -> failure : pattern failed to match

  * Pattern (anonymous namespace)::AddISubConstantRHS : 'arith.addi -> (arith.addi, arith.constant)' {
Trying to match "(anonymous namespace)::AddISubConstantRHS"
    ** Failure : castedOp1 is not ::mlir::arith::SubIOp type
"(anonymous namespace)::AddISubConstantRHS" result 0
  } -> failure : pattern failed to match

  * Pattern (anonymous namespace)::AddISubConstantLHS : 'arith.addi -> (arith.constant, arith.subi)' {
Trying to match "(anonymous namespace)::AddISubConstantLHS"
    ** Failure : castedOp1 is not ::mlir::arith::SubIOp type
"(anonymous namespace)::AddISubConstantLHS" result 0
  } -> failure : pattern failed to match
} -> failure : pattern failed to match
//===-------------------------------------------===//

//===-------------------------------------------===//
Processing operation : 'affine.load'(0x7fbd9b104d70) {
  %7 = "affine.load"(%6) {map = affine_map<() -> (0)>} : (memref<1xi32>) -> i32


  * Pattern LoadSelect<mlir::AffineLoadOp> : 'affine.load -> ()' {
Trying to match "LoadSelect<mlir::AffineLoadOp>"
"LoadSelect<mlir::AffineLoadOp>" result 0
  } -> failure : pattern failed to match

  * Pattern MetaPointer2Memref<mlir::AffineLoadOp> : 'affine.load -> ()' {
Trying to match "MetaPointer2Memref<mlir::AffineLoadOp>"
"MetaPointer2Memref<mlir::AffineLoadOp>" result 0
  } -> failure : pattern failed to match

  * Pattern (anonymous namespace)::SimplifyAffineOp<mlir::AffineLoadOp> : 'affine.load -> ()' {
Trying to match "(anonymous namespace)::SimplifyAffineOp<mlir::AffineLoadOp>"
"(anonymous namespace)::SimplifyAffineOp<mlir::AffineLoadOp>" result 0
  } -> failure : pattern failed to match
} -> failure : pattern failed to match
//===-------------------------------------------===//

//===-------------------------------------------===//
Processing operation : 'memref.get_global'(0x7fbd981673f0) {
  %6 = "memref.get_global"() {name = @kbm3} : () -> memref<1xi32>

} -> failure : pattern failed to match
//===-------------------------------------------===//

//===-------------------------------------------===//
Processing operation : 'arith.constant'(0x7fbd9816cc60) {
  %5 = "arith.constant"() {value = 0 : index} : () -> index

} -> failure : pattern failed to match
//===-------------------------------------------===//

//===-------------------------------------------===//
Processing operation : 'arith.constant'(0x7fbd98167e90) {
  %4 = "arith.constant"() {value = 0 : i32} : () -> i32

} -> failure : pattern failed to match
//===-------------------------------------------===//

//===-------------------------------------------===//
Processing operation : 'arith.constant'(0x7fbd9b1054b0) {
  %3 = "arith.constant"() {value = -1 : i32} : () -> i32

} -> failure : pattern failed to match
//===-------------------------------------------===//

//===-------------------------------------------===//
Processing operation : 'arith.constant'(0x7fbd98009280) {
  %2 = "arith.constant"() {value = -1 : index} : () -> index

} -> failure : pattern failed to match
//===-------------------------------------------===//

//===-------------------------------------------===//
Processing operation : 'arith.constant'(0x7fbd98304580) {
  %1 = "arith.constant"() {value = 1 : i32} : () -> i32

} -> failure : pattern failed to match
//===-------------------------------------------===//

//===-------------------------------------------===//
Processing operation : 'arith.constant'(0x7fbd9b306d40) {
  %0 = "arith.constant"() {value = 1 : index} : () -> index

} -> failure : pattern failed to match
//===-------------------------------------------===//
mlir-asm-printer: Verifying operation: builtin.module
ImplicitTypeIDRegistry::lookupOrInsert(mlir::detail::StorageUserTrait::IsMutable<Empty>)
ImplicitTypeIDRegistry::lookupOrInsert(mlir::SubElementTypeInterface::Trait<Empty>)
ImplicitTypeIDRegistry::lookupOrInsert(mlir::ShapedType::Trait<Empty>)
ImplicitTypeIDRegistry::lookupOrInsert(mlir::detail::StorageUserTrait::IsMutable<Empty>)
ImplicitTypeIDRegistry::lookupOrInsert(mlir::TypedAttr::Trait<Empty>)
module attributes {dlti.dl_spec = #dlti.dl_spec<#dlti.dl_entry<"dlti.endianness", "little">, #dlti.dl_entry<i64, dense<64> : vector<2xi32>>, #dlti.dl_entry<f80, dense<128> : vector<2xi32>>, #dlti.dl_entry<i1, dense<8> : vector<2xi32>>, #dlti.dl_entry<i8, dense<8> : vector<2xi32>>, #dlti.dl_entry<i16, dense<16> : vector<2xi32>>, #dlti.dl_entry<i32, dense<32> : vector<2xi32>>, #dlti.dl_entry<f16, dense<16> : vector<2xi32>>, #dlti.dl_entry<f64, dense<64> : vector<2xi32>>, #dlti.dl_entry<f128, dense<128> : vector<2xi32>>>, llvm.data_layout = "e-m:o-p270:32:32-p271:32:32-p272:64:64-i64:64-f80:128-n8:16:32:64-S128", llvm.target_triple = "x86_64-apple-macosx13.0.0", "polygeist.target-cpu" = "penryn", "polygeist.target-features" = "+cx16,+cx8,+fxsr,+mmx,+sahf,+sse,+sse2,+sse3,+sse4.1,+ssse3,+x87", "polygeist.tune-cpu" = "generic"} {
  memref.global @im : memref<1xi32>
  memref.global @jm : memref<1xi32>
  memref.global @kbm3 : memref<1xi32> = uninitialized
  func.func @example(%arg0: memref<?xf32>, %arg1: memref<?xf32>, %arg2: memref<?xf32>, %arg3: memref<?xf32>, %arg4: i32) attributes {llvm.linkage = #llvm.linkage<external>} {
    %c1 = arith.constant 1 : index
    %c1_i32 = arith.constant 1 : i32
    %c-1 = arith.constant -1 : index
    %c-1_i32 = arith.constant -1 : i32
    %c0_i32 = arith.constant 0 : i32
    %c0 = arith.constant 0 : index
    %0 = memref.get_global @kbm3 : memref<1xi32>
    %1 = affine.load %0[0] : memref<1xi32>
    %2 = arith.addi %1, %c1_i32 : i32
    %3 = arith.index_cast %2 : i32 to index
    %4 = arith.index_cast %1 : i32 to index
    %5 = memref.get_global @jm : memref<1xi32>
    %6 = memref.get_global @im : memref<1xi32>
    scf.for %arg5 = %c1 to %3 step %c1 {
      %7 = arith.subi %arg5, %c1 : index
      %8 = arith.muli %7, %c-1 : index
      %9 = arith.addi %4, %8 : index
      %10 = arith.index_cast %9 : index to i32
      %11 = arith.addi %10, %c-1_i32 : i32
      %12 = scf.while (%arg6 = %c0_i32) : (i32) -> i32 {
        %13 = affine.load %5[0] : memref<1xi32>
        %14 = arith.cmpi slt, %arg6, %13 : i32
        scf.condition(%14) %arg6 : i32
      } do {
      ^bb0(%arg6: i32):
        %13:2 = scf.while (%arg7 = %c0_i32) : (i32) -> (i32, i32) {
          %15 = affine.load %6[0] : memref<1xi32>
          %16 = arith.cmpi slt, %arg7, %15 : i32
          scf.condition(%16) %15, %arg7 : i32, i32
        } do {
        ^bb0(%arg7: i32, %arg8: i32):
          %15 = arith.muli %arg6, %arg7 : i32
          %16 = arith.addi %arg8, %15 : i32
          %17 = arith.muli %10, %arg7 : i32
          %18 = affine.load %5[0] : memref<1xi32>
          %19 = arith.muli %17, %18 : i32
          %20 = arith.addi %16, %19 : i32
          %21 = arith.index_cast %20 : i32 to index
          %22 = arith.muli %11, %arg7 : i32
          %23 = arith.muli %22, %18 : i32
          %24 = arith.addi %16, %23 : i32
          %25 = arith.index_cast %24 : i32 to index
          %26 = arith.addi %25, %c0 : index
          %27 = memref.load %arg0[%26] : memref<?xf32>
          %28 = arith.addi %21, %c0 : index
          memref.store %27, %arg2[%28] : memref<?xf32>
          %29 = arith.addi %arg8, %c1_i32 : i32
          scf.yield %29 : i32
        }
        %14 = arith.addi %arg6, %c1_i32 : i32
        scf.yield %14 : i32
      }
    }
    return
  }
}
