Args: ./Polygeist/build/bin/cgeist ./in/test.c -S --function=cbc -print-debug-info --debug -opaque-pointers=0 
Load new dialect in Context builtin
ImplicitTypeIDRegistry::lookupOrInsert(mlir::SubElementTypeInterface)
ImplicitTypeIDRegistry::lookupOrInsert(mlir::ShapedType)
ImplicitTypeIDRegistry::lookupOrInsert(mlir::MemRefLayoutAttrInterface)
ImplicitTypeIDRegistry::lookupOrInsert(mlir::SubElementAttrInterface)
ImplicitTypeIDRegistry::lookupOrInsert(mlir::ElementsAttr)
ImplicitTypeIDRegistry::lookupOrInsert(mlir::TypedAttr)
ImplicitTypeIDRegistry::lookupOrInsert(mlir::SymbolOpInterface)
ImplicitTypeIDRegistry::lookupOrInsert(mlir::OpAsmOpInterface)
ImplicitTypeIDRegistry::lookupOrInsert(mlir::RegionKindInterface)
ImplicitTypeIDRegistry::lookupOrInsert(mlir::CastOpInterface)
ImplicitTypeIDRegistry::lookupOrInsert(mlir::MemoryEffectOpInterface)
ImplicitTypeIDRegistry::lookupOrInsert(mlir::ResourceBlobManagerDialectInterface)
ImplicitTypeIDRegistry::lookupOrInsert(mlir::OpAsmDialectInterface)
ImplicitTypeIDRegistry::lookupOrInsert(mlir::BytecodeDialectInterface)
ImplicitTypeIDRegistry::lookupOrInsert(mlir::detail::AffineBinaryOpExprStorage)
ImplicitTypeIDRegistry::lookupOrInsert(mlir::detail::AffineConstantExprStorage)
ImplicitTypeIDRegistry::lookupOrInsert(mlir::detail::AffineDimExprStorage)
ImplicitTypeIDRegistry::lookupOrInsert(mlir::detail::AffineMapStorage)
ImplicitTypeIDRegistry::lookupOrInsert(mlir::detail::IntegerSetStorage)
Load new dialect in Context affine
Load new dialect in Context arith
ImplicitTypeIDRegistry::lookupOrInsert(mlir::VectorUnrollOpInterface)
ImplicitTypeIDRegistry::lookupOrInsert(mlir::InferTypeOpInterface)
ImplicitTypeIDRegistry::lookupOrInsert(mlir::InferIntRangeInterface)
ImplicitTypeIDRegistry::lookupOrInsert(mlir::DialectInlinerInterface)
ImplicitTypeIDRegistry::lookupOrInsert(mlir::AffineDmaStartOp)
ImplicitTypeIDRegistry::lookupOrInsert(mlir::AffineMapAccessInterface)
ImplicitTypeIDRegistry::lookupOrInsert(mlir::AffineDmaWaitOp)
ImplicitTypeIDRegistry::lookupOrInsert(mlir::LoopLikeOpInterface)
ImplicitTypeIDRegistry::lookupOrInsert(mlir::RegionBranchOpInterface)
ImplicitTypeIDRegistry::lookupOrInsert(mlir::AffineReadOpInterface)
ImplicitTypeIDRegistry::lookupOrInsert(mlir::AffineWriteOpInterface)
Load new dialect in Context func
Load new dialect in Context cf
ImplicitTypeIDRegistry::lookupOrInsert(mlir::BranchOpInterface)
ImplicitTypeIDRegistry::lookupOrInsert(mlir::CallOpInterface)
ImplicitTypeIDRegistry::lookupOrInsert(mlir::SymbolUserOpInterface)
ImplicitTypeIDRegistry::lookupOrInsert(mlir::CallableOpInterface)
ImplicitTypeIDRegistry::lookupOrInsert(mlir::FunctionOpInterface)
Load new dialect in Context dlti
ImplicitTypeIDRegistry::lookupOrInsert(mlir::DataLayoutEntryAttr)
ImplicitTypeIDRegistry::lookupOrInsert(mlir::DataLayoutEntryInterface)
ImplicitTypeIDRegistry::lookupOrInsert(mlir::DataLayoutSpecAttr)
ImplicitTypeIDRegistry::lookupOrInsert(mlir::DataLayoutSpecInterface)
ImplicitTypeIDRegistry::lookupOrInsert(mlir::DataLayoutDialectInterface)
Load new dialect in Context scf
ImplicitTypeIDRegistry::lookupOrInsert(mlir::RegionBranchTerminatorOpInterface)
ImplicitTypeIDRegistry::lookupOrInsert(mlir::ParallelCombiningOpInterface)
Load new dialect in Context async
Load new dialect in Context llvm
ImplicitTypeIDRegistry::lookupOrInsert(mlir::LLVM::LLVMVoidType)
ImplicitTypeIDRegistry::lookupOrInsert(mlir::LLVM::LLVMPPCFP128Type)
ImplicitTypeIDRegistry::lookupOrInsert(mlir::LLVM::LLVMX86MMXType)
ImplicitTypeIDRegistry::lookupOrInsert(mlir::LLVM::LLVMTokenType)
ImplicitTypeIDRegistry::lookupOrInsert(mlir::LLVM::LLVMLabelType)
ImplicitTypeIDRegistry::lookupOrInsert(mlir::LLVM::LLVMMetadataType)
ImplicitTypeIDRegistry::lookupOrInsert(mlir::LLVM::LLVMFunctionType)
ImplicitTypeIDRegistry::lookupOrInsert(mlir::LLVM::LLVMPointerType)
ImplicitTypeIDRegistry::lookupOrInsert(mlir::DataLayoutTypeInterface)
ImplicitTypeIDRegistry::lookupOrInsert(mlir::LLVM::LLVMFixedVectorType)
ImplicitTypeIDRegistry::lookupOrInsert(mlir::LLVM::LLVMScalableVectorType)
ImplicitTypeIDRegistry::lookupOrInsert(mlir::LLVM::LLVMArrayType)
ImplicitTypeIDRegistry::lookupOrInsert(mlir::LLVM::LLVMStructType)
ImplicitTypeIDRegistry::lookupOrInsert(mlir::LLVM::FastmathFlagsInterface)
ImplicitTypeIDRegistry::lookupOrInsert(mlir::LLVMTranslationDialectInterface)
Load new dialect in Context nvvm
Load new dialect in Context gpu
ImplicitTypeIDRegistry::lookupOrInsert(mlir::gpu::AsyncTokenType)
ImplicitTypeIDRegistry::lookupOrInsert(mlir::gpu::MMAMatrixType)
ImplicitTypeIDRegistry::lookupOrInsert(mlir::gpu::AsyncOpInterface)
ImplicitTypeIDRegistry::lookupOrInsert(mlir::DataLayoutOpInterface)
Load new dialect in Context omp
ImplicitTypeIDRegistry::lookupOrInsert(mlir::omp::OutlineableOpenMPOpInterface)
ImplicitTypeIDRegistry::lookupOrInsert(mlir::omp::ReductionClauseInterface)
ImplicitTypeIDRegistry::lookupOrInsert(mlir::omp::PointerLikeType)
Load new dialect in Context math
Load new dialect in Context memref
ImplicitTypeIDRegistry::lookupOrInsert(mlir::CopyOpInterface)
ImplicitTypeIDRegistry::lookupOrInsert(mlir::ViewLikeOpInterface)
ImplicitTypeIDRegistry::lookupOrInsert(mlir::OffsetSizeAndStrideOpInterface)
Load new dialect in Context linalg
Load new dialect in Context tensor
Load new dialect in Context complex
ImplicitTypeIDRegistry::lookupOrInsert(mlir::ReifyRankedShapedTypeOpInterface)
ImplicitTypeIDRegistry::lookupOrInsert(mlir::linalg::DestinationStyleOpInterface)
ImplicitTypeIDRegistry::lookupOrInsert(mlir::linalg::LinalgOp)
ImplicitTypeIDRegistry::lookupOrInsert(mlir::linalg::ContractionOpInterface)
ImplicitTypeIDRegistry::lookupOrInsert(mlir::linalg::ConvolutionOpInterface)
ImplicitTypeIDRegistry::lookupOrInsert(mlir::linalg::FillOpInterface)
Load new dialect in Context polygeist
ImplicitTypeIDRegistry::lookupOrInsert(mlir::MemRefElementTypeInterface)
ImplicitTypeIDRegistry::lookupOrInsert(mlir::LLVM::PointerElementTypeInterface)
ImplicitTypeIDRegistry::lookupOrInsert(mlir::OpTrait::ZeroOperands<Empty>)
ImplicitTypeIDRegistry::lookupOrInsert(mlir::OpTrait::OneRegion<Empty>)
ImplicitTypeIDRegistry::lookupOrInsert(mlir::OpTrait::ZeroResults<Empty>)
ImplicitTypeIDRegistry::lookupOrInsert(mlir::OpTrait::ZeroSuccessors<Empty>)
ImplicitTypeIDRegistry::lookupOrInsert(mlir::OpTrait::NoRegionArguments<Empty>)
ImplicitTypeIDRegistry::lookupOrInsert(mlir::OpTrait::NoTerminator<Empty>)
ImplicitTypeIDRegistry::lookupOrInsert(mlir::OpTrait::SingleBlock<Empty>)
ImplicitTypeIDRegistry::lookupOrInsert(mlir::OpTrait::OpInvariants<Empty>)
ImplicitTypeIDRegistry::lookupOrInsert(mlir::OpTrait::AffineScope<Empty>)
ImplicitTypeIDRegistry::lookupOrInsert(mlir::OpTrait::IsIsolatedFromAbove<Empty>)
ImplicitTypeIDRegistry::lookupOrInsert(mlir::OpTrait::SymbolTable<Empty>)
ImplicitTypeIDRegistry::lookupOrInsert(mlir::SymbolOpInterface::Trait<Empty>)
ImplicitTypeIDRegistry::lookupOrInsert(mlir::OpAsmOpInterface::Trait<Empty>)
ImplicitTypeIDRegistry::lookupOrInsert(mlir::RegionKindInterface::Trait<Empty>)
ImplicitTypeIDRegistry::lookupOrInsert(mlir::OpTrait::HasOnlyGraphRegion<Empty>)
./in/test.c:4:10: fatal error: 'math.h' file not found
#include <math.h>
         ^~~~~~~~
ImplicitTypeIDRegistry::lookupOrInsert(mlir::OpTrait::AutomaticAllocationScope<Empty>)
ImplicitTypeIDRegistry::lookupOrInsert(mlir::CallableOpInterface::Trait<Empty>)
ImplicitTypeIDRegistry::lookupOrInsert(mlir::FunctionOpInterface::Trait<Empty>)
ImplicitTypeIDRegistry::lookupOrInsert(mlir::OpTrait::ZeroRegions<Empty>)
ImplicitTypeIDRegistry::lookupOrInsert(mlir::OpTrait::OneResult<Empty>)
ImplicitTypeIDRegistry::lookupOrInsert(mlir::OpTrait::OneTypedResult<mlir::MemRefType>::Impl<Empty>)
ImplicitTypeIDRegistry::lookupOrInsert(mlir::OpTrait::VariadicOperands<Empty>)
ImplicitTypeIDRegistry::lookupOrInsert(mlir::OpTrait::AttrSizedOperandSegments<Empty>)
ImplicitTypeIDRegistry::lookupOrInsert(mlir::MemoryEffectOpInterface::Trait<Empty>)
ImplicitTypeIDRegistry::lookupOrInsert(mlir::OpTrait::OneTypedResult<mlir::Type>::Impl<Empty>)
ImplicitTypeIDRegistry::lookupOrInsert(mlir::OpTrait::ConstantLike<Empty>)
ImplicitTypeIDRegistry::lookupOrInsert(mlir::InferIntRangeInterface::Trait<Empty>)
ImplicitTypeIDRegistry::lookupOrInsert(mlir::InferTypeOpInterface::Trait<Empty>)
ImplicitTypeIDRegistry::lookupOrInsert(mlir::OpTrait::HasParent<mlir::scf::ExecuteRegionOp, mlir::scf::ForOp, mlir::scf::IfOp, mlir::scf::ParallelOp, mlir::scf::WhileOp>::Impl<Empty>)
ImplicitTypeIDRegistry::lookupOrInsert(mlir::OpTrait::ReturnLike<Empty>)
ImplicitTypeIDRegistry::lookupOrInsert(mlir::OpTrait::IsTerminator<Empty>)
ImplicitTypeIDRegistry::lookupOrInsert(mlir::OpTrait::VariadicResults<Empty>)
ImplicitTypeIDRegistry::lookupOrInsert(mlir::RegionBranchOpInterface::Trait<Empty>)
ImplicitTypeIDRegistry::lookupOrInsert(mlir::OpTrait::OneSuccessor<Empty>)
ImplicitTypeIDRegistry::lookupOrInsert(mlir::BranchOpInterface::Trait<Empty>)
ImplicitTypeIDRegistry::lookupOrInsert(mlir::SymbolUserOpInterface::Trait<Empty>)
ImplicitTypeIDRegistry::lookupOrInsert(mlir::OpTrait::NSuccessors<2>::Impl<Empty>)
ImplicitTypeIDRegistry::lookupOrInsert(mlir::OpTrait::AtLeastNOperands<1>::Impl<Empty>)
ImplicitTypeIDRegistry::lookupOrInsert(mlir::OpTrait::NRegions<2>::Impl<Empty>)
ImplicitTypeIDRegistry::lookupOrInsert(mlir::OpTrait::OneOperand<Empty>)
ImplicitTypeIDRegistry::lookupOrInsert(mlir::OpTrait::SingleBlockImplicitTerminator<mlir::scf::YieldOp>::Impl<Empty>)
ImplicitTypeIDRegistry::lookupOrInsert(mlir::OpTrait::HasRecursiveSideEffects<Empty>)
ImplicitTypeIDRegistry::lookupOrInsert(mlir::OpTrait::HasParent<mlir::func::FuncOp>::Impl<Empty>)
ImplicitTypeIDRegistry::lookupOrInsert(mlir::OpTrait::MemRefsNormalizable<Empty>)
ImplicitTypeIDRegistry::lookupOrInsert(mlir::detail::OpToOpPassAdaptor)
ImplicitTypeIDRegistry::lookupOrInsert(mlir::DominanceInfo)
ImplicitTypeIDRegistry::lookupOrInsert(mlir::MemoryEffects::Allocate)
ImplicitTypeIDRegistry::lookupOrInsert(mlir::SideEffects::AutomaticAllocationScopeResource)
ImplicitTypeIDRegistry::lookupOrInsert(mlir::MemoryEffects::Read)
ImplicitTypeIDRegistry::lookupOrInsert(mlir::OpTrait::SameOperandsAndResultShape<Empty>)
ImplicitTypeIDRegistry::lookupOrInsert(mlir::CastOpInterface::Trait<Empty>)
ImplicitTypeIDRegistry::lookupOrInsert(mlir::ViewLikeOpInterface::Trait<Empty>)
ImplicitTypeIDRegistry::lookupOrInsert(mlir::OpTrait::IsCommutative<Empty>)
ImplicitTypeIDRegistry::lookupOrInsert(mlir::OpTrait::AtLeastNOperands<2>::Impl<Empty>)
ImplicitTypeIDRegistry::lookupOrInsert(mlir::MemoryEffects::Write)
ImplicitTypeIDRegistry::lookupOrInsert(mlir::SideEffects::DefaultResource)
ImplicitTypeIDRegistry::lookupOrInsert(mlir::OpTrait::NOperands<2>::Impl<Empty>)
ImplicitTypeIDRegistry::lookupOrInsert(mlir::OpTrait::SameTypeOperands<Empty>)
ImplicitTypeIDRegistry::lookupOrInsert(mlir::VectorUnrollOpInterface::Trait<Empty>)
ImplicitTypeIDRegistry::lookupOrInsert(mlir::OpTrait::Elementwise<Empty>)
ImplicitTypeIDRegistry::lookupOrInsert(mlir::OpTrait::Scalarizable<Empty>)
ImplicitTypeIDRegistry::lookupOrInsert(mlir::OpTrait::Vectorizable<Empty>)
ImplicitTypeIDRegistry::lookupOrInsert(mlir::OpTrait::Tensorizable<Empty>)
ImplicitTypeIDRegistry::lookupOrInsert(mlir::OpTrait::IsIdempotent<Empty>)
ImplicitTypeIDRegistry::lookupOrInsert(mlir::OpTrait::SameOperandsAndResultType<Empty>)
ImplicitTypeIDRegistry::lookupOrInsert(mlir::PostDominanceInfo)
ImplicitTypeIDRegistry::lookupOrInsert(mlir::detail::PreservedAnalyses::AllAnalysesType)
 attempting to promote mlir-asm-printer: Verifying operation: builtin.module
%0 = memref.alloca() : memref<1xf32>
 + forwarding vec to promote {0,} of mlir-asm-printer: Verifying operation: builtin.module
%0 = memref.alloca() : memref<1xf32>
Begin forwarding store of mlir-asm-printer: Verifying operation: builtin.module
%0 = memref.alloca() : memref<1xf32> to load
mlir-asm-printer: Verifying operation: func.func
func.func @cbc(%arg0: memref<?xf32>, %arg1: memref<?xf32>, %arg2: memref<?xf32>, %arg3: memref<?xf32>, %arg4: memref<?xf32>, %arg5: memref<?xf32>, %arg6: memref<?xf32>, %arg7: memref<?xf32>, %arg8: memref<?xf32>, %arg9: memref<?xf32>, %arg10: memref<?xf32>, %arg11: memref<?xf32>, %arg12: memref<?xf32>, %arg13: memref<?xf32>, %arg14: memref<?xf32>, %arg15: memref<?xf32>, %arg16: memref<?xf32>, %arg17: memref<?xf32>, %arg18: memref<?xf32>, %arg19: memref<?xf32>, %arg20: memref<?xf32>, %arg21: memref<?xf32>, %arg22: memref<?xf32>, %arg23: memref<?xf32>, %arg24: memref<?xf32>, %arg25: memref<?xf32>, %arg26: memref<?xf32>, %arg27: memref<?xf32>, %arg28: memref<?xf32>, %arg29: memref<?xf32>, %arg30: memref<?xf32>, %arg31: memref<?xf32>, %arg32: memref<?xf32>, %arg33: memref<?xf32>, %arg34: memref<?xf32>, %arg35: memref<?xf32>, %arg36: memref<?xf32>, %arg37: memref<?xf32>, %arg38: memref<?xf32>, %arg39: memref<?xf32>, %arg40: memref<?xf32>, %arg41: memref<?xf32>) attributes {llvm.linkage = #llvm.linkage<external>} {
  %0 = memref.alloca() : memref<1xf32>
  %1 = memref.cast %0 : memref<1xf32> to memref<?xf32>
  %c0 = arith.constant 0 : index
  %2 = llvm.mlir.undef : f32
  memref.store %2, %1[%c0] : memref<?xf32>
  %3 = memref.alloca() : memref<1xi32>
  %4 = memref.cast %3 : memref<1xi32> to memref<?xi32>
  %5 = llvm.mlir.undef : i32
  memref.store %5, %4[%c0] : memref<?xi32>
  %6 = memref.alloca() : memref<1xi32>
  %7 = memref.cast %6 : memref<1xi32> to memref<?xi32>
  memref.store %5, %7[%c0] : memref<?xi32>
  %8 = memref.alloca() : memref<1xf32>
  %9 = memref.cast %8 : memref<1xf32> to memref<?xf32>
  memref.store %2, %9[%c0] : memref<?xf32>
  %10 = memref.alloca() : memref<1xf32>
  %11 = memref.cast %10 : memref<1xf32> to memref<?xf32>
  memref.store %2, %11[%c0] : memref<?xf32>
  %12 = memref.alloca() : memref<1xf32>
  %13 = memref.cast %12 : memref<1xf32> to memref<?xf32>
  memref.store %2, %13[%c0] : memref<?xf32>
  %14 = memref.alloca() : memref<1xf32>
  %15 = memref.cast %14 : memref<1xf32> to memref<?xf32>
  memref.store %2, %15[%c0] : memref<?xf32>
  %16 = memref.alloca() : memref<1xf32>
  %17 = memref.cast %16 : memref<1xf32> to memref<?xf32>
  memref.store %2, %17[%c0] : memref<?xf32>
  %18 = memref.alloca() : memref<1xf32>
  %19 = memref.cast %18 : memref<1xf32> to memref<?xf32>
  memref.store %2, %19[%c0] : memref<?xf32>
  %20 = memref.alloca() : memref<1xf32>
  %21 = memref.cast %20 : memref<1xf32> to memref<?xf32>
  memref.store %2, %21[%c0] : memref<?xf32>
  %22 = memref.alloca() : memref<1xf32>
  %23 = memref.cast %22 : memref<1xf32> to memref<?xf32>
  memref.store %2, %23[%c0] : memref<?xf32>
  %24 = memref.alloca() : memref<1xf32>
  %25 = memref.cast %24 : memref<1xf32> to memref<?xf32>
  memref.store %2, %25[%c0] : memref<?xf32>
  %26 = memref.alloca() : memref<1xf32>
  %27 = memref.cast %26 : memref<1xf32> to memref<?xf32>
  memref.store %2, %27[%c0] : memref<?xf32>
  %28 = memref.alloca() : memref<1xf32>
  %29 = memref.cast %28 : memref<1xf32> to memref<?xf32>
  memref.store %2, %29[%c0] : memref<?xf32>
  %30 = memref.alloca() : memref<1xf32>
  %31 = memref.cast %30 : memref<1xf32> to memref<?xf32>
  memref.store %2, %31[%c0] : memref<?xf32>
  %32 = memref.alloca() : memref<1xf32>
  %33 = memref.cast %32 : memref<1xf32> to memref<?xf32>
  memref.store %2, %33[%c0] : memref<?xf32>
  %34 = memref.alloca() : memref<1xf32>
  %35 = memref.cast %34 : memref<1xf32> to memref<?xf32>
  memref.store %2, %35[%c0] : memref<?xf32>
  %36 = memref.alloca() : memref<1xf32>
  %37 = memref.cast %36 : memref<1xf32> to memref<?xf32>
  memref.store %2, %37[%c0] : memref<?xf32>
  %38 = memref.alloca() : memref<1xf32>
  %39 = memref.cast %38 : memref<1xf32> to memref<?xf32>
  memref.store %2, %39[%c0] : memref<?xf32>
  %40 = memref.alloca() : memref<1xmemref<?xf32>>
  %41 = memref.cast %40 : memref<1xmemref<?xf32>> to memref<?xmemref<?xf32>>
  %42 = memref.alloca() : memref<1xmemref<?xf32>>
  %43 = memref.cast %42 : memref<1xmemref<?xf32>> to memref<?xmemref<?xf32>>
  %44 = memref.alloca() : memref<1xmemref<?xf32>>
  %45 = memref.cast %44 : memref<1xmemref<?xf32>> to memref<?xmemref<?xf32>>
  %46 = memref.alloca() : memref<1xmemref<?xf32>>
  %47 = memref.cast %46 : memref<1xmemref<?xf32>> to memref<?xmemref<?xf32>>
  %48 = memref.alloca() : memref<1xmemref<?xf32>>
  %49 = memref.cast %48 : memref<1xmemref<?xf32>> to memref<?xmemref<?xf32>>
  %50 = memref.alloca() : memref<1xmemref<?xf32>>
  %51 = memref.cast %50 : memref<1xmemref<?xf32>> to memref<?xmemref<?xf32>>
  %52 = memref.alloca() : memref<1xmemref<?xf32>>
  %53 = memref.cast %52 : memref<1xmemref<?xf32>> to memref<?xmemref<?xf32>>
  %54 = memref.alloca() : memref<1xmemref<?xf32>>
  %55 = memref.cast %54 : memref<1xmemref<?xf32>> to memref<?xmemref<?xf32>>
  %56 = memref.alloca() : memref<1xmemref<?xf32>>
  %57 = memref.cast %56 : memref<1xmemref<?xf32>> to memref<?xmemref<?xf32>>
  %58 = memref.alloca() : memref<1xmemref<?xf32>>
  %59 = memref.cast %58 : memref<1xmemref<?xf32>> to memref<?xmemref<?xf32>>
  %60 = memref.alloca() : memref<1xmemref<?xf32>>
  %61 = memref.cast %60 : memref<1xmemref<?xf32>> to memref<?xmemref<?xf32>>
  %62 = memref.alloca() : memref<1xmemref<?xf32>>
  %63 = memref.cast %62 : memref<1xmemref<?xf32>> to memref<?xmemref<?xf32>>
  %64 = memref.alloca() : memref<1xmemref<?xf32>>
  %65 = memref.cast %64 : memref<1xmemref<?xf32>> to memref<?xmemref<?xf32>>
  %66 = memref.alloca() : memref<1xmemref<?xf32>>
  %67 = memref.cast %66 : memref<1xmemref<?xf32>> to memref<?xmemref<?xf32>>
  %68 = memref.alloca() : memref<1xmemref<?xf32>>
  %69 = memref.cast %68 : memref<1xmemref<?xf32>> to memref<?xmemref<?xf32>>
  %70 = memref.alloca() : memref<1xmemref<?xf32>>
  %71 = memref.cast %70 : memref<1xmemref<?xf32>> to memref<?xmemref<?xf32>>
  %72 = memref.alloca() : memref<1xmemref<?xf32>>
  %73 = memref.cast %72 : memref<1xmemref<?xf32>> to memref<?xmemref<?xf32>>
  %74 = memref.alloca() : memref<1xmemref<?xf32>>
  %75 = memref.cast %74 : memref<1xmemref<?xf32>> to memref<?xmemref<?xf32>>
  %76 = memref.alloca() : memref<1xmemref<?xf32>>
  %77 = memref.cast %76 : memref<1xmemref<?xf32>> to memref<?xmemref<?xf32>>
  %78 = memref.alloca() : memref<1xmemref<?xf32>>
  %79 = memref.cast %78 : memref<1xmemref<?xf32>> to memref<?xmemref<?xf32>>
  %80 = memref.alloca() : memref<1xmemref<?xf32>>
  %81 = memref.cast %80 : memref<1xmemref<?xf32>> to memref<?xmemref<?xf32>>
  %82 = memref.alloca() : memref<1xmemref<?xf32>>
  %83 = memref.cast %82 : memref<1xmemref<?xf32>> to memref<?xmemref<?xf32>>
  %84 = memref.alloca() : memref<1xmemref<?xf32>>
  %85 = memref.cast %84 : memref<1xmemref<?xf32>> to memref<?xmemref<?xf32>>
  %86 = memref.alloca() : memref<1xmemref<?xf32>>
  %87 = memref.cast %86 : memref<1xmemref<?xf32>> to memref<?xmemref<?xf32>>
  %88 = memref.alloca() : memref<1xmemref<?xf32>>
  %89 = memref.cast %88 : memref<1xmemref<?xf32>> to memref<?xmemref<?xf32>>
  %90 = memref.alloca() : memref<1xmemref<?xf32>>
  %91 = memref.cast %90 : memref<1xmemref<?xf32>> to memref<?xmemref<?xf32>>
  %92 = memref.alloca() : memref<1xmemref<?xf32>>
  %93 = memref.cast %92 : memref<1xmemref<?xf32>> to memref<?xmemref<?xf32>>
  %94 = memref.alloca() : memref<1xmemref<?xf32>>
  %95 = memref.cast %94 : memref<1xmemref<?xf32>> to memref<?xmemref<?xf32>>
  %96 = memref.alloca() : memref<1xmemref<?xf32>>
  %97 = memref.cast %96 : memref<1xmemref<?xf32>> to memref<?xmemref<?xf32>>
  %98 = memref.alloca() : memref<1xmemref<?xf32>>
  %99 = memref.cast %98 : memref<1xmemref<?xf32>> to memref<?xmemref<?xf32>>
  %100 = memref.alloca() : memref<1xmemref<?xf32>>
  %101 = memref.cast %100 : memref<1xmemref<?xf32>> to memref<?xmemref<?xf32>>
  %102 = memref.alloca() : memref<1xmemref<?xf32>>
  %103 = memref.cast %102 : memref<1xmemref<?xf32>> to memref<?xmemref<?xf32>>
  %104 = memref.alloca() : memref<1xmemref<?xf32>>
  %105 = memref.cast %104 : memref<1xmemref<?xf32>> to memref<?xmemref<?xf32>>
  %106 = memref.alloca() : memref<1xmemref<?xf32>>
  %107 = memref.cast %106 : memref<1xmemref<?xf32>> to memref<?xmemref<?xf32>>
  %108 = memref.alloca() : memref<1xmemref<?xf32>>
  %109 = memref.cast %108 : memref<1xmemref<?xf32>> to memref<?xmemref<?xf32>>
  %110 = memref.alloca() : memref<1xmemref<?xf32>>
  %111 = memref.cast %110 : memref<1xmemref<?xf32>> to memref<?xmemref<?xf32>>
  %112 = memref.alloca() : memref<1xmemref<?xf32>>
  %113 = memref.cast %112 : memref<1xmemref<?xf32>> to memref<?xmemref<?xf32>>
  %114 = memref.alloca() : memref<1xmemref<?xf32>>
  %115 = memref.cast %114 : memref<1xmemref<?xf32>> to memref<?xmemref<?xf32>>
  %116 = memref.alloca() : memref<1xmemref<?xf32>>
  %117 = memref.cast %116 : memref<1xmemref<?xf32>> to memref<?xmemref<?xf32>>
  %118 = memref.alloca() : memref<1xmemref<?xf32>>
  %119 = memref.cast %118 : memref<1xmemref<?xf32>> to memref<?xmemref<?xf32>>
  %120 = memref.alloca() : memref<1xmemref<?xf32>>
  %121 = memref.cast %120 : memref<1xmemref<?xf32>> to memref<?xmemref<?xf32>>
  %122 = memref.alloca() : memref<1xmemref<?xf32>>
  %123 = memref.cast %122 : memref<1xmemref<?xf32>> to memref<?xmemref<?xf32>>
  memref.store %arg0, %123[%c0] : memref<?xmemref<?xf32>>
  memref.store %arg1, %121[%c0] : memref<?xmemref<?xf32>>
  memref.store %arg2, %119[%c0] : memref<?xmemref<?xf32>>
  memref.store %arg3, %117[%c0] : memref<?xmemref<?xf32>>
  memref.store %arg4, %115[%c0] : memref<?xmemref<?xf32>>
  memref.store %arg5, %113[%c0] : memref<?xmemref<?xf32>>
  memref.store %arg6, %111[%c0] : memref<?xmemref<?xf32>>
  memref.store %arg7, %109[%c0] : memref<?xmemref<?xf32>>
  memref.store %arg8, %107[%c0] : memref<?xmemref<?xf32>>
  memref.store %arg9, %105[%c0] : memref<?xmemref<?xf32>>
  memref.store %arg10, %103[%c0] : memref<?xmemref<?xf32>>
  memref.store %arg11, %101[%c0] : memref<?xmemref<?xf32>>
  memref.store %arg12, %99[%c0] : memref<?xmemref<?xf32>>
  memref.store %arg13, %97[%c0] : memref<?xmemref<?xf32>>
  memref.store %arg14, %95[%c0] : memref<?xmemref<?xf32>>
  memref.store %arg15, %93[%c0] : memref<?xmemref<?xf32>>
  memref.store %arg16, %91[%c0] : memref<?xmemref<?xf32>>
  memref.store %arg17, %89[%c0] : memref<?xmemref<?xf32>>
  memref.store %arg18, %87[%c0] : memref<?xmemref<?xf32>>
  memref.store %arg19, %85[%c0] : memref<?xmemref<?xf32>>
  memref.store %arg20, %83[%c0] : memref<?xmemref<?xf32>>
  memref.store %arg21, %81[%c0] : memref<?xmemref<?xf32>>
  memref.store %arg22, %79[%c0] : memref<?xmemref<?xf32>>
  memref.store %arg23, %77[%c0] : memref<?xmemref<?xf32>>
  memref.store %arg24, %75[%c0] : memref<?xmemref<?xf32>>
  memref.store %arg25, %73[%c0] : memref<?xmemref<?xf32>>
  memref.store %arg26, %71[%c0] : memref<?xmemref<?xf32>>
  memref.store %arg27, %69[%c0] : memref<?xmemref<?xf32>>
  memref.store %arg28, %67[%c0] : memref<?xmemref<?xf32>>
  memref.store %arg29, %65[%c0] : memref<?xmemref<?xf32>>
  memref.store %arg30, %63[%c0] : memref<?xmemref<?xf32>>
  memref.store %arg31, %61[%c0] : memref<?xmemref<?xf32>>
  memref.store %arg32, %59[%c0] : memref<?xmemref<?xf32>>
  memref.store %arg33, %57[%c0] : memref<?xmemref<?xf32>>
  memref.store %arg34, %55[%c0] : memref<?xmemref<?xf32>>
  memref.store %arg35, %53[%c0] : memref<?xmemref<?xf32>>
  memref.store %arg36, %51[%c0] : memref<?xmemref<?xf32>>
  memref.store %arg37, %49[%c0] : memref<?xmemref<?xf32>>
  memref.store %arg38, %47[%c0] : memref<?xmemref<?xf32>>
  memref.store %arg39, %45[%c0] : memref<?xmemref<?xf32>>
  memref.store %arg40, %43[%c0] : memref<?xmemref<?xf32>>
  memref.store %arg41, %41[%c0] : memref<?xmemref<?xf32>>
  %true = arith.constant true
  %124 = memref.alloca() : memref<i1>
  %125 = memref.alloca() : memref<i1>
  memref.store %true, %125[] : memref<i1>
  memref.store %true, %124[] : memref<i1>
  %126 = memref.load %124[] : memref<i1>
  scf.if %126 {
    scf.execute_region {
      %143 = memref.load %124[] : memref<i1>
      scf.if %143 {
        scf.execute_region {
          %cst = arith.constant 9.200000e-01 : f32
          memref.store %cst, %39[%c0] : memref<?xf32>
          scf.yield
        }
      }
      scf.yield
    }
  }
  %127 = memref.load %124[] : memref<i1>
  scf.if %127 {
    scf.execute_region {
      %143 = memref.load %124[] : memref<i1>
      scf.if %143 {
        scf.execute_region {
          %cst = arith.constant 7.400000e-01 : f32
          memref.store %cst, %37[%c0] : memref<?xf32>
          scf.yield
        }
      }
      scf.yield
    }
  }
  %128 = memref.load %124[] : memref<i1>
  scf.if %128 {
    scf.execute_region {
      %143 = memref.load %124[] : memref<i1>
      scf.if %143 {
        scf.execute_region {
          %cst = arith.constant 1.660000e+01 : f32
          memref.store %cst, %35[%c0] : memref<?xf32>
          scf.yield
        }
      }
      scf.yield
    }
  }
  %129 = memref.load %124[] : memref<i1>
  scf.if %129 {
    scf.execute_region {
      %143 = memref.load %124[] : memref<i1>
      scf.if %143 {
        scf.execute_region {
          %cst = arith.constant 1.010000e+01 : f32
          memref.store %cst, %33[%c0] : memref<?xf32>
          scf.yield
        }
      }
      scf.yield
    }
  }
  %130 = memref.load %124[] : memref<i1>
  scf.if %130 {
    scf.execute_region {
      %143 = memref.load %124[] : memref<i1>
      scf.if %143 {
        scf.execute_region {
          %cst = arith.constant 8.000000e-02 : f32
          memref.store %cst, %31[%c0] : memref<?xf32>
          scf.yield
        }
      }
      scf.yield
    }
  }
  %131 = memref.load %124[] : memref<i1>
  scf.if %131 {
    scf.execute_region {
      %143 = memref.load %124[] : memref<i1>
      scf.if %143 {
        scf.execute_region {
          %cst = arith.constant 1.800000e+00 : f32
          memref.store %cst, %29[%c0] : memref<?xf32>
          scf.yield
        }
      }
      scf.yield
    }
  }
  %132 = memref.load %124[] : memref<i1>
  scf.if %132 {
    scf.execute_region {
      %143 = memref.load %124[] : memref<i1>
      scf.if %143 {
        scf.execute_region {
          %cst = arith.constant 1.330000e+00 : f32
          memref.store %cst, %27[%c0] : memref<?xf32>
          scf.yield
        }
      }
      scf.yield
    }
  }
  %133 = memref.load %124[] : memref<i1>
  scf.if %133 {
    scf.execute_region {
      %143 = memref.load %124[] : memref<i1>
      scf.if %143 {
        scf.execute_region {
          %cst = arith.constant 1.000000e+00 : f32
          memref.store %cst, %25[%c0] : memref<?xf32>
          scf.yield
        }
      }
      scf.yield
    }
  }
  %134 = memref.load %124[] : memref<i1>
  scf.if %134 {
    scf.execute_region {
      %143 = memref.load %124[] : memref<i1>
      scf.if %143 {
        scf.execute_region {
          %cst = arith.constant 1.000000e+02 : f32
          memref.store %cst, %23[%c0] : memref<?xf32>
          scf.yield
        }
      }
      scf.yield
    }
  }
  %135 = memref.load %124[] : memref<i1>
  scf.if %135 {
    scf.execute_region {
      %143 = memref.load %124[] : memref<i1>
      scf.if %143 {
        scf.execute_region {
          %cst = arith.constant 2.000000e+05 : f32
          memref.store %cst, %21[%c0] : memref<?xf32>
          scf.yield
        }
      }
      scf.yield
    }
  }
  %136 = memref.load %124[] : memref<i1>
  scf.if %136 {
    scf.execute_region {
      %143 = memref.load %124[] : memref<i1>
      scf.if %143 {
        scf.execute_region {
          %cst = arith.constant 0.000000e+00 : f32
          memref.store %cst, %19[%c0] : memref<?xf32>
          scf.yield
        }
      }
      scf.yield
    }
  }
  %137 = memref.load %124[] : memref<i1>
  scf.if %137 {
    scf.execute_region {
      %143 = memref.load %124[] : memref<i1>
      scf.if %143 {
        scf.execute_region {
          %cst = arith.constant -6.000000e+00 : f32
          memref.store %cst, %17[%c0] : memref<?xf32>
          scf.yield
        }
      }
      scf.yield
    }
  }
  %138 = memref.load %124[] : memref<i1>
  scf.if %138 {
    scf.execute_region {
      %143 = memref.load %124[] : memref<i1>
      scf.if %143 {
        scf.execute_region {
          scf.yield
        }
      }
      scf.yield
    }
  }
  %139 = memref.load %124[] : memref<i1>
  scf.if %139 {
    scf.execute_region {
      %143 = memref.load %124[] : memref<i1>
      scf.if %143 {
        scf.execute_region {
          scf.yield
        }
      }
      scf.yield
    }
  }
  %140 = memref.load %124[] : memref<i1>
  scf.if %140 {
    scf.execute_region {
      %143 = memref.load %124[] : memref<i1>
      scf.if %143 {
        scf.execute_region {
          scf.yield
        }
      }
      scf.yield
    }
  }
  %141 = memref.load %124[] : memref<i1>
  scf.if %141 {
    scf.execute_region {
      %143 = memref.load %124[] : memref<i1>
      scf.if %143 {
        scf.execute_region {
          %cst = arith.constant 5.000000e-01 : f32
          memref.store %cst, %9[%c0] : memref<?xf32>
          scf.yield
        }
      }
      scf.yield
    }
  }
  %142 = memref.load %124[] : memref<i1>
  scf.if %142 {
    scf.execute_region {
      %143 = memref.load %124[] : memref<i1>
      scf.if %143 {
        scf.execute_region {
          %144 = memref.load %124[] : memref<i1>
          scf.if %144 {
            scf.execute_region {
              %c0_i32_0 = arith.constant 0 : i32
              memref.store %c0_i32_0, %7[%c0] : memref<?xi32>
              scf.yield
            }
          }
          %145 = memref.alloca() : memref<i1>
          %146 = memref.alloca() : memref<i1>
          memref.store %true, %146[] : memref<i1>
          cf.br ^bb1
        ^bb1:  // 2 preds: ^bb0, ^bb2
          %147 = memref.load %7[%c0] : memref<?xi32>
          %148 = memref.get_global @jmm1 : memref<1xi32>
          %149 = memref.cast %148 : memref<1xi32> to memref<?xi32>
          %150 = memref.load %149[%c0] : memref<?xi32>
          %151 = arith.cmpi slt, %147, %150 : i32
          %152 = arith.extsi %151 : i1 to i32
          %c0_i32 = arith.constant 0 : i32
          %153 = arith.cmpi ne, %152, %c0_i32 : i32
          %154 = memref.load %146[] : memref<i1>
          %155 = arith.andi %153, %154 : i1
          cf.cond_br %155, ^bb2, ^bb3
        ^bb2:  // pred: ^bb1
          %156 = memref.load %146[] : memref<i1>
          memref.store %156, %145[] : memref<i1>
          %157 = memref.load %145[] : memref<i1>
          scf.if %157 {
            scf.execute_region {
              %160 = memref.load %145[] : memref<i1>
              scf.if %160 {
                scf.execute_region {
                  %161 = memref.load %145[] : memref<i1>
                  scf.if %161 {
                    scf.execute_region {
                      memref.store %c0_i32, %4[%c0] : memref<?xi32>
                      scf.yield
                    }
                  }
                  %162 = memref.alloca() : memref<i1>
                  %163 = memref.alloca() : memref<i1>
                  memref.store %true, %163[] : memref<i1>
                  cf.br ^bb1
                ^bb1:  // 2 preds: ^bb0, ^bb2
                  %164 = memref.load %4[%c0] : memref<?xi32>
                  %165 = memref.get_global @imm1 : memref<1xi32>
                  %166 = memref.cast %165 : memref<1xi32> to memref<?xi32>
                  %167 = memref.load %166[%c0] : memref<?xi32>
                  %168 = arith.cmpi slt, %164, %167 : i32
                  %169 = arith.extsi %168 : i1 to i32
                  %170 = arith.cmpi ne, %169, %c0_i32 : i32
                  %171 = memref.load %163[] : memref<i1>
                  %172 = arith.andi %170, %171 : i1
                  cf.cond_br %172, ^bb2, ^bb3
                ^bb2:  // pred: ^bb1
                  %173 = memref.load %163[] : memref<i1>
                  memref.store %173, %162[] : memref<i1>
                  %174 = memref.load %162[] : memref<i1>
                  scf.if %174 {
                    scf.execute_region {
                      %178 = memref.load %162[] : memref<i1>
                      scf.if %178 {
                        scf.execute_region {
                          %cst = arith.constant 5.000000e-01 : f32
                          %179 = memref.load %97[%c0] : memref<?xmemref<?xf32>>
                          %180 = memref.load %4[%c0] : memref<?xi32>
                          %181 = memref.load %7[%c0] : memref<?xi32>
                          %182 = memref.get_global @im : memref<1xi32>
                          %183 = memref.cast %182 : memref<1xi32> to memref<?xi32>
                          %184 = memref.load %183[%c0] : memref<?xi32>
                          %185 = arith.muli %181, %184 : i32
                          %186 = arith.addi %180, %185 : i32
                          %187 = arith.index_cast %186 : i32 to index
                          %188 = "polygeist.subindex"(%179, %187) : (memref<?xf32>, index) -> memref<?xf32>
                          %189 = "polygeist.subindex"(%188, %c0) : (memref<?xf32>, index) -> memref<?xf32>
                          %190 = memref.load %189[%c0] : memref<?xf32>
                          %c1_i32 = arith.constant 1 : i32
                          %191 = arith.addi %180, %c1_i32 : i32
                          %192 = arith.addi %191, %185 : i32
                          %193 = arith.index_cast %192 : i32 to index
                          %194 = "polygeist.subindex"(%179, %193) : (memref<?xf32>, index) -> memref<?xf32>
                          %195 = "polygeist.subindex"(%194, %c0) : (memref<?xf32>, index) -> memref<?xf32>
                          %196 = memref.load %195[%c0] : memref<?xf32>
                          %197 = arith.addf %190, %196 : f32
                          %198 = arith.mulf %cst, %197 : f32
                          %199 = math.sqrt %198 : f32
                          memref.store %199, %1[%c0] : memref<?xf32>
                          scf.yield
                        }
                      }
                      scf.yield
                    }
                  }
                  %175 = memref.load %162[] : memref<i1>
                  scf.if %175 {
                    scf.execute_region {
                      %178 = memref.load %99[%c0] : memref<?xmemref<?xf32>>
                      %179 = memref.load %4[%c0] : memref<?xi32>
                      %180 = memref.load %7[%c0] : memref<?xi32>
                      %181 = memref.get_global @im : memref<1xi32>
                      %182 = memref.cast %181 : memref<1xi32> to memref<?xi32>
                      %183 = memref.load %182[%c0] : memref<?xi32>
                      %184 = arith.muli %180, %183 : i32
                      %185 = arith.addi %179, %184 : i32
                      %186 = arith.muli %c0_i32, %183 : i32
                      %187 = memref.get_global @jm : memref<1xi32>
                      %188 = memref.cast %187 : memref<1xi32> to memref<?xi32>
                      %189 = memref.load %188[%c0] : memref<?xi32>
                      %190 = arith.muli %186, %189 : i32
                      %191 = arith.addi %185, %190 : i32
                      %192 = arith.index_cast %191 : i32 to index
                      %193 = "polygeist.subindex"(%178, %192) : (memref<?xf32>, index) -> memref<?xf32>
                      %194 = "polygeist.subindex"(%193, %c0) : (memref<?xf32>, index) -> memref<?xf32>
                      %cst = arith.constant 1.580000e+01 : f32
                      %195 = memref.load %23[%c0] : memref<?xf32>
                      %196 = arith.mulf %cst, %195 : f32
                      %cst_0 = arith.constant 2.000000e+00 : f32
                      %cst_1 = arith.constant 3.000000e+00 : f32
                      %197 = arith.divf %cst_0, %cst_1 : f32
                      %198 = math.powf %196, %197 : f32
                      %199 = memref.load %1[%c0] : memref<?xf32>
                      %200 = arith.mulf %198, %199 : f32
                      memref.store %200, %194[%c0] : memref<?xf32>
                      scf.yield
                    }
                  }
                  %176 = memref.load %163[] : memref<i1>
                  memref.store %176, %162[] : memref<i1>
                  %177 = memref.load %162[] : memref<i1>
                  scf.if %177 {
                    scf.execute_region {
                      %178 = memref.load %4[%c0] : memref<?xi32>
                      %c1_i32 = arith.constant 1 : i32
                      %179 = arith.addi %178, %c1_i32 : i32
                      memref.store %179, %4[%c0] : memref<?xi32>
                      scf.yield
                    }
                  }
                  cf.br ^bb1
                ^bb3:  // pred: ^bb1
                  scf.yield
                }
              }
              scf.yield
            }
          }
          %158 = memref.load %146[] : memref<i1>
          memref.store %158, %145[] : memref<i1>
          %159 = memref.load %145[] : memref<i1>
          scf.if %159 {
            scf.execute_region {
              %160 = memref.load %7[%c0] : memref<?xi32>
              %c1_i32 = arith.constant 1 : i32
              %161 = arith.addi %160, %c1_i32 : i32
              memref.store %161, %7[%c0] : memref<?xi32>
              scf.yield
            }
          }
          cf.br ^bb1
        ^bb3:  // pred: ^bb1
          scf.yield
        }
      }
      scf.yield
    }
  }
  return
}
Matching Load: mlir-asm-printer: Verifying operation: func.func
%199 = memref.load %1[%c0] : memref<?xf32>
Matching Store: mlir-asm-printer: Verifying operation: func.func
memref.store %199, %1[%c0] : memref<?xf32>
Matching Store: mlir-asm-printer: Verifying operation: func.func
memref.store %2, %1[%c0] : memref<?xf32>
 storing operation: mlir-asm-printer: Verifying operation: func.func
memref.store %2, %1[%c0] : memref<?xf32>
 storing operation: mlir-asm-printer: Verifying operation: func.func
memref.store %199, %1[%c0] : memref<?xf32>
 initial storing block: 0x7fcade213af0
 derived storing block: 0x7fcade211d50
 initial storing block: 0x7fcade228af0
 derived storing block: 0x7fcade228950
 initial storing block: 0x7fcade211d50
 initial storing block: 0x7fcade228950
 derived storing block: 0x7fcade228880
 initial storing block: 0x7fcade228880
 derived storing block: 0x7fcade2286e0
 initial storing block: 0x7fcade2286e0
 derived storing block: 0x7fcade227a80
 initial storing block: 0x7fcade227a80
 derived storing block: 0x7fcade226ed0
 initial storing block: 0x7fcade226ed0
 derived storing block: 0x7fcade226e00
 initial storing block: 0x7fcade226e00
 derived storing block: 0x7fcade226c60
 initial storing block: 0x7fcade226c60
 derived storing block: 0x7fcade225b80
 initial storing block: 0x7fcade225b80
 derived storing block: 0x7fcade224e90
 initial storing block: 0x7fcade224e90
 derived storing block: 0x7fcade224dc0
 initial storing block: 0x7fcade224dc0
 derived storing block: 0x7fcade224c20
 initial storing block: 0x7fcade224c20
 derived storing block: 0x7fcade213af0
 initial storing block: 0x7fcade213af0
 derived storing block: 0x7fcade211d50
 initial storing block: 0x7fcade211d50

starting block: lastVal=<overwritten>
mlir-asm-printer: Verifying operation: builtin.module
^bb0(%arg0: memref<?xf32>, %arg1: memref<?xf32>, %arg2: memref<?xf32>, %arg3: memref<?xf32>, %arg4: memref<?xf32>, %arg5: memref<?xf32>, %arg6: memref<?xf32>, %arg7: memref<?xf32>, %arg8: memref<?xf32>, %arg9: memref<?xf32>, %arg10: memref<?xf32>, %arg11: memref<?xf32>, %arg12: memref<?xf32>, %arg13: memref<?xf32>, %arg14: memref<?xf32>, %arg15: memref<?xf32>, %arg16: memref<?xf32>, %arg17: memref<?xf32>, %arg18: memref<?xf32>, %arg19: memref<?xf32>, %arg20: memref<?xf32>, %arg21: memref<?xf32>, %arg22: memref<?xf32>, %arg23: memref<?xf32>, %arg24: memref<?xf32>, %arg25: memref<?xf32>, %arg26: memref<?xf32>, %arg27: memref<?xf32>, %arg28: memref<?xf32>, %arg29: memref<?xf32>, %arg30: memref<?xf32>, %arg31: memref<?xf32>, %arg32: memref<?xf32>, %arg33: memref<?xf32>, %arg34: memref<?xf32>, %arg35: memref<?xf32>, %arg36: memref<?xf32>, %arg37: memref<?xf32>, %arg38: memref<?xf32>, %arg39: memref<?xf32>, %arg40: memref<?xf32>, %arg41: memref<?xf32>):
  %0 = memref.alloca() : memref<1xf32>
  %1 = memref.cast %0 : memref<1xf32> to memref<?xf32>
  %c0 = arith.constant 0 : index
  %2 = llvm.mlir.undef : f32
  memref.store %2, %1[%c0] : memref<?xf32>
  %3 = memref.alloca() : memref<1xi32>
  %4 = memref.cast %3 : memref<1xi32> to memref<?xi32>
  %5 = llvm.mlir.undef : i32
  memref.store %5, %4[%c0] : memref<?xi32>
  %6 = memref.alloca() : memref<1xi32>
  %7 = memref.cast %6 : memref<1xi32> to memref<?xi32>
  memref.store %5, %7[%c0] : memref<?xi32>
  %8 = memref.alloca() : memref<1xf32>
  %9 = memref.cast %8 : memref<1xf32> to memref<?xf32>
  memref.store %2, %9[%c0] : memref<?xf32>
  %10 = memref.alloca() : memref<1xf32>
  %11 = memref.cast %10 : memref<1xf32> to memref<?xf32>
  memref.store %2, %11[%c0] : memref<?xf32>
  %12 = memref.alloca() : memref<1xf32>
  %13 = memref.cast %12 : memref<1xf32> to memref<?xf32>
  memref.store %2, %13[%c0] : memref<?xf32>
  %14 = memref.alloca() : memref<1xf32>
  %15 = memref.cast %14 : memref<1xf32> to memref<?xf32>
  memref.store %2, %15[%c0] : memref<?xf32>
  %16 = memref.alloca() : memref<1xf32>
  %17 = memref.cast %16 : memref<1xf32> to memref<?xf32>
  memref.store %2, %17[%c0] : memref<?xf32>
  %18 = memref.alloca() : memref<1xf32>
  %19 = memref.cast %18 : memref<1xf32> to memref<?xf32>
  memref.store %2, %19[%c0] : memref<?xf32>
  %20 = memref.alloca() : memref<1xf32>
  %21 = memref.cast %20 : memref<1xf32> to memref<?xf32>
  memref.store %2, %21[%c0] : memref<?xf32>
  %22 = memref.alloca() : memref<1xf32>
  %23 = memref.cast %22 : memref<1xf32> to memref<?xf32>
  memref.store %2, %23[%c0] : memref<?xf32>
  %24 = memref.alloca() : memref<1xf32>
  %25 = memref.cast %24 : memref<1xf32> to memref<?xf32>
  memref.store %2, %25[%c0] : memref<?xf32>
  %26 = memref.alloca() : memref<1xf32>
  %27 = memref.cast %26 : memref<1xf32> to memref<?xf32>
  memref.store %2, %27[%c0] : memref<?xf32>
  %28 = memref.alloca() : memref<1xf32>
  %29 = memref.cast %28 : memref<1xf32> to memref<?xf32>
  memref.store %2, %29[%c0] : memref<?xf32>
  %30 = memref.alloca() : memref<1xf32>
  %31 = memref.cast %30 : memref<1xf32> to memref<?xf32>
  memref.store %2, %31[%c0] : memref<?xf32>
  %32 = memref.alloca() : memref<1xf32>
  %33 = memref.cast %32 : memref<1xf32> to memref<?xf32>
  memref.store %2, %33[%c0] : memref<?xf32>
  %34 = memref.alloca() : memref<1xf32>
  %35 = memref.cast %34 : memref<1xf32> to memref<?xf32>
  memref.store %2, %35[%c0] : memref<?xf32>
  %36 = memref.alloca() : memref<1xf32>
  %37 = memref.cast %36 : memref<1xf32> to memref<?xf32>
  memref.store %2, %37[%c0] : memref<?xf32>
  %38 = memref.alloca() : memref<1xf32>
  %39 = memref.cast %38 : memref<1xf32> to memref<?xf32>
  memref.store %2, %39[%c0] : memref<?xf32>
  %40 = memref.alloca() : memref<1xmemref<?xf32>>
  %41 = memref.cast %40 : memref<1xmemref<?xf32>> to memref<?xmemref<?xf32>>
  %42 = memref.alloca() : memref<1xmemref<?xf32>>
  %43 = memref.cast %42 : memref<1xmemref<?xf32>> to memref<?xmemref<?xf32>>
  %44 = memref.alloca() : memref<1xmemref<?xf32>>
  %45 = memref.cast %44 : memref<1xmemref<?xf32>> to memref<?xmemref<?xf32>>
  %46 = memref.alloca() : memref<1xmemref<?xf32>>
  %47 = memref.cast %46 : memref<1xmemref<?xf32>> to memref<?xmemref<?xf32>>
  %48 = memref.alloca() : memref<1xmemref<?xf32>>
  %49 = memref.cast %48 : memref<1xmemref<?xf32>> to memref<?xmemref<?xf32>>
  %50 = memref.alloca() : memref<1xmemref<?xf32>>
  %51 = memref.cast %50 : memref<1xmemref<?xf32>> to memref<?xmemref<?xf32>>
  %52 = memref.alloca() : memref<1xmemref<?xf32>>
  %53 = memref.cast %52 : memref<1xmemref<?xf32>> to memref<?xmemref<?xf32>>
  %54 = memref.alloca() : memref<1xmemref<?xf32>>
  %55 = memref.cast %54 : memref<1xmemref<?xf32>> to memref<?xmemref<?xf32>>
  %56 = memref.alloca() : memref<1xmemref<?xf32>>
  %57 = memref.cast %56 : memref<1xmemref<?xf32>> to memref<?xmemref<?xf32>>
  %58 = memref.alloca() : memref<1xmemref<?xf32>>
  %59 = memref.cast %58 : memref<1xmemref<?xf32>> to memref<?xmemref<?xf32>>
  %60 = memref.alloca() : memref<1xmemref<?xf32>>
  %61 = memref.cast %60 : memref<1xmemref<?xf32>> to memref<?xmemref<?xf32>>
  %62 = memref.alloca() : memref<1xmemref<?xf32>>
  %63 = memref.cast %62 : memref<1xmemref<?xf32>> to memref<?xmemref<?xf32>>
  %64 = memref.alloca() : memref<1xmemref<?xf32>>
  %65 = memref.cast %64 : memref<1xmemref<?xf32>> to memref<?xmemref<?xf32>>
  %66 = memref.alloca() : memref<1xmemref<?xf32>>
  %67 = memref.cast %66 : memref<1xmemref<?xf32>> to memref<?xmemref<?xf32>>
  %68 = memref.alloca() : memref<1xmemref<?xf32>>
  %69 = memref.cast %68 : memref<1xmemref<?xf32>> to memref<?xmemref<?xf32>>
  %70 = memref.alloca() : memref<1xmemref<?xf32>>
  %71 = memref.cast %70 : memref<1xmemref<?xf32>> to memref<?xmemref<?xf32>>
  %72 = memref.alloca() : memref<1xmemref<?xf32>>
  %73 = memref.cast %72 : memref<1xmemref<?xf32>> to memref<?xmemref<?xf32>>
  %74 = memref.alloca() : memref<1xmemref<?xf32>>
  %75 = memref.cast %74 : memref<1xmemref<?xf32>> to memref<?xmemref<?xf32>>
  %76 = memref.alloca() : memref<1xmemref<?xf32>>
  %77 = memref.cast %76 : memref<1xmemref<?xf32>> to memref<?xmemref<?xf32>>
  %78 = memref.alloca() : memref<1xmemref<?xf32>>
  %79 = memref.cast %78 : memref<1xmemref<?xf32>> to memref<?xmemref<?xf32>>
  %80 = memref.alloca() : memref<1xmemref<?xf32>>
  %81 = memref.cast %80 : memref<1xmemref<?xf32>> to memref<?xmemref<?xf32>>
  %82 = memref.alloca() : memref<1xmemref<?xf32>>
  %83 = memref.cast %82 : memref<1xmemref<?xf32>> to memref<?xmemref<?xf32>>
  %84 = memref.alloca() : memref<1xmemref<?xf32>>
  %85 = memref.cast %84 : memref<1xmemref<?xf32>> to memref<?xmemref<?xf32>>
  %86 = memref.alloca() : memref<1xmemref<?xf32>>
  %87 = memref.cast %86 : memref<1xmemref<?xf32>> to memref<?xmemref<?xf32>>
  %88 = memref.alloca() : memref<1xmemref<?xf32>>
  %89 = memref.cast %88 : memref<1xmemref<?xf32>> to memref<?xmemref<?xf32>>
  %90 = memref.alloca() : memref<1xmemref<?xf32>>
  %91 = memref.cast %90 : memref<1xmemref<?xf32>> to memref<?xmemref<?xf32>>
  %92 = memref.alloca() : memref<1xmemref<?xf32>>
  %93 = memref.cast %92 : memref<1xmemref<?xf32>> to memref<?xmemref<?xf32>>
  %94 = memref.alloca() : memref<1xmemref<?xf32>>
  %95 = memref.cast %94 : memref<1xmemref<?xf32>> to memref<?xmemref<?xf32>>
  %96 = memref.alloca() : memref<1xmemref<?xf32>>
  %97 = memref.cast %96 : memref<1xmemref<?xf32>> to memref<?xmemref<?xf32>>
  %98 = memref.alloca() : memref<1xmemref<?xf32>>
  %99 = memref.cast %98 : memref<1xmemref<?xf32>> to memref<?xmemref<?xf32>>
  %100 = memref.alloca() : memref<1xmemref<?xf32>>
  %101 = memref.cast %100 : memref<1xmemref<?xf32>> to memref<?xmemref<?xf32>>
  %102 = memref.alloca() : memref<1xmemref<?xf32>>
  %103 = memref.cast %102 : memref<1xmemref<?xf32>> to memref<?xmemref<?xf32>>
  %104 = memref.alloca() : memref<1xmemref<?xf32>>
  %105 = memref.cast %104 : memref<1xmemref<?xf32>> to memref<?xmemref<?xf32>>
  %106 = memref.alloca() : memref<1xmemref<?xf32>>
  %107 = memref.cast %106 : memref<1xmemref<?xf32>> to memref<?xmemref<?xf32>>
  %108 = memref.alloca() : memref<1xmemref<?xf32>>
  %109 = memref.cast %108 : memref<1xmemref<?xf32>> to memref<?xmemref<?xf32>>
  %110 = memref.alloca() : memref<1xmemref<?xf32>>
  %111 = memref.cast %110 : memref<1xmemref<?xf32>> to memref<?xmemref<?xf32>>
  %112 = memref.alloca() : memref<1xmemref<?xf32>>
  %113 = memref.cast %112 : memref<1xmemref<?xf32>> to memref<?xmemref<?xf32>>
  %114 = memref.alloca() : memref<1xmemref<?xf32>>
  %115 = memref.cast %114 : memref<1xmemref<?xf32>> to memref<?xmemref<?xf32>>
  %116 = memref.alloca() : memref<1xmemref<?xf32>>
  %117 = memref.cast %116 : memref<1xmemref<?xf32>> to memref<?xmemref<?xf32>>
  %118 = memref.alloca() : memref<1xmemref<?xf32>>
  %119 = memref.cast %118 : memref<1xmemref<?xf32>> to memref<?xmemref<?xf32>>
  %120 = memref.alloca() : memref<1xmemref<?xf32>>
  %121 = memref.cast %120 : memref<1xmemref<?xf32>> to memref<?xmemref<?xf32>>
  %122 = memref.alloca() : memref<1xmemref<?xf32>>
  %123 = memref.cast %122 : memref<1xmemref<?xf32>> to memref<?xmemref<?xf32>>
  memref.store %arg0, %123[%c0] : memref<?xmemref<?xf32>>
  memref.store %arg1, %121[%c0] : memref<?xmemref<?xf32>>
  memref.store %arg2, %119[%c0] : memref<?xmemref<?xf32>>
  memref.store %arg3, %117[%c0] : memref<?xmemref<?xf32>>
  memref.store %arg4, %115[%c0] : memref<?xmemref<?xf32>>
  memref.store %arg5, %113[%c0] : memref<?xmemref<?xf32>>
  memref.store %arg6, %111[%c0] : memref<?xmemref<?xf32>>
  memref.store %arg7, %109[%c0] : memref<?xmemref<?xf32>>
  memref.store %arg8, %107[%c0] : memref<?xmemref<?xf32>>
  memref.store %arg9, %105[%c0] : memref<?xmemref<?xf32>>
  memref.store %arg10, %103[%c0] : memref<?xmemref<?xf32>>
  memref.store %arg11, %101[%c0] : memref<?xmemref<?xf32>>
  memref.store %arg12, %99[%c0] : memref<?xmemref<?xf32>>
  memref.store %arg13, %97[%c0] : memref<?xmemref<?xf32>>
  memref.store %arg14, %95[%c0] : memref<?xmemref<?xf32>>
  memref.store %arg15, %93[%c0] : memref<?xmemref<?xf32>>
  memref.store %arg16, %91[%c0] : memref<?xmemref<?xf32>>
  memref.store %arg17, %89[%c0] : memref<?xmemref<?xf32>>
  memref.store %arg18, %87[%c0] : memref<?xmemref<?xf32>>
  memref.store %arg19, %85[%c0] : memref<?xmemref<?xf32>>
  memref.store %arg20, %83[%c0] : memref<?xmemref<?xf32>>
  memref.store %arg21, %81[%c0] : memref<?xmemref<?xf32>>
  memref.store %arg22, %79[%c0] : memref<?xmemref<?xf32>>
  memref.store %arg23, %77[%c0] : memref<?xmemref<?xf32>>
  memref.store %arg24, %75[%c0] : memref<?xmemref<?xf32>>
  memref.store %arg25, %73[%c0] : memref<?xmemref<?xf32>>
  memref.store %arg26, %71[%c0] : memref<?xmemref<?xf32>>
  memref.store %arg27, %69[%c0] : memref<?xmemref<?xf32>>
  memref.store %arg28, %67[%c0] : memref<?xmemref<?xf32>>
  memref.store %arg29, %65[%c0] : memref<?xmemref<?xf32>>
  memref.store %arg30, %63[%c0] : memref<?xmemref<?xf32>>
  memref.store %arg31, %61[%c0] : memref<?xmemref<?xf32>>
  memref.store %arg32, %59[%c0] : memref<?xmemref<?xf32>>
  memref.store %arg33, %57[%c0] : memref<?xmemref<?xf32>>
  memref.store %arg34, %55[%c0] : memref<?xmemref<?xf32>>
  memref.store %arg35, %53[%c0] : memref<?xmemref<?xf32>>
  memref.store %arg36, %51[%c0] : memref<?xmemref<?xf32>>
  memref.store %arg37, %49[%c0] : memref<?xmemref<?xf32>>
  memref.store %arg38, %47[%c0] : memref<?xmemref<?xf32>>
  memref.store %arg39, %45[%c0] : memref<?xmemref<?xf32>>
  memref.store %arg40, %43[%c0] : memref<?xmemref<?xf32>>
  memref.store %arg41, %41[%c0] : memref<?xmemref<?xf32>>
  %true = arith.constant true
  %124 = memref.alloca() : memref<i1>
  %125 = memref.alloca() : memref<i1>
  memref.store %true, %125[] : memref<i1>
  memref.store %true, %124[] : memref<i1>
  %126 = memref.load %124[] : memref<i1>
  scf.if %126 {
    scf.execute_region {
      %143 = memref.load %124[] : memref<i1>
      scf.if %143 {
        scf.execute_region {
          %cst = arith.constant 9.200000e-01 : f32
          memref.store %cst, %39[%c0] : memref<?xf32>
          scf.yield
        }
      }
      scf.yield
    }
  }
  %127 = memref.load %124[] : memref<i1>
  scf.if %127 {
    scf.execute_region {
      %143 = memref.load %124[] : memref<i1>
      scf.if %143 {
        scf.execute_region {
          %cst = arith.constant 7.400000e-01 : f32
          memref.store %cst, %37[%c0] : memref<?xf32>
          scf.yield
        }
      }
      scf.yield
    }
  }
  %128 = memref.load %124[] : memref<i1>
  scf.if %128 {
    scf.execute_region {
      %143 = memref.load %124[] : memref<i1>
      scf.if %143 {
        scf.execute_region {
          %cst = arith.constant 1.660000e+01 : f32
          memref.store %cst, %35[%c0] : memref<?xf32>
          scf.yield
        }
      }
      scf.yield
    }
  }
  %129 = memref.load %124[] : memref<i1>
  scf.if %129 {
    scf.execute_region {
      %143 = memref.load %124[] : memref<i1>
      scf.if %143 {
        scf.execute_region {
          %cst = arith.constant 1.010000e+01 : f32
          memref.store %cst, %33[%c0] : memref<?xf32>
          scf.yield
        }
      }
      scf.yield
    }
  }
  %130 = memref.load %124[] : memref<i1>
  scf.if %130 {
    scf.execute_region {
      %143 = memref.load %124[] : memref<i1>
      scf.if %143 {
        scf.execute_region {
          %cst = arith.constant 8.000000e-02 : f32
          memref.store %cst, %31[%c0] : memref<?xf32>
          scf.yield
        }
      }
      scf.yield
    }
  }
  %131 = memref.load %124[] : memref<i1>
  scf.if %131 {
    scf.execute_region {
      %143 = memref.load %124[] : memref<i1>
      scf.if %143 {
        scf.execute_region {
          %cst = arith.constant 1.800000e+00 : f32
          memref.store %cst, %29[%c0] : memref<?xf32>
          scf.yield
        }
      }
      scf.yield
    }
  }
  %132 = memref.load %124[] : memref<i1>
  scf.if %132 {
    scf.execute_region {
      %143 = memref.load %124[] : memref<i1>
      scf.if %143 {
        scf.execute_region {
          %cst = arith.constant 1.330000e+00 : f32
          memref.store %cst, %27[%c0] : memref<?xf32>
          scf.yield
        }
      }
      scf.yield
    }
  }
  %133 = memref.load %124[] : memref<i1>
  scf.if %133 {
    scf.execute_region {
      %143 = memref.load %124[] : memref<i1>
      scf.if %143 {
        scf.execute_region {
          %cst = arith.constant 1.000000e+00 : f32
          memref.store %cst, %25[%c0] : memref<?xf32>
          scf.yield
        }
      }
      scf.yield
    }
  }
  %134 = memref.load %124[] : memref<i1>
  scf.if %134 {
    scf.execute_region {
      %143 = memref.load %124[] : memref<i1>
      scf.if %143 {
        scf.execute_region {
          %cst = arith.constant 1.000000e+02 : f32
          memref.store %cst, %23[%c0] : memref<?xf32>
          scf.yield
        }
      }
      scf.yield
    }
  }
  %135 = memref.load %124[] : memref<i1>
  scf.if %135 {
    scf.execute_region {
      %143 = memref.load %124[] : memref<i1>
      scf.if %143 {
        scf.execute_region {
          %cst = arith.constant 2.000000e+05 : f32
          memref.store %cst, %21[%c0] : memref<?xf32>
          scf.yield
        }
      }
      scf.yield
    }
  }
  %136 = memref.load %124[] : memref<i1>
  scf.if %136 {
    scf.execute_region {
      %143 = memref.load %124[] : memref<i1>
      scf.if %143 {
        scf.execute_region {
          %cst = arith.constant 0.000000e+00 : f32
          memref.store %cst, %19[%c0] : memref<?xf32>
          scf.yield
        }
      }
      scf.yield
    }
  }
  %137 = memref.load %124[] : memref<i1>
  scf.if %137 {
    scf.execute_region {
      %143 = memref.load %124[] : memref<i1>
      scf.if %143 {
        scf.execute_region {
          %cst = arith.constant -6.000000e+00 : f32
          memref.store %cst, %17[%c0] : memref<?xf32>
          scf.yield
        }
      }
      scf.yield
    }
  }
  %138 = memref.load %124[] : memref<i1>
  scf.if %138 {
    scf.execute_region {
      %143 = memref.load %124[] : memref<i1>
      scf.if %143 {
        scf.execute_region {
          scf.yield
        }
      }
      scf.yield
    }
  }
  %139 = memref.load %124[] : memref<i1>
  scf.if %139 {
    scf.execute_region {
      %143 = memref.load %124[] : memref<i1>
      scf.if %143 {
        scf.execute_region {
          scf.yield
        }
      }
      scf.yield
    }
  }
  %140 = memref.load %124[] : memref<i1>
  scf.if %140 {
    scf.execute_region {
      %143 = memref.load %124[] : memref<i1>
      scf.if %143 {
        scf.execute_region {
          scf.yield
        }
      }
      scf.yield
    }
  }
  %141 = memref.load %124[] : memref<i1>
  scf.if %141 {
    scf.execute_region {
      %143 = memref.load %124[] : memref<i1>
      scf.if %143 {
        scf.execute_region {
          %cst = arith.constant 5.000000e-01 : f32
          memref.store %cst, %9[%c0] : memref<?xf32>
          scf.yield
        }
      }
      scf.yield
    }
  }
  %142 = memref.load %124[] : memref<i1>
  scf.if %142 {
    scf.execute_region {
      %143 = memref.load %124[] : memref<i1>
      scf.if %143 {
        scf.execute_region {
          %144 = memref.load %124[] : memref<i1>
          scf.if %144 {
            scf.execute_region {
              %c0_i32_0 = arith.constant 0 : i32
              memref.store %c0_i32_0, %7[%c0] : memref<?xi32>
              scf.yield
            }
          }
          %145 = memref.alloca() : memref<i1>
          %146 = memref.alloca() : memref<i1>
          memref.store %true, %146[] : memref<i1>
          cf.br ^bb1
        ^bb1:  // 2 preds: ^bb0, ^bb2
          %147 = memref.load %7[%c0] : memref<?xi32>
          %148 = memref.get_global @jmm1 : memref<1xi32>
          %149 = memref.cast %148 : memref<1xi32> to memref<?xi32>
          %150 = memref.load %149[%c0] : memref<?xi32>
          %151 = arith.cmpi slt, %147, %150 : i32
          %152 = arith.extsi %151 : i1 to i32
          %c0_i32 = arith.constant 0 : i32
          %153 = arith.cmpi ne, %152, %c0_i32 : i32
          %154 = memref.load %146[] : memref<i1>
          %155 = arith.andi %153, %154 : i1
          cf.cond_br %155, ^bb2, ^bb3
        ^bb2:  // pred: ^bb1
          %156 = memref.load %146[] : memref<i1>
          memref.store %156, %145[] : memref<i1>
          %157 = memref.load %145[] : memref<i1>
          scf.if %157 {
            scf.execute_region {
              %160 = memref.load %145[] : memref<i1>
              scf.if %160 {
                scf.execute_region {
                  %161 = memref.load %145[] : memref<i1>
                  scf.if %161 {
                    scf.execute_region {
                      memref.store %c0_i32, %4[%c0] : memref<?xi32>
                      scf.yield
                    }
                  }
                  %162 = memref.alloca() : memref<i1>
                  %163 = memref.alloca() : memref<i1>
                  memref.store %true, %163[] : memref<i1>
                  cf.br ^bb1
                ^bb1:  // 2 preds: ^bb0, ^bb2
                  %164 = memref.load %4[%c0] : memref<?xi32>
                  %165 = memref.get_global @imm1 : memref<1xi32>
                  %166 = memref.cast %165 : memref<1xi32> to memref<?xi32>
                  %167 = memref.load %166[%c0] : memref<?xi32>
                  %168 = arith.cmpi slt, %164, %167 : i32
                  %169 = arith.extsi %168 : i1 to i32
                  %170 = arith.cmpi ne, %169, %c0_i32 : i32
                  %171 = memref.load %163[] : memref<i1>
                  %172 = arith.andi %170, %171 : i1
                  cf.cond_br %172, ^bb2, ^bb3
                ^bb2:  // pred: ^bb1
                  %173 = memref.load %163[] : memref<i1>
                  memref.store %173, %162[] : memref<i1>
                  %174 = memref.load %162[] : memref<i1>
                  scf.if %174 {
                    scf.execute_region {
                      %178 = memref.load %162[] : memref<i1>
                      scf.if %178 {
                        scf.execute_region {
                          %cst = arith.constant 5.000000e-01 : f32
                          %179 = memref.load %97[%c0] : memref<?xmemref<?xf32>>
                          %180 = memref.load %4[%c0] : memref<?xi32>
                          %181 = memref.load %7[%c0] : memref<?xi32>
                          %182 = memref.get_global @im : memref<1xi32>
                          %183 = memref.cast %182 : memref<1xi32> to memref<?xi32>
                          %184 = memref.load %183[%c0] : memref<?xi32>
                          %185 = arith.muli %181, %184 : i32
                          %186 = arith.addi %180, %185 : i32
                          %187 = arith.index_cast %186 : i32 to index
                          %188 = "polygeist.subindex"(%179, %187) : (memref<?xf32>, index) -> memref<?xf32>
                          %189 = "polygeist.subindex"(%188, %c0) : (memref<?xf32>, index) -> memref<?xf32>
                          %190 = memref.load %189[%c0] : memref<?xf32>
                          %c1_i32 = arith.constant 1 : i32
                          %191 = arith.addi %180, %c1_i32 : i32
                          %192 = arith.addi %191, %185 : i32
                          %193 = arith.index_cast %192 : i32 to index
                          %194 = "polygeist.subindex"(%179, %193) : (memref<?xf32>, index) -> memref<?xf32>
                          %195 = "polygeist.subindex"(%194, %c0) : (memref<?xf32>, index) -> memref<?xf32>
                          %196 = memref.load %195[%c0] : memref<?xf32>
                          %197 = arith.addf %190, %196 : f32
                          %198 = arith.mulf %cst, %197 : f32
                          %199 = math.sqrt %198 : f32
                          memref.store %199, %1[%c0] : memref<?xf32>
                          scf.yield
                        }
                      }
                      scf.yield
                    }
                  }
                  %175 = memref.load %162[] : memref<i1>
                  scf.if %175 {
                    scf.execute_region {
                      %178 = memref.load %99[%c0] : memref<?xmemref<?xf32>>
                      %179 = memref.load %4[%c0] : memref<?xi32>
                      %180 = memref.load %7[%c0] : memref<?xi32>
                      %181 = memref.get_global @im : memref<1xi32>
                      %182 = memref.cast %181 : memref<1xi32> to memref<?xi32>
                      %183 = memref.load %182[%c0] : memref<?xi32>
                      %184 = arith.muli %180, %183 : i32
                      %185 = arith.addi %179, %184 : i32
                      %186 = arith.muli %c0_i32, %183 : i32
                      %187 = memref.get_global @jm : memref<1xi32>
                      %188 = memref.cast %187 : memref<1xi32> to memref<?xi32>
                      %189 = memref.load %188[%c0] : memref<?xi32>
                      %190 = arith.muli %186, %189 : i32
                      %191 = arith.addi %185, %190 : i32
                      %192 = arith.index_cast %191 : i32 to index
                      %193 = "polygeist.subindex"(%178, %192) : (memref<?xf32>, index) -> memref<?xf32>
                      %194 = "polygeist.subindex"(%193, %c0) : (memref<?xf32>, index) -> memref<?xf32>
                      %cst = arith.constant 1.580000e+01 : f32
                      %195 = memref.load %23[%c0] : memref<?xf32>
                      %196 = arith.mulf %cst, %195 : f32
                      %cst_0 = arith.constant 2.000000e+00 : f32
                      %cst_1 = arith.constant 3.000000e+00 : f32
                      %197 = arith.divf %cst_0, %cst_1 : f32
                      %198 = math.powf %196, %197 : f32
                      %199 = memref.load %1[%c0] : memref<?xf32>
                      %200 = arith.mulf %198, %199 : f32
                      memref.store %200, %194[%c0] : memref<?xf32>
                      scf.yield
                    }
                  }
                  %176 = memref.load %163[] : memref<i1>
                  memref.store %176, %162[] : memref<i1>
                  %177 = memref.load %162[] : memref<i1>
                  scf.if %177 {
                    scf.execute_region {
                      %178 = memref.load %4[%c0] : memref<?xi32>
                      %c1_i32 = arith.constant 1 : i32
                      %179 = arith.addi %178, %c1_i32 : i32
                      memref.store %179, %4[%c0] : memref<?xi32>
                      scf.yield
                    }
                  }
                  cf.br ^bb1
                ^bb3:  // pred: ^bb1
                  scf.yield
                }
              }
              scf.yield
            }
          }
          %158 = memref.load %146[] : memref<i1>
          memref.store %158, %145[] : memref<i1>
          %159 = memref.load %145[] : memref<i1>
          scf.if %159 {
            scf.execute_region {
              %160 = memref.load %7[%c0] : memref<?xi32>
              %c1_i32 = arith.constant 1 : i32
              %161 = arith.addi %160, %c1_i32 : i32
              memref.store %161, %7[%c0] : memref<?xi32>
              scf.yield
            }
          }
          cf.br ^bb1
        ^bb3:  // pred: ^bb1
          scf.yield
        }
      }
      scf.yield
    }
  }
  func.return


starting block: lastVal=val:mlir-asm-printer: Verifying operation: builtin.module
%2 = llvm.mlir.undef : f32
mlir-asm-printer: Verifying operation: builtin.module
^bb0:
  scf.execute_region {
    %143 = memref.load %124[] : memref<i1>
    scf.if %143 {
      scf.execute_region {
        %cst = arith.constant 9.200000e-01 : f32
        memref.store %cst, %39[%c0] : memref<?xf32>
        scf.yield
      }
    }
    scf.yield
  }
  scf.yield


starting block: lastVal=val:mlir-asm-printer: Verifying operation: builtin.module
%2 = llvm.mlir.undef : f32
mlir-asm-printer: Verifying operation: builtin.module
^bb0:
  %143 = memref.load %124[] : memref<i1>
  scf.if %143 {
    scf.execute_region {
      %cst = arith.constant 9.200000e-01 : f32
      memref.store %cst, %39[%c0] : memref<?xf32>
      scf.yield
    }
  }
  scf.yield


starting block: lastVal=val:mlir-asm-printer: Verifying operation: builtin.module
%2 = llvm.mlir.undef : f32
mlir-asm-printer: Verifying operation: builtin.module
^bb0:
  scf.execute_region {
    %cst = arith.constant 9.200000e-01 : f32
    memref.store %cst, %39[%c0] : memref<?xf32>
    scf.yield
  }
  scf.yield


starting block: lastVal=val:mlir-asm-printer: Verifying operation: builtin.module
%2 = llvm.mlir.undef : f32
mlir-asm-printer: Verifying operation: builtin.module
^bb0:
  %cst = arith.constant 9.200000e-01 : f32
  memref.store %cst, %39[%c0] : memref<?xf32>
  scf.yield

 ending block: mlir-asm-printer: Verifying operation: builtin.module
^bb0:
  %cst = arith.constant 9.200000e-01 : f32
  memref.store %cst, %39[%c0] : memref<?xf32>
  scf.yield
 with val:val:mlir-asm-printer: Verifying operation: builtin.module
%2 = llvm.mlir.undef : f32
 ending block: mlir-asm-printer: Verifying operation: builtin.module
^bb0:
  scf.execute_region {
    %cst = arith.constant 9.200000e-01 : f32
    memref.store %cst, %39[%c0] : memref<?xf32>
    scf.yield
  }
  scf.yield
 with val:val:mlir-asm-printer: Verifying operation: builtin.module
%2 = llvm.mlir.undef : f32
 ending block: mlir-asm-printer: Verifying operation: builtin.module
^bb0:
  %143 = memref.load %124[] : memref<i1>
  scf.if %143 {
    scf.execute_region {
      %cst = arith.constant 9.200000e-01 : f32
      memref.store %cst, %39[%c0] : memref<?xf32>
      scf.yield
    }
  }
  scf.yield
 with val:val:mlir-asm-printer: Verifying operation: builtin.module
%2 = llvm.mlir.undef : f32
 ending block: mlir-asm-printer: Verifying operation: builtin.module
^bb0:
  scf.execute_region {
    %143 = memref.load %124[] : memref<i1>
    scf.if %143 {
      scf.execute_region {
        %cst = arith.constant 9.200000e-01 : f32
        memref.store %cst, %39[%c0] : memref<?xf32>
        scf.yield
      }
    }
    scf.yield
  }
  scf.yield
 with val:val:mlir-asm-printer: Verifying operation: builtin.module
%2 = llvm.mlir.undef : f32

starting block: lastVal=val:mlir-asm-printer: Verifying operation: builtin.module
%2 = llvm.mlir.undef : f32
mlir-asm-printer: Verifying operation: builtin.module
^bb0:
  scf.execute_region {
    %143 = memref.load %124[] : memref<i1>
    scf.if %143 {
      scf.execute_region {
        %cst = arith.constant 7.400000e-01 : f32
        memref.store %cst, %37[%c0] : memref<?xf32>
        scf.yield
      }
    }
    scf.yield
  }
  scf.yield


starting block: lastVal=val:mlir-asm-printer: Verifying operation: builtin.module
%2 = llvm.mlir.undef : f32
mlir-asm-printer: Verifying operation: builtin.module
^bb0:
  %143 = memref.load %124[] : memref<i1>
  scf.if %143 {
    scf.execute_region {
      %cst = arith.constant 7.400000e-01 : f32
      memref.store %cst, %37[%c0] : memref<?xf32>
      scf.yield
    }
  }
  scf.yield


starting block: lastVal=val:mlir-asm-printer: Verifying operation: builtin.module
%2 = llvm.mlir.undef : f32
mlir-asm-printer: Verifying operation: builtin.module
^bb0:
  scf.execute_region {
    %cst = arith.constant 7.400000e-01 : f32
    memref.store %cst, %37[%c0] : memref<?xf32>
    scf.yield
  }
  scf.yield


starting block: lastVal=val:mlir-asm-printer: Verifying operation: builtin.module
%2 = llvm.mlir.undef : f32
mlir-asm-printer: Verifying operation: builtin.module
^bb0:
  %cst = arith.constant 7.400000e-01 : f32
  memref.store %cst, %37[%c0] : memref<?xf32>
  scf.yield

 ending block: mlir-asm-printer: Verifying operation: builtin.module
^bb0:
  %cst = arith.constant 7.400000e-01 : f32
  memref.store %cst, %37[%c0] : memref<?xf32>
  scf.yield
 with val:val:mlir-asm-printer: Verifying operation: builtin.module
%2 = llvm.mlir.undef : f32
 ending block: mlir-asm-printer: Verifying operation: builtin.module
^bb0:
  scf.execute_region {
    %cst = arith.constant 7.400000e-01 : f32
    memref.store %cst, %37[%c0] : memref<?xf32>
    scf.yield
  }
  scf.yield
 with val:val:mlir-asm-printer: Verifying operation: builtin.module
%2 = llvm.mlir.undef : f32
 ending block: mlir-asm-printer: Verifying operation: builtin.module
^bb0:
  %143 = memref.load %124[] : memref<i1>
  scf.if %143 {
    scf.execute_region {
      %cst = arith.constant 7.400000e-01 : f32
      memref.store %cst, %37[%c0] : memref<?xf32>
      scf.yield
    }
  }
  scf.yield
 with val:val:mlir-asm-printer: Verifying operation: builtin.module
%2 = llvm.mlir.undef : f32
 ending block: mlir-asm-printer: Verifying operation: builtin.module
^bb0:
  scf.execute_region {
    %143 = memref.load %124[] : memref<i1>
    scf.if %143 {
      scf.execute_region {
        %cst = arith.constant 7.400000e-01 : f32
        memref.store %cst, %37[%c0] : memref<?xf32>
        scf.yield
      }
    }
    scf.yield
  }
  scf.yield
 with val:val:mlir-asm-printer: Verifying operation: builtin.module
%2 = llvm.mlir.undef : f32

starting block: lastVal=val:mlir-asm-printer: Verifying operation: builtin.module
%2 = llvm.mlir.undef : f32
mlir-asm-printer: Verifying operation: builtin.module
^bb0:
  scf.execute_region {
    %143 = memref.load %124[] : memref<i1>
    scf.if %143 {
      scf.execute_region {
        %cst = arith.constant 1.660000e+01 : f32
        memref.store %cst, %35[%c0] : memref<?xf32>
        scf.yield
      }
    }
    scf.yield
  }
  scf.yield


starting block: lastVal=val:mlir-asm-printer: Verifying operation: builtin.module
%2 = llvm.mlir.undef : f32
mlir-asm-printer: Verifying operation: builtin.module
^bb0:
  %143 = memref.load %124[] : memref<i1>
  scf.if %143 {
    scf.execute_region {
      %cst = arith.constant 1.660000e+01 : f32
      memref.store %cst, %35[%c0] : memref<?xf32>
      scf.yield
    }
  }
  scf.yield


starting block: lastVal=val:mlir-asm-printer: Verifying operation: builtin.module
%2 = llvm.mlir.undef : f32
mlir-asm-printer: Verifying operation: builtin.module
^bb0:
  scf.execute_region {
    %cst = arith.constant 1.660000e+01 : f32
    memref.store %cst, %35[%c0] : memref<?xf32>
    scf.yield
  }
  scf.yield


starting block: lastVal=val:mlir-asm-printer: Verifying operation: builtin.module
%2 = llvm.mlir.undef : f32
mlir-asm-printer: Verifying operation: builtin.module
^bb0:
  %cst = arith.constant 1.660000e+01 : f32
  memref.store %cst, %35[%c0] : memref<?xf32>
  scf.yield

 ending block: mlir-asm-printer: Verifying operation: builtin.module
^bb0:
  %cst = arith.constant 1.660000e+01 : f32
  memref.store %cst, %35[%c0] : memref<?xf32>
  scf.yield
 with val:val:mlir-asm-printer: Verifying operation: builtin.module
%2 = llvm.mlir.undef : f32
 ending block: mlir-asm-printer: Verifying operation: builtin.module
^bb0:
  scf.execute_region {
    %cst = arith.constant 1.660000e+01 : f32
    memref.store %cst, %35[%c0] : memref<?xf32>
    scf.yield
  }
  scf.yield
 with val:val:mlir-asm-printer: Verifying operation: builtin.module
%2 = llvm.mlir.undef : f32
 ending block: mlir-asm-printer: Verifying operation: builtin.module
^bb0:
  %143 = memref.load %124[] : memref<i1>
  scf.if %143 {
    scf.execute_region {
      %cst = arith.constant 1.660000e+01 : f32
      memref.store %cst, %35[%c0] : memref<?xf32>
      scf.yield
    }
  }
  scf.yield
 with val:val:mlir-asm-printer: Verifying operation: builtin.module
%2 = llvm.mlir.undef : f32
 ending block: mlir-asm-printer: Verifying operation: builtin.module
^bb0:
  scf.execute_region {
    %143 = memref.load %124[] : memref<i1>
    scf.if %143 {
      scf.execute_region {
        %cst = arith.constant 1.660000e+01 : f32
        memref.store %cst, %35[%c0] : memref<?xf32>
        scf.yield
      }
    }
    scf.yield
  }
  scf.yield
 with val:val:mlir-asm-printer: Verifying operation: builtin.module
%2 = llvm.mlir.undef : f32

starting block: lastVal=val:mlir-asm-printer: Verifying operation: builtin.module
%2 = llvm.mlir.undef : f32
mlir-asm-printer: Verifying operation: builtin.module
^bb0:
  scf.execute_region {
    %143 = memref.load %124[] : memref<i1>
    scf.if %143 {
      scf.execute_region {
        %cst = arith.constant 1.010000e+01 : f32
        memref.store %cst, %33[%c0] : memref<?xf32>
        scf.yield
      }
    }
    scf.yield
  }
  scf.yield


starting block: lastVal=val:mlir-asm-printer: Verifying operation: builtin.module
%2 = llvm.mlir.undef : f32
mlir-asm-printer: Verifying operation: builtin.module
^bb0:
  %143 = memref.load %124[] : memref<i1>
  scf.if %143 {
    scf.execute_region {
      %cst = arith.constant 1.010000e+01 : f32
      memref.store %cst, %33[%c0] : memref<?xf32>
      scf.yield
    }
  }
  scf.yield


starting block: lastVal=val:mlir-asm-printer: Verifying operation: builtin.module
%2 = llvm.mlir.undef : f32
mlir-asm-printer: Verifying operation: builtin.module
^bb0:
  scf.execute_region {
    %cst = arith.constant 1.010000e+01 : f32
    memref.store %cst, %33[%c0] : memref<?xf32>
    scf.yield
  }
  scf.yield


starting block: lastVal=val:mlir-asm-printer: Verifying operation: builtin.module
%2 = llvm.mlir.undef : f32
mlir-asm-printer: Verifying operation: builtin.module
^bb0:
  %cst = arith.constant 1.010000e+01 : f32
  memref.store %cst, %33[%c0] : memref<?xf32>
  scf.yield

 ending block: mlir-asm-printer: Verifying operation: builtin.module
^bb0:
  %cst = arith.constant 1.010000e+01 : f32
  memref.store %cst, %33[%c0] : memref<?xf32>
  scf.yield
 with val:val:mlir-asm-printer: Verifying operation: builtin.module
%2 = llvm.mlir.undef : f32
 ending block: mlir-asm-printer: Verifying operation: builtin.module
^bb0:
  scf.execute_region {
    %cst = arith.constant 1.010000e+01 : f32
    memref.store %cst, %33[%c0] : memref<?xf32>
    scf.yield
  }
  scf.yield
 with val:val:mlir-asm-printer: Verifying operation: builtin.module
%2 = llvm.mlir.undef : f32
 ending block: mlir-asm-printer: Verifying operation: builtin.module
^bb0:
  %143 = memref.load %124[] : memref<i1>
  scf.if %143 {
    scf.execute_region {
      %cst = arith.constant 1.010000e+01 : f32
      memref.store %cst, %33[%c0] : memref<?xf32>
      scf.yield
    }
  }
  scf.yield
 with val:val:mlir-asm-printer: Verifying operation: builtin.module
%2 = llvm.mlir.undef : f32
 ending block: mlir-asm-printer: Verifying operation: builtin.module
^bb0:
  scf.execute_region {
    %143 = memref.load %124[] : memref<i1>
    scf.if %143 {
      scf.execute_region {
        %cst = arith.constant 1.010000e+01 : f32
        memref.store %cst, %33[%c0] : memref<?xf32>
        scf.yield
      }
    }
    scf.yield
  }
  scf.yield
 with val:val:mlir-asm-printer: Verifying operation: builtin.module
%2 = llvm.mlir.undef : f32

starting block: lastVal=val:mlir-asm-printer: Verifying operation: builtin.module
%2 = llvm.mlir.undef : f32
mlir-asm-printer: Verifying operation: builtin.module
^bb0:
  scf.execute_region {
    %143 = memref.load %124[] : memref<i1>
    scf.if %143 {
      scf.execute_region {
        %cst = arith.constant 8.000000e-02 : f32
        memref.store %cst, %31[%c0] : memref<?xf32>
        scf.yield
      }
    }
    scf.yield
  }
  scf.yield


starting block: lastVal=val:mlir-asm-printer: Verifying operation: builtin.module
%2 = llvm.mlir.undef : f32
mlir-asm-printer: Verifying operation: builtin.module
^bb0:
  %143 = memref.load %124[] : memref<i1>
  scf.if %143 {
    scf.execute_region {
      %cst = arith.constant 8.000000e-02 : f32
      memref.store %cst, %31[%c0] : memref<?xf32>
      scf.yield
    }
  }
  scf.yield


starting block: lastVal=val:mlir-asm-printer: Verifying operation: builtin.module
%2 = llvm.mlir.undef : f32
mlir-asm-printer: Verifying operation: builtin.module
^bb0:
  scf.execute_region {
    %cst = arith.constant 8.000000e-02 : f32
    memref.store %cst, %31[%c0] : memref<?xf32>
    scf.yield
  }
  scf.yield


starting block: lastVal=val:mlir-asm-printer: Verifying operation: builtin.module
%2 = llvm.mlir.undef : f32
mlir-asm-printer: Verifying operation: builtin.module
^bb0:
  %cst = arith.constant 8.000000e-02 : f32
  memref.store %cst, %31[%c0] : memref<?xf32>
  scf.yield

 ending block: mlir-asm-printer: Verifying operation: builtin.module
^bb0:
  %cst = arith.constant 8.000000e-02 : f32
  memref.store %cst, %31[%c0] : memref<?xf32>
  scf.yield
 with val:val:mlir-asm-printer: Verifying operation: builtin.module
%2 = llvm.mlir.undef : f32
 ending block: mlir-asm-printer: Verifying operation: builtin.module
^bb0:
  scf.execute_region {
    %cst = arith.constant 8.000000e-02 : f32
    memref.store %cst, %31[%c0] : memref<?xf32>
    scf.yield
  }
  scf.yield
 with val:val:mlir-asm-printer: Verifying operation: builtin.module
%2 = llvm.mlir.undef : f32
 ending block: mlir-asm-printer: Verifying operation: builtin.module
^bb0:
  %143 = memref.load %124[] : memref<i1>
  scf.if %143 {
    scf.execute_region {
      %cst = arith.constant 8.000000e-02 : f32
      memref.store %cst, %31[%c0] : memref<?xf32>
      scf.yield
    }
  }
  scf.yield
 with val:val:mlir-asm-printer: Verifying operation: builtin.module
%2 = llvm.mlir.undef : f32
 ending block: mlir-asm-printer: Verifying operation: builtin.module
^bb0:
  scf.execute_region {
    %143 = memref.load %124[] : memref<i1>
    scf.if %143 {
      scf.execute_region {
        %cst = arith.constant 8.000000e-02 : f32
        memref.store %cst, %31[%c0] : memref<?xf32>
        scf.yield
      }
    }
    scf.yield
  }
  scf.yield
 with val:val:mlir-asm-printer: Verifying operation: builtin.module
%2 = llvm.mlir.undef : f32

starting block: lastVal=val:mlir-asm-printer: Verifying operation: builtin.module
%2 = llvm.mlir.undef : f32
mlir-asm-printer: Verifying operation: builtin.module
^bb0:
  scf.execute_region {
    %143 = memref.load %124[] : memref<i1>
    scf.if %143 {
      scf.execute_region {
        %cst = arith.constant 1.800000e+00 : f32
        memref.store %cst, %29[%c0] : memref<?xf32>
        scf.yield
      }
    }
    scf.yield
  }
  scf.yield


starting block: lastVal=val:mlir-asm-printer: Verifying operation: builtin.module
%2 = llvm.mlir.undef : f32
mlir-asm-printer: Verifying operation: builtin.module
^bb0:
  %143 = memref.load %124[] : memref<i1>
  scf.if %143 {
    scf.execute_region {
      %cst = arith.constant 1.800000e+00 : f32
      memref.store %cst, %29[%c0] : memref<?xf32>
      scf.yield
    }
  }
  scf.yield


starting block: lastVal=val:mlir-asm-printer: Verifying operation: builtin.module
%2 = llvm.mlir.undef : f32
mlir-asm-printer: Verifying operation: builtin.module
^bb0:
  scf.execute_region {
    %cst = arith.constant 1.800000e+00 : f32
    memref.store %cst, %29[%c0] : memref<?xf32>
    scf.yield
  }
  scf.yield


starting block: lastVal=val:mlir-asm-printer: Verifying operation: builtin.module
%2 = llvm.mlir.undef : f32
mlir-asm-printer: Verifying operation: builtin.module
^bb0:
  %cst = arith.constant 1.800000e+00 : f32
  memref.store %cst, %29[%c0] : memref<?xf32>
  scf.yield

 ending block: mlir-asm-printer: Verifying operation: builtin.module
^bb0:
  %cst = arith.constant 1.800000e+00 : f32
  memref.store %cst, %29[%c0] : memref<?xf32>
  scf.yield
 with val:val:mlir-asm-printer: Verifying operation: builtin.module
%2 = llvm.mlir.undef : f32
 ending block: mlir-asm-printer: Verifying operation: builtin.module
^bb0:
  scf.execute_region {
    %cst = arith.constant 1.800000e+00 : f32
    memref.store %cst, %29[%c0] : memref<?xf32>
    scf.yield
  }
  scf.yield
 with val:val:mlir-asm-printer: Verifying operation: builtin.module
%2 = llvm.mlir.undef : f32
 ending block: mlir-asm-printer: Verifying operation: builtin.module
^bb0:
  %143 = memref.load %124[] : memref<i1>
  scf.if %143 {
    scf.execute_region {
      %cst = arith.constant 1.800000e+00 : f32
      memref.store %cst, %29[%c0] : memref<?xf32>
      scf.yield
    }
  }
  scf.yield
 with val:val:mlir-asm-printer: Verifying operation: builtin.module
%2 = llvm.mlir.undef : f32
 ending block: mlir-asm-printer: Verifying operation: builtin.module
^bb0:
  scf.execute_region {
    %143 = memref.load %124[] : memref<i1>
    scf.if %143 {
      scf.execute_region {
        %cst = arith.constant 1.800000e+00 : f32
        memref.store %cst, %29[%c0] : memref<?xf32>
        scf.yield
      }
    }
    scf.yield
  }
  scf.yield
 with val:val:mlir-asm-printer: Verifying operation: builtin.module
%2 = llvm.mlir.undef : f32

starting block: lastVal=val:mlir-asm-printer: Verifying operation: builtin.module
%2 = llvm.mlir.undef : f32
mlir-asm-printer: Verifying operation: builtin.module
^bb0:
  scf.execute_region {
    %143 = memref.load %124[] : memref<i1>
    scf.if %143 {
      scf.execute_region {
        %cst = arith.constant 1.330000e+00 : f32
        memref.store %cst, %27[%c0] : memref<?xf32>
        scf.yield
      }
    }
    scf.yield
  }
  scf.yield


starting block: lastVal=val:mlir-asm-printer: Verifying operation: builtin.module
%2 = llvm.mlir.undef : f32
mlir-asm-printer: Verifying operation: builtin.module
^bb0:
  %143 = memref.load %124[] : memref<i1>
  scf.if %143 {
    scf.execute_region {
      %cst = arith.constant 1.330000e+00 : f32
      memref.store %cst, %27[%c0] : memref<?xf32>
      scf.yield
    }
  }
  scf.yield


starting block: lastVal=val:mlir-asm-printer: Verifying operation: builtin.module
%2 = llvm.mlir.undef : f32
mlir-asm-printer: Verifying operation: builtin.module
^bb0:
  scf.execute_region {
    %cst = arith.constant 1.330000e+00 : f32
    memref.store %cst, %27[%c0] : memref<?xf32>
    scf.yield
  }
  scf.yield


starting block: lastVal=val:mlir-asm-printer: Verifying operation: builtin.module
%2 = llvm.mlir.undef : f32
mlir-asm-printer: Verifying operation: builtin.module
^bb0:
  %cst = arith.constant 1.330000e+00 : f32
  memref.store %cst, %27[%c0] : memref<?xf32>
  scf.yield

 ending block: mlir-asm-printer: Verifying operation: builtin.module
^bb0:
  %cst = arith.constant 1.330000e+00 : f32
  memref.store %cst, %27[%c0] : memref<?xf32>
  scf.yield
 with val:val:mlir-asm-printer: Verifying operation: builtin.module
%2 = llvm.mlir.undef : f32
 ending block: mlir-asm-printer: Verifying operation: builtin.module
^bb0:
  scf.execute_region {
    %cst = arith.constant 1.330000e+00 : f32
    memref.store %cst, %27[%c0] : memref<?xf32>
    scf.yield
  }
  scf.yield
 with val:val:mlir-asm-printer: Verifying operation: builtin.module
%2 = llvm.mlir.undef : f32
 ending block: mlir-asm-printer: Verifying operation: builtin.module
^bb0:
  %143 = memref.load %124[] : memref<i1>
  scf.if %143 {
    scf.execute_region {
      %cst = arith.constant 1.330000e+00 : f32
      memref.store %cst, %27[%c0] : memref<?xf32>
      scf.yield
    }
  }
  scf.yield
 with val:val:mlir-asm-printer: Verifying operation: builtin.module
%2 = llvm.mlir.undef : f32
 ending block: mlir-asm-printer: Verifying operation: builtin.module
^bb0:
  scf.execute_region {
    %143 = memref.load %124[] : memref<i1>
    scf.if %143 {
      scf.execute_region {
        %cst = arith.constant 1.330000e+00 : f32
        memref.store %cst, %27[%c0] : memref<?xf32>
        scf.yield
      }
    }
    scf.yield
  }
  scf.yield
 with val:val:mlir-asm-printer: Verifying operation: builtin.module
%2 = llvm.mlir.undef : f32

starting block: lastVal=val:mlir-asm-printer: Verifying operation: builtin.module
%2 = llvm.mlir.undef : f32
mlir-asm-printer: Verifying operation: builtin.module
^bb0:
  scf.execute_region {
    %143 = memref.load %124[] : memref<i1>
    scf.if %143 {
      scf.execute_region {
        %cst = arith.constant 1.000000e+00 : f32
        memref.store %cst, %25[%c0] : memref<?xf32>
        scf.yield
      }
    }
    scf.yield
  }
  scf.yield


starting block: lastVal=val:mlir-asm-printer: Verifying operation: builtin.module
%2 = llvm.mlir.undef : f32
mlir-asm-printer: Verifying operation: builtin.module
^bb0:
  %143 = memref.load %124[] : memref<i1>
  scf.if %143 {
    scf.execute_region {
      %cst = arith.constant 1.000000e+00 : f32
      memref.store %cst, %25[%c0] : memref<?xf32>
      scf.yield
    }
  }
  scf.yield


starting block: lastVal=val:mlir-asm-printer: Verifying operation: builtin.module
%2 = llvm.mlir.undef : f32
mlir-asm-printer: Verifying operation: builtin.module
^bb0:
  scf.execute_region {
    %cst = arith.constant 1.000000e+00 : f32
    memref.store %cst, %25[%c0] : memref<?xf32>
    scf.yield
  }
  scf.yield


starting block: lastVal=val:mlir-asm-printer: Verifying operation: builtin.module
%2 = llvm.mlir.undef : f32
mlir-asm-printer: Verifying operation: builtin.module
^bb0:
  %cst = arith.constant 1.000000e+00 : f32
  memref.store %cst, %25[%c0] : memref<?xf32>
  scf.yield

 ending block: mlir-asm-printer: Verifying operation: builtin.module
^bb0:
  %cst = arith.constant 1.000000e+00 : f32
  memref.store %cst, %25[%c0] : memref<?xf32>
  scf.yield
 with val:val:mlir-asm-printer: Verifying operation: builtin.module
%2 = llvm.mlir.undef : f32
 ending block: mlir-asm-printer: Verifying operation: builtin.module
^bb0:
  scf.execute_region {
    %cst = arith.constant 1.000000e+00 : f32
    memref.store %cst, %25[%c0] : memref<?xf32>
    scf.yield
  }
  scf.yield
 with val:val:mlir-asm-printer: Verifying operation: builtin.module
%2 = llvm.mlir.undef : f32
 ending block: mlir-asm-printer: Verifying operation: builtin.module
^bb0:
  %143 = memref.load %124[] : memref<i1>
  scf.if %143 {
    scf.execute_region {
      %cst = arith.constant 1.000000e+00 : f32
      memref.store %cst, %25[%c0] : memref<?xf32>
      scf.yield
    }
  }
  scf.yield
 with val:val:mlir-asm-printer: Verifying operation: builtin.module
%2 = llvm.mlir.undef : f32
 ending block: mlir-asm-printer: Verifying operation: builtin.module
^bb0:
  scf.execute_region {
    %143 = memref.load %124[] : memref<i1>
    scf.if %143 {
      scf.execute_region {
        %cst = arith.constant 1.000000e+00 : f32
        memref.store %cst, %25[%c0] : memref<?xf32>
        scf.yield
      }
    }
    scf.yield
  }
  scf.yield
 with val:val:mlir-asm-printer: Verifying operation: builtin.module
%2 = llvm.mlir.undef : f32

starting block: lastVal=val:mlir-asm-printer: Verifying operation: builtin.module
%2 = llvm.mlir.undef : f32
mlir-asm-printer: Verifying operation: builtin.module
^bb0:
  scf.execute_region {
    %143 = memref.load %124[] : memref<i1>
    scf.if %143 {
      scf.execute_region {
        %cst = arith.constant 1.000000e+02 : f32
        memref.store %cst, %23[%c0] : memref<?xf32>
        scf.yield
      }
    }
    scf.yield
  }
  scf.yield


starting block: lastVal=val:mlir-asm-printer: Verifying operation: builtin.module
%2 = llvm.mlir.undef : f32
mlir-asm-printer: Verifying operation: builtin.module
^bb0:
  %143 = memref.load %124[] : memref<i1>
  scf.if %143 {
    scf.execute_region {
      %cst = arith.constant 1.000000e+02 : f32
      memref.store %cst, %23[%c0] : memref<?xf32>
      scf.yield
    }
  }
  scf.yield


starting block: lastVal=val:mlir-asm-printer: Verifying operation: builtin.module
%2 = llvm.mlir.undef : f32
mlir-asm-printer: Verifying operation: builtin.module
^bb0:
  scf.execute_region {
    %cst = arith.constant 1.000000e+02 : f32
    memref.store %cst, %23[%c0] : memref<?xf32>
    scf.yield
  }
  scf.yield


starting block: lastVal=val:mlir-asm-printer: Verifying operation: builtin.module
%2 = llvm.mlir.undef : f32
mlir-asm-printer: Verifying operation: builtin.module
^bb0:
  %cst = arith.constant 1.000000e+02 : f32
  memref.store %cst, %23[%c0] : memref<?xf32>
  scf.yield

 ending block: mlir-asm-printer: Verifying operation: builtin.module
^bb0:
  %cst = arith.constant 1.000000e+02 : f32
  memref.store %cst, %23[%c0] : memref<?xf32>
  scf.yield
 with val:val:mlir-asm-printer: Verifying operation: builtin.module
%2 = llvm.mlir.undef : f32
 ending block: mlir-asm-printer: Verifying operation: builtin.module
^bb0:
  scf.execute_region {
    %cst = arith.constant 1.000000e+02 : f32
    memref.store %cst, %23[%c0] : memref<?xf32>
    scf.yield
  }
  scf.yield
 with val:val:mlir-asm-printer: Verifying operation: builtin.module
%2 = llvm.mlir.undef : f32
 ending block: mlir-asm-printer: Verifying operation: builtin.module
^bb0:
  %143 = memref.load %124[] : memref<i1>
  scf.if %143 {
    scf.execute_region {
      %cst = arith.constant 1.000000e+02 : f32
      memref.store %cst, %23[%c0] : memref<?xf32>
      scf.yield
    }
  }
  scf.yield
 with val:val:mlir-asm-printer: Verifying operation: builtin.module
%2 = llvm.mlir.undef : f32
 ending block: mlir-asm-printer: Verifying operation: builtin.module
^bb0:
  scf.execute_region {
    %143 = memref.load %124[] : memref<i1>
    scf.if %143 {
      scf.execute_region {
        %cst = arith.constant 1.000000e+02 : f32
        memref.store %cst, %23[%c0] : memref<?xf32>
        scf.yield
      }
    }
    scf.yield
  }
  scf.yield
 with val:val:mlir-asm-printer: Verifying operation: builtin.module
%2 = llvm.mlir.undef : f32

starting block: lastVal=val:mlir-asm-printer: Verifying operation: builtin.module
%2 = llvm.mlir.undef : f32
mlir-asm-printer: Verifying operation: builtin.module
^bb0:
  scf.execute_region {
    %143 = memref.load %124[] : memref<i1>
    scf.if %143 {
      scf.execute_region {
        %cst = arith.constant 2.000000e+05 : f32
        memref.store %cst, %21[%c0] : memref<?xf32>
        scf.yield
      }
    }
    scf.yield
  }
  scf.yield


starting block: lastVal=val:mlir-asm-printer: Verifying operation: builtin.module
%2 = llvm.mlir.undef : f32
mlir-asm-printer: Verifying operation: builtin.module
^bb0:
  %143 = memref.load %124[] : memref<i1>
  scf.if %143 {
    scf.execute_region {
      %cst = arith.constant 2.000000e+05 : f32
      memref.store %cst, %21[%c0] : memref<?xf32>
      scf.yield
    }
  }
  scf.yield


starting block: lastVal=val:mlir-asm-printer: Verifying operation: builtin.module
%2 = llvm.mlir.undef : f32
mlir-asm-printer: Verifying operation: builtin.module
^bb0:
  scf.execute_region {
    %cst = arith.constant 2.000000e+05 : f32
    memref.store %cst, %21[%c0] : memref<?xf32>
    scf.yield
  }
  scf.yield


starting block: lastVal=val:mlir-asm-printer: Verifying operation: builtin.module
%2 = llvm.mlir.undef : f32
mlir-asm-printer: Verifying operation: builtin.module
^bb0:
  %cst = arith.constant 2.000000e+05 : f32
  memref.store %cst, %21[%c0] : memref<?xf32>
  scf.yield

 ending block: mlir-asm-printer: Verifying operation: builtin.module
^bb0:
  %cst = arith.constant 2.000000e+05 : f32
  memref.store %cst, %21[%c0] : memref<?xf32>
  scf.yield
 with val:val:mlir-asm-printer: Verifying operation: builtin.module
%2 = llvm.mlir.undef : f32
 ending block: mlir-asm-printer: Verifying operation: builtin.module
^bb0:
  scf.execute_region {
    %cst = arith.constant 2.000000e+05 : f32
    memref.store %cst, %21[%c0] : memref<?xf32>
    scf.yield
  }
  scf.yield
 with val:val:mlir-asm-printer: Verifying operation: builtin.module
%2 = llvm.mlir.undef : f32
 ending block: mlir-asm-printer: Verifying operation: builtin.module
^bb0:
  %143 = memref.load %124[] : memref<i1>
  scf.if %143 {
    scf.execute_region {
      %cst = arith.constant 2.000000e+05 : f32
      memref.store %cst, %21[%c0] : memref<?xf32>
      scf.yield
    }
  }
  scf.yield
 with val:val:mlir-asm-printer: Verifying operation: builtin.module
%2 = llvm.mlir.undef : f32
 ending block: mlir-asm-printer: Verifying operation: builtin.module
^bb0:
  scf.execute_region {
    %143 = memref.load %124[] : memref<i1>
    scf.if %143 {
      scf.execute_region {
        %cst = arith.constant 2.000000e+05 : f32
        memref.store %cst, %21[%c0] : memref<?xf32>
        scf.yield
      }
    }
    scf.yield
  }
  scf.yield
 with val:val:mlir-asm-printer: Verifying operation: builtin.module
%2 = llvm.mlir.undef : f32

starting block: lastVal=val:mlir-asm-printer: Verifying operation: builtin.module
%2 = llvm.mlir.undef : f32
mlir-asm-printer: Verifying operation: builtin.module
^bb0:
  scf.execute_region {
    %143 = memref.load %124[] : memref<i1>
    scf.if %143 {
      scf.execute_region {
        %cst = arith.constant 0.000000e+00 : f32
        memref.store %cst, %19[%c0] : memref<?xf32>
        scf.yield
      }
    }
    scf.yield
  }
  scf.yield


starting block: lastVal=val:mlir-asm-printer: Verifying operation: builtin.module
%2 = llvm.mlir.undef : f32
mlir-asm-printer: Verifying operation: builtin.module
^bb0:
  %143 = memref.load %124[] : memref<i1>
  scf.if %143 {
    scf.execute_region {
      %cst = arith.constant 0.000000e+00 : f32
      memref.store %cst, %19[%c0] : memref<?xf32>
      scf.yield
    }
  }
  scf.yield


starting block: lastVal=val:mlir-asm-printer: Verifying operation: builtin.module
%2 = llvm.mlir.undef : f32
mlir-asm-printer: Verifying operation: builtin.module
^bb0:
  scf.execute_region {
    %cst = arith.constant 0.000000e+00 : f32
    memref.store %cst, %19[%c0] : memref<?xf32>
    scf.yield
  }
  scf.yield


starting block: lastVal=val:mlir-asm-printer: Verifying operation: builtin.module
%2 = llvm.mlir.undef : f32
mlir-asm-printer: Verifying operation: builtin.module
^bb0:
  %cst = arith.constant 0.000000e+00 : f32
  memref.store %cst, %19[%c0] : memref<?xf32>
  scf.yield

 ending block: mlir-asm-printer: Verifying operation: builtin.module
^bb0:
  %cst = arith.constant 0.000000e+00 : f32
  memref.store %cst, %19[%c0] : memref<?xf32>
  scf.yield
 with val:val:mlir-asm-printer: Verifying operation: builtin.module
%2 = llvm.mlir.undef : f32
 ending block: mlir-asm-printer: Verifying operation: builtin.module
^bb0:
  scf.execute_region {
    %cst = arith.constant 0.000000e+00 : f32
    memref.store %cst, %19[%c0] : memref<?xf32>
    scf.yield
  }
  scf.yield
 with val:val:mlir-asm-printer: Verifying operation: builtin.module
%2 = llvm.mlir.undef : f32
 ending block: mlir-asm-printer: Verifying operation: builtin.module
^bb0:
  %143 = memref.load %124[] : memref<i1>
  scf.if %143 {
    scf.execute_region {
      %cst = arith.constant 0.000000e+00 : f32
      memref.store %cst, %19[%c0] : memref<?xf32>
      scf.yield
    }
  }
  scf.yield
 with val:val:mlir-asm-printer: Verifying operation: builtin.module
%2 = llvm.mlir.undef : f32
 ending block: mlir-asm-printer: Verifying operation: builtin.module
^bb0:
  scf.execute_region {
    %143 = memref.load %124[] : memref<i1>
    scf.if %143 {
      scf.execute_region {
        %cst = arith.constant 0.000000e+00 : f32
        memref.store %cst, %19[%c0] : memref<?xf32>
        scf.yield
      }
    }
    scf.yield
  }
  scf.yield
 with val:val:mlir-asm-printer: Verifying operation: builtin.module
%2 = llvm.mlir.undef : f32

starting block: lastVal=val:mlir-asm-printer: Verifying operation: builtin.module
%2 = llvm.mlir.undef : f32
mlir-asm-printer: Verifying operation: builtin.module
^bb0:
  scf.execute_region {
    %143 = memref.load %124[] : memref<i1>
    scf.if %143 {
      scf.execute_region {
        %cst = arith.constant -6.000000e+00 : f32
        memref.store %cst, %17[%c0] : memref<?xf32>
        scf.yield
      }
    }
    scf.yield
  }
  scf.yield


starting block: lastVal=val:mlir-asm-printer: Verifying operation: builtin.module
%2 = llvm.mlir.undef : f32
mlir-asm-printer: Verifying operation: builtin.module
^bb0:
  %143 = memref.load %124[] : memref<i1>
  scf.if %143 {
    scf.execute_region {
      %cst = arith.constant -6.000000e+00 : f32
      memref.store %cst, %17[%c0] : memref<?xf32>
      scf.yield
    }
  }
  scf.yield


starting block: lastVal=val:mlir-asm-printer: Verifying operation: builtin.module
%2 = llvm.mlir.undef : f32
mlir-asm-printer: Verifying operation: builtin.module
^bb0:
  scf.execute_region {
    %cst = arith.constant -6.000000e+00 : f32
    memref.store %cst, %17[%c0] : memref<?xf32>
    scf.yield
  }
  scf.yield


starting block: lastVal=val:mlir-asm-printer: Verifying operation: builtin.module
%2 = llvm.mlir.undef : f32
mlir-asm-printer: Verifying operation: builtin.module
^bb0:
  %cst = arith.constant -6.000000e+00 : f32
  memref.store %cst, %17[%c0] : memref<?xf32>
  scf.yield

 ending block: mlir-asm-printer: Verifying operation: builtin.module
^bb0:
  %cst = arith.constant -6.000000e+00 : f32
  memref.store %cst, %17[%c0] : memref<?xf32>
  scf.yield
 with val:val:mlir-asm-printer: Verifying operation: builtin.module
%2 = llvm.mlir.undef : f32
 ending block: mlir-asm-printer: Verifying operation: builtin.module
^bb0:
  scf.execute_region {
    %cst = arith.constant -6.000000e+00 : f32
    memref.store %cst, %17[%c0] : memref<?xf32>
    scf.yield
  }
  scf.yield
 with val:val:mlir-asm-printer: Verifying operation: builtin.module
%2 = llvm.mlir.undef : f32
 ending block: mlir-asm-printer: Verifying operation: builtin.module
^bb0:
  %143 = memref.load %124[] : memref<i1>
  scf.if %143 {
    scf.execute_region {
      %cst = arith.constant -6.000000e+00 : f32
      memref.store %cst, %17[%c0] : memref<?xf32>
      scf.yield
    }
  }
  scf.yield
 with val:val:mlir-asm-printer: Verifying operation: builtin.module
%2 = llvm.mlir.undef : f32
 ending block: mlir-asm-printer: Verifying operation: builtin.module
^bb0:
  scf.execute_region {
    %143 = memref.load %124[] : memref<i1>
    scf.if %143 {
      scf.execute_region {
        %cst = arith.constant -6.000000e+00 : f32
        memref.store %cst, %17[%c0] : memref<?xf32>
        scf.yield
      }
    }
    scf.yield
  }
  scf.yield
 with val:val:mlir-asm-printer: Verifying operation: builtin.module
%2 = llvm.mlir.undef : f32

starting block: lastVal=val:mlir-asm-printer: Verifying operation: builtin.module
%2 = llvm.mlir.undef : f32
mlir-asm-printer: Verifying operation: builtin.module
^bb0:
  scf.execute_region {
    %143 = memref.load %124[] : memref<i1>
    scf.if %143 {
      scf.execute_region {
        scf.yield
      }
    }
    scf.yield
  }
  scf.yield


starting block: lastVal=val:mlir-asm-printer: Verifying operation: builtin.module
%2 = llvm.mlir.undef : f32
mlir-asm-printer: Verifying operation: builtin.module
^bb0:
  %143 = memref.load %124[] : memref<i1>
  scf.if %143 {
    scf.execute_region {
      scf.yield
    }
  }
  scf.yield


starting block: lastVal=val:mlir-asm-printer: Verifying operation: builtin.module
%2 = llvm.mlir.undef : f32
mlir-asm-printer: Verifying operation: builtin.module
^bb0:
  scf.execute_region {
    scf.yield
  }
  scf.yield


starting block: lastVal=val:mlir-asm-printer: Verifying operation: builtin.module
%2 = llvm.mlir.undef : f32
mlir-asm-printer: Verifying operation: builtin.module
^bb0:
  scf.yield

 ending block: mlir-asm-printer: Verifying operation: builtin.module
^bb0:
  scf.yield
 with val:val:mlir-asm-printer: Verifying operation: builtin.module
%2 = llvm.mlir.undef : f32
 ending block: mlir-asm-printer: Verifying operation: builtin.module
^bb0:
  scf.execute_region {
    scf.yield
  }
  scf.yield
 with val:val:mlir-asm-printer: Verifying operation: builtin.module
%2 = llvm.mlir.undef : f32
 ending block: mlir-asm-printer: Verifying operation: builtin.module
^bb0:
  %143 = memref.load %124[] : memref<i1>
  scf.if %143 {
    scf.execute_region {
      scf.yield
    }
  }
  scf.yield
 with val:val:mlir-asm-printer: Verifying operation: builtin.module
%2 = llvm.mlir.undef : f32
 ending block: mlir-asm-printer: Verifying operation: builtin.module
^bb0:
  scf.execute_region {
    %143 = memref.load %124[] : memref<i1>
    scf.if %143 {
      scf.execute_region {
        scf.yield
      }
    }
    scf.yield
  }
  scf.yield
 with val:val:mlir-asm-printer: Verifying operation: builtin.module
%2 = llvm.mlir.undef : f32

starting block: lastVal=val:mlir-asm-printer: Verifying operation: builtin.module
%2 = llvm.mlir.undef : f32
mlir-asm-printer: Verifying operation: builtin.module
^bb0:
  scf.execute_region {
    %143 = memref.load %124[] : memref<i1>
    scf.if %143 {
      scf.execute_region {
        scf.yield
      }
    }
    scf.yield
  }
  scf.yield


starting block: lastVal=val:mlir-asm-printer: Verifying operation: builtin.module
%2 = llvm.mlir.undef : f32
mlir-asm-printer: Verifying operation: builtin.module
^bb0:
  %143 = memref.load %124[] : memref<i1>
  scf.if %143 {
    scf.execute_region {
      scf.yield
    }
  }
  scf.yield


starting block: lastVal=val:mlir-asm-printer: Verifying operation: builtin.module
%2 = llvm.mlir.undef : f32
mlir-asm-printer: Verifying operation: builtin.module
^bb0:
  scf.execute_region {
    scf.yield
  }
  scf.yield


starting block: lastVal=val:mlir-asm-printer: Verifying operation: builtin.module
%2 = llvm.mlir.undef : f32
mlir-asm-printer: Verifying operation: builtin.module
^bb0:
  scf.yield

 ending block: mlir-asm-printer: Verifying operation: builtin.module
^bb0:
  scf.yield
 with val:val:mlir-asm-printer: Verifying operation: builtin.module
%2 = llvm.mlir.undef : f32
 ending block: mlir-asm-printer: Verifying operation: builtin.module
^bb0:
  scf.execute_region {
    scf.yield
  }
  scf.yield
 with val:val:mlir-asm-printer: Verifying operation: builtin.module
%2 = llvm.mlir.undef : f32
 ending block: mlir-asm-printer: Verifying operation: builtin.module
^bb0:
  %143 = memref.load %124[] : memref<i1>
  scf.if %143 {
    scf.execute_region {
      scf.yield
    }
  }
  scf.yield
 with val:val:mlir-asm-printer: Verifying operation: builtin.module
%2 = llvm.mlir.undef : f32
 ending block: mlir-asm-printer: Verifying operation: builtin.module
^bb0:
  scf.execute_region {
    %143 = memref.load %124[] : memref<i1>
    scf.if %143 {
      scf.execute_region {
        scf.yield
      }
    }
    scf.yield
  }
  scf.yield
 with val:val:mlir-asm-printer: Verifying operation: builtin.module
%2 = llvm.mlir.undef : f32

starting block: lastVal=val:mlir-asm-printer: Verifying operation: builtin.module
%2 = llvm.mlir.undef : f32
mlir-asm-printer: Verifying operation: builtin.module
^bb0:
  scf.execute_region {
    %143 = memref.load %124[] : memref<i1>
    scf.if %143 {
      scf.execute_region {
        scf.yield
      }
    }
    scf.yield
  }
  scf.yield


starting block: lastVal=val:mlir-asm-printer: Verifying operation: builtin.module
%2 = llvm.mlir.undef : f32
mlir-asm-printer: Verifying operation: builtin.module
^bb0:
  %143 = memref.load %124[] : memref<i1>
  scf.if %143 {
    scf.execute_region {
      scf.yield
    }
  }
  scf.yield


starting block: lastVal=val:mlir-asm-printer: Verifying operation: builtin.module
%2 = llvm.mlir.undef : f32
mlir-asm-printer: Verifying operation: builtin.module
^bb0:
  scf.execute_region {
    scf.yield
  }
  scf.yield


starting block: lastVal=val:mlir-asm-printer: Verifying operation: builtin.module
%2 = llvm.mlir.undef : f32
mlir-asm-printer: Verifying operation: builtin.module
^bb0:
  scf.yield

 ending block: mlir-asm-printer: Verifying operation: builtin.module
^bb0:
  scf.yield
 with val:val:mlir-asm-printer: Verifying operation: builtin.module
%2 = llvm.mlir.undef : f32
 ending block: mlir-asm-printer: Verifying operation: builtin.module
^bb0:
  scf.execute_region {
    scf.yield
  }
  scf.yield
 with val:val:mlir-asm-printer: Verifying operation: builtin.module
%2 = llvm.mlir.undef : f32
 ending block: mlir-asm-printer: Verifying operation: builtin.module
^bb0:
  %143 = memref.load %124[] : memref<i1>
  scf.if %143 {
    scf.execute_region {
      scf.yield
    }
  }
  scf.yield
 with val:val:mlir-asm-printer: Verifying operation: builtin.module
%2 = llvm.mlir.undef : f32
 ending block: mlir-asm-printer: Verifying operation: builtin.module
^bb0:
  scf.execute_region {
    %143 = memref.load %124[] : memref<i1>
    scf.if %143 {
      scf.execute_region {
        scf.yield
      }
    }
    scf.yield
  }
  scf.yield
 with val:val:mlir-asm-printer: Verifying operation: builtin.module
%2 = llvm.mlir.undef : f32

starting block: lastVal=val:mlir-asm-printer: Verifying operation: builtin.module
%2 = llvm.mlir.undef : f32
mlir-asm-printer: Verifying operation: builtin.module
^bb0:
  scf.execute_region {
    %143 = memref.load %124[] : memref<i1>
    scf.if %143 {
      scf.execute_region {
        %cst = arith.constant 5.000000e-01 : f32
        memref.store %cst, %9[%c0] : memref<?xf32>
        scf.yield
      }
    }
    scf.yield
  }
  scf.yield


starting block: lastVal=val:mlir-asm-printer: Verifying operation: builtin.module
%2 = llvm.mlir.undef : f32
mlir-asm-printer: Verifying operation: builtin.module
^bb0:
  %143 = memref.load %124[] : memref<i1>
  scf.if %143 {
    scf.execute_region {
      %cst = arith.constant 5.000000e-01 : f32
      memref.store %cst, %9[%c0] : memref<?xf32>
      scf.yield
    }
  }
  scf.yield


starting block: lastVal=val:mlir-asm-printer: Verifying operation: builtin.module
%2 = llvm.mlir.undef : f32
mlir-asm-printer: Verifying operation: builtin.module
^bb0:
  scf.execute_region {
    %cst = arith.constant 5.000000e-01 : f32
    memref.store %cst, %9[%c0] : memref<?xf32>
    scf.yield
  }
  scf.yield


starting block: lastVal=val:mlir-asm-printer: Verifying operation: builtin.module
%2 = llvm.mlir.undef : f32
mlir-asm-printer: Verifying operation: builtin.module
^bb0:
  %cst = arith.constant 5.000000e-01 : f32
  memref.store %cst, %9[%c0] : memref<?xf32>
  scf.yield

 ending block: mlir-asm-printer: Verifying operation: builtin.module
^bb0:
  %cst = arith.constant 5.000000e-01 : f32
  memref.store %cst, %9[%c0] : memref<?xf32>
  scf.yield
 with val:val:mlir-asm-printer: Verifying operation: builtin.module
%2 = llvm.mlir.undef : f32
 ending block: mlir-asm-printer: Verifying operation: builtin.module
^bb0:
  scf.execute_region {
    %cst = arith.constant 5.000000e-01 : f32
    memref.store %cst, %9[%c0] : memref<?xf32>
    scf.yield
  }
  scf.yield
 with val:val:mlir-asm-printer: Verifying operation: builtin.module
%2 = llvm.mlir.undef : f32
 ending block: mlir-asm-printer: Verifying operation: builtin.module
^bb0:
  %143 = memref.load %124[] : memref<i1>
  scf.if %143 {
    scf.execute_region {
      %cst = arith.constant 5.000000e-01 : f32
      memref.store %cst, %9[%c0] : memref<?xf32>
      scf.yield
    }
  }
  scf.yield
 with val:val:mlir-asm-printer: Verifying operation: builtin.module
%2 = llvm.mlir.undef : f32
 ending block: mlir-asm-printer: Verifying operation: builtin.module
^bb0:
  scf.execute_region {
    %143 = memref.load %124[] : memref<i1>
    scf.if %143 {
      scf.execute_region {
        %cst = arith.constant 5.000000e-01 : f32
        memref.store %cst, %9[%c0] : memref<?xf32>
        scf.yield
      }
    }
    scf.yield
  }
  scf.yield
 with val:val:mlir-asm-printer: Verifying operation: builtin.module
%2 = llvm.mlir.undef : f32

starting block: lastVal=val:mlir-asm-printer: Verifying operation: builtin.module
%2 = llvm.mlir.undef : f32
mlir-asm-printer: Verifying operation: builtin.module
^bb0:
  scf.execute_region {
    %143 = memref.load %124[] : memref<i1>
    scf.if %143 {
      scf.execute_region {
        %144 = memref.load %124[] : memref<i1>
        scf.if %144 {
          scf.execute_region {
            %c0_i32_0 = arith.constant 0 : i32
            memref.store %c0_i32_0, %7[%c0] : memref<?xi32>
            scf.yield
          }
        }
        %145 = memref.alloca() : memref<i1>
        %146 = memref.alloca() : memref<i1>
        memref.store %true, %146[] : memref<i1>
        cf.br ^bb1
      ^bb1:  // 2 preds: ^bb0, ^bb2
        %147 = memref.load %7[%c0] : memref<?xi32>
        %148 = memref.get_global @jmm1 : memref<1xi32>
        %149 = memref.cast %148 : memref<1xi32> to memref<?xi32>
        %150 = memref.load %149[%c0] : memref<?xi32>
        %151 = arith.cmpi slt, %147, %150 : i32
        %152 = arith.extsi %151 : i1 to i32
        %c0_i32 = arith.constant 0 : i32
        %153 = arith.cmpi ne, %152, %c0_i32 : i32
        %154 = memref.load %146[] : memref<i1>
        %155 = arith.andi %153, %154 : i1
        cf.cond_br %155, ^bb2, ^bb3
      ^bb2:  // pred: ^bb1
        %156 = memref.load %146[] : memref<i1>
        memref.store %156, %145[] : memref<i1>
        %157 = memref.load %145[] : memref<i1>
        scf.if %157 {
          scf.execute_region {
            %160 = memref.load %145[] : memref<i1>
            scf.if %160 {
              scf.execute_region {
                %161 = memref.load %145[] : memref<i1>
                scf.if %161 {
                  scf.execute_region {
                    memref.store %c0_i32, %4[%c0] : memref<?xi32>
                    scf.yield
                  }
                }
                %162 = memref.alloca() : memref<i1>
                %163 = memref.alloca() : memref<i1>
                memref.store %true, %163[] : memref<i1>
                cf.br ^bb1
              ^bb1:  // 2 preds: ^bb0, ^bb2
                %164 = memref.load %4[%c0] : memref<?xi32>
                %165 = memref.get_global @imm1 : memref<1xi32>
                %166 = memref.cast %165 : memref<1xi32> to memref<?xi32>
                %167 = memref.load %166[%c0] : memref<?xi32>
                %168 = arith.cmpi slt, %164, %167 : i32
                %169 = arith.extsi %168 : i1 to i32
                %170 = arith.cmpi ne, %169, %c0_i32 : i32
                %171 = memref.load %163[] : memref<i1>
                %172 = arith.andi %170, %171 : i1
                cf.cond_br %172, ^bb2, ^bb3
              ^bb2:  // pred: ^bb1
                %173 = memref.load %163[] : memref<i1>
                memref.store %173, %162[] : memref<i1>
                %174 = memref.load %162[] : memref<i1>
                scf.if %174 {
                  scf.execute_region {
                    %178 = memref.load %162[] : memref<i1>
                    scf.if %178 {
                      scf.execute_region {
                        %cst = arith.constant 5.000000e-01 : f32
                        %179 = memref.load %97[%c0] : memref<?xmemref<?xf32>>
                        %180 = memref.load %4[%c0] : memref<?xi32>
                        %181 = memref.load %7[%c0] : memref<?xi32>
                        %182 = memref.get_global @im : memref<1xi32>
                        %183 = memref.cast %182 : memref<1xi32> to memref<?xi32>
                        %184 = memref.load %183[%c0] : memref<?xi32>
                        %185 = arith.muli %181, %184 : i32
                        %186 = arith.addi %180, %185 : i32
                        %187 = arith.index_cast %186 : i32 to index
                        %188 = "polygeist.subindex"(%179, %187) : (memref<?xf32>, index) -> memref<?xf32>
                        %189 = "polygeist.subindex"(%188, %c0) : (memref<?xf32>, index) -> memref<?xf32>
                        %190 = memref.load %189[%c0] : memref<?xf32>
                        %c1_i32 = arith.constant 1 : i32
                        %191 = arith.addi %180, %c1_i32 : i32
                        %192 = arith.addi %191, %185 : i32
                        %193 = arith.index_cast %192 : i32 to index
                        %194 = "polygeist.subindex"(%179, %193) : (memref<?xf32>, index) -> memref<?xf32>
                        %195 = "polygeist.subindex"(%194, %c0) : (memref<?xf32>, index) -> memref<?xf32>
                        %196 = memref.load %195[%c0] : memref<?xf32>
                        %197 = arith.addf %190, %196 : f32
                        %198 = arith.mulf %cst, %197 : f32
                        %199 = math.sqrt %198 : f32
                        memref.store %199, %1[%c0] : memref<?xf32>
                        scf.yield
                      }
                    }
                    scf.yield
                  }
                }
                %175 = memref.load %162[] : memref<i1>
                scf.if %175 {
                  scf.execute_region {
                    %178 = memref.load %99[%c0] : memref<?xmemref<?xf32>>
                    %179 = memref.load %4[%c0] : memref<?xi32>
                    %180 = memref.load %7[%c0] : memref<?xi32>
                    %181 = memref.get_global @im : memref<1xi32>
                    %182 = memref.cast %181 : memref<1xi32> to memref<?xi32>
                    %183 = memref.load %182[%c0] : memref<?xi32>
                    %184 = arith.muli %180, %183 : i32
                    %185 = arith.addi %179, %184 : i32
                    %186 = arith.muli %c0_i32, %183 : i32
                    %187 = memref.get_global @jm : memref<1xi32>
                    %188 = memref.cast %187 : memref<1xi32> to memref<?xi32>
                    %189 = memref.load %188[%c0] : memref<?xi32>
                    %190 = arith.muli %186, %189 : i32
                    %191 = arith.addi %185, %190 : i32
                    %192 = arith.index_cast %191 : i32 to index
                    %193 = "polygeist.subindex"(%178, %192) : (memref<?xf32>, index) -> memref<?xf32>
                    %194 = "polygeist.subindex"(%193, %c0) : (memref<?xf32>, index) -> memref<?xf32>
                    %cst = arith.constant 1.580000e+01 : f32
                    %195 = memref.load %23[%c0] : memref<?xf32>
                    %196 = arith.mulf %cst, %195 : f32
                    %cst_0 = arith.constant 2.000000e+00 : f32
                    %cst_1 = arith.constant 3.000000e+00 : f32
                    %197 = arith.divf %cst_0, %cst_1 : f32
                    %198 = math.powf %196, %197 : f32
                    %199 = memref.load %1[%c0] : memref<?xf32>
                    %200 = arith.mulf %198, %199 : f32
                    memref.store %200, %194[%c0] : memref<?xf32>
                    scf.yield
                  }
                }
                %176 = memref.load %163[] : memref<i1>
                memref.store %176, %162[] : memref<i1>
                %177 = memref.load %162[] : memref<i1>
                scf.if %177 {
                  scf.execute_region {
                    %178 = memref.load %4[%c0] : memref<?xi32>
                    %c1_i32 = arith.constant 1 : i32
                    %179 = arith.addi %178, %c1_i32 : i32
                    memref.store %179, %4[%c0] : memref<?xi32>
                    scf.yield
                  }
                }
                cf.br ^bb1
              ^bb3:  // pred: ^bb1
                scf.yield
              }
            }
            scf.yield
          }
        }
        %158 = memref.load %146[] : memref<i1>
        memref.store %158, %145[] : memref<i1>
        %159 = memref.load %145[] : memref<i1>
        scf.if %159 {
          scf.execute_region {
            %160 = memref.load %7[%c0] : memref<?xi32>
            %c1_i32 = arith.constant 1 : i32
            %161 = arith.addi %160, %c1_i32 : i32
            memref.store %161, %7[%c0] : memref<?xi32>
            scf.yield
          }
        }
        cf.br ^bb1
      ^bb3:  // pred: ^bb1
        scf.yield
      }
    }
    scf.yield
  }
  scf.yield


starting block: lastVal=val:mlir-asm-printer: Verifying operation: builtin.module
%2 = llvm.mlir.undef : f32
mlir-asm-printer: Verifying operation: builtin.module
^bb0:
  %143 = memref.load %124[] : memref<i1>
  scf.if %143 {
    scf.execute_region {
      %144 = memref.load %124[] : memref<i1>
      scf.if %144 {
        scf.execute_region {
          %c0_i32_0 = arith.constant 0 : i32
          memref.store %c0_i32_0, %7[%c0] : memref<?xi32>
          scf.yield
        }
      }
      %145 = memref.alloca() : memref<i1>
      %146 = memref.alloca() : memref<i1>
      memref.store %true, %146[] : memref<i1>
      cf.br ^bb1
    ^bb1:  // 2 preds: ^bb0, ^bb2
      %147 = memref.load %7[%c0] : memref<?xi32>
      %148 = memref.get_global @jmm1 : memref<1xi32>
      %149 = memref.cast %148 : memref<1xi32> to memref<?xi32>
      %150 = memref.load %149[%c0] : memref<?xi32>
      %151 = arith.cmpi slt, %147, %150 : i32
      %152 = arith.extsi %151 : i1 to i32
      %c0_i32 = arith.constant 0 : i32
      %153 = arith.cmpi ne, %152, %c0_i32 : i32
      %154 = memref.load %146[] : memref<i1>
      %155 = arith.andi %153, %154 : i1
      cf.cond_br %155, ^bb2, ^bb3
    ^bb2:  // pred: ^bb1
      %156 = memref.load %146[] : memref<i1>
      memref.store %156, %145[] : memref<i1>
      %157 = memref.load %145[] : memref<i1>
      scf.if %157 {
        scf.execute_region {
          %160 = memref.load %145[] : memref<i1>
          scf.if %160 {
            scf.execute_region {
              %161 = memref.load %145[] : memref<i1>
              scf.if %161 {
                scf.execute_region {
                  memref.store %c0_i32, %4[%c0] : memref<?xi32>
                  scf.yield
                }
              }
              %162 = memref.alloca() : memref<i1>
              %163 = memref.alloca() : memref<i1>
              memref.store %true, %163[] : memref<i1>
              cf.br ^bb1
            ^bb1:  // 2 preds: ^bb0, ^bb2
              %164 = memref.load %4[%c0] : memref<?xi32>
              %165 = memref.get_global @imm1 : memref<1xi32>
              %166 = memref.cast %165 : memref<1xi32> to memref<?xi32>
              %167 = memref.load %166[%c0] : memref<?xi32>
              %168 = arith.cmpi slt, %164, %167 : i32
              %169 = arith.extsi %168 : i1 to i32
              %170 = arith.cmpi ne, %169, %c0_i32 : i32
              %171 = memref.load %163[] : memref<i1>
              %172 = arith.andi %170, %171 : i1
              cf.cond_br %172, ^bb2, ^bb3
            ^bb2:  // pred: ^bb1
              %173 = memref.load %163[] : memref<i1>
              memref.store %173, %162[] : memref<i1>
              %174 = memref.load %162[] : memref<i1>
              scf.if %174 {
                scf.execute_region {
                  %178 = memref.load %162[] : memref<i1>
                  scf.if %178 {
                    scf.execute_region {
                      %cst = arith.constant 5.000000e-01 : f32
                      %179 = memref.load %97[%c0] : memref<?xmemref<?xf32>>
                      %180 = memref.load %4[%c0] : memref<?xi32>
                      %181 = memref.load %7[%c0] : memref<?xi32>
                      %182 = memref.get_global @im : memref<1xi32>
                      %183 = memref.cast %182 : memref<1xi32> to memref<?xi32>
                      %184 = memref.load %183[%c0] : memref<?xi32>
                      %185 = arith.muli %181, %184 : i32
                      %186 = arith.addi %180, %185 : i32
                      %187 = arith.index_cast %186 : i32 to index
                      %188 = "polygeist.subindex"(%179, %187) : (memref<?xf32>, index) -> memref<?xf32>
                      %189 = "polygeist.subindex"(%188, %c0) : (memref<?xf32>, index) -> memref<?xf32>
                      %190 = memref.load %189[%c0] : memref<?xf32>
                      %c1_i32 = arith.constant 1 : i32
                      %191 = arith.addi %180, %c1_i32 : i32
                      %192 = arith.addi %191, %185 : i32
                      %193 = arith.index_cast %192 : i32 to index
                      %194 = "polygeist.subindex"(%179, %193) : (memref<?xf32>, index) -> memref<?xf32>
                      %195 = "polygeist.subindex"(%194, %c0) : (memref<?xf32>, index) -> memref<?xf32>
                      %196 = memref.load %195[%c0] : memref<?xf32>
                      %197 = arith.addf %190, %196 : f32
                      %198 = arith.mulf %cst, %197 : f32
                      %199 = math.sqrt %198 : f32
                      memref.store %199, %1[%c0] : memref<?xf32>
                      scf.yield
                    }
                  }
                  scf.yield
                }
              }
              %175 = memref.load %162[] : memref<i1>
              scf.if %175 {
                scf.execute_region {
                  %178 = memref.load %99[%c0] : memref<?xmemref<?xf32>>
                  %179 = memref.load %4[%c0] : memref<?xi32>
                  %180 = memref.load %7[%c0] : memref<?xi32>
                  %181 = memref.get_global @im : memref<1xi32>
                  %182 = memref.cast %181 : memref<1xi32> to memref<?xi32>
                  %183 = memref.load %182[%c0] : memref<?xi32>
                  %184 = arith.muli %180, %183 : i32
                  %185 = arith.addi %179, %184 : i32
                  %186 = arith.muli %c0_i32, %183 : i32
                  %187 = memref.get_global @jm : memref<1xi32>
                  %188 = memref.cast %187 : memref<1xi32> to memref<?xi32>
                  %189 = memref.load %188[%c0] : memref<?xi32>
                  %190 = arith.muli %186, %189 : i32
                  %191 = arith.addi %185, %190 : i32
                  %192 = arith.index_cast %191 : i32 to index
                  %193 = "polygeist.subindex"(%178, %192) : (memref<?xf32>, index) -> memref<?xf32>
                  %194 = "polygeist.subindex"(%193, %c0) : (memref<?xf32>, index) -> memref<?xf32>
                  %cst = arith.constant 1.580000e+01 : f32
                  %195 = memref.load %23[%c0] : memref<?xf32>
                  %196 = arith.mulf %cst, %195 : f32
                  %cst_0 = arith.constant 2.000000e+00 : f32
                  %cst_1 = arith.constant 3.000000e+00 : f32
                  %197 = arith.divf %cst_0, %cst_1 : f32
                  %198 = math.powf %196, %197 : f32
                  %199 = memref.load %1[%c0] : memref<?xf32>
                  %200 = arith.mulf %198, %199 : f32
                  memref.store %200, %194[%c0] : memref<?xf32>
                  scf.yield
                }
              }
              %176 = memref.load %163[] : memref<i1>
              memref.store %176, %162[] : memref<i1>
              %177 = memref.load %162[] : memref<i1>
              scf.if %177 {
                scf.execute_region {
                  %178 = memref.load %4[%c0] : memref<?xi32>
                  %c1_i32 = arith.constant 1 : i32
                  %179 = arith.addi %178, %c1_i32 : i32
                  memref.store %179, %4[%c0] : memref<?xi32>
                  scf.yield
                }
              }
              cf.br ^bb1
            ^bb3:  // pred: ^bb1
              scf.yield
            }
          }
          scf.yield
        }
      }
      %158 = memref.load %146[] : memref<i1>
      memref.store %158, %145[] : memref<i1>
      %159 = memref.load %145[] : memref<i1>
      scf.if %159 {
        scf.execute_region {
          %160 = memref.load %7[%c0] : memref<?xi32>
          %c1_i32 = arith.constant 1 : i32
          %161 = arith.addi %160, %c1_i32 : i32
          memref.store %161, %7[%c0] : memref<?xi32>
          scf.yield
        }
      }
      cf.br ^bb1
    ^bb3:  // pred: ^bb1
      scf.yield
    }
  }
  scf.yield


starting block: lastVal=val:mlir-asm-printer: Verifying operation: builtin.module
%2 = llvm.mlir.undef : f32
mlir-asm-printer: Verifying operation: builtin.module
^bb0:
  scf.execute_region {
    %144 = memref.load %124[] : memref<i1>
    scf.if %144 {
      scf.execute_region {
        %c0_i32_0 = arith.constant 0 : i32
        memref.store %c0_i32_0, %7[%c0] : memref<?xi32>
        scf.yield
      }
    }
    %145 = memref.alloca() : memref<i1>
    %146 = memref.alloca() : memref<i1>
    memref.store %true, %146[] : memref<i1>
    cf.br ^bb1
  ^bb1:  // 2 preds: ^bb0, ^bb2
    %147 = memref.load %7[%c0] : memref<?xi32>
    %148 = memref.get_global @jmm1 : memref<1xi32>
    %149 = memref.cast %148 : memref<1xi32> to memref<?xi32>
    %150 = memref.load %149[%c0] : memref<?xi32>
    %151 = arith.cmpi slt, %147, %150 : i32
    %152 = arith.extsi %151 : i1 to i32
    %c0_i32 = arith.constant 0 : i32
    %153 = arith.cmpi ne, %152, %c0_i32 : i32
    %154 = memref.load %146[] : memref<i1>
    %155 = arith.andi %153, %154 : i1
    cf.cond_br %155, ^bb2, ^bb3
  ^bb2:  // pred: ^bb1
    %156 = memref.load %146[] : memref<i1>
    memref.store %156, %145[] : memref<i1>
    %157 = memref.load %145[] : memref<i1>
    scf.if %157 {
      scf.execute_region {
        %160 = memref.load %145[] : memref<i1>
        scf.if %160 {
          scf.execute_region {
            %161 = memref.load %145[] : memref<i1>
            scf.if %161 {
              scf.execute_region {
                memref.store %c0_i32, %4[%c0] : memref<?xi32>
                scf.yield
              }
            }
            %162 = memref.alloca() : memref<i1>
            %163 = memref.alloca() : memref<i1>
            memref.store %true, %163[] : memref<i1>
            cf.br ^bb1
          ^bb1:  // 2 preds: ^bb0, ^bb2
            %164 = memref.load %4[%c0] : memref<?xi32>
            %165 = memref.get_global @imm1 : memref<1xi32>
            %166 = memref.cast %165 : memref<1xi32> to memref<?xi32>
            %167 = memref.load %166[%c0] : memref<?xi32>
            %168 = arith.cmpi slt, %164, %167 : i32
            %169 = arith.extsi %168 : i1 to i32
            %170 = arith.cmpi ne, %169, %c0_i32 : i32
            %171 = memref.load %163[] : memref<i1>
            %172 = arith.andi %170, %171 : i1
            cf.cond_br %172, ^bb2, ^bb3
          ^bb2:  // pred: ^bb1
            %173 = memref.load %163[] : memref<i1>
            memref.store %173, %162[] : memref<i1>
            %174 = memref.load %162[] : memref<i1>
            scf.if %174 {
              scf.execute_region {
                %178 = memref.load %162[] : memref<i1>
                scf.if %178 {
                  scf.execute_region {
                    %cst = arith.constant 5.000000e-01 : f32
                    %179 = memref.load %97[%c0] : memref<?xmemref<?xf32>>
                    %180 = memref.load %4[%c0] : memref<?xi32>
                    %181 = memref.load %7[%c0] : memref<?xi32>
                    %182 = memref.get_global @im : memref<1xi32>
                    %183 = memref.cast %182 : memref<1xi32> to memref<?xi32>
                    %184 = memref.load %183[%c0] : memref<?xi32>
                    %185 = arith.muli %181, %184 : i32
                    %186 = arith.addi %180, %185 : i32
                    %187 = arith.index_cast %186 : i32 to index
                    %188 = "polygeist.subindex"(%179, %187) : (memref<?xf32>, index) -> memref<?xf32>
                    %189 = "polygeist.subindex"(%188, %c0) : (memref<?xf32>, index) -> memref<?xf32>
                    %190 = memref.load %189[%c0] : memref<?xf32>
                    %c1_i32 = arith.constant 1 : i32
                    %191 = arith.addi %180, %c1_i32 : i32
                    %192 = arith.addi %191, %185 : i32
                    %193 = arith.index_cast %192 : i32 to index
                    %194 = "polygeist.subindex"(%179, %193) : (memref<?xf32>, index) -> memref<?xf32>
                    %195 = "polygeist.subindex"(%194, %c0) : (memref<?xf32>, index) -> memref<?xf32>
                    %196 = memref.load %195[%c0] : memref<?xf32>
                    %197 = arith.addf %190, %196 : f32
                    %198 = arith.mulf %cst, %197 : f32
                    %199 = math.sqrt %198 : f32
                    memref.store %199, %1[%c0] : memref<?xf32>
                    scf.yield
                  }
                }
                scf.yield
              }
            }
            %175 = memref.load %162[] : memref<i1>
            scf.if %175 {
              scf.execute_region {
                %178 = memref.load %99[%c0] : memref<?xmemref<?xf32>>
                %179 = memref.load %4[%c0] : memref<?xi32>
                %180 = memref.load %7[%c0] : memref<?xi32>
                %181 = memref.get_global @im : memref<1xi32>
                %182 = memref.cast %181 : memref<1xi32> to memref<?xi32>
                %183 = memref.load %182[%c0] : memref<?xi32>
                %184 = arith.muli %180, %183 : i32
                %185 = arith.addi %179, %184 : i32
                %186 = arith.muli %c0_i32, %183 : i32
                %187 = memref.get_global @jm : memref<1xi32>
                %188 = memref.cast %187 : memref<1xi32> to memref<?xi32>
                %189 = memref.load %188[%c0] : memref<?xi32>
                %190 = arith.muli %186, %189 : i32
                %191 = arith.addi %185, %190 : i32
                %192 = arith.index_cast %191 : i32 to index
                %193 = "polygeist.subindex"(%178, %192) : (memref<?xf32>, index) -> memref<?xf32>
                %194 = "polygeist.subindex"(%193, %c0) : (memref<?xf32>, index) -> memref<?xf32>
                %cst = arith.constant 1.580000e+01 : f32
                %195 = memref.load %23[%c0] : memref<?xf32>
                %196 = arith.mulf %cst, %195 : f32
                %cst_0 = arith.constant 2.000000e+00 : f32
                %cst_1 = arith.constant 3.000000e+00 : f32
                %197 = arith.divf %cst_0, %cst_1 : f32
                %198 = math.powf %196, %197 : f32
                %199 = memref.load %1[%c0] : memref<?xf32>
                %200 = arith.mulf %198, %199 : f32
                memref.store %200, %194[%c0] : memref<?xf32>
                scf.yield
              }
            }
            %176 = memref.load %163[] : memref<i1>
            memref.store %176, %162[] : memref<i1>
            %177 = memref.load %162[] : memref<i1>
            scf.if %177 {
              scf.execute_region {
                %178 = memref.load %4[%c0] : memref<?xi32>
                %c1_i32 = arith.constant 1 : i32
                %179 = arith.addi %178, %c1_i32 : i32
                memref.store %179, %4[%c0] : memref<?xi32>
                scf.yield
              }
            }
            cf.br ^bb1
          ^bb3:  // pred: ^bb1
            scf.yield
          }
        }
        scf.yield
      }
    }
    %158 = memref.load %146[] : memref<i1>
    memref.store %158, %145[] : memref<i1>
    %159 = memref.load %145[] : memref<i1>
    scf.if %159 {
      scf.execute_region {
        %160 = memref.load %7[%c0] : memref<?xi32>
        %c1_i32 = arith.constant 1 : i32
        %161 = arith.addi %160, %c1_i32 : i32
        memref.store %161, %7[%c0] : memref<?xi32>
        scf.yield
      }
    }
    cf.br ^bb1
  ^bb3:  // pred: ^bb1
    scf.yield
  }
  scf.yield


starting block: lastVal=val:mlir-asm-printer: Verifying operation: builtin.module
%2 = llvm.mlir.undef : f32
mlir-asm-printer: Verifying operation: builtin.module
^bb0:
  %144 = memref.load %124[] : memref<i1>
  scf.if %144 {
    scf.execute_region {
      %c0_i32_0 = arith.constant 0 : i32
      memref.store %c0_i32_0, %7[%c0] : memref<?xi32>
      scf.yield
    }
  }
  %145 = memref.alloca() : memref<i1>
  %146 = memref.alloca() : memref<i1>
  memref.store %true, %146[] : memref<i1>
  cf.br ^bb1


starting block: lastVal=val:mlir-asm-printer: Verifying operation: builtin.module
%2 = llvm.mlir.undef : f32
mlir-asm-printer: Verifying operation: builtin.module
^bb0:
  scf.execute_region {
    %c0_i32_0 = arith.constant 0 : i32
    memref.store %c0_i32_0, %7[%c0] : memref<?xi32>
    scf.yield
  }
  scf.yield


starting block: lastVal=val:mlir-asm-printer: Verifying operation: builtin.module
%2 = llvm.mlir.undef : f32
mlir-asm-printer: Verifying operation: builtin.module
^bb0:
  %c0_i32_0 = arith.constant 0 : i32
  memref.store %c0_i32_0, %7[%c0] : memref<?xi32>
  scf.yield

 ending block: mlir-asm-printer: Verifying operation: builtin.module
^bb0:
  %c0_i32_0 = arith.constant 0 : i32
  memref.store %c0_i32_0, %7[%c0] : memref<?xi32>
  scf.yield
 with val:val:mlir-asm-printer: Verifying operation: builtin.module
%2 = llvm.mlir.undef : f32
 ending block: mlir-asm-printer: Verifying operation: builtin.module
^bb0:
  scf.execute_region {
    %c0_i32_0 = arith.constant 0 : i32
    memref.store %c0_i32_0, %7[%c0] : memref<?xi32>
    scf.yield
  }
  scf.yield
 with val:val:mlir-asm-printer: Verifying operation: builtin.module
%2 = llvm.mlir.undef : f32
 ending block: mlir-asm-printer: Verifying operation: builtin.module
^bb0:
  %144 = memref.load %124[] : memref<i1>
  scf.if %144 {
    scf.execute_region {
      %c0_i32_0 = arith.constant 0 : i32
      memref.store %c0_i32_0, %7[%c0] : memref<?xi32>
      scf.yield
    }
  }
  %145 = memref.alloca() : memref<i1>
  %146 = memref.alloca() : memref<i1>
  memref.store %true, %146[] : memref<i1>
  cf.br ^bb1
 with val:val:mlir-asm-printer: Verifying operation: builtin.module
%2 = llvm.mlir.undef : f32

starting block: lastVal=mlir-asm-printer: Verifying operation: builtin.module
^bb1:  // 2 preds: ^bb0, ^bb2
  %147 = memref.load %7[%c0] : memref<?xi32>
  %148 = memref.get_global @jmm1 : memref<1xi32>
  %149 = memref.cast %148 : memref<1xi32> to memref<?xi32>
  %150 = memref.load %149[%c0] : memref<?xi32>
  %151 = arith.cmpi slt, %147, %150 : i32
  %152 = arith.extsi %151 : i1 to i32
  %c0_i32 = arith.constant 0 : i32
  %153 = arith.cmpi ne, %152, %c0_i32 : i32
  %154 = memref.load %146[] : memref<i1>
  %155 = arith.andi %153, %154 : i1
  cf.cond_br %155, ^bb2, ^bb3

mlir-asm-printer: Verifying operation: builtin.module
^bb1:  // 2 preds: ^bb0, ^bb2
  %147 = memref.load %7[%c0] : memref<?xi32>
  %148 = memref.get_global @jmm1 : memref<1xi32>
  %149 = memref.cast %148 : memref<1xi32> to memref<?xi32>
  %150 = memref.load %149[%c0] : memref<?xi32>
  %151 = arith.cmpi slt, %147, %150 : i32
  %152 = arith.extsi %151 : i1 to i32
  %c0_i32 = arith.constant 0 : i32
  %153 = arith.cmpi ne, %152, %c0_i32 : i32
  %154 = memref.load %146[] : memref<i1>
  %155 = arith.andi %153, %154 : i1
  cf.cond_br %155, ^bb2, ^bb3

 ending block: mlir-asm-printer: Verifying operation: builtin.module
^bb1:  // 2 preds: ^bb0, ^bb2
  %147 = memref.load %7[%c0] : memref<?xi32>
  %148 = memref.get_global @jmm1 : memref<1xi32>
  %149 = memref.cast %148 : memref<1xi32> to memref<?xi32>
  %150 = memref.load %149[%c0] : memref<?xi32>
  %151 = arith.cmpi slt, %147, %150 : i32
  %152 = arith.extsi %151 : i1 to i32
  %c0_i32 = arith.constant 0 : i32
  %153 = arith.cmpi ne, %152, %c0_i32 : i32
  %154 = memref.load %146[] : memref<i1>
  %155 = arith.andi %153, %154 : i1
  cf.cond_br %155, ^bb2, ^bb3
 with val:mlir-asm-printer: Verifying operation: builtin.module
^bb1:  // 2 preds: ^bb0, ^bb2
  %147 = memref.load %7[%c0] : memref<?xi32>
  %148 = memref.get_global @jmm1 : memref<1xi32>
  %149 = memref.cast %148 : memref<1xi32> to memref<?xi32>
  %150 = memref.load %149[%c0] : memref<?xi32>
  %151 = arith.cmpi slt, %147, %150 : i32
  %152 = arith.extsi %151 : i1 to i32
  %c0_i32 = arith.constant 0 : i32
  %153 = arith.cmpi ne, %152, %c0_i32 : i32
  %154 = memref.load %146[] : memref<i1>
  %155 = arith.andi %153, %154 : i1
  cf.cond_br %155, ^bb2, ^bb3


starting block: lastVal=mlir-asm-printer: Verifying operation: builtin.module
^bb2:  // pred: ^bb1
  %156 = memref.load %146[] : memref<i1>
  memref.store %156, %145[] : memref<i1>
  %157 = memref.load %145[] : memref<i1>
  scf.if %157 {
    scf.execute_region {
      %160 = memref.load %145[] : memref<i1>
      scf.if %160 {
        scf.execute_region {
          %161 = memref.load %145[] : memref<i1>
          scf.if %161 {
            scf.execute_region {
              memref.store %c0_i32, %4[%c0] : memref<?xi32>
              scf.yield
            }
          }
          %162 = memref.alloca() : memref<i1>
          %163 = memref.alloca() : memref<i1>
          memref.store %true, %163[] : memref<i1>
          cf.br ^bb1
        ^bb1:  // 2 preds: ^bb0, ^bb2
          %164 = memref.load %4[%c0] : memref<?xi32>
          %165 = memref.get_global @imm1 : memref<1xi32>
          %166 = memref.cast %165 : memref<1xi32> to memref<?xi32>
          %167 = memref.load %166[%c0] : memref<?xi32>
          %168 = arith.cmpi slt, %164, %167 : i32
          %169 = arith.extsi %168 : i1 to i32
          %170 = arith.cmpi ne, %169, %c0_i32 : i32
          %171 = memref.load %163[] : memref<i1>
          %172 = arith.andi %170, %171 : i1
          cf.cond_br %172, ^bb2, ^bb3
        ^bb2:  // pred: ^bb1
          %173 = memref.load %163[] : memref<i1>
          memref.store %173, %162[] : memref<i1>
          %174 = memref.load %162[] : memref<i1>
          scf.if %174 {
            scf.execute_region {
              %178 = memref.load %162[] : memref<i1>
              scf.if %178 {
                scf.execute_region {
                  %cst = arith.constant 5.000000e-01 : f32
                  %179 = memref.load %97[%c0] : memref<?xmemref<?xf32>>
                  %180 = memref.load %4[%c0] : memref<?xi32>
                  %181 = memref.load %7[%c0] : memref<?xi32>
                  %182 = memref.get_global @im : memref<1xi32>
                  %183 = memref.cast %182 : memref<1xi32> to memref<?xi32>
                  %184 = memref.load %183[%c0] : memref<?xi32>
                  %185 = arith.muli %181, %184 : i32
                  %186 = arith.addi %180, %185 : i32
                  %187 = arith.index_cast %186 : i32 to index
                  %188 = "polygeist.subindex"(%179, %187) : (memref<?xf32>, index) -> memref<?xf32>
                  %189 = "polygeist.subindex"(%188, %c0) : (memref<?xf32>, index) -> memref<?xf32>
                  %190 = memref.load %189[%c0] : memref<?xf32>
                  %c1_i32 = arith.constant 1 : i32
                  %191 = arith.addi %180, %c1_i32 : i32
                  %192 = arith.addi %191, %185 : i32
                  %193 = arith.index_cast %192 : i32 to index
                  %194 = "polygeist.subindex"(%179, %193) : (memref<?xf32>, index) -> memref<?xf32>
                  %195 = "polygeist.subindex"(%194, %c0) : (memref<?xf32>, index) -> memref<?xf32>
                  %196 = memref.load %195[%c0] : memref<?xf32>
                  %197 = arith.addf %190, %196 : f32
                  %198 = arith.mulf %cst, %197 : f32
                  %199 = math.sqrt %198 : f32
                  memref.store %199, %1[%c0] : memref<?xf32>
                  scf.yield
                }
              }
              scf.yield
            }
          }
          %175 = memref.load %162[] : memref<i1>
          scf.if %175 {
            scf.execute_region {
              %178 = memref.load %99[%c0] : memref<?xmemref<?xf32>>
              %179 = memref.load %4[%c0] : memref<?xi32>
              %180 = memref.load %7[%c0] : memref<?xi32>
              %181 = memref.get_global @im : memref<1xi32>
              %182 = memref.cast %181 : memref<1xi32> to memref<?xi32>
              %183 = memref.load %182[%c0] : memref<?xi32>
              %184 = arith.muli %180, %183 : i32
              %185 = arith.addi %179, %184 : i32
              %186 = arith.muli %c0_i32, %183 : i32
              %187 = memref.get_global @jm : memref<1xi32>
              %188 = memref.cast %187 : memref<1xi32> to memref<?xi32>
              %189 = memref.load %188[%c0] : memref<?xi32>
              %190 = arith.muli %186, %189 : i32
              %191 = arith.addi %185, %190 : i32
              %192 = arith.index_cast %191 : i32 to index
              %193 = "polygeist.subindex"(%178, %192) : (memref<?xf32>, index) -> memref<?xf32>
              %194 = "polygeist.subindex"(%193, %c0) : (memref<?xf32>, index) -> memref<?xf32>
              %cst = arith.constant 1.580000e+01 : f32
              %195 = memref.load %23[%c0] : memref<?xf32>
              %196 = arith.mulf %cst, %195 : f32
              %cst_0 = arith.constant 2.000000e+00 : f32
              %cst_1 = arith.constant 3.000000e+00 : f32
              %197 = arith.divf %cst_0, %cst_1 : f32
              %198 = math.powf %196, %197 : f32
              %199 = memref.load %1[%c0] : memref<?xf32>
              %200 = arith.mulf %198, %199 : f32
              memref.store %200, %194[%c0] : memref<?xf32>
              scf.yield
            }
          }
          %176 = memref.load %163[] : memref<i1>
          memref.store %176, %162[] : memref<i1>
          %177 = memref.load %162[] : memref<i1>
          scf.if %177 {
            scf.execute_region {
              %178 = memref.load %4[%c0] : memref<?xi32>
              %c1_i32 = arith.constant 1 : i32
              %179 = arith.addi %178, %c1_i32 : i32
              memref.store %179, %4[%c0] : memref<?xi32>
              scf.yield
            }
          }
          cf.br ^bb1
        ^bb3:  // pred: ^bb1
          scf.yield
        }
      }
      scf.yield
    }
  }
  %158 = memref.load %146[] : memref<i1>
  memref.store %158, %145[] : memref<i1>
  %159 = memref.load %145[] : memref<i1>
  scf.if %159 {
    scf.execute_region {
      %160 = memref.load %7[%c0] : memref<?xi32>
      %c1_i32 = arith.constant 1 : i32
      %161 = arith.addi %160, %c1_i32 : i32
      memref.store %161, %7[%c0] : memref<?xi32>
      scf.yield
    }
  }
  cf.br ^bb1

mlir-asm-printer: Verifying operation: builtin.module
^bb2:  // pred: ^bb1
  %156 = memref.load %146[] : memref<i1>
  memref.store %156, %145[] : memref<i1>
  %157 = memref.load %145[] : memref<i1>
  scf.if %157 {
    scf.execute_region {
      %160 = memref.load %145[] : memref<i1>
      scf.if %160 {
        scf.execute_region {
          %161 = memref.load %145[] : memref<i1>
          scf.if %161 {
            scf.execute_region {
              memref.store %c0_i32, %4[%c0] : memref<?xi32>
              scf.yield
            }
          }
          %162 = memref.alloca() : memref<i1>
          %163 = memref.alloca() : memref<i1>
          memref.store %true, %163[] : memref<i1>
          cf.br ^bb1
        ^bb1:  // 2 preds: ^bb0, ^bb2
          %164 = memref.load %4[%c0] : memref<?xi32>
          %165 = memref.get_global @imm1 : memref<1xi32>
          %166 = memref.cast %165 : memref<1xi32> to memref<?xi32>
          %167 = memref.load %166[%c0] : memref<?xi32>
          %168 = arith.cmpi slt, %164, %167 : i32
          %169 = arith.extsi %168 : i1 to i32
          %170 = arith.cmpi ne, %169, %c0_i32 : i32
          %171 = memref.load %163[] : memref<i1>
          %172 = arith.andi %170, %171 : i1
          cf.cond_br %172, ^bb2, ^bb3
        ^bb2:  // pred: ^bb1
          %173 = memref.load %163[] : memref<i1>
          memref.store %173, %162[] : memref<i1>
          %174 = memref.load %162[] : memref<i1>
          scf.if %174 {
            scf.execute_region {
              %178 = memref.load %162[] : memref<i1>
              scf.if %178 {
                scf.execute_region {
                  %cst = arith.constant 5.000000e-01 : f32
                  %179 = memref.load %97[%c0] : memref<?xmemref<?xf32>>
                  %180 = memref.load %4[%c0] : memref<?xi32>
                  %181 = memref.load %7[%c0] : memref<?xi32>
                  %182 = memref.get_global @im : memref<1xi32>
                  %183 = memref.cast %182 : memref<1xi32> to memref<?xi32>
                  %184 = memref.load %183[%c0] : memref<?xi32>
                  %185 = arith.muli %181, %184 : i32
                  %186 = arith.addi %180, %185 : i32
                  %187 = arith.index_cast %186 : i32 to index
                  %188 = "polygeist.subindex"(%179, %187) : (memref<?xf32>, index) -> memref<?xf32>
                  %189 = "polygeist.subindex"(%188, %c0) : (memref<?xf32>, index) -> memref<?xf32>
                  %190 = memref.load %189[%c0] : memref<?xf32>
                  %c1_i32 = arith.constant 1 : i32
                  %191 = arith.addi %180, %c1_i32 : i32
                  %192 = arith.addi %191, %185 : i32
                  %193 = arith.index_cast %192 : i32 to index
                  %194 = "polygeist.subindex"(%179, %193) : (memref<?xf32>, index) -> memref<?xf32>
                  %195 = "polygeist.subindex"(%194, %c0) : (memref<?xf32>, index) -> memref<?xf32>
                  %196 = memref.load %195[%c0] : memref<?xf32>
                  %197 = arith.addf %190, %196 : f32
                  %198 = arith.mulf %cst, %197 : f32
                  %199 = math.sqrt %198 : f32
                  memref.store %199, %1[%c0] : memref<?xf32>
                  scf.yield
                }
              }
              scf.yield
            }
          }
          %175 = memref.load %162[] : memref<i1>
          scf.if %175 {
            scf.execute_region {
              %178 = memref.load %99[%c0] : memref<?xmemref<?xf32>>
              %179 = memref.load %4[%c0] : memref<?xi32>
              %180 = memref.load %7[%c0] : memref<?xi32>
              %181 = memref.get_global @im : memref<1xi32>
              %182 = memref.cast %181 : memref<1xi32> to memref<?xi32>
              %183 = memref.load %182[%c0] : memref<?xi32>
              %184 = arith.muli %180, %183 : i32
              %185 = arith.addi %179, %184 : i32
              %186 = arith.muli %c0_i32, %183 : i32
              %187 = memref.get_global @jm : memref<1xi32>
              %188 = memref.cast %187 : memref<1xi32> to memref<?xi32>
              %189 = memref.load %188[%c0] : memref<?xi32>
              %190 = arith.muli %186, %189 : i32
              %191 = arith.addi %185, %190 : i32
              %192 = arith.index_cast %191 : i32 to index
              %193 = "polygeist.subindex"(%178, %192) : (memref<?xf32>, index) -> memref<?xf32>
              %194 = "polygeist.subindex"(%193, %c0) : (memref<?xf32>, index) -> memref<?xf32>
              %cst = arith.constant 1.580000e+01 : f32
              %195 = memref.load %23[%c0] : memref<?xf32>
              %196 = arith.mulf %cst, %195 : f32
              %cst_0 = arith.constant 2.000000e+00 : f32
              %cst_1 = arith.constant 3.000000e+00 : f32
              %197 = arith.divf %cst_0, %cst_1 : f32
              %198 = math.powf %196, %197 : f32
              %199 = memref.load %1[%c0] : memref<?xf32>
              %200 = arith.mulf %198, %199 : f32
              memref.store %200, %194[%c0] : memref<?xf32>
              scf.yield
            }
          }
          %176 = memref.load %163[] : memref<i1>
          memref.store %176, %162[] : memref<i1>
          %177 = memref.load %162[] : memref<i1>
          scf.if %177 {
            scf.execute_region {
              %178 = memref.load %4[%c0] : memref<?xi32>
              %c1_i32 = arith.constant 1 : i32
              %179 = arith.addi %178, %c1_i32 : i32
              memref.store %179, %4[%c0] : memref<?xi32>
              scf.yield
            }
          }
          cf.br ^bb1
        ^bb3:  // pred: ^bb1
          scf.yield
        }
      }
      scf.yield
    }
  }
  %158 = memref.load %146[] : memref<i1>
  memref.store %158, %145[] : memref<i1>
  %159 = memref.load %145[] : memref<i1>
  scf.if %159 {
    scf.execute_region {
      %160 = memref.load %7[%c0] : memref<?xi32>
      %c1_i32 = arith.constant 1 : i32
      %161 = arith.addi %160, %c1_i32 : i32
      memref.store %161, %7[%c0] : memref<?xi32>
      scf.yield
    }
  }
  cf.br ^bb1


starting block: lastVal=mlir-asm-printer: Verifying operation: builtin.module
^bb2:  // pred: ^bb1
  %156 = memref.load %146[] : memref<i1>
  memref.store %156, %145[] : memref<i1>
  %157 = memref.load %145[] : memref<i1>
  scf.if %157 {
    scf.execute_region {
      %160 = memref.load %145[] : memref<i1>
      scf.if %160 {
        scf.execute_region {
          %161 = memref.load %145[] : memref<i1>
          scf.if %161 {
            scf.execute_region {
              memref.store %c0_i32, %4[%c0] : memref<?xi32>
              scf.yield
            }
          }
          %162 = memref.alloca() : memref<i1>
          %163 = memref.alloca() : memref<i1>
          memref.store %true, %163[] : memref<i1>
          cf.br ^bb1
        ^bb1:  // 2 preds: ^bb0, ^bb2
          %164 = memref.load %4[%c0] : memref<?xi32>
          %165 = memref.get_global @imm1 : memref<1xi32>
          %166 = memref.cast %165 : memref<1xi32> to memref<?xi32>
          %167 = memref.load %166[%c0] : memref<?xi32>
          %168 = arith.cmpi slt, %164, %167 : i32
          %169 = arith.extsi %168 : i1 to i32
          %170 = arith.cmpi ne, %169, %c0_i32 : i32
          %171 = memref.load %163[] : memref<i1>
          %172 = arith.andi %170, %171 : i1
          cf.cond_br %172, ^bb2, ^bb3
        ^bb2:  // pred: ^bb1
          %173 = memref.load %163[] : memref<i1>
          memref.store %173, %162[] : memref<i1>
          %174 = memref.load %162[] : memref<i1>
          scf.if %174 {
            scf.execute_region {
              %178 = memref.load %162[] : memref<i1>
              scf.if %178 {
                scf.execute_region {
                  %cst = arith.constant 5.000000e-01 : f32
                  %179 = memref.load %97[%c0] : memref<?xmemref<?xf32>>
                  %180 = memref.load %4[%c0] : memref<?xi32>
                  %181 = memref.load %7[%c0] : memref<?xi32>
                  %182 = memref.get_global @im : memref<1xi32>
                  %183 = memref.cast %182 : memref<1xi32> to memref<?xi32>
                  %184 = memref.load %183[%c0] : memref<?xi32>
                  %185 = arith.muli %181, %184 : i32
                  %186 = arith.addi %180, %185 : i32
                  %187 = arith.index_cast %186 : i32 to index
                  %188 = "polygeist.subindex"(%179, %187) : (memref<?xf32>, index) -> memref<?xf32>
                  %189 = "polygeist.subindex"(%188, %c0) : (memref<?xf32>, index) -> memref<?xf32>
                  %190 = memref.load %189[%c0] : memref<?xf32>
                  %c1_i32 = arith.constant 1 : i32
                  %191 = arith.addi %180, %c1_i32 : i32
                  %192 = arith.addi %191, %185 : i32
                  %193 = arith.index_cast %192 : i32 to index
…
            %c1_i32 = arith.constant 1 : i32
            %195 = arith.addi %176, %c1_i32 : i32
            memref.store %195, %4[%c0] : memref<?xi32>
            scf.yield %195 : i32
          }
          scf.yield %193 : i32
        } else {
          scf.yield %176 : i32
        }
        cf.br ^bb1(%188, %192 : f32, i32)
      ^bb3:  // pred: ^bb1
        scf.yield %175, %176 : f32, i32
      }
      scf.yield %170#0, %170#1 : f32, i32
    } else {
      scf.yield %149, %150 : f32, i32
    }
    scf.yield %169#0, %169#1 : f32, i32
  }
  scf.yield %167#0, %167#1 : f32, i32


starting block: lastVal=val:mlir-asm-printer: Verifying operation: builtin.module
%161 = memref.load %148[] : memref<i1>
mlir-asm-printer: Verifying operation: builtin.module
^bb0:
  %168 = memref.load %147[] : memref<i1>
  %169:2 = scf.if %161 -> (f32, i32) {
    %170:2 = scf.execute_region -> (f32, i32) {
      %171 = memref.load %147[] : memref<i1>
      %172 = scf.if %161 -> (i32) {
        scf.execute_region {
          memref.store %c0_i32, %4[%c0] : memref<?xi32>
          scf.yield
        }
        scf.yield %c0_i32 : i32
      } else {
        scf.yield %150 : i32
      }
      %173 = memref.alloca() : memref<i1>
      %174 = memref.alloca() : memref<i1>
      memref.store %true, %174[] : memref<i1>
      cf.br ^bb1(%149, %172 : f32, i32)
    ^bb1(%175: f32, %176: i32):  // 2 preds: ^bb0, ^bb2
      %177 = memref.load %4[%c0] : memref<?xi32>
      %178 = memref.get_global @imm1 : memref<1xi32>
      %179 = memref.cast %178 : memref<1xi32> to memref<?xi32>
      %180 = memref.load %179[%c0] : memref<?xi32>
      %181 = arith.cmpi slt, %176, %180 : i32
      %182 = arith.extsi %181 : i1 to i32
      %183 = arith.cmpi ne, %182, %c0_i32 : i32
      %184 = memref.load %174[] : memref<i1>
      %185 = arith.andi %183, %184 : i1
      cf.cond_br %185, ^bb2, ^bb3
    ^bb2:  // pred: ^bb1
      %186 = memref.load %174[] : memref<i1>
      memref.store %186, %173[] : memref<i1>
      %187 = memref.load %173[] : memref<i1>
      %188 = scf.if %187 -> (f32) {
        %193 = scf.execute_region -> f32 {
          %194 = memref.load %173[] : memref<i1>
          %195 = scf.if %194 -> (f32) {
            %196 = scf.execute_region -> f32 {
              %cst = arith.constant 5.000000e-01 : f32
              %197 = memref.load %97[%c0] : memref<?xmemref<?xf32>>
              %198 = memref.load %4[%c0] : memref<?xi32>
              %199 = memref.load %7[%c0] : memref<?xi32>
              %200 = memref.get_global @im : memref<1xi32>
              %201 = memref.cast %200 : memref<1xi32> to memref<?xi32>
              %202 = memref.load %201[%c0] : memref<?xi32>
              %203 = arith.muli %151, %202 : i32
              %204 = arith.addi %176, %203 : i32
              %205 = arith.index_cast %204 : i32 to index
              %206 = "polygeist.subindex"(%arg13, %205) : (memref<?xf32>, index) -> memref<?xf32>
              %207 = "polygeist.subindex"(%206, %c0) : (memref<?xf32>, index) -> memref<?xf32>
              %208 = memref.load %207[%c0] : memref<?xf32>
              %c1_i32 = arith.constant 1 : i32
              %209 = arith.addi %176, %c1_i32 : i32
              %210 = arith.addi %209, %203 : i32
              %211 = arith.index_cast %210 : i32 to index
              %212 = "polygeist.subindex"(%arg13, %211) : (memref<?xf32>, index) -> memref<?xf32>
              %213 = "polygeist.subindex"(%212, %c0) : (memref<?xf32>, index) -> memref<?xf32>
              %214 = memref.load %213[%c0] : memref<?xf32>
              %215 = arith.addf %208, %214 : f32
              %216 = arith.mulf %cst, %215 : f32
              %217 = math.sqrt %216 : f32
              memref.store %217, %1[%c0] : memref<?xf32>
              scf.yield %217 : f32
            }
            scf.yield %196 : f32
          } else {
            scf.yield %175 : f32
          }
          scf.yield %195 : f32
        }
        scf.yield %193 : f32
      } else {
        scf.yield %175 : f32
      }
      %189 = memref.load %173[] : memref<i1>
      scf.if %189 {
        scf.execute_region {
          %193 = memref.load %99[%c0] : memref<?xmemref<?xf32>>
          %194 = memref.load %4[%c0] : memref<?xi32>
          %195 = memref.load %7[%c0] : memref<?xi32>
          %196 = memref.get_global @im : memref<1xi32>
          %197 = memref.cast %196 : memref<1xi32> to memref<?xi32>
          %198 = memref.load %197[%c0] : memref<?xi32>
          %199 = arith.muli %151, %198 : i32
          %200 = arith.addi %176, %199 : i32
          %201 = arith.muli %c0_i32, %198 : i32
          %202 = memref.get_global @jm : memref<1xi32>
          %203 = memref.cast %202 : memref<1xi32> to memref<?xi32>
          %204 = memref.load %203[%c0] : memref<?xi32>
          %205 = arith.muli %201, %204 : i32
          %206 = arith.addi %200, %205 : i32
          %207 = arith.index_cast %206 : i32 to index
          %208 = "polygeist.subindex"(%arg12, %207) : (memref<?xf32>, index) -> memref<?xf32>
          %209 = "polygeist.subindex"(%208, %c0) : (memref<?xf32>, index) -> memref<?xf32>
          %cst = arith.constant 1.580000e+01 : f32
          %210 = memref.load %23[%c0] : memref<?xf32>
          %211 = arith.mulf %cst, %135 : f32
          %cst_0 = arith.constant 2.000000e+00 : f32
          %cst_1 = arith.constant 3.000000e+00 : f32
          %212 = arith.divf %cst_0, %cst_1 : f32
          %213 = math.powf %211, %212 : f32
          %214 = memref.load %1[%c0] : memref<?xf32>
          %215 = arith.mulf %213, %188 : f32
          memref.store %215, %209[%c0] : memref<?xf32>
          scf.yield
        }
      }
      %190 = memref.load %174[] : memref<i1>
      memref.store %190, %173[] : memref<i1>
      %191 = memref.load %173[] : memref<i1>
      %192 = scf.if %191 -> (i32) {
        %193 = scf.execute_region -> i32 {
          %194 = memref.load %4[%c0] : memref<?xi32>
          %c1_i32 = arith.constant 1 : i32
          %195 = arith.addi %176, %c1_i32 : i32
          memref.store %195, %4[%c0] : memref<?xi32>
          scf.yield %195 : i32
        }
        scf.yield %193 : i32
      } else {
        scf.yield %176 : i32
      }
      cf.br ^bb1(%188, %192 : f32, i32)
    ^bb3:  // pred: ^bb1
      scf.yield %175, %176 : f32, i32
    }
    scf.yield %170#0, %170#1 : f32, i32
  } else {
    scf.yield %149, %150 : f32, i32
  }
  scf.yield %169#0, %169#1 : f32, i32


starting block: lastVal=val:mlir-asm-printer: Verifying operation: builtin.module
%161 = memref.load %148[] : memref<i1>
mlir-asm-printer: Verifying operation: builtin.module
^bb0:
  %170:2 = scf.execute_region -> (f32, i32) {
    %171 = memref.load %147[] : memref<i1>
    %172 = scf.if %161 -> (i32) {
      scf.execute_region {
        memref.store %c0_i32, %4[%c0] : memref<?xi32>
        scf.yield
      }
      scf.yield %c0_i32 : i32
    } else {
      scf.yield %150 : i32
    }
    %173 = memref.alloca() : memref<i1>
    %174 = memref.alloca() : memref<i1>
    memref.store %true, %174[] : memref<i1>
    cf.br ^bb1(%149, %172 : f32, i32)
  ^bb1(%175: f32, %176: i32):  // 2 preds: ^bb0, ^bb2
    %177 = memref.load %4[%c0] : memref<?xi32>
    %178 = memref.get_global @imm1 : memref<1xi32>
    %179 = memref.cast %178 : memref<1xi32> to memref<?xi32>
    %180 = memref.load %179[%c0] : memref<?xi32>
    %181 = arith.cmpi slt, %176, %180 : i32
    %182 = arith.extsi %181 : i1 to i32
    %183 = arith.cmpi ne, %182, %c0_i32 : i32
    %184 = memref.load %174[] : memref<i1>
    %185 = arith.andi %183, %184 : i1
    cf.cond_br %185, ^bb2, ^bb3
  ^bb2:  // pred: ^bb1
    %186 = memref.load %174[] : memref<i1>
    memref.store %186, %173[] : memref<i1>
    %187 = memref.load %173[] : memref<i1>
    %188 = scf.if %187 -> (f32) {
      %193 = scf.execute_region -> f32 {
        %194 = memref.load %173[] : memref<i1>
        %195 = scf.if %194 -> (f32) {
          %196 = scf.execute_region -> f32 {
            %cst = arith.constant 5.000000e-01 : f32
            %197 = memref.load %97[%c0] : memref<?xmemref<?xf32>>
            %198 = memref.load %4[%c0] : memref<?xi32>
            %199 = memref.load %7[%c0] : memref<?xi32>
            %200 = memref.get_global @im : memref<1xi32>
            %201 = memref.cast %200 : memref<1xi32> to memref<?xi32>
            %202 = memref.load %201[%c0] : memref<?xi32>
            %203 = arith.muli %151, %202 : i32
            %204 = arith.addi %176, %203 : i32
            %205 = arith.index_cast %204 : i32 to index
            %206 = "polygeist.subindex"(%arg13, %205) : (memref<?xf32>, index) -> memref<?xf32>
            %207 = "polygeist.subindex"(%206, %c0) : (memref<?xf32>, index) -> memref<?xf32>
            %208 = memref.load %207[%c0] : memref<?xf32>
            %c1_i32 = arith.constant 1 : i32
            %209 = arith.addi %176, %c1_i32 : i32
            %210 = arith.addi %209, %203 : i32
            %211 = arith.index_cast %210 : i32 to index
            %212 = "polygeist.subindex"(%arg13, %211) : (memref<?xf32>, index) -> memref<?xf32>
            %213 = "polygeist.subindex"(%212, %c0) : (memref<?xf32>, index) -> memref<?xf32>
            %214 = memref.load %213[%c0] : memref<?xf32>
            %215 = arith.addf %208, %214 : f32
            %216 = arith.mulf %cst, %215 : f32
            %217 = math.sqrt %216 : f32
            memref.store %217, %1[%c0] : memref<?xf32>
            scf.yield %217 : f32
          }
          scf.yield %196 : f32
        } else {
          scf.yield %175 : f32
        }
        scf.yield %195 : f32
      }
      scf.yield %193 : f32
    } else {
      scf.yield %175 : f32
    }
    %189 = memref.load %173[] : memref<i1>
    scf.if %189 {
      scf.execute_region {
        %193 = memref.load %99[%c0] : memref<?xmemref<?xf32>>
        %194 = memref.load %4[%c0] : memref<?xi32>
        %195 = memref.load %7[%c0] : memref<?xi32>
        %196 = memref.get_global @im : memref<1xi32>
        %197 = memref.cast %196 : memref<1xi32> to memref<?xi32>
        %198 = memref.load %197[%c0] : memref<?xi32>
        %199 = arith.muli %151, %198 : i32
        %200 = arith.addi %176, %199 : i32
        %201 = arith.muli %c0_i32, %198 : i32
        %202 = memref.get_global @jm : memref<1xi32>
        %203 = memref.cast %202 : memref<1xi32> to memref<?xi32>
        %204 = memref.load %203[%c0] : memref<?xi32>
        %205 = arith.muli %201, %204 : i32
        %206 = arith.addi %200, %205 : i32
        %207 = arith.index_cast %206 : i32 to index
        %208 = "polygeist.subindex"(%arg12, %207) : (memref<?xf32>, index) -> memref<?xf32>
        %209 = "polygeist.subindex"(%208, %c0) : (memref<?xf32>, index) -> memref<?xf32>
        %cst = arith.constant 1.580000e+01 : f32
        %210 = memref.load %23[%c0] : memref<?xf32>
        %211 = arith.mulf %cst, %135 : f32
        %cst_0 = arith.constant 2.000000e+00 : f32
        %cst_1 = arith.constant 3.000000e+00 : f32
        %212 = arith.divf %cst_0, %cst_1 : f32
        %213 = math.powf %211, %212 : f32
        %214 = memref.load %1[%c0] : memref<?xf32>
        %215 = arith.mulf %213, %188 : f32
        memref.store %215, %209[%c0] : memref<?xf32>
        scf.yield
      }
    }
    %190 = memref.load %174[] : memref<i1>
    memref.store %190, %173[] : memref<i1>
    %191 = memref.load %173[] : memref<i1>
    %192 = scf.if %191 -> (i32) {
      %193 = scf.execute_region -> i32 {
        %194 = memref.load %4[%c0] : memref<?xi32>
        %c1_i32 = arith.constant 1 : i32
        %195 = arith.addi %176, %c1_i32 : i32
        memref.store %195, %4[%c0] : memref<?xi32>
        scf.yield %195 : i32
      }
      scf.yield %193 : i32
    } else {
      scf.yield %176 : i32
    }
    cf.br ^bb1(%188, %192 : f32, i32)
  ^bb3:  // pred: ^bb1
    scf.yield %175, %176 : f32, i32
  }
  scf.yield %170#0, %170#1 : f32, i32


starting block: lastVal=val:mlir-asm-printer: Verifying operation: builtin.module
%161 = memref.load %148[] : memref<i1>
mlir-asm-printer: Verifying operation: builtin.module
^bb0:
  %171 = memref.load %147[] : memref<i1>
  %172 = scf.if %161 -> (i32) {
    scf.execute_region {
      memref.store %c0_i32, %4[%c0] : memref<?xi32>
      scf.yield
    }
    scf.yield %c0_i32 : i32
  } else {
    scf.yield %150 : i32
  }
  %173 = memref.alloca() : memref<i1>
  %174 = memref.alloca() : memref<i1>
  memref.store %true, %174[] : memref<i1>
  cf.br ^bb1(%149, %172 : f32, i32)


starting block: lastVal=val:mlir-asm-printer: Verifying operation: builtin.module
%161 = memref.load %148[] : memref<i1>
mlir-asm-printer: Verifying operation: builtin.module
^bb0:
  scf.execute_region {
    memref.store %c0_i32, %4[%c0] : memref<?xi32>
    scf.yield
  }
  scf.yield %c0_i32 : i32


starting block: lastVal=val:mlir-asm-printer: Verifying operation: builtin.module
%161 = memref.load %148[] : memref<i1>
mlir-asm-printer: Verifying operation: builtin.module
^bb0:
  memref.store %c0_i32, %4[%c0] : memref<?xi32>
  scf.yield

 ending block: mlir-asm-printer: Verifying operation: builtin.module
^bb0:
  memref.store %c0_i32, %4[%c0] : memref<?xi32>
  scf.yield
 with val:val:mlir-asm-printer: Verifying operation: builtin.module
%161 = memref.load %148[] : memref<i1>
 ending block: mlir-asm-printer: Verifying operation: builtin.module
^bb0:
  scf.execute_region {
    memref.store %c0_i32, %4[%c0] : memref<?xi32>
    scf.yield
  }
  scf.yield %c0_i32 : i32
 with val:val:mlir-asm-printer: Verifying operation: builtin.module
%161 = memref.load %148[] : memref<i1>

starting block: lastVal=val:mlir-asm-printer: Verifying operation: builtin.module
%161 = memref.load %148[] : memref<i1>
mlir-asm-printer: Verifying operation: builtin.module
^bb0:
  scf.yield %150 : i32

 ending block: mlir-asm-printer: Verifying operation: builtin.module
^bb0:
  scf.yield %150 : i32
 with val:val:mlir-asm-printer: Verifying operation: builtin.module
%161 = memref.load %148[] : memref<i1>
 ending block: mlir-asm-printer: Verifying operation: builtin.module
^bb0:
  %171 = memref.load %147[] : memref<i1>
  %172 = scf.if %161 -> (i32) {
    scf.execute_region {
      memref.store %c0_i32, %4[%c0] : memref<?xi32>
      scf.yield
    }
    scf.yield %c0_i32 : i32
  } else {
    scf.yield %150 : i32
  }
  %173 = memref.alloca() : memref<i1>
  %174 = memref.alloca() : memref<i1>
  memref.store %true, %174[] : memref<i1>
  cf.br ^bb1(%149, %172 : f32, i32)
 with val:val:mlir-asm-printer: Verifying operation: builtin.module
%161 = memref.load %148[] : memref<i1>

starting block: lastVal=val:mlir-asm-printer: Verifying operation: builtin.module
%161 = memref.load %148[] : memref<i1>
mlir-asm-printer: Verifying operation: builtin.module
^bb1(%175: f32, %176: i32):  // 2 preds: ^bb0, ^bb2
  %177 = memref.load %4[%c0] : memref<?xi32>
  %178 = memref.get_global @imm1 : memref<1xi32>
  %179 = memref.cast %178 : memref<1xi32> to memref<?xi32>
  %180 = memref.load %179[%c0] : memref<?xi32>
  %181 = arith.cmpi slt, %176, %180 : i32
  %182 = arith.extsi %181 : i1 to i32
  %183 = arith.cmpi ne, %182, %c0_i32 : i32
  %184 = memref.load %174[] : memref<i1>
  %185 = arith.andi %183, %184 : i1
  cf.cond_br %185, ^bb2, ^bb3

 ending block: mlir-asm-printer: Verifying operation: builtin.module
^bb1(%175: f32, %176: i32):  // 2 preds: ^bb0, ^bb2
  %177 = memref.load %4[%c0] : memref<?xi32>
  %178 = memref.get_global @imm1 : memref<1xi32>
  %179 = memref.cast %178 : memref<1xi32> to memref<?xi32>
  %180 = memref.load %179[%c0] : memref<?xi32>
  %181 = arith.cmpi slt, %176, %180 : i32
  %182 = arith.extsi %181 : i1 to i32
  %183 = arith.cmpi ne, %182, %c0_i32 : i32
  %184 = memref.load %174[] : memref<i1>
  %185 = arith.andi %183, %184 : i1
  cf.cond_br %185, ^bb2, ^bb3
 with val:val:mlir-asm-printer: Verifying operation: builtin.module
%161 = memref.load %148[] : memref<i1>

starting block: lastVal=val:mlir-asm-printer: Verifying operation: builtin.module
%161 = memref.load %148[] : memref<i1>
mlir-asm-printer: Verifying operation: builtin.module
^bb2:  // pred: ^bb1
  %186 = memref.load %174[] : memref<i1>
  memref.store %186, %173[] : memref<i1>
  %187 = memref.load %173[] : memref<i1>
  %188 = scf.if %187 -> (f32) {
    %193 = scf.execute_region -> f32 {
      %194 = memref.load %173[] : memref<i1>
      %195 = scf.if %194 -> (f32) {
        %196 = scf.execute_region -> f32 {
          %cst = arith.constant 5.000000e-01 : f32
          %197 = memref.load %97[%c0] : memref<?xmemref<?xf32>>
          %198 = memref.load %4[%c0] : memref<?xi32>
          %199 = memref.load %7[%c0] : memref<?xi32>
          %200 = memref.get_global @im : memref<1xi32>
          %201 = memref.cast %200 : memref<1xi32> to memref<?xi32>
          %202 = memref.load %201[%c0] : memref<?xi32>
          %203 = arith.muli %151, %202 : i32
          %204 = arith.addi %176, %203 : i32
          %205 = arith.index_cast %204 : i32 to index
          %206 = "polygeist.subindex"(%arg13, %205) : (memref<?xf32>, index) -> memref<?xf32>
          %207 = "polygeist.subindex"(%206, %c0) : (memref<?xf32>, index) -> memref<?xf32>
          %208 = memref.load %207[%c0] : memref<?xf32>
          %c1_i32 = arith.constant 1 : i32
          %209 = arith.addi %176, %c1_i32 : i32
          %210 = arith.addi %209, %203 : i32
          %211 = arith.index_cast %210 : i32 to index
          %212 = "polygeist.subindex"(%arg13, %211) : (memref<?xf32>, index) -> memref<?xf32>
          %213 = "polygeist.subindex"(%212, %c0) : (memref<?xf32>, index) -> memref<?xf32>
          %214 = memref.load %213[%c0] : memref<?xf32>
          %215 = arith.addf %208, %214 : f32
          %216 = arith.mulf %cst, %215 : f32
          %217 = math.sqrt %216 : f32
          memref.store %217, %1[%c0] : memref<?xf32>
          scf.yield %217 : f32
        }
        scf.yield %196 : f32
      } else {
        scf.yield %175 : f32
      }
      scf.yield %195 : f32
    }
    scf.yield %193 : f32
  } else {
    scf.yield %175 : f32
  }
  %189 = memref.load %173[] : memref<i1>
  scf.if %189 {
    scf.execute_region {
      %193 = memref.load %99[%c0] : memref<?xmemref<?xf32>>
      %194 = memref.load %4[%c0] : memref<?xi32>
      %195 = memref.load %7[%c0] : memref<?xi32>
      %196 = memref.get_global @im : memref<1xi32>
      %197 = memref.cast %196 : memref<1xi32> to memref<?xi32>
      %198 = memref.load %197[%c0] : memref<?xi32>
      %199 = arith.muli %151, %198 : i32
      %200 = arith.addi %176, %199 : i32
      %201 = arith.muli %c0_i32, %198 : i32
      %202 = memref.get_global @jm : memref<1xi32>
      %203 = memref.cast %202 : memref<1xi32> to memref<?xi32>
      %204 = memref.load %203[%c0] : memref<?xi32>
      %205 = arith.muli %201, %204 : i32
      %206 = arith.addi %200, %205 : i32
      %207 = arith.index_cast %206 : i32 to index
      %208 = "polygeist.subindex"(%arg12, %207) : (memref<?xf32>, index) -> memref<?xf32>
      %209 = "polygeist.subindex"(%208, %c0) : (memref<?xf32>, index) -> memref<?xf32>
      %cst = arith.constant 1.580000e+01 : f32
      %210 = memref.load %23[%c0] : memref<?xf32>
      %211 = arith.mulf %cst, %135 : f32
      %cst_0 = arith.constant 2.000000e+00 : f32
      %cst_1 = arith.constant 3.000000e+00 : f32
      %212 = arith.divf %cst_0, %cst_1 : f32
      %213 = math.powf %211, %212 : f32
      %214 = memref.load %1[%c0] : memref<?xf32>
      %215 = arith.mulf %213, %188 : f32
      memref.store %215, %209[%c0] : memref<?xf32>
      scf.yield
    }
  }
  %190 = memref.load %174[] : memref<i1>
  memref.store %190, %173[] : memref<i1>
  %191 = memref.load %173[] : memref<i1>
  %192 = scf.if %191 -> (i32) {
    %193 = scf.execute_region -> i32 {
      %194 = memref.load %4[%c0] : memref<?xi32>
      %c1_i32 = arith.constant 1 : i32
      %195 = arith.addi %176, %c1_i32 : i32
      memref.store %195, %4[%c0] : memref<?xi32>
      scf.yield %195 : i32
    }
    scf.yield %193 : i32
  } else {
    scf.yield %176 : i32
  }
  cf.br ^bb1(%188, %192 : f32, i32)


starting block: lastVal=val:mlir-asm-printer: Verifying operation: builtin.module
%161 = memref.load %148[] : memref<i1>
mlir-asm-printer: Verifying operation: builtin.module
^bb0:
  %193 = scf.execute_region -> f32 {
    %194 = memref.load %173[] : memref<i1>
    %195 = scf.if %194 -> (f32) {
      %196 = scf.execute_region -> f32 {
        %cst = arith.constant 5.000000e-01 : f32
        %197 = memref.load %97[%c0] : memref<?xmemref<?xf32>>
        %198 = memref.load %4[%c0] : memref<?xi32>
        %199 = memref.load %7[%c0] : memref<?xi32>
        %200 = memref.get_global @im : memref<1xi32>
        %201 = memref.cast %200 : memref<1xi32> to memref<?xi32>
        %202 = memref.load %201[%c0] : memref<?xi32>
        %203 = arith.muli %151, %202 : i32
        %204 = arith.addi %176, %203 : i32
        %205 = arith.index_cast %204 : i32 to index
        %206 = "polygeist.subindex"(%arg13, %205) : (memref<?xf32>, index) -> memref<?xf32>
        %207 = "polygeist.subindex"(%206, %c0) : (memref<?xf32>, index) -> memref<?xf32>
        %208 = memref.load %207[%c0] : memref<?xf32>
        %c1_i32 = arith.constant 1 : i32
        %209 = arith.addi %176, %c1_i32 : i32
        %210 = arith.addi %209, %203 : i32
        %211 = arith.index_cast %210 : i32 to index
        %212 = "polygeist.subindex"(%arg13, %211) : (memref<?xf32>, index) -> memref<?xf32>
        %213 = "polygeist.subindex"(%212, %c0) : (memref<?xf32>, index) -> memref<?xf32>
        %214 = memref.load %213[%c0] : memref<?xf32>
        %215 = arith.addf %208, %214 : f32
        %216 = arith.mulf %cst, %215 : f32
        %217 = math.sqrt %216 : f32
        memref.store %217, %1[%c0] : memref<?xf32>
        scf.yield %217 : f32
      }
      scf.yield %196 : f32
    } else {
      scf.yield %175 : f32
    }
    scf.yield %195 : f32
  }
  scf.yield %193 : f32


starting block: lastVal=val:mlir-asm-printer: Verifying operation: builtin.module
%161 = memref.load %148[] : memref<i1>
mlir-asm-printer: Verifying operation: builtin.module
^bb0:
  %194 = memref.load %173[] : memref<i1>
  %195 = scf.if %194 -> (f32) {
    %196 = scf.execute_region -> f32 {
      %cst = arith.constant 5.000000e-01 : f32
      %197 = memref.load %97[%c0] : memref<?xmemref<?xf32>>
      %198 = memref.load %4[%c0] : memref<?xi32>
      %199 = memref.load %7[%c0] : memref<?xi32>
      %200 = memref.get_global @im : memref<1xi32>
      %201 = memref.cast %200 : memref<1xi32> to memref<?xi32>
      %202 = memref.load %201[%c0] : memref<?xi32>
      %203 = arith.muli %151, %202 : i32
      %204 = arith.addi %176, %203 : i32
      %205 = arith.index_cast %204 : i32 to index
      %206 = "polygeist.subindex"(%arg13, %205) : (memref<?xf32>, index) -> memref<?xf32>
      %207 = "polygeist.subindex"(%206, %c0) : (memref<?xf32>, index) -> memref<?xf32>
      %208 = memref.load %207[%c0] : memref<?xf32>
      %c1_i32 = arith.constant 1 : i32
      %209 = arith.addi %176, %c1_i32 : i32
      %210 = arith.addi %209, %203 : i32
      %211 = arith.index_cast %210 : i32 to index
      %212 = "polygeist.subindex"(%arg13, %211) : (memref<?xf32>, index) -> memref<?xf32>
      %213 = "polygeist.subindex"(%212, %c0) : (memref<?xf32>, index) -> memref<?xf32>
      %214 = memref.load %213[%c0] : memref<?xf32>
      %215 = arith.addf %208, %214 : f32
      %216 = arith.mulf %cst, %215 : f32
      %217 = math.sqrt %216 : f32
      memref.store %217, %1[%c0] : memref<?xf32>
      scf.yield %217 : f32
    }
    scf.yield %196 : f32
  } else {
    scf.yield %175 : f32
  }
  scf.yield %195 : f32


starting block: lastVal=val:mlir-asm-printer: Verifying operation: builtin.module
%161 = memref.load %148[] : memref<i1>
mlir-asm-printer: Verifying operation: builtin.module
^bb0:
  %196 = scf.execute_region -> f32 {
    %cst = arith.constant 5.000000e-01 : f32
    %197 = memref.load %97[%c0] : memref<?xmemref<?xf32>>
    %198 = memref.load %4[%c0] : memref<?xi32>
    %199 = memref.load %7[%c0] : memref<?xi32>
    %200 = memref.get_global @im : memref<1xi32>
    %201 = memref.cast %200 : memref<1xi32> to memref<?xi32>
    %202 = memref.load %201[%c0] : memref<?xi32>
    %203 = arith.muli %151, %202 : i32
    %204 = arith.addi %176, %203 : i32
    %205 = arith.index_cast %204 : i32 to index
    %206 = "polygeist.subindex"(%arg13, %205) : (memref<?xf32>, index) -> memref<?xf32>
    %207 = "polygeist.subindex"(%206, %c0) : (memref<?xf32>, index) -> memref<?xf32>
    %208 = memref.load %207[%c0] : memref<?xf32>
    %c1_i32 = arith.constant 1 : i32
    %209 = arith.addi %176, %c1_i32 : i32
    %210 = arith.addi %209, %203 : i32
    %211 = arith.index_cast %210 : i32 to index
    %212 = "polygeist.subindex"(%arg13, %211) : (memref<?xf32>, index) -> memref<?xf32>
    %213 = "polygeist.subindex"(%212, %c0) : (memref<?xf32>, index) -> memref<?xf32>
    %214 = memref.load %213[%c0] : memref<?xf32>
    %215 = arith.addf %208, %214 : f32
    %216 = arith.mulf %cst, %215 : f32
    %217 = math.sqrt %216 : f32
    memref.store %217, %1[%c0] : memref<?xf32>
    scf.yield %217 : f32
  }
  scf.yield %196 : f32


starting block: lastVal=val:mlir-asm-printer: Verifying operation: builtin.module
%161 = memref.load %148[] : memref<i1>
mlir-asm-printer: Verifying operation: builtin.module
^bb0:
  %cst = arith.constant 5.000000e-01 : f32
  %197 = memref.load %97[%c0] : memref<?xmemref<?xf32>>
  %198 = memref.load %4[%c0] : memref<?xi32>
  %199 = memref.load %7[%c0] : memref<?xi32>
  %200 = memref.get_global @im : memref<1xi32>
  %201 = memref.cast %200 : memref<1xi32> to memref<?xi32>
  %202 = memref.load %201[%c0] : memref<?xi32>
  %203 = arith.muli %151, %202 : i32
  %204 = arith.addi %176, %203 : i32
  %205 = arith.index_cast %204 : i32 to index
  %206 = "polygeist.subindex"(%arg13, %205) : (memref<?xf32>, index) -> memref<?xf32>
  %207 = "polygeist.subindex"(%206, %c0) : (memref<?xf32>, index) -> memref<?xf32>
  %208 = memref.load %207[%c0] : memref<?xf32>
  %c1_i32 = arith.constant 1 : i32
  %209 = arith.addi %176, %c1_i32 : i32
  %210 = arith.addi %209, %203 : i32
  %211 = arith.index_cast %210 : i32 to index
  %212 = "polygeist.subindex"(%arg13, %211) : (memref<?xf32>, index) -> memref<?xf32>
  %213 = "polygeist.subindex"(%212, %c0) : (memref<?xf32>, index) -> memref<?xf32>
  %214 = memref.load %213[%c0] : memref<?xf32>
  %215 = arith.addf %208, %214 : f32
  %216 = arith.mulf %cst, %215 : f32
  %217 = math.sqrt %216 : f32
  memref.store %217, %1[%c0] : memref<?xf32>
  scf.yield %217 : f32

 ending block: mlir-asm-printer: Verifying operation: builtin.module
^bb0:
  %cst = arith.constant 5.000000e-01 : f32
  %197 = memref.load %97[%c0] : memref<?xmemref<?xf32>>
  %198 = memref.load %4[%c0] : memref<?xi32>
  %199 = memref.load %7[%c0] : memref<?xi32>
  %200 = memref.get_global @im : memref<1xi32>
  %201 = memref.cast %200 : memref<1xi32> to memref<?xi32>
  %202 = memref.load %201[%c0] : memref<?xi32>
  %203 = arith.muli %151, %202 : i32
  %204 = arith.addi %176, %203 : i32
  %205 = arith.index_cast %204 : i32 to index
  %206 = "polygeist.subindex"(%arg13, %205) : (memref<?xf32>, index) -> memref<?xf32>
  %207 = "polygeist.subindex"(%206, %c0) : (memref<?xf32>, index) -> memref<?xf32>
  %208 = memref.load %207[%c0] : memref<?xf32>
  %c1_i32 = arith.constant 1 : i32
  %209 = arith.addi %176, %c1_i32 : i32
  %210 = arith.addi %209, %203 : i32
  %211 = arith.index_cast %210 : i32 to index
  %212 = "polygeist.subindex"(%arg13, %211) : (memref<?xf32>, index) -> memref<?xf32>
  %213 = "polygeist.subindex"(%212, %c0) : (memref<?xf32>, index) -> memref<?xf32>
  %214 = memref.load %213[%c0] : memref<?xf32>
  %215 = arith.addf %208, %214 : f32
  %216 = arith.mulf %cst, %215 : f32
  %217 = math.sqrt %216 : f32
  memref.store %217, %1[%c0] : memref<?xf32>
  scf.yield %217 : f32
 with val:val:mlir-asm-printer: Verifying operation: builtin.module
%161 = memref.load %148[] : memref<i1>
 ending block: mlir-asm-printer: Verifying operation: builtin.module
^bb0:
  %196 = scf.execute_region -> f32 {
    %cst = arith.constant 5.000000e-01 : f32
    %197 = memref.load %97[%c0] : memref<?xmemref<?xf32>>
    %198 = memref.load %4[%c0] : memref<?xi32>
    %199 = memref.load %7[%c0] : memref<?xi32>
    %200 = memref.get_global @im : memref<1xi32>
    %201 = memref.cast %200 : memref<1xi32> to memref<?xi32>
    %202 = memref.load %201[%c0] : memref<?xi32>
    %203 = arith.muli %151, %202 : i32
    %204 = arith.addi %176, %203 : i32
    %205 = arith.index_cast %204 : i32 to index
    %206 = "polygeist.subindex"(%arg13, %205) : (memref<?xf32>, index) -> memref<?xf32>
    %207 = "polygeist.subindex"(%206, %c0) : (memref<?xf32>, index) -> memref<?xf32>
    %208 = memref.load %207[%c0] : memref<?xf32>
    %c1_i32 = arith.constant 1 : i32
    %209 = arith.addi %176, %c1_i32 : i32
    %210 = arith.addi %209, %203 : i32
    %211 = arith.index_cast %210 : i32 to index
    %212 = "polygeist.subindex"(%arg13, %211) : (memref<?xf32>, index) -> memref<?xf32>
    %213 = "polygeist.subindex"(%212, %c0) : (memref<?xf32>, index) -> memref<?xf32>
    %214 = memref.load %213[%c0] : memref<?xf32>
    %215 = arith.addf %208, %214 : f32
    %216 = arith.mulf %cst, %215 : f32
    %217 = math.sqrt %216 : f32
    memref.store %217, %1[%c0] : memref<?xf32>
    scf.yield %217 : f32
  }
  scf.yield %196 : f32
 with val:val:mlir-asm-printer: Verifying operation: builtin.module
%161 = memref.load %148[] : memref<i1>

starting block: lastVal=val:mlir-asm-printer: Verifying operation: builtin.module
%161 = memref.load %148[] : memref<i1>
mlir-asm-printer: Verifying operation: builtin.module
^bb0:
  scf.yield %175 : f32

 ending block: mlir-asm-printer: Verifying operation: builtin.module
^bb0:
  scf.yield %175 : f32
 with val:val:mlir-asm-printer: Verifying operation: builtin.module
%161 = memref.load %148[] : memref<i1>
 ending block: mlir-asm-printer: Verifying operation: builtin.module
^bb0:
  %194 = memref.load %173[] : memref<i1>
  %195 = scf.if %194 -> (f32) {
    %196 = scf.execute_region -> f32 {
      %cst = arith.constant 5.000000e-01 : f32
      %197 = memref.load %97[%c0] : memref<?xmemref<?xf32>>
      %198 = memref.load %4[%c0] : memref<?xi32>
      %199 = memref.load %7[%c0] : memref<?xi32>
      %200 = memref.get_global @im : memref<1xi32>
      %201 = memref.cast %200 : memref<1xi32> to memref<?xi32>
      %202 = memref.load %201[%c0] : memref<?xi32>
      %203 = arith.muli %151, %202 : i32
      %204 = arith.addi %176, %203 : i32
      %205 = arith.index_cast %204 : i32 to index
      %206 = "polygeist.subindex"(%arg13, %205) : (memref<?xf32>, index) -> memref<?xf32>
      %207 = "polygeist.subindex"(%206, %c0) : (memref<?xf32>, index) -> memref<?xf32>
      %208 = memref.load %207[%c0] : memref<?xf32>
      %c1_i32 = arith.constant 1 : i32
      %209 = arith.addi %176, %c1_i32 : i32
      %210 = arith.addi %209, %203 : i32
      %211 = arith.index_cast %210 : i32 to index
      %212 = "polygeist.subindex"(%arg13, %211) : (memref<?xf32>, index) -> memref<?xf32>
      %213 = "polygeist.subindex"(%212, %c0) : (memref<?xf32>, index) -> memref<?xf32>
      %214 = memref.load %213[%c0] : memref<?xf32>
      %215 = arith.addf %208, %214 : f32
      %216 = arith.mulf %cst, %215 : f32
      %217 = math.sqrt %216 : f32
      memref.store %217, %1[%c0] : memref<?xf32>
      scf.yield %217 : f32
    }
    scf.yield %196 : f32
  } else {
    scf.yield %175 : f32
  }
  scf.yield %195 : f32
 with val:val:mlir-asm-printer: Verifying operation: builtin.module
%161 = memref.load %148[] : memref<i1>
 ending block: mlir-asm-printer: Verifying operation: builtin.module
^bb0:
  %193 = scf.execute_region -> f32 {
    %194 = memref.load %173[] : memref<i1>
    %195 = scf.if %194 -> (f32) {
      %196 = scf.execute_region -> f32 {
        %cst = arith.constant 5.000000e-01 : f32
        %197 = memref.load %97[%c0] : memref<?xmemref<?xf32>>
        %198 = memref.load %4[%c0] : memref<?xi32>
        %199 = memref.load %7[%c0] : memref<?xi32>
        %200 = memref.get_global @im : memref<1xi32>
        %201 = memref.cast %200 : memref<1xi32> to memref<?xi32>
        %202 = memref.load %201[%c0] : memref<?xi32>
        %203 = arith.muli %151, %202 : i32
        %204 = arith.addi %176, %203 : i32
        %205 = arith.index_cast %204 : i32 to index
        %206 = "polygeist.subindex"(%arg13, %205) : (memref<?xf32>, index) -> memref<?xf32>
        %207 = "polygeist.subindex"(%206, %c0) : (memref<?xf32>, index) -> memref<?xf32>
        %208 = memref.load %207[%c0] : memref<?xf32>
        %c1_i32 = arith.constant 1 : i32
        %209 = arith.addi %176, %c1_i32 : i32
        %210 = arith.addi %209, %203 : i32
        %211 = arith.index_cast %210 : i32 to index
        %212 = "polygeist.subindex"(%arg13, %211) : (memref<?xf32>, index) -> memref<?xf32>
        %213 = "polygeist.subindex"(%212, %c0) : (memref<?xf32>, index) -> memref<?xf32>
        %214 = memref.load %213[%c0] : memref<?xf32>
        %215 = arith.addf %208, %214 : f32
        %216 = arith.mulf %cst, %215 : f32
        %217 = math.sqrt %216 : f32
        memref.store %217, %1[%c0] : memref<?xf32>
        scf.yield %217 : f32
      }
      scf.yield %196 : f32
    } else {
      scf.yield %175 : f32
    }
    scf.yield %195 : f32
  }
  scf.yield %193 : f32
 with val:val:mlir-asm-printer: Verifying operation: builtin.module
%161 = memref.load %148[] : memref<i1>

starting block: lastVal=val:mlir-asm-printer: Verifying operation: builtin.module
%161 = memref.load %148[] : memref<i1>
mlir-asm-printer: Verifying operation: builtin.module
^bb0:
  scf.yield %175 : f32

 ending block: mlir-asm-printer: Verifying operation: builtin.module
^bb0:
  scf.yield %175 : f32
 with val:val:mlir-asm-printer: Verifying operation: builtin.module
%161 = memref.load %148[] : memref<i1>

starting block: lastVal=val:mlir-asm-printer: Verifying operation: builtin.module
%161 = memref.load %148[] : memref<i1>
mlir-asm-printer: Verifying operation: builtin.module
^bb0:
  scf.execute_region {
    %193 = memref.load %99[%c0] : memref<?xmemref<?xf32>>
    %194 = memref.load %4[%c0] : memref<?xi32>
    %195 = memref.load %7[%c0] : memref<?xi32>
    %196 = memref.get_global @im : memref<1xi32>
    %197 = memref.cast %196 : memref<1xi32> to memref<?xi32>
    %198 = memref.load %197[%c0] : memref<?xi32>
    %199 = arith.muli %151, %198 : i32
    %200 = arith.addi %176, %199 : i32
    %201 = arith.muli %c0_i32, %198 : i32
    %202 = memref.get_global @jm : memref<1xi32>
    %203 = memref.cast %202 : memref<1xi32> to memref<?xi32>
    %204 = memref.load %203[%c0] : memref<?xi32>
    %205 = arith.muli %201, %204 : i32
    %206 = arith.addi %200, %205 : i32
    %207 = arith.index_cast %206 : i32 to index
    %208 = "polygeist.subindex"(%arg12, %207) : (memref<?xf32>, index) -> memref<?xf32>
    %209 = "polygeist.subindex"(%208, %c0) : (memref<?xf32>, index) -> memref<?xf32>
    %cst = arith.constant 1.580000e+01 : f32
    %210 = memref.load %23[%c0] : memref<?xf32>
    %211 = arith.mulf %cst, %135 : f32
    %cst_0 = arith.constant 2.000000e+00 : f32
    %cst_1 = arith.constant 3.000000e+00 : f32
    %212 = arith.divf %cst_0, %cst_1 : f32
    %213 = math.powf %211, %212 : f32
    %214 = memref.load %1[%c0] : memref<?xf32>
    %215 = arith.mulf %213, %188 : f32
    memref.store %215, %209[%c0] : memref<?xf32>
    scf.yield
  }
  scf.yield


starting block: lastVal=val:mlir-asm-printer: Verifying operation: builtin.module
%161 = memref.load %148[] : memref<i1>
mlir-asm-printer: Verifying operation: builtin.module
^bb0:
  %193 = memref.load %99[%c0] : memref<?xmemref<?xf32>>
  %194 = memref.load %4[%c0] : memref<?xi32>
  %195 = memref.load %7[%c0] : memref<?xi32>
  %196 = memref.get_global @im : memref<1xi32>
  %197 = memref.cast %196 : memref<1xi32> to memref<?xi32>
  %198 = memref.load %197[%c0] : memref<?xi32>
  %199 = arith.muli %151, %198 : i32
  %200 = arith.addi %176, %199 : i32
  %201 = arith.muli %c0_i32, %198 : i32
  %202 = memref.get_global @jm : memref<1xi32>
  %203 = memref.cast %202 : memref<1xi32> to memref<?xi32>
  %204 = memref.load %203[%c0] : memref<?xi32>
  %205 = arith.muli %201, %204 : i32
  %206 = arith.addi %200, %205 : i32
  %207 = arith.index_cast %206 : i32 to index
  %208 = "polygeist.subindex"(%arg12, %207) : (memref<?xf32>, index) -> memref<?xf32>
  %209 = "polygeist.subindex"(%208, %c0) : (memref<?xf32>, index) -> memref<?xf32>
  %cst = arith.constant 1.580000e+01 : f32
  %210 = memref.load %23[%c0] : memref<?xf32>
  %211 = arith.mulf %cst, %135 : f32
  %cst_0 = arith.constant 2.000000e+00 : f32
  %cst_1 = arith.constant 3.000000e+00 : f32
  %212 = arith.divf %cst_0, %cst_1 : f32
  %213 = math.powf %211, %212 : f32
  %214 = memref.load %1[%c0] : memref<?xf32>
  %215 = arith.mulf %213, %188 : f32
  memref.store %215, %209[%c0] : memref<?xf32>
  scf.yield

 ending block: mlir-asm-printer: Verifying operation: builtin.module
^bb0:
  %193 = memref.load %99[%c0] : memref<?xmemref<?xf32>>
  %194 = memref.load %4[%c0] : memref<?xi32>
  %195 = memref.load %7[%c0] : memref<?xi32>
  %196 = memref.get_global @im : memref<1xi32>
  %197 = memref.cast %196 : memref<1xi32> to memref<?xi32>
  %198 = memref.load %197[%c0] : memref<?xi32>
  %199 = arith.muli %151, %198 : i32
  %200 = arith.addi %176, %199 : i32
  %201 = arith.muli %c0_i32, %198 : i32
  %202 = memref.get_global @jm : memref<1xi32>
  %203 = memref.cast %202 : memref<1xi32> to memref<?xi32>
  %204 = memref.load %203[%c0] : memref<?xi32>
  %205 = arith.muli %201, %204 : i32
  %206 = arith.addi %200, %205 : i32
  %207 = arith.index_cast %206 : i32 to index
  %208 = "polygeist.subindex"(%arg12, %207) : (memref<?xf32>, index) -> memref<?xf32>
  %209 = "polygeist.subindex"(%208, %c0) : (memref<?xf32>, index) -> memref<?xf32>
  %cst = arith.constant 1.580000e+01 : f32
  %210 = memref.load %23[%c0] : memref<?xf32>
  %211 = arith.mulf %cst, %135 : f32
  %cst_0 = arith.constant 2.000000e+00 : f32
  %cst_1 = arith.constant 3.000000e+00 : f32
  %212 = arith.divf %cst_0, %cst_1 : f32
  %213 = math.powf %211, %212 : f32
  %214 = memref.load %1[%c0] : memref<?xf32>
  %215 = arith.mulf %213, %188 : f32
  memref.store %215, %209[%c0] : memref<?xf32>
  scf.yield
 with val:val:mlir-asm-printer: Verifying operation: builtin.module
%161 = memref.load %148[] : memref<i1>
 ending block: mlir-asm-printer: Verifying operation: builtin.module
^bb0:
  scf.execute_region {
    %193 = memref.load %99[%c0] : memref<?xmemref<?xf32>>
    %194 = memref.load %4[%c0] : memref<?xi32>
    %195 = memref.load %7[%c0] : memref<?xi32>
    %196 = memref.get_global @im : memref<1xi32>
    %197 = memref.cast %196 : memref<1xi32> to memref<?xi32>
    %198 = memref.load %197[%c0] : memref<?xi32>
    %199 = arith.muli %151, %198 : i32
    %200 = arith.addi %176, %199 : i32
    %201 = arith.muli %c0_i32, %198 : i32
    %202 = memref.get_global @jm : memref<1xi32>
    %203 = memref.cast %202 : memref<1xi32> to memref<?xi32>
    %204 = memref.load %203[%c0] : memref<?xi32>
    %205 = arith.muli %201, %204 : i32
    %206 = arith.addi %200, %205 : i32
    %207 = arith.index_cast %206 : i32 to index
    %208 = "polygeist.subindex"(%arg12, %207) : (memref<?xf32>, index) -> memref<?xf32>
    %209 = "polygeist.subindex"(%208, %c0) : (memref<?xf32>, index) -> memref<?xf32>
    %cst = arith.constant 1.580000e+01 : f32
    %210 = memref.load %23[%c0] : memref<?xf32>
    %211 = arith.mulf %cst, %135 : f32
    %cst_0 = arith.constant 2.000000e+00 : f32
    %cst_1 = arith.constant 3.000000e+00 : f32
    %212 = arith.divf %cst_0, %cst_1 : f32
    %213 = math.powf %211, %212 : f32
    %214 = memref.load %1[%c0] : memref<?xf32>
    %215 = arith.mulf %213, %188 : f32
    memref.store %215, %209[%c0] : memref<?xf32>
    scf.yield
  }
  scf.yield
 with val:val:mlir-asm-printer: Verifying operation: builtin.module
%161 = memref.load %148[] : memref<i1>

starting block: lastVal=val:mlir-asm-printer: Verifying operation: builtin.module
%161 = memref.load %148[] : memref<i1>
mlir-asm-printer: Verifying operation: builtin.module
^bb0:
  %193 = scf.execute_region -> i32 {
    %194 = memref.load %4[%c0] : memref<?xi32>
    %c1_i32 = arith.constant 1 : i32
    %195 = arith.addi %176, %c1_i32 : i32
    memref.store %195, %4[%c0] : memref<?xi32>
    scf.yield %195 : i32
  }
  scf.yield %193 : i32


starting block: lastVal=val:mlir-asm-printer: Verifying operation: builtin.module
%161 = memref.load %148[] : memref<i1>
mlir-asm-printer: Verifying operation: builtin.module
^bb0:
  %194 = memref.load %4[%c0] : memref<?xi32>
  %c1_i32 = arith.constant 1 : i32
  %195 = arith.addi %176, %c1_i32 : i32
  memref.store %195, %4[%c0] : memref<?xi32>
  scf.yield %195 : i32

 ending block: mlir-asm-printer: Verifying operation: builtin.module
^bb0:
  %194 = memref.load %4[%c0] : memref<?xi32>
  %c1_i32 = arith.constant 1 : i32
  %195 = arith.addi %176, %c1_i32 : i32
  memref.store %195, %4[%c0] : memref<?xi32>
  scf.yield %195 : i32
 with val:val:mlir-asm-printer: Verifying operation: builtin.module
%161 = memref.load %148[] : memref<i1>
 ending block: mlir-asm-printer: Verifying operation: builtin.module
^bb0:
  %193 = scf.execute_region -> i32 {
    %194 = memref.load %4[%c0] : memref<?xi32>
    %c1_i32 = arith.constant 1 : i32
    %195 = arith.addi %176, %c1_i32 : i32
    memref.store %195, %4[%c0] : memref<?xi32>
    scf.yield %195 : i32
  }
  scf.yield %193 : i32
 with val:val:mlir-asm-printer: Verifying operation: builtin.module
%161 = memref.load %148[] : memref<i1>

starting block: lastVal=val:mlir-asm-printer: Verifying operation: builtin.module
%161 = memref.load %148[] : memref<i1>
mlir-asm-printer: Verifying operation: builtin.module
^bb0:
  scf.yield %176 : i32

 ending block: mlir-asm-printer: Verifying operation: builtin.module
^bb0:
  scf.yield %176 : i32
 with val:val:mlir-asm-printer: Verifying operation: builtin.module
%161 = memref.load %148[] : memref<i1>
 ending block: mlir-asm-printer: Verifying operation: builtin.module
^bb2:  // pred: ^bb1
  %186 = memref.load %174[] : memref<i1>
  memref.store %186, %173[] : memref<i1>
  %187 = memref.load %173[] : memref<i1>
  %188 = scf.if %187 -> (f32) {
    %193 = scf.execute_region -> f32 {
      %194 = memref.load %173[] : memref<i1>
      %195 = scf.if %194 -> (f32) {
        %196 = scf.execute_region -> f32 {
          %cst = arith.constant 5.000000e-01 : f32
          %197 = memref.load %97[%c0] : memref<?xmemref<?xf32>>
          %198 = memref.load %4[%c0] : memref<?xi32>
          %199 = memref.load %7[%c0] : memref<?xi32>
          %200 = memref.get_global @im : memref<1xi32>
          %201 = memref.cast %200 : memref<1xi32> to memref<?xi32>
          %202 = memref.load %201[%c0] : memref<?xi32>
          %203 = arith.muli %151, %202 : i32
          %204 = arith.addi %176, %203 : i32
          %205 = arith.index_cast %204 : i32 to index
          %206 = "polygeist.subindex"(%arg13, %205) : (memref<?xf32>, index) -> memref<?xf32>
          %207 = "polygeist.subindex"(%206, %c0) : (memref<?xf32>, index) -> memref<?xf32>
          %208 = memref.load %207[%c0] : memref<?xf32>
          %c1_i32 = arith.constant 1 : i32
          %209 = arith.addi %176, %c1_i32 : i32
          %210 = arith.addi %209, %203 : i32
          %211 = arith.index_cast %210 : i32 to index
          %212 = "polygeist.subindex"(%arg13, %211) : (memref<?xf32>, index) -> memref<?xf32>
          %213 = "polygeist.subindex"(%212, %c0) : (memref<?xf32>, index) -> memref<?xf32>
          %214 = memref.load %213[%c0] : memref<?xf32>
          %215 = arith.addf %208, %214 : f32
          %216 = arith.mulf %cst, %215 : f32
          %217 = math.sqrt %216 : f32
          memref.store %217, %1[%c0] : memref<?xf32>
          scf.yield %217 : f32
        }
        scf.yield %196 : f32
      } else {
        scf.yield %175 : f32
      }
      scf.yield %195 : f32
    }
    scf.yield %193 : f32
  } else {
    scf.yield %175 : f32
  }
  %189 = memref.load %173[] : memref<i1>
  scf.if %189 {
    scf.execute_region {
      %193 = memref.load %99[%c0] : memref<?xmemref<?xf32>>
      %194 = memref.load %4[%c0] : memref<?xi32>
      %195 = memref.load %7[%c0] : memref<?xi32>
      %196 = memref.get_global @im : memref<1xi32>
      %197 = memref.cast %196 : memref<1xi32> to memref<?xi32>
      %198 = memref.load %197[%c0] : memref<?xi32>
      %199 = arith.muli %151, %198 : i32
      %200 = arith.addi %176, %199 : i32
      %201 = arith.muli %c0_i32, %198 : i32
      %202 = memref.get_global @jm : memref<1xi32>
      %203 = memref.cast %202 : memref<1xi32> to memref<?xi32>
      %204 = memref.load %203[%c0] : memref<?xi32>
      %205 = arith.muli %201, %204 : i32
      %206 = arith.addi %200, %205 : i32
      %207 = arith.index_cast %206 : i32 to index
      %208 = "polygeist.subindex"(%arg12, %207) : (memref<?xf32>, index) -> memref<?xf32>
      %209 = "polygeist.subindex"(%208, %c0) : (memref<?xf32>, index) -> memref<?xf32>
      %cst = arith.constant 1.580000e+01 : f32
      %210 = memref.load %23[%c0] : memref<?xf32>
      %211 = arith.mulf %cst, %135 : f32
      %cst_0 = arith.constant 2.000000e+00 : f32
      %cst_1 = arith.constant 3.000000e+00 : f32
      %212 = arith.divf %cst_0, %cst_1 : f32
      %213 = math.powf %211, %212 : f32
      %214 = memref.load %1[%c0] : memref<?xf32>
      %215 = arith.mulf %213, %188 : f32
      memref.store %215, %209[%c0] : memref<?xf32>
      scf.yield
    }
  }
  %190 = memref.load %174[] : memref<i1>
  memref.store %190, %173[] : memref<i1>
  %191 = memref.load %173[] : memref<i1>
  %192 = scf.if %191 -> (i32) {
    %193 = scf.execute_region -> i32 {
      %194 = memref.load %4[%c0] : memref<?xi32>
      %c1_i32 = arith.constant 1 : i32
      %195 = arith.addi %176, %c1_i32 : i32
      memref.store %195, %4[%c0] : memref<?xi32>
      scf.yield %195 : i32
    }
    scf.yield %193 : i32
  } else {
    scf.yield %176 : i32
  }
  cf.br ^bb1(%188, %192 : f32, i32)
 with val:val:mlir-asm-printer: Verifying operation: builtin.module
%161 = memref.load %148[] : memref<i1>

starting block: lastVal=val:mlir-asm-printer: Verifying operation: builtin.module
%161 = memref.load %148[] : memref<i1>
mlir-asm-printer: Verifying operation: builtin.module
^bb3:  // pred: ^bb1
  scf.yield %175, %176 : f32, i32

 ending block: mlir-asm-printer: Verifying operation: builtin.module
^bb3:  // pred: ^bb1
  scf.yield %175, %176 : f32, i32
 with val:val:mlir-asm-printer: Verifying operation: builtin.module
%161 = memref.load %148[] : memref<i1>
 ending block: mlir-asm-printer: Verifying operation: builtin.module
^bb0:
  %170:2 = scf.execute_region -> (f32, i32) {
    %171 = memref.load %147[] : memref<i1>
    %172 = scf.if %161 -> (i32) {
      scf.execute_region {
        memref.store %c0_i32, %4[%c0] : memref<?xi32>
        scf.yield
      }
      scf.yield %c0_i32 : i32
    } else {
      scf.yield %150 : i32
    }
    %173 = memref.alloca() : memref<i1>
    %174 = memref.alloca() : memref<i1>
    memref.store %true, %174[] : memref<i1>
    cf.br ^bb1(%149, %172 : f32, i32)
  ^bb1(%175: f32, %176: i32):  // 2 preds: ^bb0, ^bb2
    %177 = memref.load %4[%c0] : memref<?xi32>
    %178 = memref.get_global @imm1 : memref<1xi32>
    %179 = memref.cast %178 : memref<1xi32> to memref<?xi32>
    %180 = memref.load %179[%c0] : memref<?xi32>
    %181 = arith.cmpi slt, %176, %180 : i32
    %182 = arith.extsi %181 : i1 to i32
    %183 = arith.cmpi ne, %182, %c0_i32 : i32
    %184 = memref.load %174[] : memref<i1>
    %185 = arith.andi %183, %184 : i1
    cf.cond_br %185, ^bb2, ^bb3
  ^bb2:  // pred: ^bb1
    %186 = memref.load %174[] : memref<i1>
    memref.store %186, %173[] : memref<i1>
    %187 = memref.load %173[] : memref<i1>
    %188 = scf.if %187 -> (f32) {
      %193 = scf.execute_region -> f32 {
        %194 = memref.load %173[] : memref<i1>
        %195 = scf.if %194 -> (f32) {
          %196 = scf.execute_region -> f32 {
            %cst = arith.constant 5.000000e-01 : f32
            %197 = memref.load %97[%c0] : memref<?xmemref<?xf32>>
            %198 = memref.load %4[%c0] : memref<?xi32>
            %199 = memref.load %7[%c0] : memref<?xi32>
            %200 = memref.get_global @im : memref<1xi32>
            %201 = memref.cast %200 : memref<1xi32> to memref<?xi32>
            %202 = memref.load %201[%c0] : memref<?xi32>
            %203 = arith.muli %151, %202 : i32
            %204 = arith.addi %176, %203 : i32
            %205 = arith.index_cast %204 : i32 to index
            %206 = "polygeist.subindex"(%arg13, %205) : (memref<?xf32>, index) -> memref<?xf32>
            %207 = "polygeist.subindex"(%206, %c0) : (memref<?xf32>, index) -> memref<?xf32>
            %208 = memref.load %207[%c0] : memref<?xf32>
            %c1_i32 = arith.constant 1 : i32
            %209 = arith.addi %176, %c1_i32 : i32
            %210 = arith.addi %209, %203 : i32
            %211 = arith.index_cast %210 : i32 to index
            %212 = "polygeist.subindex"(%arg13, %211) : (memref<?xf32>, index) -> memref<?xf32>
            %213 = "polygeist.subindex"(%212, %c0) : (memref<?xf32>, index) -> memref<?xf32>
            %214 = memref.load %213[%c0] : memref<?xf32>
            %215 = arith.addf %208, %214 : f32
            %216 = arith.mulf %cst, %215 : f32
            %217 = math.sqrt %216 : f32
            memref.store %217, %1[%c0] : memref<?xf32>
            scf.yield %217 : f32
          }
          scf.yield %196 : f32
        } else {
          scf.yield %175 : f32
        }
        scf.yield %195 : f32
      }
      scf.yield %193 : f32
    } else {
      scf.yield %175 : f32
    }
    %189 = memref.load %173[] : memref<i1>
    scf.if %189 {
      scf.execute_region {
        %193 = memref.load %99[%c0] : memref<?xmemref<?xf32>>
        %194 = memref.load %4[%c0] : memref<?xi32>
        %195 = memref.load %7[%c0] : memref<?xi32>
        %196 = memref.get_global @im : memref<1xi32>
        %197 = memref.cast %196 : memref<1xi32> to memref<?xi32>
        %198 = memref.load %197[%c0] : memref<?xi32>
        %199 = arith.muli %151, %198 : i32
        %200 = arith.addi %176, %199 : i32
        %201 = arith.muli %c0_i32, %