#loc2 = loc("/Users/mac/Projects/mlir/cpp-to-ops-converter/script/..//ITK_POM2K/pom2k_fun.c":40:6)
#loc33 = loc("/Users/mac/Projects/mlir/cpp-to-ops-converter/script/..//ITK_POM2K/pom2k_fun.c":52:6)
#loc104 = loc("/Users/mac/Projects/mlir/cpp-to-ops-converter/script/..//ITK_POM2K/pom2k_fun.c":83:6)
#loc130 = loc("/Users/mac/Projects/mlir/cpp-to-ops-converter/script/..//ITK_POM2K/pom2k_fun.c":95:6)
#loc134 = loc("/Users/mac/Projects/mlir/cpp-to-ops-converter/script/..//ITK_POM2K/pom2k_fun.c":99:3)
#loc167 = loc("/Users/mac/Projects/mlir/cpp-to-ops-converter/script/..//ITK_POM2K/pom2k_fun.c":103:3)
#loc179 = loc("/Users/mac/Projects/mlir/cpp-to-ops-converter/script/..//ITK_POM2K/pom2k_fun.c":106:3)
#loc205 = loc("/Users/mac/Projects/mlir/cpp-to-ops-converter/script/..//ITK_POM2K/pom2k_fun.c":110:3)
#loc219 = loc("/Users/mac/Projects/mlir/cpp-to-ops-converter/script/..//ITK_POM2K/pom2k_fun.c":113:3)
#loc237 = loc("/Users/mac/Projects/mlir/cpp-to-ops-converter/script/..//ITK_POM2K/pom2k_fun.c":117:3)
#loc254 = loc("/Users/mac/Projects/mlir/cpp-to-ops-converter/script/..//ITK_POM2K/pom2k_fun.c":130:6)
#loc264 = loc("/Users/mac/Projects/mlir/cpp-to-ops-converter/script/..//ITK_POM2K/pom2k_fun.c":132:3)
#loc266 = loc("/Users/mac/Projects/mlir/cpp-to-ops-converter/script/..//ITK_POM2K/pom2k_fun.c":133:5)
#loc277 = loc("/Users/mac/Projects/mlir/cpp-to-ops-converter/script/..//ITK_POM2K/pom2k_fun.c":140:3)
#loc281 = loc("/Users/mac/Projects/mlir/cpp-to-ops-converter/script/..//ITK_POM2K/pom2k_fun.c":141:5)
#loc310 = loc("/Users/mac/Projects/mlir/cpp-to-ops-converter/script/..//ITK_POM2K/pom2k_fun.c":148:3)
#loc324 = loc("/Users/mac/Projects/mlir/cpp-to-ops-converter/script/..//ITK_POM2K/pom2k_fun.c":152:3)
#loc338 = loc("/Users/mac/Projects/mlir/cpp-to-ops-converter/script/..//ITK_POM2K/pom2k_fun.c":159:3)
#loc341 = loc("/Users/mac/Projects/mlir/cpp-to-ops-converter/script/..//ITK_POM2K/pom2k_fun.c":160:5)
#loc360 = loc("/Users/mac/Projects/mlir/cpp-to-ops-converter/script/..//ITK_POM2K/pom2k_fun.c":171:3)
#loc364 = loc("/Users/mac/Projects/mlir/cpp-to-ops-converter/script/..//ITK_POM2K/pom2k_fun.c":172:5)
#loc381 = loc("/Users/mac/Projects/mlir/cpp-to-ops-converter/script/..//ITK_POM2K/pom2k_fun.c":179:6)
#loc389 = loc("/Users/mac/Projects/mlir/cpp-to-ops-converter/script/..//ITK_POM2K/pom2k_c_header.h":4:16)
#loc390 = loc("/Users/mac/Projects/mlir/cpp-to-ops-converter/script/..//ITK_POM2K/pom2k_fun.c":185:25)
#loc399 = loc("/Users/mac/Projects/mlir/cpp-to-ops-converter/script/..//ITK_POM2K/pom2k_fun.c":185:5)
#loc401 = loc("/Users/mac/Projects/mlir/cpp-to-ops-converter/script/..//ITK_POM2K/pom2k_fun.c":186:7)
#loc476 = loc("/Users/mac/Projects/mlir/cpp-to-ops-converter/script/..//ITK_POM2K/pom2k_fun.c":218:5)
#loc479 = loc("/Users/mac/Projects/mlir/cpp-to-ops-converter/script/..//ITK_POM2K/pom2k_fun.c":219:7)
#loc553 = loc("/Users/mac/Projects/mlir/cpp-to-ops-converter/script/..//ITK_POM2K/pom2k_fun.c":250:6)
#loc588 = loc("/Users/mac/Projects/mlir/cpp-to-ops-converter/script/..//ITK_POM2K/pom2k_fun.c":251:3)
#loc592 = loc("/Users/mac/Projects/mlir/cpp-to-ops-converter/script/..//ITK_POM2K/pom2k_fun.c":252:5)
#loc594 = loc("/Users/mac/Projects/mlir/cpp-to-ops-converter/script/..//ITK_POM2K/pom2k_fun.c":253:7)
#loc675 = loc("/Users/mac/Projects/mlir/cpp-to-ops-converter/script/..//ITK_POM2K/pom2k_fun.c":283:6)
#loc724 = loc("/Users/mac/Projects/mlir/cpp-to-ops-converter/script/..//ITK_POM2K/pom2k_fun.c":314:3)
#loc728 = loc("/Users/mac/Projects/mlir/cpp-to-ops-converter/script/..//ITK_POM2K/pom2k_fun.c":315:5)
#loc758 = loc("/Users/mac/Projects/mlir/cpp-to-ops-converter/script/..//ITK_POM2K/pom2k_fun.c":374:3)
#loc764 = loc("/Users/mac/Projects/mlir/cpp-to-ops-converter/script/..//ITK_POM2K/pom2k_fun.c":376:5)
#loc777 = loc("/Users/mac/Projects/mlir/cpp-to-ops-converter/script/..//ITK_POM2K/pom2k_fun.c":380:3)
#loc783 = loc("/Users/mac/Projects/mlir/cpp-to-ops-converter/script/..//ITK_POM2K/pom2k_fun.c":382:5)
#loc797 = loc("/Users/mac/Projects/mlir/cpp-to-ops-converter/script/..//ITK_POM2K/pom2k_fun.c":391:3)
#loc800 = loc("/Users/mac/Projects/mlir/cpp-to-ops-converter/script/..//ITK_POM2K/pom2k_fun.c":392:5)
#loc831 = loc("/Users/mac/Projects/mlir/cpp-to-ops-converter/script/..//ITK_POM2K/pom2k_fun.c":406:3)
#loc865 = loc("/Users/mac/Projects/mlir/cpp-to-ops-converter/script/..//ITK_POM2K/pom2k_fun.c":416:3)
#loc932 = loc("/Users/mac/Projects/mlir/cpp-to-ops-converter/script/..//ITK_POM2K/pom2k_fun.c":435:3)
#loc936 = loc("/Users/mac/Projects/mlir/cpp-to-ops-converter/script/..//ITK_POM2K/pom2k_fun.c":436:5)
#loc954 = loc("/Users/mac/Projects/mlir/cpp-to-ops-converter/script/..//ITK_POM2K/pom2k_fun.c":445:3)
#loc974 = loc("/Users/mac/Projects/mlir/cpp-to-ops-converter/script/..//ITK_POM2K/pom2k_fun.c":454:3)
#loc977 = loc("/Users/mac/Projects/mlir/cpp-to-ops-converter/script/..//ITK_POM2K/pom2k_fun.c":455:5)
#loc996 = loc("/Users/mac/Projects/mlir/cpp-to-ops-converter/script/..//ITK_POM2K/pom2k_fun.c":464:3)
#loc1016 = loc("/Users/mac/Projects/mlir/cpp-to-ops-converter/script/..//ITK_POM2K/pom2k_fun.c":477:3)
#loc1019 = loc("/Users/mac/Projects/mlir/cpp-to-ops-converter/script/..//ITK_POM2K/pom2k_fun.c":478:5)
#loc1027 = loc("/Users/mac/Projects/mlir/cpp-to-ops-converter/script/..//ITK_POM2K/pom2k_fun.c":485:3)
#loc1030 = loc("/Users/mac/Projects/mlir/cpp-to-ops-converter/script/..//ITK_POM2K/pom2k_fun.c":486:5)
#loc1066 = loc("/Users/mac/Projects/mlir/cpp-to-ops-converter/script/..//ITK_POM2K/pom2k_fun.c":506:3)
#loc1200 = loc("/Users/mac/Projects/mlir/cpp-to-ops-converter/script/..//ITK_POM2K/pom2k_fun.c":524:3)
#loc1205 = loc("/Users/mac/Projects/mlir/cpp-to-ops-converter/script/..//ITK_POM2K/pom2k_fun.c":525:5)
#loc1208 = loc("/Users/mac/Projects/mlir/cpp-to-ops-converter/script/..//ITK_POM2K/pom2k_fun.c":526:7)
#loc1244 = loc("/Users/mac/Projects/mlir/cpp-to-ops-converter/script/..//ITK_POM2K/pom2k_fun.c":541:3)
#loc1247 = loc("/Users/mac/Projects/mlir/cpp-to-ops-converter/script/..//ITK_POM2K/pom2k_fun.c":542:5)
#loc1256 = loc("/Users/mac/Projects/mlir/cpp-to-ops-converter/script/..//ITK_POM2K/pom2k_fun.c":562:3)
#loc1259 = loc("/Users/mac/Projects/mlir/cpp-to-ops-converter/script/..//ITK_POM2K/pom2k_fun.c":563:5)
#loc1375 = loc("/Users/mac/Projects/mlir/cpp-to-ops-converter/script/..//ITK_POM2K/pom2k_fun.c":579:3)
#loc1378 = loc("/Users/mac/Projects/mlir/cpp-to-ops-converter/script/..//ITK_POM2K/pom2k_fun.c":580:5)
#loc1381 = loc("/Users/mac/Projects/mlir/cpp-to-ops-converter/script/..//ITK_POM2K/pom2k_fun.c":581:7)
#loc1402 = loc("/Users/mac/Projects/mlir/cpp-to-ops-converter/script/..//ITK_POM2K/pom2k_fun.c":600:3)
#loc1444 = loc("/Users/mac/Projects/mlir/cpp-to-ops-converter/script/..//ITK_POM2K/pom2k_fun.c":617:3)
#loc1462 = loc("/Users/mac/Projects/mlir/cpp-to-ops-converter/script/..//ITK_POM2K/pom2k_fun.c":628:3)
#loc1465 = loc("/Users/mac/Projects/mlir/cpp-to-ops-converter/script/..//ITK_POM2K/pom2k_fun.c":629:5)
#loc1493 = loc("/Users/mac/Projects/mlir/cpp-to-ops-converter/script/..//ITK_POM2K/pom2k_fun.c":635:5)
#loc1521 = loc("/Users/mac/Projects/mlir/cpp-to-ops-converter/script/..//ITK_POM2K/pom2k_fun.c":644:6)
#loc1553 = loc("/Users/mac/Projects/mlir/cpp-to-ops-converter/script/..//ITK_POM2K/pom2k_fun.c":667:3)
#loc1556 = loc("/Users/mac/Projects/mlir/cpp-to-ops-converter/script/..//ITK_POM2K/pom2k_fun.c":668:5)
#loc1591 = loc("/Users/mac/Projects/mlir/cpp-to-ops-converter/script/..//ITK_POM2K/pom2k_fun.c":680:3)
#loc1594 = loc("/Users/mac/Projects/mlir/cpp-to-ops-converter/script/..//ITK_POM2K/pom2k_fun.c":681:5)
#loc1597 = loc("/Users/mac/Projects/mlir/cpp-to-ops-converter/script/..//ITK_POM2K/pom2k_fun.c":682:7)
#loc1633 = loc("/Users/mac/Projects/mlir/cpp-to-ops-converter/script/..//ITK_POM2K/pom2k_fun.c":693:3)
#loc1636 = loc("/Users/mac/Projects/mlir/cpp-to-ops-converter/script/..//ITK_POM2K/pom2k_fun.c":694:5)
#loc1639 = loc("/Users/mac/Projects/mlir/cpp-to-ops-converter/script/..//ITK_POM2K/pom2k_fun.c":695:7)
#loc1662 = loc("/Users/mac/Projects/mlir/cpp-to-ops-converter/script/..//ITK_POM2K/pom2k_fun.c":707:6)
#loc1672 = loc("/Users/mac/Projects/mlir/cpp-to-ops-converter/script/..//ITK_POM2K/pom2k_fun.c":715:3)
#loc1674 = loc("/Users/mac/Projects/mlir/cpp-to-ops-converter/script/..//ITK_POM2K/pom2k_fun.c":716:5)
#loc1676 = loc("/Users/mac/Projects/mlir/cpp-to-ops-converter/script/..//ITK_POM2K/pom2k_fun.c":717:7)
#loc1689 = loc("/Users/mac/Projects/mlir/cpp-to-ops-converter/script/..//ITK_POM2K/pom2k_fun.c":725:3)
#loc1691 = loc("/Users/mac/Projects/mlir/cpp-to-ops-converter/script/..//ITK_POM2K/pom2k_fun.c":726:5)
#loc1714 = loc("/Users/mac/Projects/mlir/cpp-to-ops-converter/script/..//ITK_POM2K/pom2k_fun.c":734:3)
#loc1722 = loc("/Users/mac/Projects/mlir/cpp-to-ops-converter/script/..//ITK_POM2K/pom2k_fun.c":735:5)
#loc1725 = loc("/Users/mac/Projects/mlir/cpp-to-ops-converter/script/..//ITK_POM2K/pom2k_fun.c":736:7)
#loc1766 = loc("/Users/mac/Projects/mlir/cpp-to-ops-converter/script/..//ITK_POM2K/pom2k_fun.c":751:3)
#loc1769 = loc("/Users/mac/Projects/mlir/cpp-to-ops-converter/script/..//ITK_POM2K/pom2k_fun.c":752:5)
#loc1772 = loc("/Users/mac/Projects/mlir/cpp-to-ops-converter/script/..//ITK_POM2K/pom2k_fun.c":753:7)
#loc1796 = loc("/Users/mac/Projects/mlir/cpp-to-ops-converter/script/..//ITK_POM2K/pom2k_fun.c":763:3)
#loc1800 = loc("/Users/mac/Projects/mlir/cpp-to-ops-converter/script/..//ITK_POM2K/pom2k_fun.c":764:5)
#loc1823 = loc("/Users/mac/Projects/mlir/cpp-to-ops-converter/script/..//ITK_POM2K/pom2k_fun.c":771:3)
#loc1831 = loc("/Users/mac/Projects/mlir/cpp-to-ops-converter/script/..//ITK_POM2K/pom2k_fun.c":772:5)
#loc1835 = loc("/Users/mac/Projects/mlir/cpp-to-ops-converter/script/..//ITK_POM2K/pom2k_fun.c":773:7)
#loc1875 = loc("/Users/mac/Projects/mlir/cpp-to-ops-converter/script/..//ITK_POM2K/pom2k_fun.c":788:3)
#loc1878 = loc("/Users/mac/Projects/mlir/cpp-to-ops-converter/script/..//ITK_POM2K/pom2k_fun.c":789:5)
#loc1882 = loc("/Users/mac/Projects/mlir/cpp-to-ops-converter/script/..//ITK_POM2K/pom2k_fun.c":790:7)
#loc1905 = loc("/Users/mac/Projects/mlir/cpp-to-ops-converter/script/..//ITK_POM2K/pom2k_fun.c":798:3)
#loc1908 = loc("/Users/mac/Projects/mlir/cpp-to-ops-converter/script/..//ITK_POM2K/pom2k_fun.c":799:5)
#loc1911 = loc("/Users/mac/Projects/mlir/cpp-to-ops-converter/script/..//ITK_POM2K/pom2k_fun.c":800:7)
#loc1929 = loc("/Users/mac/Projects/mlir/cpp-to-ops-converter/script/..//ITK_POM2K/pom2k_fun.c":807:3)
#loc1932 = loc("/Users/mac/Projects/mlir/cpp-to-ops-converter/script/..//ITK_POM2K/pom2k_fun.c":808:5)
#loc1935 = loc("/Users/mac/Projects/mlir/cpp-to-ops-converter/script/..//ITK_POM2K/pom2k_fun.c":809:7)
#loc1946 = loc("/Users/mac/Projects/mlir/cpp-to-ops-converter/script/..//ITK_POM2K/pom2k_fun.c":816:6)
#loc1956 = loc("/Users/mac/Projects/mlir/cpp-to-ops-converter/script/..//ITK_POM2K/pom2k_fun.c":819:3)
#loc1960 = loc("/Users/mac/Projects/mlir/cpp-to-ops-converter/script/..//ITK_POM2K/pom2k_fun.c":820:5)
#loc1962 = loc("/Users/mac/Projects/mlir/cpp-to-ops-converter/script/..//ITK_POM2K/pom2k_fun.c":821:7)
#loc1988 = loc("/Users/mac/Projects/mlir/cpp-to-ops-converter/script/..//ITK_POM2K/pom2k_fun.c":830:3)
#loc1991 = loc("/Users/mac/Projects/mlir/cpp-to-ops-converter/script/..//ITK_POM2K/pom2k_fun.c":831:5)
#loc2034 = loc("/Users/mac/Projects/mlir/cpp-to-ops-converter/script/..//ITK_POM2K/pom2k_fun.c":846:3)
#loc2037 = loc("/Users/mac/Projects/mlir/cpp-to-ops-converter/script/..//ITK_POM2K/pom2k_fun.c":847:5)
#loc2059 = loc("/Users/mac/Projects/mlir/cpp-to-ops-converter/script/..//ITK_POM2K/pom2k_fun.c":856:6)
#loc2066 = loc("/Users/mac/Projects/mlir/cpp-to-ops-converter/script/..//ITK_POM2K/pom2k_fun.c":858:3)
#loc2068 = loc("/Users/mac/Projects/mlir/cpp-to-ops-converter/script/..//ITK_POM2K/pom2k_fun.c":859:5)
#loc2085 = loc("/Users/mac/Projects/mlir/cpp-to-ops-converter/script/..//ITK_POM2K/pom2k_fun.c":867:6)
#loc2120 = loc("/Users/mac/Projects/mlir/cpp-to-ops-converter/script/..//ITK_POM2K/pom2k_fun.c":894:3)
#loc2122 = loc("/Users/mac/Projects/mlir/cpp-to-ops-converter/script/..//ITK_POM2K/pom2k_fun.c":895:5)
#loc2197 = loc("/Users/mac/Projects/mlir/cpp-to-ops-converter/script/..//ITK_POM2K/pom2k_fun.c":942:6)
#loc2204 = loc("/Users/mac/Projects/mlir/cpp-to-ops-converter/script/..//ITK_POM2K/pom2k_fun.c":944:3)
#loc2207 = loc("/Users/mac/Projects/mlir/cpp-to-ops-converter/script/..//ITK_POM2K/pom2k_fun.c":945:5)
#loc2238 = loc("/Users/mac/Projects/mlir/cpp-to-ops-converter/script/..//ITK_POM2K/pom2k_fun.c":956:6)
#loc2245 = loc("/Users/mac/Projects/mlir/cpp-to-ops-converter/script/..//ITK_POM2K/pom2k_fun.c":958:3)
#loc2248 = loc("/Users/mac/Projects/mlir/cpp-to-ops-converter/script/..//ITK_POM2K/pom2k_fun.c":959:5)
#loc2270 = loc("/Users/mac/Projects/mlir/cpp-to-ops-converter/script/..//ITK_POM2K/pom2k_fun.c":969:6)
#loc2278 = loc("/Users/mac/Projects/mlir/cpp-to-ops-converter/script/..//ITK_POM2K/pom2k_fun.c":970:3)
#loc2294 = loc("/Users/mac/Projects/mlir/cpp-to-ops-converter/script/..//ITK_POM2K/pom2k_fun.c":975:3)
#loc2308 = loc("/Users/mac/Projects/mlir/cpp-to-ops-converter/script/..//ITK_POM2K/pom2k_fun.c":980:3)
#loc2311 = loc("/Users/mac/Projects/mlir/cpp-to-ops-converter/script/..//ITK_POM2K/pom2k_fun.c":981:5)
#loc2321 = loc("/Users/mac/Projects/mlir/cpp-to-ops-converter/script/..//ITK_POM2K/pom2k_fun.c":987:6)
#loc2323 = loc("/Users/mac/Projects/mlir/cpp-to-ops-converter/script/..//ITK_POM2K/pom2k_fun.c":994:3)
#loc2388 = loc("/Users/mac/Projects/mlir/cpp-to-ops-converter/script/..//ITK_POM2K/pom2k_fun.c":1011:3)
#loc2446 = loc("/Users/mac/Projects/mlir/cpp-to-ops-converter/script/..//ITK_POM2K/pom2k_fun.c":1028:3)
#loc2449 = loc("/Users/mac/Projects/mlir/cpp-to-ops-converter/script/..//ITK_POM2K/pom2k_fun.c":1029:5)
#loc2465 = loc("/Users/mac/Projects/mlir/cpp-to-ops-converter/script/..//ITK_POM2K/pom2k_fun.c":1044:6)
#loc2480 = loc("/Users/mac/Projects/mlir/cpp-to-ops-converter/script/..//ITK_POM2K/pom2k_fun.c":1049:3)
#loc2482 = loc("/Users/mac/Projects/mlir/cpp-to-ops-converter/script/..//ITK_POM2K/pom2k_fun.c":1050:5)
#loc2566 = loc("/Users/mac/Projects/mlir/cpp-to-ops-converter/script/..//ITK_POM2K/pom2k_fun.c":1089:3)
#loc2569 = loc("/Users/mac/Projects/mlir/cpp-to-ops-converter/script/..//ITK_POM2K/pom2k_fun.c":1090:5)
#loc2656 = loc("/Users/mac/Projects/mlir/cpp-to-ops-converter/script/..//ITK_POM2K/pom2k_fun.c":1134:3)
#loc2659 = loc("/Users/mac/Projects/mlir/cpp-to-ops-converter/script/..//ITK_POM2K/pom2k_fun.c":1135:5)
#loc2662 = loc("/Users/mac/Projects/mlir/cpp-to-ops-converter/script/..//ITK_POM2K/pom2k_fun.c":1136:7)
#loc2681 = loc("/Users/mac/Projects/mlir/cpp-to-ops-converter/script/..//ITK_POM2K/pom2k_fun.c":1144:6)
#loc2694 = loc("/Users/mac/Projects/mlir/cpp-to-ops-converter/script/..//ITK_POM2K/pom2k_fun.c":1154:3)
#loc2696 = loc("/Users/mac/Projects/mlir/cpp-to-ops-converter/script/..//ITK_POM2K/pom2k_fun.c":1155:5)
#loc2895 = loc("/Users/mac/Projects/mlir/cpp-to-ops-converter/script/..//ITK_POM2K/pom2k_fun.c":1227:3)
#loc2898 = loc("/Users/mac/Projects/mlir/cpp-to-ops-converter/script/..//ITK_POM2K/pom2k_fun.c":1228:5)
#loc3098 = loc("/Users/mac/Projects/mlir/cpp-to-ops-converter/script/..//ITK_POM2K/pom2k_fun.c":1307:3)
#loc3101 = loc("/Users/mac/Projects/mlir/cpp-to-ops-converter/script/..//ITK_POM2K/pom2k_fun.c":1308:5)
#loc3104 = loc("/Users/mac/Projects/mlir/cpp-to-ops-converter/script/..//ITK_POM2K/pom2k_fun.c":1309:7)
#loc3123 = loc("/Users/mac/Projects/mlir/cpp-to-ops-converter/script/..//ITK_POM2K/pom2k_fun.c":1326:6)
#loc3131 = loc("/Users/mac/Projects/mlir/cpp-to-ops-converter/script/..//ITK_POM2K/pom2k_fun.c":1327:3)
#loc3133 = loc("/Users/mac/Projects/mlir/cpp-to-ops-converter/script/..//ITK_POM2K/pom2k_fun.c":1328:5)
#loc3135 = loc("/Users/mac/Projects/mlir/cpp-to-ops-converter/script/..//ITK_POM2K/pom2k_fun.c":1329:7)
#loc3146 = loc("/Users/mac/Projects/mlir/cpp-to-ops-converter/script/..//ITK_POM2K/pom2k_fun.c":1337:6)
#loc3159 = loc("/Users/mac/Projects/mlir/cpp-to-ops-converter/script/..//ITK_POM2K/pom2k_fun.c":1341:3)
#loc3161 = loc("/Users/mac/Projects/mlir/cpp-to-ops-converter/script/..//ITK_POM2K/pom2k_fun.c":1342:5)
#loc3169 = loc("/Users/mac/Projects/mlir/cpp-to-ops-converter/script/..//ITK_POM2K/pom2k_fun.c":1347:3)
#loc3171 = loc("/Users/mac/Projects/mlir/cpp-to-ops-converter/script/..//ITK_POM2K/pom2k_fun.c":1348:5)
#loc3194 = loc("/Users/mac/Projects/mlir/cpp-to-ops-converter/script/..//ITK_POM2K/pom2k_fun.c":1357:3)
#loc3198 = loc("/Users/mac/Projects/mlir/cpp-to-ops-converter/script/..//ITK_POM2K/pom2k_fun.c":1358:5)
#loc3225 = loc("/Users/mac/Projects/mlir/cpp-to-ops-converter/script/..//ITK_POM2K/pom2k_fun.c":1367:3)
#loc3228 = loc("/Users/mac/Projects/mlir/cpp-to-ops-converter/script/..//ITK_POM2K/pom2k_fun.c":1368:5)
#loc3249 = loc("/Users/mac/Projects/mlir/cpp-to-ops-converter/script/..//ITK_POM2K/pom2k_fun.c":1376:3)
#loc3253 = loc("/Users/mac/Projects/mlir/cpp-to-ops-converter/script/..//ITK_POM2K/pom2k_fun.c":1377:5)
#loc3328 = loc("/Users/mac/Projects/mlir/cpp-to-ops-converter/script/..//ITK_POM2K/pom2k_fun.c":1396:3)
#loc3332 = loc("/Users/mac/Projects/mlir/cpp-to-ops-converter/script/..//ITK_POM2K/pom2k_fun.c":1397:5)
#loc3348 = loc("/Users/mac/Projects/mlir/cpp-to-ops-converter/script/..//ITK_POM2K/pom2k_fun.c":1403:3)
#loc3351 = loc("/Users/mac/Projects/mlir/cpp-to-ops-converter/script/..//ITK_POM2K/pom2k_fun.c":1404:5)
#loc3359 = loc("/Users/mac/Projects/mlir/cpp-to-ops-converter/script/..//ITK_POM2K/pom2k_fun.c":1409:3)
#loc3363 = loc("/Users/mac/Projects/mlir/cpp-to-ops-converter/script/..//ITK_POM2K/pom2k_fun.c":1410:5)
#loc3390 = loc("/Users/mac/Projects/mlir/cpp-to-ops-converter/script/..//ITK_POM2K/pom2k_fun.c":1419:3)
#loc3395 = loc("/Users/mac/Projects/mlir/cpp-to-ops-converter/script/..//ITK_POM2K/pom2k_fun.c":1420:5)
#loc3416 = loc("/Users/mac/Projects/mlir/cpp-to-ops-converter/script/..//ITK_POM2K/pom2k_fun.c":1429:3)
#loc3420 = loc("/Users/mac/Projects/mlir/cpp-to-ops-converter/script/..//ITK_POM2K/pom2k_fun.c":1430:5)
#loc3440 = loc("/Users/mac/Projects/mlir/cpp-to-ops-converter/script/..//ITK_POM2K/pom2k_fun.c":1438:3)
#loc3444 = loc("/Users/mac/Projects/mlir/cpp-to-ops-converter/script/..//ITK_POM2K/pom2k_fun.c":1439:5)
#loc3474 = loc("/Users/mac/Projects/mlir/cpp-to-ops-converter/script/..//ITK_POM2K/pom2k_fun.c":1447:3)
#loc3478 = loc("/Users/mac/Projects/mlir/cpp-to-ops-converter/script/..//ITK_POM2K/pom2k_fun.c":1448:5)
#loc3497 = loc("/Users/mac/Projects/mlir/cpp-to-ops-converter/script/..//ITK_POM2K/pom2k_fun.c":1455:5)
#loc3501 = loc("/Users/mac/Projects/mlir/cpp-to-ops-converter/script/..//ITK_POM2K/pom2k_fun.c":1456:7)
#loc3530 = loc("/Users/mac/Projects/mlir/cpp-to-ops-converter/script/..//ITK_POM2K/pom2k_fun.c":1469:5)
#loc3534 = loc("/Users/mac/Projects/mlir/cpp-to-ops-converter/script/..//ITK_POM2K/pom2k_fun.c":1470:7)
#loc3563 = loc("/Users/mac/Projects/mlir/cpp-to-ops-converter/script/..//ITK_POM2K/pom2k_fun.c":1483:5)
#loc3568 = loc("/Users/mac/Projects/mlir/cpp-to-ops-converter/script/..//ITK_POM2K/pom2k_fun.c":1484:7)
#loc3599 = loc("/Users/mac/Projects/mlir/cpp-to-ops-converter/script/..//ITK_POM2K/pom2k_fun.c":1494:5)
#loc3603 = loc("/Users/mac/Projects/mlir/cpp-to-ops-converter/script/..//ITK_POM2K/pom2k_fun.c":1495:7)
#loc3634 = loc("/Users/mac/Projects/mlir/cpp-to-ops-converter/script/..//ITK_POM2K/pom2k_fun.c":1506:5)
#loc3638 = loc("/Users/mac/Projects/mlir/cpp-to-ops-converter/script/..//ITK_POM2K/pom2k_fun.c":1507:7)
#loc3668 = loc("/Users/mac/Projects/mlir/cpp-to-ops-converter/script/..//ITK_POM2K/pom2k_fun.c":1520:6)
#loc3680 = loc("/Users/mac/Projects/mlir/cpp-to-ops-converter/script/..//ITK_POM2K/pom2k_fun.c":1524:3)
#loc3683 = loc("/Users/mac/Projects/mlir/cpp-to-ops-converter/script/..//ITK_POM2K/pom2k_fun.c":1525:5)
#loc3751 = loc("/Users/mac/Projects/mlir/cpp-to-ops-converter/script/..//ITK_POM2K/pom2k_fun.c":1543:3)
#loc3754 = loc("/Users/mac/Projects/mlir/cpp-to-ops-converter/script/..//ITK_POM2K/pom2k_fun.c":1544:5)
#loc3784 = loc("/Users/mac/Projects/mlir/cpp-to-ops-converter/script/..//ITK_POM2K/pom2k_fun.c":1556:6)
#loc3796 = loc("/Users/mac/Projects/mlir/cpp-to-ops-converter/script/..//ITK_POM2K/pom2k_fun.c":1560:3)
#loc3799 = loc("/Users/mac/Projects/mlir/cpp-to-ops-converter/script/..//ITK_POM2K/pom2k_fun.c":1561:5)
#loc3867 = loc("/Users/mac/Projects/mlir/cpp-to-ops-converter/script/..//ITK_POM2K/pom2k_fun.c":1579:3)
#loc3871 = loc("/Users/mac/Projects/mlir/cpp-to-ops-converter/script/..//ITK_POM2K/pom2k_fun.c":1580:5)
#loc3900 = loc("/Users/mac/Projects/mlir/cpp-to-ops-converter/script/..//ITK_POM2K/pom2k_fun.c":1592:6)
#loc3915 = loc("/Users/mac/Projects/mlir/cpp-to-ops-converter/script/..//ITK_POM2K/pom2k_fun.c":1595:5)
#loc3917 = loc("/Users/mac/Projects/mlir/cpp-to-ops-converter/script/..//ITK_POM2K/pom2k_fun.c":1596:7)
#loc3933 = loc("/Users/mac/Projects/mlir/cpp-to-ops-converter/script/..//ITK_POM2K/pom2k_fun.c":1601:5)
#loc3935 = loc("/Users/mac/Projects/mlir/cpp-to-ops-converter/script/..//ITK_POM2K/pom2k_fun.c":1602:7)
#loc3956 = loc("/Users/mac/Projects/mlir/cpp-to-ops-converter/script/..//ITK_POM2K/pom2k_fun.c":1608:5)
#loc3958 = loc("/Users/mac/Projects/mlir/cpp-to-ops-converter/script/..//ITK_POM2K/pom2k_fun.c":1609:7)
#loc3971 = loc("/Users/mac/Projects/mlir/cpp-to-ops-converter/script/..//ITK_POM2K/pom2k_fun.c":1617:6)
#loc3990 = loc("/Users/mac/Projects/mlir/cpp-to-ops-converter/script/..//ITK_POM2K/pom2k_fun.c":1634:6)
#loc4002 = loc("/Users/mac/Projects/mlir/cpp-to-ops-converter/script/..//ITK_POM2K/pom2k_fun.c":1643:5)
#loc4004 = loc("/Users/mac/Projects/mlir/cpp-to-ops-converter/script/..//ITK_POM2K/pom2k_fun.c":1644:7)
#loc4074 = loc("/Users/mac/Projects/mlir/cpp-to-ops-converter/script/..//ITK_POM2K/pom2k_fun.c":1667:7)
#loc4077 = loc("/Users/mac/Projects/mlir/cpp-to-ops-converter/script/..//ITK_POM2K/pom2k_fun.c":1668:9)
#loc4090 = loc("/Users/mac/Projects/mlir/cpp-to-ops-converter/script/..//ITK_POM2K/pom2k_fun.c":1672:7)
#loc4093 = loc("/Users/mac/Projects/mlir/cpp-to-ops-converter/script/..//ITK_POM2K/pom2k_fun.c":1673:9)
#loc4112 = loc("/Users/mac/Projects/mlir/cpp-to-ops-converter/script/..//ITK_POM2K/pom2k_fun.c":1679:7)
#loc4116 = loc("/Users/mac/Projects/mlir/cpp-to-ops-converter/script/..//ITK_POM2K/pom2k_fun.c":1680:9)
#loc4133 = loc("/Users/mac/Projects/mlir/cpp-to-ops-converter/script/..//ITK_POM2K/pom2k_fun.c":1690:6)
#loc4141 = loc("/Users/mac/Projects/mlir/cpp-to-ops-converter/script/..//ITK_POM2K/pom2k_fun.c":1695:3)
#loc4143 = loc("/Users/mac/Projects/mlir/cpp-to-ops-converter/script/..//ITK_POM2K/pom2k_fun.c":1696:5)
#loc4150 = loc("/Users/mac/Projects/mlir/cpp-to-ops-converter/script/..//ITK_POM2K/pom2k_fun.c":1700:3)
#loc4155 = loc("/Users/mac/Projects/mlir/cpp-to-ops-converter/script/..//ITK_POM2K/pom2k_fun.c":1701:5)
#loc4158 = loc("/Users/mac/Projects/mlir/cpp-to-ops-converter/script/..//ITK_POM2K/pom2k_fun.c":1702:7)
#loc4172 = loc("/Users/mac/Projects/mlir/cpp-to-ops-converter/script/..//ITK_POM2K/pom2k_fun.c":1707:3)
#loc4175 = loc("/Users/mac/Projects/mlir/cpp-to-ops-converter/script/..//ITK_POM2K/pom2k_fun.c":1708:5)
#loc4178 = loc("/Users/mac/Projects/mlir/cpp-to-ops-converter/script/..//ITK_POM2K/pom2k_fun.c":1709:7)
#loc4201 = loc("/Users/mac/Projects/mlir/cpp-to-ops-converter/script/..//ITK_POM2K/pom2k_fun.c":1716:3)
#loc4204 = loc("/Users/mac/Projects/mlir/cpp-to-ops-converter/script/..//ITK_POM2K/pom2k_fun.c":1717:5)
#loc4212 = loc("/Users/mac/Projects/mlir/cpp-to-ops-converter/script/..//ITK_POM2K/pom2k_fun.c":1721:3)
#loc4217 = loc("/Users/mac/Projects/mlir/cpp-to-ops-converter/script/..//ITK_POM2K/pom2k_fun.c":1722:5)
#loc4220 = loc("/Users/mac/Projects/mlir/cpp-to-ops-converter/script/..//ITK_POM2K/pom2k_fun.c":1723:7)
#loc4234 = loc("/Users/mac/Projects/mlir/cpp-to-ops-converter/script/..//ITK_POM2K/pom2k_fun.c":1728:3)
#loc4237 = loc("/Users/mac/Projects/mlir/cpp-to-ops-converter/script/..//ITK_POM2K/pom2k_fun.c":1729:5)
#loc4241 = loc("/Users/mac/Projects/mlir/cpp-to-ops-converter/script/..//ITK_POM2K/pom2k_fun.c":1730:7)
#loc4262 = loc("/Users/mac/Projects/mlir/cpp-to-ops-converter/script/..//ITK_POM2K/pom2k_fun.c":1739:6)
#loc4272 = loc("/Users/mac/Projects/mlir/cpp-to-ops-converter/script/..//ITK_POM2K/pom2k_fun.c":1745:3)
#loc4274 = loc("/Users/mac/Projects/mlir/cpp-to-ops-converter/script/..//ITK_POM2K/pom2k_fun.c":1746:5)
#loc4276 = loc("/Users/mac/Projects/mlir/cpp-to-ops-converter/script/..//ITK_POM2K/pom2k_fun.c":1747:7)
#loc4297 = loc("/Users/mac/Projects/mlir/cpp-to-ops-converter/script/..//ITK_POM2K/pom2k_fun.c":1754:3)
#loc4300 = loc("/Users/mac/Projects/mlir/cpp-to-ops-converter/script/..//ITK_POM2K/pom2k_fun.c":1755:5)
#loc4304 = loc("/Users/mac/Projects/mlir/cpp-to-ops-converter/script/..//ITK_POM2K/pom2k_fun.c":1756:7)
#loc4325 = loc("/Users/mac/Projects/mlir/cpp-to-ops-converter/script/..//ITK_POM2K/pom2k_fun.c":1769:3)
#loc4327 = loc("/Users/mac/Projects/mlir/cpp-to-ops-converter/script/..//ITK_POM2K/pom2k_fun.c":1770:5)
#loc4340 = loc("/Users/mac/Projects/mlir/cpp-to-ops-converter/script/..//ITK_POM2K/pom2k_fun.c":1776:3)
#loc4346 = loc("/Users/mac/Projects/mlir/cpp-to-ops-converter/script/..//ITK_POM2K/pom2k_fun.c":1777:5)
#loc4350 = loc("/Users/mac/Projects/mlir/cpp-to-ops-converter/script/..//ITK_POM2K/pom2k_fun.c":1778:7)
#loc4381 = loc("/Users/mac/Projects/mlir/cpp-to-ops-converter/script/..//ITK_POM2K/pom2k_fun.c":1804:6)
#loc4390 = loc("/Users/mac/Projects/mlir/cpp-to-ops-converter/script/..//ITK_POM2K/pom2k_fun.c":1805:3)
#loc4392 = loc("/Users/mac/Projects/mlir/cpp-to-ops-converter/script/..//ITK_POM2K/pom2k_fun.c":1806:5)
#loc4394 = loc("/Users/mac/Projects/mlir/cpp-to-ops-converter/script/..//ITK_POM2K/pom2k_fun.c":1807:7)
#loc4405 = loc("/Users/mac/Projects/mlir/cpp-to-ops-converter/script/..//ITK_POM2K/pom2k_fun.c":1849:6)
#loc4415 = loc("/Users/mac/Projects/mlir/cpp-to-ops-converter/script/..//ITK_POM2K/pom2k_fun.c":1855:3)
#loc4418 = loc("/Users/mac/Projects/mlir/cpp-to-ops-converter/script/..//ITK_POM2K/pom2k_fun.c":1856:5)
#loc4421 = loc("/Users/mac/Projects/mlir/cpp-to-ops-converter/script/..//ITK_POM2K/pom2k_fun.c":1857:7)
#loc4464 = loc("/Users/mac/Projects/mlir/cpp-to-ops-converter/script/..//ITK_POM2K/pom2k_fun.c":1868:3)
#loc4468 = loc("/Users/mac/Projects/mlir/cpp-to-ops-converter/script/..//ITK_POM2K/pom2k_fun.c":1869:5)
#loc4472 = loc("/Users/mac/Projects/mlir/cpp-to-ops-converter/script/..//ITK_POM2K/pom2k_fun.c":1870:7)
#loc4558 = loc("/Users/mac/Projects/mlir/cpp-to-ops-converter/script/..//ITK_POM2K/pom2k_fun.c":1895:4)
#loc4566 = loc("/Users/mac/Projects/mlir/cpp-to-ops-converter/script/..//ITK_POM2K/pom2k_fun.c":1896:5)
#loc4569 = loc("/Users/mac/Projects/mlir/cpp-to-ops-converter/script/..//ITK_POM2K/pom2k_fun.c":1897:7)
#loc4616 = loc("/Users/mac/Projects/mlir/cpp-to-ops-converter/script/..//ITK_POM2K/pom2k_fun.c":1912:6)
#loc4650 = loc("/Users/mac/Projects/mlir/cpp-to-ops-converter/script/..//ITK_POM2K/pom2k_fun.c":1955:3)
#loc4653 = loc("/Users/mac/Projects/mlir/cpp-to-ops-converter/script/..//ITK_POM2K/pom2k_fun.c":1956:5)
#loc4656 = loc("/Users/mac/Projects/mlir/cpp-to-ops-converter/script/..//ITK_POM2K/pom2k_fun.c":1957:7)
#loc4672 = loc("/Users/mac/Projects/mlir/cpp-to-ops-converter/script/..//ITK_POM2K/pom2k_fun.c":1974:3)
#loc4678 = loc("/Users/mac/Projects/mlir/cpp-to-ops-converter/script/..//ITK_POM2K/pom2k_fun.c":1975:5)
#loc4681 = loc("/Users/mac/Projects/mlir/cpp-to-ops-converter/script/..//ITK_POM2K/pom2k_fun.c":1976:7)
#loc4702 = loc("/Users/mac/Projects/mlir/cpp-to-ops-converter/script/..//ITK_POM2K/pom2k_fun.c":1982:3)
#loc4710 = loc("/Users/mac/Projects/mlir/cpp-to-ops-converter/script/..//ITK_POM2K/pom2k_fun.c":1983:5)
#loc4713 = loc("/Users/mac/Projects/mlir/cpp-to-ops-converter/script/..//ITK_POM2K/pom2k_fun.c":1984:7)
#loc4734 = loc("/Users/mac/Projects/mlir/cpp-to-ops-converter/script/..//ITK_POM2K/pom2k_fun.c":1999:3)
#loc4737 = loc("/Users/mac/Projects/mlir/cpp-to-ops-converter/script/..//ITK_POM2K/pom2k_fun.c":2000:5)
#loc4764 = loc("/Users/mac/Projects/mlir/cpp-to-ops-converter/script/..//ITK_POM2K/pom2k_fun.c":2016:3)
#loc4768 = loc("/Users/mac/Projects/mlir/cpp-to-ops-converter/script/..//ITK_POM2K/pom2k_fun.c":2017:5)
#loc4771 = loc("/Users/mac/Projects/mlir/cpp-to-ops-converter/script/..//ITK_POM2K/pom2k_fun.c":2018:7)
#loc4804 = loc("/Users/mac/Projects/mlir/cpp-to-ops-converter/script/..//ITK_POM2K/pom2k_fun.c":2040:3)
#loc4807 = loc("/Users/mac/Projects/mlir/cpp-to-ops-converter/script/..//ITK_POM2K/pom2k_fun.c":2041:5)
#loc4876 = loc("/Users/mac/Projects/mlir/cpp-to-ops-converter/script/..//ITK_POM2K/pom2k_fun.c":2062:3)
#loc4883 = loc("/Users/mac/Projects/mlir/cpp-to-ops-converter/script/..//ITK_POM2K/pom2k_fun.c":2064:5)
#loc4886 = loc("/Users/mac/Projects/mlir/cpp-to-ops-converter/script/..//ITK_POM2K/pom2k_fun.c":2065:7)
#loc4903 = loc("/Users/mac/Projects/mlir/cpp-to-ops-converter/script/..//ITK_POM2K/pom2k_fun.c":2078:3)
#loc4906 = loc("/Users/mac/Projects/mlir/cpp-to-ops-converter/script/..//ITK_POM2K/pom2k_fun.c":2079:5)
#loc4920 = loc("/Users/mac/Projects/mlir/cpp-to-ops-converter/script/..//ITK_POM2K/pom2k_fun.c":2086:6)
#loc4954 = loc("/Users/mac/Projects/mlir/cpp-to-ops-converter/script/..//ITK_POM2K/pom2k_fun.c":2145:3)
#loc4957 = loc("/Users/mac/Projects/mlir/cpp-to-ops-converter/script/..//ITK_POM2K/pom2k_fun.c":2146:5)
#loc4961 = loc("/Users/mac/Projects/mlir/cpp-to-ops-converter/script/..//ITK_POM2K/pom2k_fun.c":2147:7)
#loc4976 = loc("/Users/mac/Projects/mlir/cpp-to-ops-converter/script/..//ITK_POM2K/pom2k_fun.c":2164:3)
#loc4982 = loc("/Users/mac/Projects/mlir/cpp-to-ops-converter/script/..//ITK_POM2K/pom2k_fun.c":2165:5)
#loc4985 = loc("/Users/mac/Projects/mlir/cpp-to-ops-converter/script/..//ITK_POM2K/pom2k_fun.c":2166:7)
#loc5006 = loc("/Users/mac/Projects/mlir/cpp-to-ops-converter/script/..//ITK_POM2K/pom2k_fun.c":2172:3)
#loc5014 = loc("/Users/mac/Projects/mlir/cpp-to-ops-converter/script/..//ITK_POM2K/pom2k_fun.c":2173:5)
#loc5017 = loc("/Users/mac/Projects/mlir/cpp-to-ops-converter/script/..//ITK_POM2K/pom2k_fun.c":2174:7)
#loc5038 = loc("/Users/mac/Projects/mlir/cpp-to-ops-converter/script/..//ITK_POM2K/pom2k_fun.c":2188:3)
#loc5041 = loc("/Users/mac/Projects/mlir/cpp-to-ops-converter/script/..//ITK_POM2K/pom2k_fun.c":2189:5)
#loc5068 = loc("/Users/mac/Projects/mlir/cpp-to-ops-converter/script/..//ITK_POM2K/pom2k_fun.c":2205:3)
#loc5072 = loc("/Users/mac/Projects/mlir/cpp-to-ops-converter/script/..//ITK_POM2K/pom2k_fun.c":2206:5)
#loc5075 = loc("/Users/mac/Projects/mlir/cpp-to-ops-converter/script/..//ITK_POM2K/pom2k_fun.c":2207:7)
#loc5108 = loc("/Users/mac/Projects/mlir/cpp-to-ops-converter/script/..//ITK_POM2K/pom2k_fun.c":2228:3)
#loc5111 = loc("/Users/mac/Projects/mlir/cpp-to-ops-converter/script/..//ITK_POM2K/pom2k_fun.c":2229:5)
#loc5181 = loc("/Users/mac/Projects/mlir/cpp-to-ops-converter/script/..//ITK_POM2K/pom2k_fun.c":2250:3)
#loc5188 = loc("/Users/mac/Projects/mlir/cpp-to-ops-converter/script/..//ITK_POM2K/pom2k_fun.c":2252:5)
#loc5191 = loc("/Users/mac/Projects/mlir/cpp-to-ops-converter/script/..//ITK_POM2K/pom2k_fun.c":2253:7)
#loc5208 = loc("/Users/mac/Projects/mlir/cpp-to-ops-converter/script/..//ITK_POM2K/pom2k_fun.c":2265:3)
#loc5211 = loc("/Users/mac/Projects/mlir/cpp-to-ops-converter/script/..//ITK_POM2K/pom2k_fun.c":2266:5)
#loc5225 = loc("/Users/mac/Projects/mlir/cpp-to-ops-converter/script/..//ITK_POM2K/pom2k_fun.c":2302:6)
#loc5238 = loc("/Users/mac/Projects/mlir/cpp-to-ops-converter/script/..//ITK_POM2K/pom2k_fun.c":2309:7)
#loc5240 = loc("/Users/mac/Projects/mlir/cpp-to-ops-converter/script/..//ITK_POM2K/pom2k_fun.c":2310:9)
#loc5242 = loc("/Users/mac/Projects/mlir/cpp-to-ops-converter/script/..//ITK_POM2K/pom2k_fun.c":2311:11)
#loc5261 = loc("/Users/mac/Projects/mlir/cpp-to-ops-converter/script/..//ITK_POM2K/pom2k_fun.c":2321:7)
#loc5263 = loc("/Users/mac/Projects/mlir/cpp-to-ops-converter/script/..//ITK_POM2K/pom2k_fun.c":2322:9)
#loc5267 = loc("/Users/mac/Projects/mlir/cpp-to-ops-converter/script/..//ITK_POM2K/pom2k_fun.c":2323:11)
#loc5302 = loc("/Users/mac/Projects/mlir/cpp-to-ops-converter/script/..//ITK_POM2K/pom2k_fun.c":2335:7)
#loc5305 = loc("/Users/mac/Projects/mlir/cpp-to-ops-converter/script/..//ITK_POM2K/pom2k_fun.c":2336:9)
#loc5308 = loc("/Users/mac/Projects/mlir/cpp-to-ops-converter/script/..//ITK_POM2K/pom2k_fun.c":2337:11)
#loc5334 = loc("/Users/mac/Projects/mlir/cpp-to-ops-converter/script/..//ITK_POM2K/pom2k_fun.c":2345:7)
#loc5337 = loc("/Users/mac/Projects/mlir/cpp-to-ops-converter/script/..//ITK_POM2K/pom2k_fun.c":2346:9)
#loc5341 = loc("/Users/mac/Projects/mlir/cpp-to-ops-converter/script/..//ITK_POM2K/pom2k_fun.c":2347:11)
#loc5372 = loc("/Users/mac/Projects/mlir/cpp-to-ops-converter/script/..//ITK_POM2K/pom2k_fun.c":2357:7)
#loc5375 = loc("/Users/mac/Projects/mlir/cpp-to-ops-converter/script/..//ITK_POM2K/pom2k_fun.c":2358:9)
#loc5379 = loc("/Users/mac/Projects/mlir/cpp-to-ops-converter/script/..//ITK_POM2K/pom2k_fun.c":2359:11)
#loc5473 = loc("/Users/mac/Projects/mlir/cpp-to-ops-converter/script/..//ITK_POM2K/pom2k_fun.c":2380:7)
#loc5476 = loc("/Users/mac/Projects/mlir/cpp-to-ops-converter/script/..//ITK_POM2K/pom2k_fun.c":2381:9)
#loc5480 = loc("/Users/mac/Projects/mlir/cpp-to-ops-converter/script/..//ITK_POM2K/pom2k_fun.c":2382:11)
#loc5497 = loc("/Users/mac/Projects/mlir/cpp-to-ops-converter/script/..//ITK_POM2K/pom2k_fun.c":2388:7)
#loc5500 = loc("/Users/mac/Projects/mlir/cpp-to-ops-converter/script/..//ITK_POM2K/pom2k_fun.c":2389:9)
#loc5504 = loc("/Users/mac/Projects/mlir/cpp-to-ops-converter/script/..//ITK_POM2K/pom2k_fun.c":2390:11)
#loc5535 = loc("/Users/mac/Projects/mlir/cpp-to-ops-converter/script/..//ITK_POM2K/pom2k_fun.c":2400:7)
#loc5538 = loc("/Users/mac/Projects/mlir/cpp-to-ops-converter/script/..//ITK_POM2K/pom2k_fun.c":2401:9)
#loc5541 = loc("/Users/mac/Projects/mlir/cpp-to-ops-converter/script/..//ITK_POM2K/pom2k_fun.c":2402:11)
#loc5556 = loc("/Users/mac/Projects/mlir/cpp-to-ops-converter/script/..//ITK_POM2K/pom2k_fun.c":2412:7)
#loc5559 = loc("/Users/mac/Projects/mlir/cpp-to-ops-converter/script/..//ITK_POM2K/pom2k_fun.c":2413:9)
#loc5563 = loc("/Users/mac/Projects/mlir/cpp-to-ops-converter/script/..//ITK_POM2K/pom2k_fun.c":2414:11)
#loc5594 = loc("/Users/mac/Projects/mlir/cpp-to-ops-converter/script/..//ITK_POM2K/pom2k_fun.c":2422:7)
#loc5597 = loc("/Users/mac/Projects/mlir/cpp-to-ops-converter/script/..//ITK_POM2K/pom2k_fun.c":2423:9)
#loc5602 = loc("/Users/mac/Projects/mlir/cpp-to-ops-converter/script/..//ITK_POM2K/pom2k_fun.c":2424:11)
#loc5626 = loc("/Users/mac/Projects/mlir/cpp-to-ops-converter/script/..//ITK_POM2K/pom2k_fun.c":2434:7)
#loc5629 = loc("/Users/mac/Projects/mlir/cpp-to-ops-converter/script/..//ITK_POM2K/pom2k_fun.c":2435:9)
#loc5634 = loc("/Users/mac/Projects/mlir/cpp-to-ops-converter/script/..//ITK_POM2K/pom2k_fun.c":2436:11)
#loc5727 = loc("/Users/mac/Projects/mlir/cpp-to-ops-converter/script/..//ITK_POM2K/pom2k_fun.c":2457:7)
#loc5730 = loc("/Users/mac/Projects/mlir/cpp-to-ops-converter/script/..//ITK_POM2K/pom2k_fun.c":2458:9)
#loc5734 = loc("/Users/mac/Projects/mlir/cpp-to-ops-converter/script/..//ITK_POM2K/pom2k_fun.c":2459:11)
#loc5751 = loc("/Users/mac/Projects/mlir/cpp-to-ops-converter/script/..//ITK_POM2K/pom2k_fun.c":2465:7)
#loc5754 = loc("/Users/mac/Projects/mlir/cpp-to-ops-converter/script/..//ITK_POM2K/pom2k_fun.c":2466:9)
#loc5758 = loc("/Users/mac/Projects/mlir/cpp-to-ops-converter/script/..//ITK_POM2K/pom2k_fun.c":2467:11)
#loc5788 = loc("/Users/mac/Projects/mlir/cpp-to-ops-converter/script/..//ITK_POM2K/pom2k_fun.c":2493:6)
#loc5799 = loc("/Users/mac/Projects/mlir/cpp-to-ops-converter/script/..//ITK_POM2K/pom2k_fun.c":2494:5)
#loc5801 = loc("/Users/mac/Projects/mlir/cpp-to-ops-converter/script/..//ITK_POM2K/pom2k_fun.c":2495:7)
#loc5805 = loc("/Users/mac/Projects/mlir/cpp-to-ops-converter/script/..//ITK_POM2K/pom2k_fun.c":2496:9)
#loc5859 = loc("/Users/mac/Projects/mlir/cpp-to-ops-converter/script/..//ITK_POM2K/pom2k_fun.c":2532:6)
#loc5867 = loc("/Users/mac/Projects/mlir/cpp-to-ops-converter/script/..//ITK_POM2K/pom2k_fun.c":2536:5)
#loc5869 = loc("/Users/mac/Projects/mlir/cpp-to-ops-converter/script/..//ITK_POM2K/pom2k_fun.c":2537:7)
#loc5888 = loc("/Users/mac/Projects/mlir/cpp-to-ops-converter/script/..//ITK_POM2K/pom2k_fun.c":2547:5)
#loc5893 = loc("/Users/mac/Projects/mlir/cpp-to-ops-converter/script/..//ITK_POM2K/pom2k_fun.c":2548:7)
#loc5896 = loc("/Users/mac/Projects/mlir/cpp-to-ops-converter/script/..//ITK_POM2K/pom2k_fun.c":2549:9)
#loc5935 = loc("/Users/mac/Projects/mlir/cpp-to-ops-converter/script/..//ITK_POM2K/pom2k_fun.c":2574:6)
#loc5942 = loc("/Users/mac/Projects/mlir/cpp-to-ops-converter/script/..//ITK_POM2K/pom2k_fun.c":2576:5)
#loc5944 = loc("/Users/mac/Projects/mlir/cpp-to-ops-converter/script/..//ITK_POM2K/pom2k_fun.c":2577:7)
#loc5953 = loc("/Users/mac/Projects/mlir/cpp-to-ops-converter/script/..//ITK_POM2K/pom2k_fun.c":2602:6)
#loc5960 = loc("/Users/mac/Projects/mlir/cpp-to-ops-converter/script/..//ITK_POM2K/pom2k_fun.c":2604:5)
#loc5962 = loc("/Users/mac/Projects/mlir/cpp-to-ops-converter/script/..//ITK_POM2K/pom2k_fun.c":2605:7)
#loc5971 = loc("/Users/mac/Projects/mlir/cpp-to-ops-converter/script/..//ITK_POM2K/pom2k_fun.c":2610:5)
#loc5974 = loc("/Users/mac/Projects/mlir/cpp-to-ops-converter/script/..//ITK_POM2K/pom2k_fun.c":2611:7)
#loc5990 = loc("/Users/mac/Projects/mlir/cpp-to-ops-converter/script/..//ITK_POM2K/pom2k_fun.c":2615:5)
#loc5994 = loc("/Users/mac/Projects/mlir/cpp-to-ops-converter/script/..//ITK_POM2K/pom2k_fun.c":2616:7)
#loc6008 = loc("/Users/mac/Projects/mlir/cpp-to-ops-converter/script/..//ITK_POM2K/pom2k_fun.c":2656:6)
#loc6020 = loc("/Users/mac/Projects/mlir/cpp-to-ops-converter/script/..//ITK_POM2K/pom2k_fun.c":2661:5)
#loc6022 = loc("/Users/mac/Projects/mlir/cpp-to-ops-converter/script/..//ITK_POM2K/pom2k_fun.c":2662:7)
#loc6037 = loc("/Users/mac/Projects/mlir/cpp-to-ops-converter/script/..//ITK_POM2K/pom2k_fun.c":2669:5)
#loc6040 = loc("/Users/mac/Projects/mlir/cpp-to-ops-converter/script/..//ITK_POM2K/pom2k_fun.c":2670:7)
#loc6044 = loc("/Users/mac/Projects/mlir/cpp-to-ops-converter/script/..//ITK_POM2K/pom2k_fun.c":2671:9)
#loc6081 = loc("/Users/mac/Projects/mlir/cpp-to-ops-converter/script/..//ITK_POM2K/pom2k_fun.c":2680:5)
#loc6084 = loc("/Users/mac/Projects/mlir/cpp-to-ops-converter/script/..//ITK_POM2K/pom2k_fun.c":2681:7)
#loc6087 = loc("/Users/mac/Projects/mlir/cpp-to-ops-converter/script/..//ITK_POM2K/pom2k_fun.c":2682:9)
#loc6100 = loc("/Users/mac/Projects/mlir/cpp-to-ops-converter/script/..//ITK_POM2K/pom2k_fun.c":2688:5)
#loc6103 = loc("/Users/mac/Projects/mlir/cpp-to-ops-converter/script/..//ITK_POM2K/pom2k_fun.c":2689:7)
#loc6107 = loc("/Users/mac/Projects/mlir/cpp-to-ops-converter/script/..//ITK_POM2K/pom2k_fun.c":2690:9)
#loc6185 = loc("/Users/mac/Projects/mlir/cpp-to-ops-converter/script/..//ITK_POM2K/pom2k_fun.c":2701:5)
#loc6188 = loc("/Users/mac/Projects/mlir/cpp-to-ops-converter/script/..//ITK_POM2K/pom2k_fun.c":2702:7)
#loc6191 = loc("/Users/mac/Projects/mlir/cpp-to-ops-converter/script/..//ITK_POM2K/pom2k_fun.c":2703:9)
#loc6201 = loc("/Users/mac/Projects/mlir/cpp-to-ops-converter/script/..//ITK_POM2K/pom2k_fun.c":2710:5)
#loc6203 = loc("/Users/mac/Projects/mlir/cpp-to-ops-converter/script/..//ITK_POM2K/pom2k_fun.c":2711:9)
#loc6219 = loc("/Users/mac/Projects/mlir/cpp-to-ops-converter/script/..//ITK_POM2K/pom2k_fun.c":2717:5)
#loc6223 = loc("/Users/mac/Projects/mlir/cpp-to-ops-converter/script/..//ITK_POM2K/pom2k_fun.c":2718:7)
#loc6226 = loc("/Users/mac/Projects/mlir/cpp-to-ops-converter/script/..//ITK_POM2K/pom2k_fun.c":2719:9)
#loc6245 = loc("/Users/mac/Projects/mlir/cpp-to-ops-converter/script/..//ITK_POM2K/pom2k_fun.c":2727:5)
#loc6251 = loc("/Users/mac/Projects/mlir/cpp-to-ops-converter/script/..//ITK_POM2K/pom2k_fun.c":2728:9)
#loc6255 = loc("/Users/mac/Projects/mlir/cpp-to-ops-converter/script/..//ITK_POM2K/pom2k_fun.c":2729:11)
#loc6292 = loc("/Users/mac/Projects/mlir/cpp-to-ops-converter/script/..//ITK_POM2K/pom2k_fun.c":2758:6)
#loc6302 = loc("/Users/mac/Projects/mlir/cpp-to-ops-converter/script/..//ITK_POM2K/pom2k_fun.c":2760:5)
#loc6304 = loc("/Users/mac/Projects/mlir/cpp-to-ops-converter/script/..//ITK_POM2K/pom2k_fun.c":2761:7)
#loc6306 = loc("/Users/mac/Projects/mlir/cpp-to-ops-converter/script/..//ITK_POM2K/pom2k_fun.c":2762:9)
#loc6348 = loc("/Users/mac/Projects/mlir/cpp-to-ops-converter/script/..//ITK_POM2K/pom2k_fun.c":2795:6)
#loc6360 = loc("/Users/mac/Projects/mlir/cpp-to-ops-converter/script/..//ITK_POM2K/pom2k_fun.c":2801:7)
#loc6362 = loc("/Users/mac/Projects/mlir/cpp-to-ops-converter/script/..//ITK_POM2K/pom2k_fun.c":2802:9)
#loc6364 = loc("/Users/mac/Projects/mlir/cpp-to-ops-converter/script/..//ITK_POM2K/pom2k_fun.c":2803:11)
#loc6375 = loc("/Users/mac/Projects/mlir/cpp-to-ops-converter/script/..//ITK_POM2K/pom2k_fun.c":2810:7)
#loc6377 = loc("/Users/mac/Projects/mlir/cpp-to-ops-converter/script/..//ITK_POM2K/pom2k_fun.c":2811:9)
#loc6380 = loc("/Users/mac/Projects/mlir/cpp-to-ops-converter/script/..//ITK_POM2K/pom2k_fun.c":2812:11)
#loc6432 = loc("/Users/mac/Projects/mlir/cpp-to-ops-converter/script/..//ITK_POM2K/pom2k_fun.c":2836:7)
#loc6435 = loc("/Users/mac/Projects/mlir/cpp-to-ops-converter/script/..//ITK_POM2K/pom2k_fun.c":2837:9)
#loc6437 = loc("/Users/mac/Projects/mlir/cpp-to-ops-converter/script/..//ITK_POM2K/pom2k_fun.c":2838:11)
#loc6488 = loc("/Users/mac/Projects/mlir/cpp-to-ops-converter/script/..//ITK_POM2K/pom2k_fun.c":2861:7)
#loc6491 = loc("/Users/mac/Projects/mlir/cpp-to-ops-converter/script/..//ITK_POM2K/pom2k_fun.c":2862:9)
#loc6494 = loc("/Users/mac/Projects/mlir/cpp-to-ops-converter/script/..//ITK_POM2K/pom2k_fun.c":2863:11)
#loc6541 = loc("/Users/mac/Projects/mlir/cpp-to-ops-converter/script/..//ITK_POM2K/pom2k_fun.c":2952:6)
#loc6553 = loc("/Users/mac/Projects/mlir/cpp-to-ops-converter/script/..//ITK_POM2K/pom2k_fun.c":2958:7)
#loc6555 = loc("/Users/mac/Projects/mlir/cpp-to-ops-converter/script/..//ITK_POM2K/pom2k_fun.c":2959:9)
#loc6557 = loc("/Users/mac/Projects/mlir/cpp-to-ops-converter/script/..//ITK_POM2K/pom2k_fun.c":2960:11)
#loc6569 = loc("/Users/mac/Projects/mlir/cpp-to-ops-converter/script/..//ITK_POM2K/pom2k_fun.c":2968:7)
#loc6571 = loc("/Users/mac/Projects/mlir/cpp-to-ops-converter/script/..//ITK_POM2K/pom2k_fun.c":2969:9)
#loc6574 = loc("/Users/mac/Projects/mlir/cpp-to-ops-converter/script/..//ITK_POM2K/pom2k_fun.c":2970:11)
#loc6596 = loc("/Users/mac/Projects/mlir/cpp-to-ops-converter/script/..//ITK_POM2K/pom2k_fun.c":2977:7)
#loc6599 = loc("/Users/mac/Projects/mlir/cpp-to-ops-converter/script/..//ITK_POM2K/pom2k_fun.c":2978:9)
#loc6602 = loc("/Users/mac/Projects/mlir/cpp-to-ops-converter/script/..//ITK_POM2K/pom2k_fun.c":2979:11)
#loc6623 = loc("/Users/mac/Projects/mlir/cpp-to-ops-converter/script/..//ITK_POM2K/pom2k_fun.c":2986:7)
#loc6626 = loc("/Users/mac/Projects/mlir/cpp-to-ops-converter/script/..//ITK_POM2K/pom2k_fun.c":2987:9)
#loc6639 = loc("/Users/mac/Projects/mlir/cpp-to-ops-converter/script/..//ITK_POM2K/pom2k_fun.c":2993:7)
#loc6642 = loc("/Users/mac/Projects/mlir/cpp-to-ops-converter/script/..//ITK_POM2K/pom2k_fun.c":2994:9)
#loc6645 = loc("/Users/mac/Projects/mlir/cpp-to-ops-converter/script/..//ITK_POM2K/pom2k_fun.c":2995:11)
#loc6658 = loc("/Users/mac/Projects/mlir/cpp-to-ops-converter/script/..//ITK_POM2K/pom2k_fun.c":3005:7)
#loc6661 = loc("/Users/mac/Projects/mlir/cpp-to-ops-converter/script/..//ITK_POM2K/pom2k_fun.c":3008:9)
#loc6664 = loc("/Users/mac/Projects/mlir/cpp-to-ops-converter/script/..//ITK_POM2K/pom2k_fun.c":3009:11)
#loc6668 = loc("/Users/mac/Projects/mlir/cpp-to-ops-converter/script/..//ITK_POM2K/pom2k_fun.c":3010:13)
#loc6702 = loc("/Users/mac/Projects/mlir/cpp-to-ops-converter/script/..//ITK_POM2K/pom2k_fun.c":3020:9)
#loc6705 = loc("/Users/mac/Projects/mlir/cpp-to-ops-converter/script/..//ITK_POM2K/pom2k_fun.c":3021:11)
#loc6717 = loc("/Users/mac/Projects/mlir/cpp-to-ops-converter/script/..//ITK_POM2K/pom2k_fun.c":3027:9)
#loc6720 = loc("/Users/mac/Projects/mlir/cpp-to-ops-converter/script/..//ITK_POM2K/pom2k_fun.c":3028:11)
#loc6733 = loc("/Users/mac/Projects/mlir/cpp-to-ops-converter/script/..//ITK_POM2K/pom2k_fun.c":3035:9)
#loc6737 = loc("/Users/mac/Projects/mlir/cpp-to-ops-converter/script/..//ITK_POM2K/pom2k_fun.c":3036:11)
#loc6740 = loc("/Users/mac/Projects/mlir/cpp-to-ops-converter/script/..//ITK_POM2K/pom2k_fun.c":3037:13)
#loc6765 = loc("/Users/mac/Projects/mlir/cpp-to-ops-converter/script/..//ITK_POM2K/pom2k_fun.c":3046:9)
#loc6771 = loc("/Users/mac/Projects/mlir/cpp-to-ops-converter/script/..//ITK_POM2K/pom2k_fun.c":3047:11)
#loc6775 = loc("/Users/mac/Projects/mlir/cpp-to-ops-converter/script/..//ITK_POM2K/pom2k_fun.c":3048:13)
#loc6814 = loc("/Users/mac/Projects/mlir/cpp-to-ops-converter/script/..//ITK_POM2K/pom2k_fun.c":3061:9)
#loc6817 = loc("/Users/mac/Projects/mlir/cpp-to-ops-converter/script/..//ITK_POM2K/pom2k_fun.c":3062:11)
#loc6825 = loc("/Users/mac/Projects/mlir/cpp-to-ops-converter/script/..//ITK_POM2K/pom2k_fun.c":3067:9)
#loc6828 = loc("/Users/mac/Projects/mlir/cpp-to-ops-converter/script/..//ITK_POM2K/pom2k_fun.c":3068:11)
#loc6831 = loc("/Users/mac/Projects/mlir/cpp-to-ops-converter/script/..//ITK_POM2K/pom2k_fun.c":3069:13)
#loc6841 = loc("/Users/mac/Projects/mlir/cpp-to-ops-converter/script/..//ITK_POM2K/pom2k_fun.c":3081:7)
#loc6844 = loc("/Users/mac/Projects/mlir/cpp-to-ops-converter/script/..//ITK_POM2K/pom2k_fun.c":3082:9)
#loc6847 = loc("/Users/mac/Projects/mlir/cpp-to-ops-converter/script/..//ITK_POM2K/pom2k_fun.c":3083:11)
#loc6856 = loc("/Users/mac/Projects/mlir/cpp-to-ops-converter/script/..//ITK_POM2K/pom2k_fun.c":3089:7)
#loc6859 = loc("/Users/mac/Projects/mlir/cpp-to-ops-converter/script/..//ITK_POM2K/pom2k_fun.c":3090:9)
#loc6863 = loc("/Users/mac/Projects/mlir/cpp-to-ops-converter/script/..//ITK_POM2K/pom2k_fun.c":3091:11)
#loc6885 = loc("/Users/mac/Projects/mlir/cpp-to-ops-converter/script/..//ITK_POM2K/pom2k_fun.c":3098:7)
#loc6888 = loc("/Users/mac/Projects/mlir/cpp-to-ops-converter/script/..//ITK_POM2K/pom2k_fun.c":3099:9)
#loc6892 = loc("/Users/mac/Projects/mlir/cpp-to-ops-converter/script/..//ITK_POM2K/pom2k_fun.c":3100:11)
#loc6954 = loc("/Users/mac/Projects/mlir/cpp-to-ops-converter/script/..//ITK_POM2K/pom2k_fun.c":3111:7)
#loc6957 = loc("/Users/mac/Projects/mlir/cpp-to-ops-converter/script/..//ITK_POM2K/pom2k_fun.c":3112:9)
#loc6960 = loc("/Users/mac/Projects/mlir/cpp-to-ops-converter/script/..//ITK_POM2K/pom2k_fun.c":3113:11)
#loc6969 = loc("/Users/mac/Projects/mlir/cpp-to-ops-converter/script/..//ITK_POM2K/pom2k_fun.c":3120:7)
#loc6972 = loc("/Users/mac/Projects/mlir/cpp-to-ops-converter/script/..//ITK_POM2K/pom2k_fun.c":3121:9)
#loc6976 = loc("/Users/mac/Projects/mlir/cpp-to-ops-converter/script/..//ITK_POM2K/pom2k_fun.c":3122:11)
#loc7003 = loc("/Users/mac/Projects/mlir/cpp-to-ops-converter/script/..//ITK_POM2K/pom2k_fun.c":3151:6)
#loc7010 = loc("/Users/mac/Projects/mlir/cpp-to-ops-converter/script/..//ITK_POM2K/pom2k_fun.c":3154:5)
#loc7012 = loc("/Users/mac/Projects/mlir/cpp-to-ops-converter/script/..//ITK_POM2K/pom2k_fun.c":3155:7)
#loc7038 = loc("/Users/mac/Projects/mlir/cpp-to-ops-converter/script/..//ITK_POM2K/pom2k_fun.c":3187:6)
#loc7048 = loc("/Users/mac/Projects/mlir/cpp-to-ops-converter/script/..//ITK_POM2K/pom2k_fun.c":3191:7)
#loc7050 = loc("/Users/mac/Projects/mlir/cpp-to-ops-converter/script/..//ITK_POM2K/pom2k_fun.c":3192:9)
#loc7057 = loc("/Users/mac/Projects/mlir/cpp-to-ops-converter/script/..//ITK_POM2K/pom2k_fun.c":3197:7)
#loc7062 = loc("/Users/mac/Projects/mlir/cpp-to-ops-converter/script/..//ITK_POM2K/pom2k_fun.c":3198:9)
#loc7065 = loc("/Users/mac/Projects/mlir/cpp-to-ops-converter/script/..//ITK_POM2K/pom2k_fun.c":3199:11)
#loc7082 = loc("/Users/mac/Projects/mlir/cpp-to-ops-converter/script/..//ITK_POM2K/pom2k_fun.c":3205:7)
#loc7085 = loc("/Users/mac/Projects/mlir/cpp-to-ops-converter/script/..//ITK_POM2K/pom2k_fun.c":3206:9)
#loc7088 = loc("/Users/mac/Projects/mlir/cpp-to-ops-converter/script/..//ITK_POM2K/pom2k_fun.c":3207:11)
#loc7108 = loc("/Users/mac/Projects/mlir/cpp-to-ops-converter/script/..//ITK_POM2K/pom2k_fun.c":3214:7)
#loc7111 = loc("/Users/mac/Projects/mlir/cpp-to-ops-converter/script/..//ITK_POM2K/pom2k_fun.c":3215:9)
#loc7119 = loc("/Users/mac/Projects/mlir/cpp-to-ops-converter/script/..//ITK_POM2K/pom2k_fun.c":3220:7)
#loc7124 = loc("/Users/mac/Projects/mlir/cpp-to-ops-converter/script/..//ITK_POM2K/pom2k_fun.c":3221:9)
#loc7127 = loc("/Users/mac/Projects/mlir/cpp-to-ops-converter/script/..//ITK_POM2K/pom2k_fun.c":3222:11)
#loc7144 = loc("/Users/mac/Projects/mlir/cpp-to-ops-converter/script/..//ITK_POM2K/pom2k_fun.c":3228:7)
#loc7147 = loc("/Users/mac/Projects/mlir/cpp-to-ops-converter/script/..//ITK_POM2K/pom2k_fun.c":3229:9)
#loc7150 = loc("/Users/mac/Projects/mlir/cpp-to-ops-converter/script/..//ITK_POM2K/pom2k_fun.c":3230:11)
#loc7170 = loc("/Users/mac/Projects/mlir/cpp-to-ops-converter/script/..//ITK_POM2K/pom2k_fun.c":3236:7)
#loc7173 = loc("/Users/mac/Projects/mlir/cpp-to-ops-converter/script/..//ITK_POM2K/pom2k_fun.c":3237:9)
#loc7176 = loc("/Users/mac/Projects/mlir/cpp-to-ops-converter/script/..//ITK_POM2K/pom2k_fun.c":3238:11)
#loc7193 = loc("/Users/mac/Projects/mlir/cpp-to-ops-converter/script/..//ITK_POM2K/pom2k_fun.c":3282:6)
#loc7205 = loc("/Users/mac/Projects/mlir/cpp-to-ops-converter/script/..//ITK_POM2K/pom2k_fun.c":3286:7)
#loc7207 = loc("/Users/mac/Projects/mlir/cpp-to-ops-converter/script/..//ITK_POM2K/pom2k_fun.c":3287:9)
#loc7209 = loc("/Users/mac/Projects/mlir/cpp-to-ops-converter/script/..//ITK_POM2K/pom2k_fun.c":3288:11)
#loc7217 = loc("/Users/mac/Projects/mlir/cpp-to-ops-converter/script/..//ITK_POM2K/pom2k_fun.c":3295:7)
#loc7221 = loc("/Users/mac/Projects/mlir/cpp-to-ops-converter/script/..//ITK_POM2K/pom2k_fun.c":3296:9)
#loc7224 = loc("/Users/mac/Projects/mlir/cpp-to-ops-converter/script/..//ITK_POM2K/pom2k_fun.c":3297:11)
#loc7246 = loc("/Users/mac/Projects/mlir/cpp-to-ops-converter/script/..//ITK_POM2K/pom2k_fun.c":3304:7)
#loc7251 = loc("/Users/mac/Projects/mlir/cpp-to-ops-converter/script/..//ITK_POM2K/pom2k_fun.c":3305:9)
#loc7254 = loc("/Users/mac/Projects/mlir/cpp-to-ops-converter/script/..//ITK_POM2K/pom2k_fun.c":3306:11)
#loc7317 = loc("/Users/mac/Projects/mlir/cpp-to-ops-converter/script/..//ITK_POM2K/pom2k_fun.c":3318:7)
#loc7320 = loc("/Users/mac/Projects/mlir/cpp-to-ops-converter/script/..//ITK_POM2K/pom2k_fun.c":3319:9)
#loc7323 = loc("/Users/mac/Projects/mlir/cpp-to-ops-converter/script/..//ITK_POM2K/pom2k_fun.c":3320:11)
#loc7355 = loc("/Users/mac/Projects/mlir/cpp-to-ops-converter/script/..//ITK_POM2K/pom2k_fun.c":3361:6)
#loc7367 = loc("/Users/mac/Projects/mlir/cpp-to-ops-converter/script/..//ITK_POM2K/pom2k_fun.c":3365:7)
#loc7369 = loc("/Users/mac/Projects/mlir/cpp-to-ops-converter/script/..//ITK_POM2K/pom2k_fun.c":3366:9)
#loc7371 = loc("/Users/mac/Projects/mlir/cpp-to-ops-converter/script/..//ITK_POM2K/pom2k_fun.c":3367:11)
#loc7379 = loc("/Users/mac/Projects/mlir/cpp-to-ops-converter/script/..//ITK_POM2K/pom2k_fun.c":3374:7)
#loc7383 = loc("/Users/mac/Projects/mlir/cpp-to-ops-converter/script/..//ITK_POM2K/pom2k_fun.c":3375:9)
#loc7387 = loc("/Users/mac/Projects/mlir/cpp-to-ops-converter/script/..//ITK_POM2K/pom2k_fun.c":3376:11)
#loc7408 = loc("/Users/mac/Projects/mlir/cpp-to-ops-converter/script/..//ITK_POM2K/pom2k_fun.c":3384:7)
#loc7413 = loc("/Users/mac/Projects/mlir/cpp-to-ops-converter/script/..//ITK_POM2K/pom2k_fun.c":3385:9)
#loc7416 = loc("/Users/mac/Projects/mlir/cpp-to-ops-converter/script/..//ITK_POM2K/pom2k_fun.c":3386:11)
#loc7479 = loc("/Users/mac/Projects/mlir/cpp-to-ops-converter/script/..//ITK_POM2K/pom2k_fun.c":3398:7)
#loc7482 = loc("/Users/mac/Projects/mlir/cpp-to-ops-converter/script/..//ITK_POM2K/pom2k_fun.c":3399:9)
#loc7486 = loc("/Users/mac/Projects/mlir/cpp-to-ops-converter/script/..//ITK_POM2K/pom2k_fun.c":3400:11)
#loc7517 = loc("/Users/mac/Projects/mlir/cpp-to-ops-converter/script/..//ITK_POM2K/pom2k_fun.c":3425:6)
#loc7527 = loc("/Users/mac/Projects/mlir/cpp-to-ops-converter/script/..//ITK_POM2K/pom2k_fun.c":3427:7)
#loc7529 = loc("/Users/mac/Projects/mlir/cpp-to-ops-converter/script/..//ITK_POM2K/pom2k_fun.c":3428:9)
#loc7531 = loc("/Users/mac/Projects/mlir/cpp-to-ops-converter/script/..//ITK_POM2K/pom2k_fun.c":3429:11)
#loc7569 = loc("/Users/mac/Projects/mlir/cpp-to-ops-converter/script/..//ITK_POM2K/pom2k_fun.c":3442:6)
#loc7571 = loc("/Users/mac/Projects/mlir/cpp-to-ops-converter/script/..//ITK_POM2K/pom2k_fun.c":3497:6)
#loc7627 = loc("/Users/mac/Projects/mlir/cpp-to-ops-converter/script/..//ITK_POM2K/pom2k_fun.c":3568:3)
#loc7630 = loc("/Users/mac/Projects/mlir/cpp-to-ops-converter/script/..//ITK_POM2K/pom2k_fun.c":3569:5)
#loc7641 = loc("/Users/mac/Projects/mlir/cpp-to-ops-converter/script/..//ITK_POM2K/pom2k_fun.c":3584:3)
#loc7650 = loc("/Users/mac/Projects/mlir/cpp-to-ops-converter/script/..//ITK_POM2K/pom2k_fun.c":3585:5)
#loc7653 = loc("/Users/mac/Projects/mlir/cpp-to-ops-converter/script/..//ITK_POM2K/pom2k_fun.c":3586:7)
#loc7696 = loc("/Users/mac/Projects/mlir/cpp-to-ops-converter/script/..//ITK_POM2K/pom2k_fun.c":3627:3)
#loc7715 = loc("/Users/mac/Projects/mlir/cpp-to-ops-converter/script/..//ITK_POM2K/pom2k_fun.c":3632:3)
#loc7742 = loc("/Users/mac/Projects/mlir/cpp-to-ops-converter/script/..//ITK_POM2K/pom2k_fun.c":3649:3)
#loc7745 = loc("/Users/mac/Projects/mlir/cpp-to-ops-converter/script/..//ITK_POM2K/pom2k_fun.c":3650:5)
#loc7799 = loc("/Users/mac/Projects/mlir/cpp-to-ops-converter/script/..//ITK_POM2K/pom2k_fun.c":3684:3)
#loc7804 = loc("/Users/mac/Projects/mlir/cpp-to-ops-converter/script/..//ITK_POM2K/pom2k_fun.c":3685:5)
#loc7807 = loc("/Users/mac/Projects/mlir/cpp-to-ops-converter/script/..//ITK_POM2K/pom2k_fun.c":3686:7)
#loc7851 = loc("/Users/mac/Projects/mlir/cpp-to-ops-converter/script/..//ITK_POM2K/pom2k_fun.c":3721:3)
#loc7857 = loc("/Users/mac/Projects/mlir/cpp-to-ops-converter/script/..//ITK_POM2K/pom2k_fun.c":3722:5)
#loc7860 = loc("/Users/mac/Projects/mlir/cpp-to-ops-converter/script/..//ITK_POM2K/pom2k_fun.c":3723:7)
#loc7897 = loc("/Users/mac/Projects/mlir/cpp-to-ops-converter/script/..//ITK_POM2K/pom2k_fun.c":3749:3)
#loc7902 = loc("/Users/mac/Projects/mlir/cpp-to-ops-converter/script/..//ITK_POM2K/pom2k_fun.c":3750:5)
#loc7905 = loc("/Users/mac/Projects/mlir/cpp-to-ops-converter/script/..//ITK_POM2K/pom2k_fun.c":3751:7)
#loc7939 = loc("/Users/mac/Projects/mlir/cpp-to-ops-converter/script/..//ITK_POM2K/pom2k_fun.c":3767:3)
#loc7942 = loc("/Users/mac/Projects/mlir/cpp-to-ops-converter/script/..//ITK_POM2K/pom2k_fun.c":3768:5)
#loc8016 = loc("/Users/mac/Projects/mlir/cpp-to-ops-converter/script/..//ITK_POM2K/pom2k_fun.c":3818:7)
#loc8019 = loc("/Users/mac/Projects/mlir/cpp-to-ops-converter/script/..//ITK_POM2K/pom2k_fun.c":3819:9)
#loc8022 = loc("/Users/mac/Projects/mlir/cpp-to-ops-converter/script/..//ITK_POM2K/pom2k_fun.c":3820:11)
#loc8039 = loc("/Users/mac/Projects/mlir/cpp-to-ops-converter/script/..//ITK_POM2K/pom2k_fun.c":3850:3)
#loc8043 = loc("/Users/mac/Projects/mlir/cpp-to-ops-converter/script/..//ITK_POM2K/pom2k_fun.c":3851:5)
#loc8046 = loc("/Users/mac/Projects/mlir/cpp-to-ops-converter/script/..//ITK_POM2K/pom2k_fun.c":3852:7)
#loc8088 = loc("/Users/mac/Projects/mlir/cpp-to-ops-converter/script/..//ITK_POM2K/pom2k_fun.c":3870:3)
#loc8095 = loc("/Users/mac/Projects/mlir/cpp-to-ops-converter/script/..//ITK_POM2K/pom2k_fun.c":3872:5)
#loc8098 = loc("/Users/mac/Projects/mlir/cpp-to-ops-converter/script/..//ITK_POM2K/pom2k_fun.c":3873:7)
#loc8112 = loc("/Users/mac/Projects/mlir/cpp-to-ops-converter/script/..//ITK_POM2K/pom2k_fun.c":3892:3)
#loc8115 = loc("/Users/mac/Projects/mlir/cpp-to-ops-converter/script/..//ITK_POM2K/pom2k_fun.c":3893:5)
#loc8131 = loc("/Users/mac/Projects/mlir/cpp-to-ops-converter/script/..//ITK_POM2K/pom2k_fun.c":3915:3)
#loc8137 = loc("/Users/mac/Projects/mlir/cpp-to-ops-converter/script/..//ITK_POM2K/pom2k_fun.c":3916:5)
#loc8140 = loc("/Users/mac/Projects/mlir/cpp-to-ops-converter/script/..//ITK_POM2K/pom2k_fun.c":3917:7)
#loc8212 = loc("/Users/mac/Projects/mlir/cpp-to-ops-converter/script/..//ITK_POM2K/pom2k_fun.c":3939:3)
#loc8218 = loc("/Users/mac/Projects/mlir/cpp-to-ops-converter/script/..//ITK_POM2K/pom2k_fun.c":3941:5)
#loc8221 = loc("/Users/mac/Projects/mlir/cpp-to-ops-converter/script/..//ITK_POM2K/pom2k_fun.c":3942:7)
#loc8235 = loc("/Users/mac/Projects/mlir/cpp-to-ops-converter/script/..//ITK_POM2K/pom2k_fun.c":3958:3)
#loc8238 = loc("/Users/mac/Projects/mlir/cpp-to-ops-converter/script/..//ITK_POM2K/pom2k_fun.c":3959:5)
#loc8241 = loc("/Users/mac/Projects/mlir/cpp-to-ops-converter/script/..//ITK_POM2K/pom2k_fun.c":3960:7)
#loc8264 = loc("/Users/mac/Projects/mlir/cpp-to-ops-converter/script/..//ITK_POM2K/pom2k_fun.c":3994:3)
#loc8267 = loc("/Users/mac/Projects/mlir/cpp-to-ops-converter/script/..//ITK_POM2K/pom2k_fun.c":3995:5)
#loc8270 = loc("/Users/mac/Projects/mlir/cpp-to-ops-converter/script/..//ITK_POM2K/pom2k_fun.c":3996:7)
#loc8305 = loc("/Users/mac/Projects/mlir/cpp-to-ops-converter/script/..//ITK_POM2K/pom2k_fun.c":4017:3)
#loc8308 = loc("/Users/mac/Projects/mlir/cpp-to-ops-converter/script/..//ITK_POM2K/pom2k_fun.c":4018:5)
#loc8311 = loc("/Users/mac/Projects/mlir/cpp-to-ops-converter/script/..//ITK_POM2K/pom2k_fun.c":4019:7)
#loc8347 = loc("/Users/mac/Projects/mlir/cpp-to-ops-converter/script/..//ITK_POM2K/pom2k_fun.c":4045:3)
#loc8350 = loc("/Users/mac/Projects/mlir/cpp-to-ops-converter/script/..//ITK_POM2K/pom2k_fun.c":4046:5)
#loc8394 = loc("/Users/mac/Projects/mlir/cpp-to-ops-converter/script/..//ITK_POM2K/pom2k_fun.c":4052:5)
#loc8442 = loc("/Users/mac/Projects/mlir/cpp-to-ops-converter/script/..//ITK_POM2K/pom2k_fun.c":4068:6)
#loc8477 = loc("/Users/mac/Projects/mlir/cpp-to-ops-converter/script/..//ITK_POM2K/pom2k_fun.c":4161:3)
#loc8480 = loc("/Users/mac/Projects/mlir/cpp-to-ops-converter/script/..//ITK_POM2K/pom2k_fun.c":4162:5)
#loc8491 = loc("/Users/mac/Projects/mlir/cpp-to-ops-converter/script/..//ITK_POM2K/pom2k_fun.c":4178:3)
#loc8497 = loc("/Users/mac/Projects/mlir/cpp-to-ops-converter/script/..//ITK_POM2K/pom2k_fun.c":4179:5)
#loc8500 = loc("/Users/mac/Projects/mlir/cpp-to-ops-converter/script/..//ITK_POM2K/pom2k_fun.c":4180:7)
#loc8520 = loc("/Users/mac/Projects/mlir/cpp-to-ops-converter/script/..//ITK_POM2K/pom2k_fun.c":4187:3)
#loc8528 = loc("/Users/mac/Projects/mlir/cpp-to-ops-converter/script/..//ITK_POM2K/pom2k_fun.c":4188:5)
#loc8531 = loc("/Users/mac/Projects/mlir/cpp-to-ops-converter/script/..//ITK_POM2K/pom2k_fun.c":4189:7)
#loc8590 = loc("/Users/mac/Projects/mlir/cpp-to-ops-converter/script/..//ITK_POM2K/pom2k_fun.c":4256:5)
#loc8593 = loc("/Users/mac/Projects/mlir/cpp-to-ops-converter/script/..//ITK_POM2K/pom2k_fun.c":4257:7)
#loc8627 = loc("/Users/mac/Projects/mlir/cpp-to-ops-converter/script/..//ITK_POM2K/pom2k_fun.c":4278:5)
#loc8630 = loc("/Users/mac/Projects/mlir/cpp-to-ops-converter/script/..//ITK_POM2K/pom2k_fun.c":4279:7)
#loc8669 = loc("/Users/mac/Projects/mlir/cpp-to-ops-converter/script/..//ITK_POM2K/pom2k_fun.c":4301:5)
#loc8672 = loc("/Users/mac/Projects/mlir/cpp-to-ops-converter/script/..//ITK_POM2K/pom2k_fun.c":4302:7)
#loc8685 = loc("/Users/mac/Projects/mlir/cpp-to-ops-converter/script/..//ITK_POM2K/pom2k_fun.c":4323:3)
#loc8692 = loc("/Users/mac/Projects/mlir/cpp-to-ops-converter/script/..//ITK_POM2K/pom2k_fun.c":4324:5)
#loc8695 = loc("/Users/mac/Projects/mlir/cpp-to-ops-converter/script/..//ITK_POM2K/pom2k_fun.c":4325:7)
#loc8737 = loc("/Users/mac/Projects/mlir/cpp-to-ops-converter/script/..//ITK_POM2K/pom2k_fun.c":4348:3)
#loc8740 = loc("/Users/mac/Projects/mlir/cpp-to-ops-converter/script/..//ITK_POM2K/pom2k_fun.c":4349:5)
#loc8777 = loc("/Users/mac/Projects/mlir/cpp-to-ops-converter/script/..//ITK_POM2K/pom2k_fun.c":4366:3)
#loc8784 = loc("/Users/mac/Projects/mlir/cpp-to-ops-converter/script/..//ITK_POM2K/pom2k_fun.c":4368:5)
#loc8787 = loc("/Users/mac/Projects/mlir/cpp-to-ops-converter/script/..//ITK_POM2K/pom2k_fun.c":4369:7)
#loc8801 = loc("/Users/mac/Projects/mlir/cpp-to-ops-converter/script/..//ITK_POM2K/pom2k_fun.c":4378:6)
#loc8803 = loc("/Users/mac/Projects/mlir/cpp-to-ops-converter/script/..//ITK_POM2K/pom2k_fun.c":4433:6)
#loc8812 = loc("/Users/mac/Projects/mlir/cpp-to-ops-converter/script/..//ITK_POM2K/pom2k_fun.c":4444:6)
#loc8818 = loc("/Users/mac/Projects/mlir/cpp-to-ops-converter/script/..//ITK_POM2K/pom2k_fun.c":4455:6)
#loc8820 = loc("/Users/mac/Projects/mlir/cpp-to-ops-converter/script/..//ITK_POM2K/pom2k_fun.c":4473:6)
#loc8822 = loc("/Users/mac/Projects/mlir/cpp-to-ops-converter/script/..//ITK_POM2K/pom2k_fun.c":4492:6)
#loc8824 = loc("/Users/mac/Projects/mlir/cpp-to-ops-converter/script/..//ITK_POM2K/pom2k_fun.c":4511:6)
#loc8826 = loc("/Users/mac/Projects/mlir/cpp-to-ops-converter/script/..//ITK_POM2K/pom2k_fun.c":4532:6)
module attributes {dlti.dl_spec = #dlti.dl_spec<#dlti.dl_entry<"dlti.endianness", "little">, #dlti.dl_entry<i64, dense<64> : vector<2xi32>>, #dlti.dl_entry<f80, dense<128> : vector<2xi32>>, #dlti.dl_entry<i1, dense<8> : vector<2xi32>>, #dlti.dl_entry<i8, dense<8> : vector<2xi32>>, #dlti.dl_entry<i16, dense<16> : vector<2xi32>>, #dlti.dl_entry<i32, dense<32> : vector<2xi32>>, #dlti.dl_entry<f16, dense<16> : vector<2xi32>>, #dlti.dl_entry<f64, dense<64> : vector<2xi32>>, #dlti.dl_entry<f128, dense<128> : vector<2xi32>>>, llvm.data_layout = "e-m:o-p270:32:32-p271:32:32-p272:64:64-i64:64-f80:128-n8:16:32:64-S128", llvm.target_triple = "x86_64-apple-macosx13.0.0", "polygeist.target-cpu" = "penryn", "polygeist.target-features" = "+cx16,+cx8,+fxsr,+mmx,+sahf,+sse,+sse2,+sse3,+sse4.1,+ssse3,+x87", "polygeist.tune-cpu" = "generic"} {
  llvm.func @sprintf(!llvm.ptr<i8>, !llvm.ptr<i8>, ...) -> i32 loc(#loc0)
  llvm.mlir.global internal constant @str0("%s_%06d.raw\00") {addr_space = 0 : i32} loc(#loc1)
  memref.global @cbcmax : memref<1xf32> = dense<1.000000e+00> loc(#loc0)
  memref.global @cbcmin : memref<1xf32> = dense<2.500000e-03> loc(#loc0)
  memref.global @z0b : memref<1xf32> = dense<0.00999999977> loc(#loc0)
  memref.global @kappa : memref<1xf32> loc(#loc0)
  memref.global @time1 : memref<1xf32> = uninitialized loc(#loc0)
  memref.global @time0 : memref<1xf32> = uninitialized loc(#loc0)
  memref.global @period : memref<1xf32> = uninitialized loc(#loc0)
  memref.global @ntp : memref<1xi32> loc(#loc0)
  memref.global @mode : memref<1xi32> loc(#loc0)
  memref.global @kl2 : memref<1xi32> loc(#loc0)
  memref.global @kl1 : memref<1xi32> loc(#loc0)
  memref.global @jskp : memref<1xi32> loc(#loc0)
  memref.global @iskp : memref<1xi32> loc(#loc0)
  memref.global @iprint : memref<1xi32> loc(#loc0)
  memref.global @iint : memref<1xi32> loc(#loc0)
  memref.global @horcon : memref<1xf32> loc(#loc0)
  memref.global @vmaxl : memref<1xf32> loc(#loc0)
  memref.global @umol : memref<1xf32> loc(#loc0)
  memref.global @tprni : memref<1xf32> loc(#loc0)
  memref.global @time2 : memref<1xf32> loc(#loc0)
  memref.global @tbias : memref<1xf32> loc(#loc0)
  memref.global @small : memref<1xf32> loc(#loc0)
  memref.global @slmax : memref<1xf32> loc(#loc0)
  memref.global @sbias : memref<1xf32> loc(#loc0)
  memref.global @rhoref : memref<1xf32> loc(#loc0)
  memref.global @rfw : memref<1xf32> loc(#loc0)
  memref.global @rfs : memref<1xf32> loc(#loc0)
  memref.global @rfn : memref<1xf32> loc(#loc0)
  memref.global @rfe : memref<1xf32> loc(#loc0)
  memref.global @ramp : memref<1xf32> loc(#loc0)
  memref.global @pi : memref<1xf32> loc(#loc0)
  memref.global @hmax : memref<1xf32> loc(#loc0)
  memref.global @grav : memref<1xf32> loc(#loc0)
  memref.global @dti2 : memref<1xf32> loc(#loc0)
  memref.global @dti : memref<1xf32> loc(#loc0)
  memref.global @dte2 : memref<1xf32> loc(#loc0)
  memref.global @dte : memref<1xf32> loc(#loc0)
  memref.global @alpha : memref<1xf32> loc(#loc0)
  memref.global @kbm2 : memref<1xi32> loc(#loc0)
  memref.global @jmm2 : memref<1xi32> loc(#loc0)
  memref.global @imm2 : memref<1xi32> loc(#loc0)
  memref.global @kbm1 : memref<1xi32> loc(#loc0)
  memref.global @jmm1 : memref<1xi32> loc(#loc0)
  memref.global @imm1 : memref<1xi32> loc(#loc0)
  memref.global @kb : memref<1xi32> loc(#loc0)
  memref.global @jm : memref<1xi32> loc(#loc0)
  memref.global @im : memref<1xi32> loc(#loc0)
  func.func @set_sizes_(%arg0: memref<?xi32> loc("/Users/mac/Projects/mlir/cpp-to-ops-converter/script/..//ITK_POM2K/pom2k_fun.c":40:6), %arg1: memref<?xi32> loc("/Users/mac/Projects/mlir/cpp-to-ops-converter/script/..//ITK_POM2K/pom2k_fun.c":40:6), %arg2: memref<?xi32> loc("/Users/mac/Projects/mlir/cpp-to-ops-converter/script/..//ITK_POM2K/pom2k_fun.c":40:6)) attributes {llvm.linkage = #llvm.linkage<external>} {
    %c-1_i32 = arith.constant -1 : i32 loc(#loc3)
    %c-2_i32 = arith.constant -2 : i32 loc(#loc4)
    %0 = memref.get_global @im : memref<1xi32> loc(#loc5)
    %1 = affine.load %arg1[0] : memref<?xi32> loc(#loc6)
    affine.store %1, %0[0] : memref<1xi32> loc(#loc7)
    %2 = memref.get_global @jm : memref<1xi32> loc(#loc8)
    %3 = affine.load %arg0[0] : memref<?xi32> loc(#loc9)
    affine.store %3, %2[0] : memref<1xi32> loc(#loc10)
    %4 = memref.get_global @kb : memref<1xi32> loc(#loc11)
    %5 = affine.load %arg2[0] : memref<?xi32> loc(#loc12)
    affine.store %5, %4[0] : memref<1xi32> loc(#loc13)
    %6 = memref.get_global @imm1 : memref<1xi32> loc(#loc14)
    %7 = arith.addi %1, %c-1_i32 : i32 loc(#loc15)
    affine.store %7, %6[0] : memref<1xi32> loc(#loc16)
    %8 = memref.get_global @jmm1 : memref<1xi32> loc(#loc17)
    %9 = arith.addi %3, %c-1_i32 : i32 loc(#loc18)
    affine.store %9, %8[0] : memref<1xi32> loc(#loc19)
    %10 = memref.get_global @kbm1 : memref<1xi32> loc(#loc20)
    %11 = arith.addi %5, %c-1_i32 : i32 loc(#loc21)
    affine.store %11, %10[0] : memref<1xi32> loc(#loc22)
    %12 = memref.get_global @imm2 : memref<1xi32> loc(#loc23)
    %13 = arith.addi %1, %c-2_i32 : i32 loc(#loc24)
    affine.store %13, %12[0] : memref<1xi32> loc(#loc25)
    %14 = memref.get_global @jmm2 : memref<1xi32> loc(#loc26)
    %15 = arith.addi %3, %c-2_i32 : i32 loc(#loc27)
    affine.store %15, %14[0] : memref<1xi32> loc(#loc28)
    %16 = memref.get_global @kbm2 : memref<1xi32> loc(#loc29)
    %17 = arith.addi %5, %c-2_i32 : i32 loc(#loc30)
    affine.store %17, %16[0] : memref<1xi32> loc(#loc31)
    return loc(#loc32)
  } loc(#loc2)
  func.func @copy_real_constants_(%arg0: memref<?xf32> loc("/Users/mac/Projects/mlir/cpp-to-ops-converter/script/..//ITK_POM2K/pom2k_fun.c":52:6), %arg1: memref<?xf32> loc("/Users/mac/Projects/mlir/cpp-to-ops-converter/script/..//ITK_POM2K/pom2k_fun.c":52:6), %arg2: memref<?xf32> loc("/Users/mac/Projects/mlir/cpp-to-ops-converter/script/..//ITK_POM2K/pom2k_fun.c":52:6), %arg3: memref<?xf32> loc("/Users/mac/Projects/mlir/cpp-to-ops-converter/script/..//ITK_POM2K/pom2k_fun.c":52:6), %arg4: memref<?xf32> loc("/Users/mac/Projects/mlir/cpp-to-ops-converter/script/..//ITK_POM2K/pom2k_fun.c":52:6), %arg5: memref<?xf32> loc("/Users/mac/Projects/mlir/cpp-to-ops-converter/script/..//ITK_POM2K/pom2k_fun.c":52:6), %arg6: memref<?xf32> loc("/Users/mac/Projects/mlir/cpp-to-ops-converter/script/..//ITK_POM2K/pom2k_fun.c":52:6), %arg7: memref<?xf32> loc("/Users/mac/Projects/mlir/cpp-to-ops-converter/script/..//ITK_POM2K/pom2k_fun.c":52:6), %arg8: memref<?xf32> loc("/Users/mac/Projects/mlir/cpp-to-ops-converter/script/..//ITK_POM2K/pom2k_fun.c":52:6), %arg9: memref<?xf32> loc("/Users/mac/Projects/mlir/cpp-to-ops-converter/script/..//ITK_POM2K/pom2k_fun.c":52:6), %arg10: memref<?xf32> loc("/Users/mac/Projects/mlir/cpp-to-ops-converter/script/..//ITK_POM2K/pom2k_fun.c":52:6), %arg11: memref<?xf32> loc("/Users/mac/Projects/mlir/cpp-to-ops-converter/script/..//ITK_POM2K/pom2k_fun.c":52:6), %arg12: memref<?xf32> loc("/Users/mac/Projects/mlir/cpp-to-ops-converter/script/..//ITK_POM2K/pom2k_fun.c":52:6), %arg13: memref<?xf32> loc("/Users/mac/Projects/mlir/cpp-to-ops-converter/script/..//ITK_POM2K/pom2k_fun.c":52:6), %arg14: memref<?xf32> loc("/Users/mac/Projects/mlir/cpp-to-ops-converter/script/..//ITK_POM2K/pom2k_fun.c":52:6), %arg15: memref<?xf32> loc("/Users/mac/Projects/mlir/cpp-to-ops-converter/script/..//ITK_POM2K/pom2k_fun.c":52:6), %arg16: memref<?xf32> loc("/Users/mac/Projects/mlir/cpp-to-ops-converter/script/..//ITK_POM2K/pom2k_fun.c":52:6), %arg17: memref<?xf32> loc("/Users/mac/Projects/mlir/cpp-to-ops-converter/script/..//ITK_POM2K/pom2k_fun.c":52:6), %arg18: memref<?xf32> loc("/Users/mac/Projects/mlir/cpp-to-ops-converter/script/..//ITK_POM2K/pom2k_fun.c":52:6), %arg19: memref<?xf32> loc("/Users/mac/Projects/mlir/cpp-to-ops-converter/script/..//ITK_POM2K/pom2k_fun.c":52:6), %arg20: memref<?xf32> loc("/Users/mac/Projects/mlir/cpp-to-ops-converter/script/..//ITK_POM2K/pom2k_fun.c":52:6), %arg21: memref<?xf32> loc("/Users/mac/Projects/mlir/cpp-to-ops-converter/script/..//ITK_POM2K/pom2k_fun.c":52:6), %arg22: memref<?xf32> loc("/Users/mac/Projects/mlir/cpp-to-ops-converter/script/..//ITK_POM2K/pom2k_fun.c":52:6), %arg23: memref<?xf32> loc("/Users/mac/Projects/mlir/cpp-to-ops-converter/script/..//ITK_POM2K/pom2k_fun.c":52:6)) attributes {llvm.linkage = #llvm.linkage<external>} {
    %0 = memref.get_global @alpha : memref<1xf32> loc(#loc34)
    %1 = affine.load %arg0[0] : memref<?xf32> loc(#loc35)
    affine.store %1, %0[0] : memref<1xf32> loc(#loc36)
    %2 = memref.get_global @dte : memref<1xf32> loc(#loc37)
    %3 = affine.load %arg1[0] : memref<?xf32> loc(#loc38)
    affine.store %3, %2[0] : memref<1xf32> loc(#loc39)
    %4 = memref.get_global @dte2 : memref<1xf32> loc(#loc40)
    %5 = affine.load %arg2[0] : memref<?xf32> loc(#loc41)
    affine.store %5, %4[0] : memref<1xf32> loc(#loc42)
    %6 = memref.get_global @dti : memref<1xf32> loc(#loc43)
    %7 = affine.load %arg3[0] : memref<?xf32> loc(#loc44)
    affine.store %7, %6[0] : memref<1xf32> loc(#loc45)
    %8 = memref.get_global @dti2 : memref<1xf32> loc(#loc46)
    %9 = affine.load %arg4[0] : memref<?xf32> loc(#loc47)
    affine.store %9, %8[0] : memref<1xf32> loc(#loc48)
    %10 = memref.get_global @grav : memref<1xf32> loc(#loc49)
    %11 = affine.load %arg5[0] : memref<?xf32> loc(#loc50)
    affine.store %11, %10[0] : memref<1xf32> loc(#loc51)
    %12 = memref.get_global @hmax : memref<1xf32> loc(#loc52)
    %13 = affine.load %arg6[0] : memref<?xf32> loc(#loc53)
    affine.store %13, %12[0] : memref<1xf32> loc(#loc54)
    %14 = memref.get_global @pi : memref<1xf32> loc(#loc55)
    %15 = affine.load %arg8[0] : memref<?xf32> loc(#loc56)
    affine.store %15, %14[0] : memref<1xf32> loc(#loc57)
    %16 = memref.get_global @ramp : memref<1xf32> loc(#loc58)
    %17 = affine.load %arg9[0] : memref<?xf32> loc(#loc59)
    affine.store %17, %16[0] : memref<1xf32> loc(#loc60)
    %18 = memref.get_global @rfe : memref<1xf32> loc(#loc61)
    %19 = affine.load %arg10[0] : memref<?xf32> loc(#loc62)
    affine.store %19, %18[0] : memref<1xf32> loc(#loc63)
    %20 = memref.get_global @rfn : memref<1xf32> loc(#loc64)
    %21 = affine.load %arg11[0] : memref<?xf32> loc(#loc65)
    affine.store %21, %20[0] : memref<1xf32> loc(#loc66)
    %22 = memref.get_global @rfs : memref<1xf32> loc(#loc67)
    %23 = affine.load %arg12[0] : memref<?xf32> loc(#loc68)
    affine.store %23, %22[0] : memref<1xf32> loc(#loc69)
    %24 = memref.get_global @rfw : memref<1xf32> loc(#loc70)
    %25 = affine.load %arg13[0] : memref<?xf32> loc(#loc71)
    affine.store %25, %24[0] : memref<1xf32> loc(#loc72)
    %26 = memref.get_global @rhoref : memref<1xf32> loc(#loc73)
    %27 = affine.load %arg14[0] : memref<?xf32> loc(#loc74)
    affine.store %27, %26[0] : memref<1xf32> loc(#loc75)
    %28 = memref.get_global @sbias : memref<1xf32> loc(#loc76)
    %29 = affine.load %arg15[0] : memref<?xf32> loc(#loc77)
    affine.store %29, %28[0] : memref<1xf32> loc(#loc78)
    %30 = memref.get_global @slmax : memref<1xf32> loc(#loc79)
    %31 = affine.load %arg16[0] : memref<?xf32> loc(#loc80)
    affine.store %31, %30[0] : memref<1xf32> loc(#loc81)
    %32 = memref.get_global @small : memref<1xf32> loc(#loc82)
    %33 = affine.load %arg17[0] : memref<?xf32> loc(#loc83)
    affine.store %33, %32[0] : memref<1xf32> loc(#loc84)
    %34 = memref.get_global @tbias : memref<1xf32> loc(#loc85)
    %35 = affine.load %arg18[0] : memref<?xf32> loc(#loc86)
    affine.store %35, %34[0] : memref<1xf32> loc(#loc87)
    %36 = memref.get_global @time2 : memref<1xf32> loc(#loc88)
    %37 = affine.load %arg19[0] : memref<?xf32> loc(#loc89)
    affine.store %37, %36[0] : memref<1xf32> loc(#loc90)
    %38 = memref.get_global @tprni : memref<1xf32> loc(#loc91)
    %39 = affine.load %arg20[0] : memref<?xf32> loc(#loc92)
    affine.store %39, %38[0] : memref<1xf32> loc(#loc93)
    %40 = memref.get_global @umol : memref<1xf32> loc(#loc94)
    %41 = affine.load %arg21[0] : memref<?xf32> loc(#loc95)
    affine.store %41, %40[0] : memref<1xf32> loc(#loc96)
    %42 = memref.get_global @vmaxl : memref<1xf32> loc(#loc97)
    %43 = affine.load %arg22[0] : memref<?xf32> loc(#loc98)
    affine.store %43, %42[0] : memref<1xf32> loc(#loc99)
    %44 = memref.get_global @horcon : memref<1xf32> loc(#loc100)
    %45 = affine.load %arg23[0] : memref<?xf32> loc(#loc101)
    affine.store %45, %44[0] : memref<1xf32> loc(#loc102)
    return loc(#loc103)
  } loc(#loc33)
  func.func @copy_int_constants_(%arg0: memref<?xi32> loc("/Users/mac/Projects/mlir/cpp-to-ops-converter/script/..//ITK_POM2K/pom2k_fun.c":83:6), %arg1: memref<?xi32> loc("/Users/mac/Projects/mlir/cpp-to-ops-converter/script/..//ITK_POM2K/pom2k_fun.c":83:6), %arg2: memref<?xi32> loc("/Users/mac/Projects/mlir/cpp-to-ops-converter/script/..//ITK_POM2K/pom2k_fun.c":83:6), %arg3: memref<?xi32> loc("/Users/mac/Projects/mlir/cpp-to-ops-converter/script/..//ITK_POM2K/pom2k_fun.c":83:6), %arg4: memref<?xi32> loc("/Users/mac/Projects/mlir/cpp-to-ops-converter/script/..//ITK_POM2K/pom2k_fun.c":83:6), %arg5: memref<?xi32> loc("/Users/mac/Projects/mlir/cpp-to-ops-converter/script/..//ITK_POM2K/pom2k_fun.c":83:6), %arg6: memref<?xi32> loc("/Users/mac/Projects/mlir/cpp-to-ops-converter/script/..//ITK_POM2K/pom2k_fun.c":83:6), %arg7: memref<?xi32> loc("/Users/mac/Projects/mlir/cpp-to-ops-converter/script/..//ITK_POM2K/pom2k_fun.c":83:6)) attributes {llvm.linkage = #llvm.linkage<external>} {
    %0 = memref.get_global @iint : memref<1xi32> loc(#loc105)
    %1 = affine.load %arg0[0] : memref<?xi32> loc(#loc106)
    affine.store %1, %0[0] : memref<1xi32> loc(#loc107)
    %2 = memref.get_global @iprint : memref<1xi32> loc(#loc108)
    %3 = affine.load %arg1[0] : memref<?xi32> loc(#loc109)
    affine.store %3, %2[0] : memref<1xi32> loc(#loc110)
    %4 = memref.get_global @iskp : memref<1xi32> loc(#loc111)
    %5 = affine.load %arg2[0] : memref<?xi32> loc(#loc112)
    affine.store %5, %4[0] : memref<1xi32> loc(#loc113)
    %6 = memref.get_global @jskp : memref<1xi32> loc(#loc114)
    %7 = affine.load %arg3[0] : memref<?xi32> loc(#loc115)
    affine.store %7, %6[0] : memref<1xi32> loc(#loc116)
    %8 = memref.get_global @kl1 : memref<1xi32> loc(#loc117)
    %9 = affine.load %arg4[0] : memref<?xi32> loc(#loc118)
    affine.store %9, %8[0] : memref<1xi32> loc(#loc119)
    %10 = memref.get_global @kl2 : memref<1xi32> loc(#loc120)
    %11 = affine.load %arg5[0] : memref<?xi32> loc(#loc121)
    affine.store %11, %10[0] : memref<1xi32> loc(#loc122)
    %12 = memref.get_global @mode : memref<1xi32> loc(#loc123)
    %13 = affine.load %arg6[0] : memref<?xi32> loc(#loc124)
    affine.store %13, %12[0] : memref<1xi32> loc(#loc125)
    %14 = memref.get_global @ntp : memref<1xi32> loc(#loc126)
    %15 = affine.load %arg7[0] : memref<?xi32> loc(#loc127)
    affine.store %15, %14[0] : memref<1xi32> loc(#loc128)
    return loc(#loc129)
  } loc(#loc104)
  func.func @ext_depth_(%arg0: memref<?xf32> loc("/Users/mac/Projects/mlir/cpp-to-ops-converter/script/..//ITK_POM2K/pom2k_fun.c":95:6), %arg1: memref<?xf32> loc("/Users/mac/Projects/mlir/cpp-to-ops-converter/script/..//ITK_POM2K/pom2k_fun.c":95:6), %arg2: memref<?xf32> loc("/Users/mac/Projects/mlir/cpp-to-ops-converter/script/..//ITK_POM2K/pom2k_fun.c":95:6), %arg3: memref<?xf32> loc("/Users/mac/Projects/mlir/cpp-to-ops-converter/script/..//ITK_POM2K/pom2k_fun.c":95:6)) attributes {llvm.linkage = #llvm.linkage<external>} {
    %c-1_i32 = arith.constant -1 : i32 loc(#loc131)
    %cst = arith.constant 2.000000e+00 : f32 loc(#loc132)
    %cst_0 = arith.constant 5.000000e-01 : f32 loc(#loc133)
    %c0_i32 = arith.constant 0 : i32 loc(#loc134)
    %cst_1 = arith.constant 0.000000e+00 : f32 loc(#loc135)
    %c1024_i32 = arith.constant 1024 : i32 loc(#loc136)
    %c512_i32 = arith.constant 512 : i32 loc(#loc137)
    %c256_i32 = arith.constant 256 : i32 loc(#loc138)
    %c128_i32 = arith.constant 128 : i32 loc(#loc139)
    %c64_i32 = arith.constant 64 : i32 loc(#loc140)
    %c32_i32 = arith.constant 32 : i32 loc(#loc141)
    %c16_i32 = arith.constant 16 : i32 loc(#loc142)
    %c8_i32 = arith.constant 8 : i32 loc(#loc143)
    %c4_i32 = arith.constant 4 : i32 loc(#loc144)
    %c2_i32 = arith.constant 2 : i32 loc(#loc145)
    %c1_i32 = arith.constant 1 : i32 loc(#loc131)
    %c0 = arith.constant 0 : index loc(#loc146)
    %0 = memref.alloca() : memref<12xi32> loc(#loc147)
    affine.store %c1_i32, %0[0] : memref<12xi32> loc(#loc147)
    affine.store %c1_i32, %0[1] : memref<12xi32> loc(#loc147)
    affine.store %c2_i32, %0[2] : memref<12xi32> loc(#loc147)
    affine.store %c4_i32, %0[3] : memref<12xi32> loc(#loc147)
    affine.store %c8_i32, %0[4] : memref<12xi32> loc(#loc147)
    affine.store %c16_i32, %0[5] : memref<12xi32> loc(#loc147)
    affine.store %c32_i32, %0[6] : memref<12xi32> loc(#loc147)
    affine.store %c64_i32, %0[7] : memref<12xi32> loc(#loc147)
    affine.store %c128_i32, %0[8] : memref<12xi32> loc(#loc147)
    affine.store %c256_i32, %0[9] : memref<12xi32> loc(#loc147)
    affine.store %c512_i32, %0[10] : memref<12xi32> loc(#loc147)
    affine.store %c1024_i32, %0[11] : memref<12xi32> loc(#loc147)
    affine.store %cst_1, %arg0[0] : memref<?xf32> loc(#loc148)
    %1 = memref.get_global @kl1 : memref<1xi32> loc(#loc149)
    %2 = scf.while (%arg4 = %c1_i32) : (i32) -> i32 {
      %26 = affine.load %1[0] : memref<1xi32> loc(#loc149)
      %27 = arith.cmpi slt, %arg4, %26 : i32 loc(#loc150)
      scf.condition(%27) %arg4 : i32 loc(#loc134)
    } do {
    ^bb0(%arg4: i32 loc("/Users/mac/Projects/mlir/cpp-to-ops-converter/script/..//ITK_POM2K/pom2k_fun.c":99:3)):
      %26 = arith.index_cast %arg4 : i32 to index loc(#loc151)
      %27 = arith.addi %arg4, %c-1_i32 : i32 loc(#loc152)
      %28 = arith.index_cast %27 : i32 to index loc(#loc153)
      %29 = arith.addi %28, %c0 : index loc(#loc154)
      %30 = memref.load %arg0[%29] : memref<?xf32> loc(#loc154)
      %31 = memref.load %0[%29] : memref<12xi32> loc(#loc155)
      %32 = arith.sitofp %31 : i32 to f32 loc(#loc156)
      %33 = arith.addf %30, %32 : f32 loc(#loc157)
      %34 = arith.addi %26, %c0 : index loc(#loc158)
      memref.store %33, %arg0[%34] : memref<?xf32> loc(#loc159)
      %35 = arith.addi %arg4, %c1_i32 : i32 loc(#loc160)
      scf.yield %35 : i32 loc(#loc134)
    } loc(#loc149)
    %3 = affine.load %1[0] : memref<1xi32> loc(#loc161)
    %4 = arith.index_cast %3 : i32 to index loc(#loc161)
    %5 = affine.load %arg0[symbol(%4) - 1] : memref<?xf32> loc(#loc162)
    %6 = affine.load %arg0[symbol(%4) - 2] : memref<?xf32> loc(#loc163)
    %7 = arith.subf %5, %6 : f32 loc(#loc164)
    %8 = memref.get_global @kl2 : memref<1xi32> loc(#loc165)
    %9 = scf.while (%arg4 = %3) : (i32) -> i32 {
      %26 = affine.load %8[0] : memref<1xi32> loc(#loc165)
      %27 = arith.cmpi slt, %arg4, %26 : i32 loc(#loc166)
      scf.condition(%27) %arg4 : i32 loc(#loc167)
    } do {
    ^bb0(%arg4: i32 loc("/Users/mac/Projects/mlir/cpp-to-ops-converter/script/..//ITK_POM2K/pom2k_fun.c":103:3)):
      %26 = arith.index_cast %arg4 : i32 to index loc(#loc168)
      %27 = arith.addi %arg4, %c-1_i32 : i32 loc(#loc169)
      %28 = arith.index_cast %27 : i32 to index loc(#loc170)
      %29 = arith.addi %28, %c0 : index loc(#loc171)
      %30 = memref.load %arg0[%29] : memref<?xf32> loc(#loc171)
      %31 = arith.addf %30, %7 : f32 loc(#loc172)
      %32 = arith.addi %26, %c0 : index loc(#loc173)
      memref.store %31, %arg0[%32] : memref<?xf32> loc(#loc174)
      %33 = arith.addi %arg4, %c1_i32 : i32 loc(#loc175)
      scf.yield %33 : i32 loc(#loc167)
    } loc(#loc165)
    %10 = affine.load %8[0] : memref<1xi32> loc(#loc176)
    %11 = memref.get_global @kb : memref<1xi32> loc(#loc177)
    %12:2 = scf.while (%arg4 = %10) : (i32) -> (i32, i32) {
      %26 = affine.load %11[0] : memref<1xi32> loc(#loc177)
      %27 = arith.cmpi slt, %arg4, %26 : i32 loc(#loc178)
      scf.condition(%27) %26, %arg4 : i32, i32 loc(#loc179)
    } do {
    ^bb0(%arg4: i32 loc("/Users/mac/Projects/mlir/cpp-to-ops-converter/script/..//ITK_POM2K/pom2k_fun.c":106:3), %arg5: i32 loc("/Users/mac/Projects/mlir/cpp-to-ops-converter/script/..//ITK_POM2K/pom2k_fun.c":106:3)):
      %26 = arith.index_cast %arg5 : i32 to index loc(#loc180)
      %27 = arith.subi %arg4, %arg5 : i32 loc(#loc181)
      %28 = arith.addi %27, %c-1_i32 : i32 loc(#loc182)
      %29 = arith.index_cast %28 : i32 to index loc(#loc183)
      %30 = arith.addi %29, %c0 : index loc(#loc184)
      %31 = memref.load %0[%30] : memref<12xi32> loc(#loc184)
      %32 = arith.sitofp %31 : i32 to f32 loc(#loc185)
      %33 = arith.mulf %32, %7 : f32 loc(#loc186)
      %34 = affine.load %8[0] : memref<1xi32> loc(#loc187)
      %35 = arith.subi %arg4, %34 : i32 loc(#loc188)
      %36 = arith.addi %35, %c-1_i32 : i32 loc(#loc189)
      %37 = arith.index_cast %36 : i32 to index loc(#loc190)
      %38 = arith.addi %37, %c0 : index loc(#loc191)
      %39 = memref.load %0[%38] : memref<12xi32> loc(#loc191)
      %40 = arith.sitofp %39 : i32 to f32 loc(#loc192)
      %41 = arith.divf %33, %40 : f32 loc(#loc193)
      %42 = arith.addi %26, %c0 : index loc(#loc194)
      memref.store %41, %arg2[%42] : memref<?xf32> loc(#loc195)
      %43 = arith.addi %arg5, %c-1_i32 : i32 loc(#loc196)
      %44 = arith.index_cast %43 : i32 to index loc(#loc197)
      %45 = arith.addi %44, %c0 : index loc(#loc198)
      %46 = memref.load %arg0[%45] : memref<?xf32> loc(#loc198)
      %47 = memref.load %arg2[%42] : memref<?xf32> loc(#loc199)
      %48 = arith.addf %46, %47 : f32 loc(#loc200)
      memref.store %48, %arg0[%42] : memref<?xf32> loc(#loc201)
      %49 = arith.addi %arg5, %c1_i32 : i32 loc(#loc202)
      scf.yield %49 : i32 loc(#loc179)
    } loc(#loc177)
    %13:2 = scf.while (%arg4 = %c0_i32) : (i32) -> (i32, i32) {
      %26 = affine.load %11[0] : memref<1xi32> loc(#loc203)
      %27 = arith.cmpi slt, %arg4, %26 : i32 loc(#loc204)
      scf.condition(%27) %26, %arg4 : i32, i32 loc(#loc205)
    } do {
    ^bb0(%arg4: i32 loc("/Users/mac/Projects/mlir/cpp-to-ops-converter/script/..//ITK_POM2K/pom2k_fun.c":110:3), %arg5: i32 loc("/Users/mac/Projects/mlir/cpp-to-ops-converter/script/..//ITK_POM2K/pom2k_fun.c":110:3)):
      %26 = arith.index_cast %arg5 : i32 to index loc(#loc206)
      %27 = arith.addi %26, %c0 : index loc(#loc207)
      %28 = memref.load %arg0[%27] : memref<?xf32> loc(#loc208)
      %29 = arith.negf %28 : f32 loc(#loc209)
      %30 = arith.addi %arg4, %c-1_i32 : i32 loc(#loc210)
      %31 = arith.index_cast %30 : i32 to index loc(#loc211)
      %32 = arith.addi %31, %c0 : index loc(#loc212)
      %33 = memref.load %arg0[%32] : memref<?xf32> loc(#loc212)
      %34 = arith.divf %29, %33 : f32 loc(#loc213)
      memref.store %34, %arg0[%27] : memref<?xf32> loc(#loc214)
      %35 = arith.addi %arg5, %c1_i32 : i32 loc(#loc215)
      scf.yield %35 : i32 loc(#loc205)
    } loc(#loc203)
    %14 = scf.while (%arg4 = %c0_i32) : (i32) -> i32 {
      %26 = affine.load %11[0] : memref<1xi32> loc(#loc216)
      %27 = arith.addi %26, %c-1_i32 : i32 loc(#loc217)
      %28 = arith.cmpi slt, %arg4, %27 : i32 loc(#loc218)
      scf.condition(%28) %arg4 : i32 loc(#loc219)
    } do {
    ^bb0(%arg4: i32 loc("/Users/mac/Projects/mlir/cpp-to-ops-converter/script/..//ITK_POM2K/pom2k_fun.c":113:3)):
      %26 = arith.index_cast %arg4 : i32 to index loc(#loc220)
      %27 = arith.addi %26, %c0 : index loc(#loc221)
      %28 = memref.load %arg0[%27] : memref<?xf32> loc(#loc221)
      %29 = arith.addi %arg4, %c1_i32 : i32 loc(#loc222)
      %30 = arith.index_cast %29 : i32 to index loc(#loc223)
      %31 = arith.addi %30, %c0 : index loc(#loc224)
      %32 = memref.load %arg0[%31] : memref<?xf32> loc(#loc224)
      %33 = arith.addf %28, %32 : f32 loc(#loc225)
      %34 = arith.mulf %33, %cst_0 : f32 loc(#loc226)
      memref.store %34, %arg1[%27] : memref<?xf32> loc(#loc227)
      scf.yield %29 : i32 loc(#loc219)
    } loc(#loc216)
    %15 = affine.load %11[0] : memref<1xi32> loc(#loc228)
    %16 = arith.index_cast %15 : i32 to index loc(#loc228)
    %17 = affine.load %arg1[symbol(%16) - 2] : memref<?xf32> loc(#loc229)
    %18 = arith.mulf %17, %cst : f32 loc(#loc230)
    %19 = affine.load %arg1[symbol(%16) - 3] : memref<?xf32> loc(#loc231)
    %20 = arith.subf %18, %19 : f32 loc(#loc232)
    affine.store %20, %arg1[symbol(%16) - 1] : memref<?xf32> loc(#loc233)
    %21 = scf.while (%arg4 = %c0_i32) : (i32) -> i32 {
      %26 = affine.load %11[0] : memref<1xi32> loc(#loc234)
      %27 = arith.addi %26, %c-1_i32 : i32 loc(#loc235)
      %28 = arith.cmpi slt, %arg4, %27 : i32 loc(#loc236)
      scf.condition(%28) %arg4 : i32 loc(#loc237)
    } do {
    ^bb0(%arg4: i32 loc("/Users/mac/Projects/mlir/cpp-to-ops-converter/script/..//ITK_POM2K/pom2k_fun.c":117:3)):
      %26 = arith.index_cast %arg4 : i32 to index loc(#loc238)
      %27 = arith.addi %26, %c0 : index loc(#loc239)
      %28 = memref.load %arg0[%27] : memref<?xf32> loc(#loc239)
      %29 = arith.addi %arg4, %c1_i32 : i32 loc(#loc240)
      %30 = arith.index_cast %29 : i32 to index loc(#loc241)
      %31 = arith.addi %30, %c0 : index loc(#loc242)
      %32 = memref.load %arg0[%31] : memref<?xf32> loc(#loc242)
      %33 = arith.subf %28, %32 : f32 loc(#loc243)
      memref.store %33, %arg2[%27] : memref<?xf32> loc(#loc244)
      %34 = memref.load %arg1[%27] : memref<?xf32> loc(#loc245)
      %35 = memref.load %arg1[%31] : memref<?xf32> loc(#loc246)
      %36 = arith.subf %34, %35 : f32 loc(#loc247)
      memref.store %36, %arg3[%27] : memref<?xf32> loc(#loc248)
      scf.yield %29 : i32 loc(#loc237)
    } loc(#loc234)
    %22 = affine.load %11[0] : memref<1xi32> loc(#loc249)
    %23 = arith.index_cast %22 : i32 to index loc(#loc249)
    affine.store %cst_1, %arg2[symbol(%23) - 1] : memref<?xf32> loc(#loc250)
    %24 = affine.load %11[0] : memref<1xi32> loc(#loc251)
    %25 = arith.index_cast %24 : i32 to index loc(#loc251)
    affine.store %cst_1, %arg3[symbol(%25) - 1] : memref<?xf32> loc(#loc252)
    return loc(#loc253)
  } loc(#loc130)
  func.func @ext_areas_masks_(%arg0: memref<?xf32> loc("/Users/mac/Projects/mlir/cpp-to-ops-converter/script/..//ITK_POM2K/pom2k_fun.c":130:6), %arg1: memref<?xf32> loc("/Users/mac/Projects/mlir/cpp-to-ops-converter/script/..//ITK_POM2K/pom2k_fun.c":130:6), %arg2: memref<?xf32> loc("/Users/mac/Projects/mlir/cpp-to-ops-converter/script/..//ITK_POM2K/pom2k_fun.c":130:6), %arg3: memref<?xf32> loc("/Users/mac/Projects/mlir/cpp-to-ops-converter/script/..//ITK_POM2K/pom2k_fun.c":130:6), %arg4: memref<?xf32> loc("/Users/mac/Projects/mlir/cpp-to-ops-converter/script/..//ITK_POM2K/pom2k_fun.c":130:6), %arg5: memref<?xf32> loc("/Users/mac/Projects/mlir/cpp-to-ops-converter/script/..//ITK_POM2K/pom2k_fun.c":130:6), %arg6: memref<?xf32> loc("/Users/mac/Projects/mlir/cpp-to-ops-converter/script/..//ITK_POM2K/pom2k_fun.c":130:6), %arg7: memref<?xf32> loc("/Users/mac/Projects/mlir/cpp-to-ops-converter/script/..//ITK_POM2K/pom2k_fun.c":130:6), %arg8: memref<?xf32> loc("/Users/mac/Projects/mlir/cpp-to-ops-converter/script/..//ITK_POM2K/pom2k_fun.c":130:6)) attributes {llvm.linkage = #llvm.linkage<external>} {
    %c-1_i32 = arith.constant -1 : i32 loc(#loc255)
    %cst = arith.constant 1.000000e+00 : f32 loc(#loc256)
    %cst_0 = arith.constant 0.000000e+00 : f32 loc(#loc257)
    %cst_1 = arith.constant 2.500000e-01 : f32 loc(#loc258)
    %c1_i32 = arith.constant 1 : i32 loc(#loc255)
    %c0_i32 = arith.constant 0 : i32 loc(#loc259)
    %c0 = arith.constant 0 : index loc(#loc260)
    %0 = memref.get_global @jm : memref<1xi32> loc(#loc261)
    %1 = memref.get_global @im : memref<1xi32> loc(#loc262)
    %2 = scf.while (%arg9 = %c0_i32) : (i32) -> i32 {
      %8 = affine.load %0[0] : memref<1xi32> loc(#loc261)
      %9 = arith.cmpi slt, %arg9, %8 : i32 loc(#loc263)
      scf.condition(%9) %arg9 : i32 loc(#loc264)
    } do {
    ^bb0(%arg9: i32 loc("/Users/mac/Projects/mlir/cpp-to-ops-converter/script/..//ITK_POM2K/pom2k_fun.c":132:3)):
      %8:2 = scf.while (%arg10 = %c0_i32) : (i32) -> (i32, i32) {
        %10 = affine.load %1[0] : memref<1xi32> loc(#loc262)
        %11 = arith.cmpi slt, %arg10, %10 : i32 loc(#loc265)
        scf.condition(%11) %10, %arg10 : i32, i32 loc(#loc266)
      } do {
      ^bb0(%arg10: i32 loc("/Users/mac/Projects/mlir/cpp-to-ops-converter/script/..//ITK_POM2K/pom2k_fun.c":133:5), %arg11: i32 loc("/Users/mac/Projects/mlir/cpp-to-ops-converter/script/..//ITK_POM2K/pom2k_fun.c":133:5)):
        %10 = arith.muli %arg9, %arg10 : i32 loc(#loc267)
        %11 = arith.addi %arg11, %10 : i32 loc(#loc268)
        %12 = arith.index_cast %11 : i32 to index loc(#loc269)
        %13 = arith.addi %12, %c0 : index loc(#loc270)
        %14 = memref.load %arg6[%13] : memref<?xf32> loc(#loc270)
        %15 = memref.load %arg7[%13] : memref<?xf32> loc(#loc271)
        %16 = arith.mulf %14, %15 : f32 loc(#loc272)
        memref.store %16, %arg0[%13] : memref<?xf32> loc(#loc273)
        %17 = arith.addi %arg11, %c1_i32 : i32 loc(#loc255)
        scf.yield %17 : i32 loc(#loc266)
      } loc(#loc262)
      %9 = arith.addi %arg9, %c1_i32 : i32 loc(#loc274)
      scf.yield %9 : i32 loc(#loc264)
    } loc(#loc261)
    %3 = scf.while (%arg9 = %c1_i32) : (i32) -> i32 {
      %8 = affine.load %0[0] : memref<1xi32> loc(#loc275)
      %9 = arith.cmpi slt, %arg9, %8 : i32 loc(#loc276)
      scf.condition(%9) %arg9 : i32 loc(#loc277)
    } do {
    ^bb0(%arg9: i32 loc("/Users/mac/Projects/mlir/cpp-to-ops-converter/script/..//ITK_POM2K/pom2k_fun.c":140:3)):
      %8 = arith.addi %arg9, %c-1_i32 : i32 loc(#loc278)
      %9:2 = scf.while (%arg10 = %c1_i32) : (i32) -> (i32, i32) {
        %11 = affine.load %1[0] : memref<1xi32> loc(#loc279)
        %12 = arith.cmpi slt, %arg10, %11 : i32 loc(#loc280)
        scf.condition(%12) %11, %arg10 : i32, i32 loc(#loc281)
      } do {
      ^bb0(%arg10: i32 loc("/Users/mac/Projects/mlir/cpp-to-ops-converter/script/..//ITK_POM2K/pom2k_fun.c":141:5), %arg11: i32 loc("/Users/mac/Projects/mlir/cpp-to-ops-converter/script/..//ITK_POM2K/pom2k_fun.c":141:5)):
        %11 = arith.muli %arg9, %arg10 : i32 loc(#loc267)
        %12 = arith.addi %arg11, %11 : i32 loc(#loc268)
        %13 = arith.index_cast %12 : i32 to index loc(#loc282)
        %14 = arith.addi %13, %c0 : index loc(#loc283)
        %15 = memref.load %arg6[%14] : memref<?xf32> loc(#loc283)
        %16 = arith.addi %arg11, %c-1_i32 : i32 loc(#loc284)
        %17 = arith.addi %16, %11 : i32 loc(#loc268)
        %18 = arith.index_cast %17 : i32 to index loc(#loc285)
        %19 = arith.addi %18, %c0 : index loc(#loc286)
        %20 = memref.load %arg6[%19] : memref<?xf32> loc(#loc286)
        %21 = arith.addf %15, %20 : f32 loc(#loc287)
        %22 = arith.mulf %21, %cst_1 : f32 loc(#loc288)
        %23 = memref.load %arg7[%14] : memref<?xf32> loc(#loc289)
        %24 = memref.load %arg7[%19] : memref<?xf32> loc(#loc290)
        %25 = arith.addf %23, %24 : f32 loc(#loc291)
        %26 = arith.mulf %22, %25 : f32 loc(#loc292)
        memref.store %26, %arg1[%14] : memref<?xf32> loc(#loc293)
        %27 = affine.load %1[0] : memref<1xi32> loc(#loc294)
        %28 = arith.muli %arg9, %27 : i32 loc(#loc267)
        %29 = arith.addi %arg11, %28 : i32 loc(#loc268)
        %30 = arith.index_cast %29 : i32 to index loc(#loc295)
        %31 = arith.addi %30, %c0 : index loc(#loc296)
        %32 = memref.load %arg6[%31] : memref<?xf32> loc(#loc296)
        %33 = arith.muli %8, %27 : i32 loc(#loc267)
        %34 = arith.addi %arg11, %33 : i32 loc(#loc268)
        %35 = arith.index_cast %34 : i32 to index loc(#loc297)
        %36 = arith.addi %35, %c0 : index loc(#loc298)
        %37 = memref.load %arg6[%36] : memref<?xf32> loc(#loc298)
        %38 = arith.addf %32, %37 : f32 loc(#loc299)
        %39 = arith.mulf %38, %cst_1 : f32 loc(#loc300)
        %40 = memref.load %arg7[%31] : memref<?xf32> loc(#loc301)
        %41 = memref.load %arg7[%36] : memref<?xf32> loc(#loc302)
        %42 = arith.addf %40, %41 : f32 loc(#loc303)
        %43 = arith.mulf %39, %42 : f32 loc(#loc304)
        memref.store %43, %arg2[%31] : memref<?xf32> loc(#loc305)
        %44 = arith.addi %arg11, %c1_i32 : i32 loc(#loc306)
        scf.yield %44 : i32 loc(#loc281)
      } loc(#loc279)
      %10 = arith.addi %arg9, %c1_i32 : i32 loc(#loc307)
      scf.yield %10 : i32 loc(#loc277)
    } loc(#loc275)
    %4 = scf.while (%arg9 = %c0_i32) : (i32) -> i32 {
      %8 = affine.load %0[0] : memref<1xi32> loc(#loc308)
      %9 = arith.cmpi slt, %arg9, %8 : i32 loc(#loc309)
      scf.condition(%9) %arg9 : i32 loc(#loc310)
    } do {
    ^bb0(%arg9: i32 loc("/Users/mac/Projects/mlir/cpp-to-ops-converter/script/..//ITK_POM2K/pom2k_fun.c":148:3)):
      %8 = affine.load %1[0] : memref<1xi32> loc(#loc294)
      %9 = arith.muli %arg9, %8 : i32 loc(#loc267)
      %10 = arith.addi %9, %c0_i32 : i32 loc(#loc268)
      %11 = arith.index_cast %10 : i32 to index loc(#loc311)
      %12 = arith.addi %9, %c1_i32 : i32 loc(#loc268)
      %13 = arith.index_cast %12 : i32 to index loc(#loc312)
      %14 = arith.addi %13, %c0 : index loc(#loc313)
      %15 = memref.load %arg1[%14] : memref<?xf32> loc(#loc313)
      %16 = arith.addi %11, %c0 : index loc(#loc314)
      memref.store %15, %arg1[%16] : memref<?xf32> loc(#loc315)
      %17 = affine.load %1[0] : memref<1xi32> loc(#loc294)
      %18 = arith.muli %arg9, %17 : i32 loc(#loc267)
      %19 = arith.addi %18, %c0_i32 : i32 loc(#loc268)
      %20 = arith.index_cast %19 : i32 to index loc(#loc316)
      %21 = arith.addi %18, %c1_i32 : i32 loc(#loc268)
      %22 = arith.index_cast %21 : i32 to index loc(#loc317)
      %23 = arith.addi %22, %c0 : index loc(#loc318)
      %24 = memref.load %arg2[%23] : memref<?xf32> loc(#loc318)
      %25 = arith.addi %20, %c0 : index loc(#loc319)
      memref.store %24, %arg2[%25] : memref<?xf32> loc(#loc320)
      %26 = arith.addi %arg9, %c1_i32 : i32 loc(#loc321)
      scf.yield %26 : i32 loc(#loc310)
    } loc(#loc308)
    %5:2 = scf.while (%arg9 = %c0_i32) : (i32) -> (i32, i32) {
      %8 = affine.load %1[0] : memref<1xi32> loc(#loc322)
      %9 = arith.cmpi slt, %arg9, %8 : i32 loc(#loc323)
      scf.condition(%9) %8, %arg9 : i32, i32 loc(#loc324)
    } do {
    ^bb0(%arg9: i32 loc("/Users/mac/Projects/mlir/cpp-to-ops-converter/script/..//ITK_POM2K/pom2k_fun.c":152:3), %arg10: i32 loc("/Users/mac/Projects/mlir/cpp-to-ops-converter/script/..//ITK_POM2K/pom2k_fun.c":152:3)):
      %8 = arith.muli %arg9, %c0_i32 : i32 loc(#loc267)
      %9 = arith.addi %arg10, %8 : i32 loc(#loc268)
      %10 = arith.index_cast %9 : i32 to index loc(#loc325)
      %11 = arith.muli %arg9, %c1_i32 : i32 loc(#loc267)
      %12 = arith.addi %arg10, %11 : i32 loc(#loc268)
      %13 = arith.index_cast %12 : i32 to index loc(#loc326)
      %14 = arith.addi %13, %c0 : index loc(#loc327)
      %15 = memref.load %arg1[%14] : memref<?xf32> loc(#loc327)
      %16 = arith.addi %10, %c0 : index loc(#loc328)
      memref.store %15, %arg1[%16] : memref<?xf32> loc(#loc329)
      %17 = affine.load %1[0] : memref<1xi32> loc(#loc294)
      %18 = arith.muli %17, %c0_i32 : i32 loc(#loc267)
      %19 = arith.addi %arg10, %18 : i32 loc(#loc268)
      %20 = arith.index_cast %19 : i32 to index loc(#loc330)
      %21 = arith.muli %17, %c1_i32 : i32 loc(#loc267)
      %22 = arith.addi %arg10, %21 : i32 loc(#loc268)
      %23 = arith.index_cast %22 : i32 to index loc(#loc331)
      %24 = arith.addi %23, %c0 : index loc(#loc332)
      %25 = memref.load %arg2[%24] : memref<?xf32> loc(#loc332)
      %26 = arith.addi %20, %c0 : index loc(#loc333)
      memref.store %25, %arg2[%26] : memref<?xf32> loc(#loc334)
      %27 = arith.addi %arg10, %c1_i32 : i32 loc(#loc335)
      scf.yield %27 : i32 loc(#loc324)
    } loc(#loc322)
    %6 = scf.while (%arg9 = %c0_i32) : (i32) -> i32 {
      %8 = affine.load %0[0] : memref<1xi32> loc(#loc336)
      %9 = arith.cmpi slt, %arg9, %8 : i32 loc(#loc337)
      scf.condition(%9) %arg9 : i32 loc(#loc338)
    } do {
    ^bb0(%arg9: i32 loc("/Users/mac/Projects/mlir/cpp-to-ops-converter/script/..//ITK_POM2K/pom2k_fun.c":159:3)):
      %8:2 = scf.while (%arg10 = %c0_i32) : (i32) -> (i32, i32) {
        %10 = affine.load %1[0] : memref<1xi32> loc(#loc339)
        %11 = arith.cmpi slt, %arg10, %10 : i32 loc(#loc340)
        scf.condition(%11) %10, %arg10 : i32, i32 loc(#loc341)
      } do {
      ^bb0(%arg10: i32 loc("/Users/mac/Projects/mlir/cpp-to-ops-converter/script/..//ITK_POM2K/pom2k_fun.c":160:5), %arg11: i32 loc("/Users/mac/Projects/mlir/cpp-to-ops-converter/script/..//ITK_POM2K/pom2k_fun.c":160:5)):
        %10 = arith.muli %arg9, %arg10 : i32 loc(#loc267)
        %11 = arith.addi %arg11, %10 : i32 loc(#loc268)
        %12 = arith.index_cast %11 : i32 to index loc(#loc342)
        %13 = arith.addi %12, %c0 : index loc(#loc343)
        memref.store %cst_0, %arg5[%13] : memref<?xf32> loc(#loc344)
        %14 = affine.load %1[0] : memref<1xi32> loc(#loc294)
        %15 = arith.muli %arg9, %14 : i32 loc(#loc267)
        %16 = arith.addi %arg11, %15 : i32 loc(#loc268)
        %17 = arith.index_cast %16 : i32 to index loc(#loc345)
        %18 = arith.addi %17, %c0 : index loc(#loc346)
        memref.store %cst_0, %arg3[%18] : memref<?xf32> loc(#loc347)
        %19 = affine.load %1[0] : memref<1xi32> loc(#loc294)
        %20 = arith.muli %arg9, %19 : i32 loc(#loc267)
        %21 = arith.addi %arg11, %20 : i32 loc(#loc268)
        %22 = arith.index_cast %21 : i32 to index loc(#loc348)
        %23 = arith.addi %22, %c0 : index loc(#loc349)
        memref.store %cst_0, %arg4[%23] : memref<?xf32> loc(#loc350)
        %24 = affine.load %1[0] : memref<1xi32> loc(#loc294)
        %25 = arith.muli %arg9, %24 : i32 loc(#loc267)
        %26 = arith.addi %arg11, %25 : i32 loc(#loc268)
        %27 = arith.index_cast %26 : i32 to index loc(#loc351)
        %28 = arith.addi %27, %c0 : index loc(#loc352)
        %29 = memref.load %arg8[%28] : memref<?xf32> loc(#loc352)
        %30 = arith.cmpf ogt, %29, %cst : f32 loc(#loc353)
        scf.if %30 {
          memref.store %cst, %arg5[%28] : memref<?xf32> loc(#loc355)
        } loc(#loc354)
        %31 = arith.addi %arg11, %c1_i32 : i32 loc(#loc356)
        scf.yield %31 : i32 loc(#loc341)
      } loc(#loc339)
      %9 = arith.addi %arg9, %c1_i32 : i32 loc(#loc357)
      scf.yield %9 : i32 loc(#loc338)
    } loc(#loc336)
    %7 = scf.while (%arg9 = %c1_i32) : (i32) -> i32 {
      %8 = affine.load %0[0] : memref<1xi32> loc(#loc358)
      %9 = arith.cmpi slt, %arg9, %8 : i32 loc(#loc359)
      scf.condition(%9) %arg9 : i32 loc(#loc360)
    } do {
    ^bb0(%arg9: i32 loc("/Users/mac/Projects/mlir/cpp-to-ops-converter/script/..//ITK_POM2K/pom2k_fun.c":171:3)):
      %8 = arith.addi %arg9, %c-1_i32 : i32 loc(#loc361)
      %9:2 = scf.while (%arg10 = %c1_i32) : (i32) -> (i32, i32) {
        %11 = affine.load %1[0] : memref<1xi32> loc(#loc362)
        %12 = arith.cmpi slt, %arg10, %11 : i32 loc(#loc363)
        scf.condition(%12) %11, %arg10 : i32, i32 loc(#loc364)
      } do {
      ^bb0(%arg10: i32 loc("/Users/mac/Projects/mlir/cpp-to-ops-converter/script/..//ITK_POM2K/pom2k_fun.c":172:5), %arg11: i32 loc("/Users/mac/Projects/mlir/cpp-to-ops-converter/script/..//ITK_POM2K/pom2k_fun.c":172:5)):
        %11 = arith.muli %arg9, %arg10 : i32 loc(#loc267)
        %12 = arith.addi %arg11, %11 : i32 loc(#loc268)
        %13 = arith.index_cast %12 : i32 to index loc(#loc365)
        %14 = arith.addi %13, %c0 : index loc(#loc366)
        %15 = memref.load %arg5[%14] : memref<?xf32> loc(#loc366)
        %16 = arith.addi %arg11, %c-1_i32 : i32 loc(#loc367)
        %17 = arith.addi %16, %11 : i32 loc(#loc268)
        %18 = arith.index_cast %17 : i32 to index loc(#loc368)
        %19 = arith.addi %18, %c0 : index loc(#loc369)
        %20 = memref.load %arg5[%19] : memref<?xf32> loc(#loc369)
        %21 = arith.mulf %15, %20 : f32 loc(#loc370)
        memref.store %21, %arg3[%14] : memref<?xf32> loc(#loc371)
        %22 = affine.load %1[0] : memref<1xi32> loc(#loc294)
        %23 = arith.muli %arg9, %22 : i32 loc(#loc267)
        %24 = arith.addi %arg11, %23 : i32 loc(#loc268)
        %25 = arith.index_cast %24 : i32 to index loc(#loc372)
        %26 = arith.addi %25, %c0 : index loc(#loc373)
        %27 = memref.load %arg5[%26] : memref<?xf32> loc(#loc373)
        %28 = arith.muli %8, %22 : i32 loc(#loc267)
        %29 = arith.addi %arg11, %28 : i32 loc(#loc268)
        %30 = arith.index_cast %29 : i32 to index loc(#loc374)
        %31 = arith.addi %30, %c0 : index loc(#loc375)
        %32 = memref.load %arg5[%31] : memref<?xf32> loc(#loc375)
        %33 = arith.mulf %27, %32 : f32 loc(#loc376)
        memref.store %33, %arg4[%26] : memref<?xf32> loc(#loc377)
        %34 = arith.addi %arg11, %c1_i32 : i32 loc(#loc378)
        scf.yield %34 : i32 loc(#loc364)
      } loc(#loc362)
      %10 = arith.addi %arg9, %c1_i32 : i32 loc(#loc379)
      scf.yield %10 : i32 loc(#loc360)
    } loc(#loc358)
    return loc(#loc380)
  } loc(#loc254)
  func.func @ext_slpmax_(%arg0: memref<?xf32> loc("/Users/mac/Projects/mlir/cpp-to-ops-converter/script/..//ITK_POM2K/pom2k_fun.c":179:6), %arg1: memref<?xf32> loc("/Users/mac/Projects/mlir/cpp-to-ops-converter/script/..//ITK_POM2K/pom2k_fun.c":179:6)) attributes {llvm.linkage = #llvm.linkage<external>} {
    %c-1 = arith.constant -1 : index loc(#loc382)
    %c10 = arith.constant 10 : index loc(#loc383)
    %c0 = arith.constant 0 : index loc(#loc384)
    %c1 = arith.constant 1 : index loc(#loc383)
    %cst = arith.constant 1.000000e+00 : f32 loc(#loc385)
    %cst_0 = arith.constant 2.000000e+00 : f32 loc(#loc386)
    %cst_1 = arith.constant 0.000000e+00 : f32 loc(#loc387)
    %c1_i32 = arith.constant 1 : i32 loc(#loc388)
    %0 = llvm.mlir.undef : f32 loc(#loc389)
    %1 = memref.get_global @jmm1 : memref<1xi32> loc(#loc390)
    %2 = memref.get_global @imm1 : memref<1xi32> loc(#loc391)
    %3 = memref.get_global @im : memref<1xi32> loc(#loc294)
    %4 = memref.get_global @imm2 : memref<1xi32> loc(#loc392)
    %5 = memref.get_global @jmm2 : memref<1xi32> loc(#loc393)
    %6 = memref.get_global @slmax : memref<1xf32> loc(#loc394)
    %7 = memref.get_global @slmax : memref<1xf32> loc(#loc395)
    %8 = memref.get_global @slmax : memref<1xf32> loc(#loc396)
    %9 = memref.get_global @slmax : memref<1xf32> loc(#loc397)
    %10:2 = scf.for %arg2 = %c0 to %c10 step %c1 iter_args(%arg3 = %0, %arg4 = %0) -> (f32, f32) {
      %11:3 = scf.while (%arg5 = %c1_i32, %arg6 = %arg3, %arg7 = %arg4) : (i32, f32, f32) -> (f32, f32, i32) {
        %13 = affine.load %1[0] : memref<1xi32> loc(#loc390)
        %14 = arith.cmpi slt, %arg5, %13 : i32 loc(#loc398)
        scf.condition(%14) %arg6, %arg7, %arg5 : f32, f32, i32 loc(#loc399)
      } do {
      ^bb0(%arg5: f32 loc("/Users/mac/Projects/mlir/cpp-to-ops-converter/script/..//ITK_POM2K/pom2k_fun.c":185:25), %arg6: f32 loc("/Users/mac/Projects/mlir/cpp-to-ops-converter/script/..//ITK_POM2K/pom2k_fun.c":185:25), %arg7: i32 loc("/Users/mac/Projects/mlir/cpp-to-ops-converter/script/..//ITK_POM2K/pom2k_fun.c":185:5)):
        %13:3 = scf.while (%arg8 = %c1_i32, %arg9 = %arg5, %arg10 = %arg6) : (i32, f32, f32) -> (f32, f32, i32) {
          %20 = affine.load %2[0] : memref<1xi32> loc(#loc391)
          %21 = arith.cmpi slt, %arg8, %20 : i32 loc(#loc400)
          scf.condition(%21) %arg9, %arg10, %arg8 : f32, f32, i32 loc(#loc401)
        } do {
        ^bb0(%arg8: f32 loc("/Users/mac/Projects/mlir/cpp-to-ops-converter/script/..//ITK_POM2K/pom2k_c_header.h":4:16), %arg9: f32 loc("/Users/mac/Projects/mlir/cpp-to-ops-converter/script/..//ITK_POM2K/pom2k_c_header.h":4:16), %arg10: i32 loc("/Users/mac/Projects/mlir/cpp-to-ops-converter/script/..//ITK_POM2K/pom2k_fun.c":186:7)):
          %20 = affine.load %3[0] : memref<1xi32> loc(#loc294)
          %21 = arith.muli %arg7, %20 : i32 loc(#loc267)
          %22 = arith.addi %arg10, %21 : i32 loc(#loc268)
          %23 = arith.index_cast %22 : i32 to index loc(#loc402)
          %24 = arith.addi %23, %c0 : index loc(#loc403)
          %25 = memref.load %arg0[%24] : memref<?xf32> loc(#loc403)
          %26 = arith.cmpf une, %25, %cst_1 : f32 loc(#loc404)
          %27:2 = scf.if %26 -> (f32, f32) {
            %29 = arith.addi %arg10, %c1_i32 : i32 loc(#loc406)
            %30 = arith.addi %29, %21 : i32 loc(#loc268)
            %31 = arith.index_cast %30 : i32 to index loc(#loc407)
            %32 = arith.addi %31, %c0 : index loc(#loc408)
            %33 = memref.load %arg0[%32] : memref<?xf32> loc(#loc408)
            %34 = arith.cmpf une, %33, %cst_1 : f32 loc(#loc409)
            %35:2 = scf.if %34 -> (f32, f32) {
              %36 = memref.load %arg1[%32] : memref<?xf32> loc(#loc411)
              %37 = memref.load %arg1[%24] : memref<?xf32> loc(#loc412)
              %38 = arith.subf %36, %37 : f32 loc(#loc413)
              %39 = arith.extf %38 : f32 to f64 loc(#loc411)
              %40 = math.absf %39 : f64 loc(#loc414)
              %41 = arith.addf %37, %36 : f32 loc(#loc415)
              %42 = arith.extf %41 : f32 to f64 loc(#loc416)
              %43 = arith.divf %40, %42 : f64 loc(#loc417)
              %44 = affine.load %6[0] : memref<1xf32> loc(#loc394)
              %45 = arith.extf %44 : f32 to f64 loc(#loc394)
              %46 = arith.cmpf oge, %43, %45 : f64 loc(#loc418)
              %47:2 = scf.if %46 -> (f32, f32) {
                %48 = memref.load %arg1[%32] : memref<?xf32> loc(#loc420)
                %49 = memref.load %arg1[%24] : memref<?xf32> loc(#loc421)
                %50 = arith.addf %48, %49 : f32 loc(#loc422)
                %51 = arith.divf %50, %cst_0 : f32 loc(#loc423)
                %52 = arith.subf %48, %49 : f32 loc(#loc424)
                %53 = func.call @copysignf(%44, %52) : (f32, f32) -> f32 loc(#loc425)
                %54 = affine.load %3[0] : memref<1xi32> loc(#loc294)
                %55 = arith.muli %arg7, %54 : i32 loc(#loc267)
                %56 = arith.addi %29, %55 : i32 loc(#loc268)
                %57 = arith.index_cast %56 : i32 to index loc(#loc426)
                %58 = arith.addf %53, %cst : f32 loc(#loc427)
                %59 = arith.mulf %51, %58 : f32 loc(#loc428)
                %60 = arith.addi %57, %c0 : index loc(#loc429)
                memref.store %59, %arg1[%60] : memref<?xf32> loc(#loc430)
                %61 = affine.load %3[0] : memref<1xi32> loc(#loc294)
                %62 = arith.muli %arg7, %61 : i32 loc(#loc267)
                %63 = arith.addi %arg10, %62 : i32 loc(#loc268)
                %64 = arith.index_cast %63 : i32 to index loc(#loc431)
                %65 = arith.subf %cst, %53 : f32 loc(#loc432)
                %66 = arith.mulf %51, %65 : f32 loc(#loc433)
                %67 = arith.addi %64, %c0 : index loc(#loc434)
                memref.store %66, %arg1[%67] : memref<?xf32> loc(#loc435)
                scf.yield %53, %51 : f32, f32 loc(#loc419)
              } else {
                scf.yield %arg8, %arg9 : f32, f32 loc(#loc419)
              } loc(#loc419)
              scf.yield %47#0, %47#1 : f32, f32 loc(#loc0)
            } else {
              scf.yield %arg8, %arg9 : f32, f32 loc(#loc410)
            } loc(#loc410)
            scf.yield %35#0, %35#1 : f32, f32 loc(#loc405)
          } else {
            scf.yield %arg8, %arg9 : f32, f32 loc(#loc405)
          } loc(#loc405)
          %28 = arith.addi %arg10, %c1_i32 : i32 loc(#loc436)
          scf.yield %28, %27#0, %27#1 : i32, f32, f32 loc(#loc401)
        } loc(#loc391)
        %14 = affine.load %4[0] : memref<1xi32> loc(#loc392)
        %15 = arith.addi %14, %c1_i32 : i32 loc(#loc437)
        %16 = arith.index_cast %15 : i32 to index loc(#loc437)
        %17 = arith.index_cast %14 : i32 to index loc(#loc437)
        %18:2 = scf.for %arg8 = %c1 to %16 step %c1 iter_args(%arg9 = %13#0, %arg10 = %13#1) -> (f32, f32) {
          %20 = arith.subi %arg8, %c1 : index loc(#loc437)
          %21 = arith.muli %20, %c-1 : index loc(#loc437)
          %22 = arith.addi %17, %21 : index loc(#loc437)
          %23 = arith.index_cast %22 : index to i32 loc(#loc437)
          %24 = affine.load %3[0] : memref<1xi32> loc(#loc294)
          %25 = arith.muli %arg7, %24 : i32 loc(#loc267)
          %26 = arith.addi %23, %25 : i32 loc(#loc268)
          %27 = arith.index_cast %26 : i32 to index loc(#loc438)
          %28 = arith.addi %27, %c0 : index loc(#loc439)
          %29 = memref.load %arg0[%28] : memref<?xf32> loc(#loc439)
          %30 = arith.cmpf une, %29, %cst_1 : f32 loc(#loc440)
          %31:2 = scf.if %30 -> (f32, f32) {
            %32 = arith.addi %23, %c1_i32 : i32 loc(#loc442)
            %33 = arith.addi %32, %25 : i32 loc(#loc268)
            %34 = arith.index_cast %33 : i32 to index loc(#loc443)
            %35 = arith.addi %34, %c0 : index loc(#loc444)
            %36 = memref.load %arg0[%35] : memref<?xf32> loc(#loc444)
            %37 = arith.cmpf une, %36, %cst_1 : f32 loc(#loc445)
            %38:2 = scf.if %37 -> (f32, f32) {
              %39 = memref.load %arg1[%35] : memref<?xf32> loc(#loc447)
              %40 = memref.load %arg1[%28] : memref<?xf32> loc(#loc448)
              %41 = arith.subf %39, %40 : f32 loc(#loc449)
              %42 = arith.extf %41 : f32 to f64 loc(#loc447)
              %43 = math.absf %42 : f64 loc(#loc450)
              %44 = arith.addf %40, %39 : f32 loc(#loc451)
              %45 = arith.extf %44 : f32 to f64 loc(#loc452)
              %46 = arith.divf %43, %45 : f64 loc(#loc453)
              %47 = affine.load %7[0] : memref<1xf32> loc(#loc395)
              %48 = arith.extf %47 : f32 to f64 loc(#loc395)
              %49 = arith.cmpf oge, %46, %48 : f64 loc(#loc454)
              %50:2 = scf.if %49 -> (f32, f32) {
                %51 = memref.load %arg1[%35] : memref<?xf32> loc(#loc456)
                %52 = memref.load %arg1[%28] : memref<?xf32> loc(#loc457)
                %53 = arith.addf %51, %52 : f32 loc(#loc458)
                %54 = arith.divf %53, %cst_0 : f32 loc(#loc459)
                %55 = arith.subf %51, %52 : f32 loc(#loc460)
                %56 = func.call @copysignf(%47, %55) : (f32, f32) -> f32 loc(#loc461)
                %57 = affine.load %3[0] : memref<1xi32> loc(#loc294)
                %58 = arith.muli %arg7, %57 : i32 loc(#loc267)
                %59 = arith.addi %32, %58 : i32 loc(#loc268)
                %60 = arith.index_cast %59 : i32 to index loc(#loc462)
                %61 = arith.addf %56, %cst : f32 loc(#loc463)
                %62 = arith.mulf %54, %61 : f32 loc(#loc464)
                %63 = arith.addi %60, %c0 : index loc(#loc465)
                memref.store %62, %arg1[%63] : memref<?xf32> loc(#loc466)
                %64 = affine.load %3[0] : memref<1xi32> loc(#loc294)
                %65 = arith.muli %arg7, %64 : i32 loc(#loc267)
                %66 = arith.addi %23, %65 : i32 loc(#loc268)
                %67 = arith.index_cast %66 : i32 to index loc(#loc467)
                %68 = arith.subf %cst, %56 : f32 loc(#loc468)
                %69 = arith.mulf %54, %68 : f32 loc(#loc469)
                %70 = arith.addi %67, %c0 : index loc(#loc470)
                memref.store %69, %arg1[%70] : memref<?xf32> loc(#loc471)
                scf.yield %56, %54 : f32, f32 loc(#loc455)
              } else {
                scf.yield %arg9, %arg10 : f32, f32 loc(#loc455)
              } loc(#loc455)
              scf.yield %50#0, %50#1 : f32, f32 loc(#loc0)
            } else {
              scf.yield %arg9, %arg10 : f32, f32 loc(#loc446)
            } loc(#loc446)
            scf.yield %38#0, %38#1 : f32, f32 loc(#loc441)
          } else {
            scf.yield %arg9, %arg10 : f32, f32 loc(#loc441)
          } loc(#loc441)
          scf.yield %31#0, %31#1 : f32, f32 loc(#loc472)
        } loc(#loc437)
        %19 = arith.addi %arg7, %c1_i32 : i32 loc(#loc473)
        scf.yield %19, %18#0, %18#1 : i32, f32, f32 loc(#loc399)
      } loc(#loc390)
      %12:3 = scf.while (%arg5 = %c1_i32, %arg6 = %11#0, %arg7 = %11#1) : (i32, f32, f32) -> (f32, f32, i32) {
        %13 = affine.load %2[0] : memref<1xi32> loc(#loc474)
        %14 = arith.cmpi slt, %arg5, %13 : i32 loc(#loc475)
        scf.condition(%14) %arg6, %arg7, %arg5 : f32, f32, i32 loc(#loc476)
      } do {
      ^bb0(%arg5: f32 loc("/Users/mac/Projects/mlir/cpp-to-ops-converter/script/..//ITK_POM2K/pom2k_c_header.h":4:16), %arg6: f32 loc("/Users/mac/Projects/mlir/cpp-to-ops-converter/script/..//ITK_POM2K/pom2k_c_header.h":4:16), %arg7: i32 loc("/Users/mac/Projects/mlir/cpp-to-ops-converter/script/..//ITK_POM2K/pom2k_fun.c":218:5)):
        %13:3 = scf.while (%arg8 = %c1_i32, %arg9 = %arg5, %arg10 = %arg6) : (i32, f32, f32) -> (f32, f32, i32) {
          %20 = affine.load %1[0] : memref<1xi32> loc(#loc477)
          %21 = arith.cmpi slt, %arg8, %20 : i32 loc(#loc478)
          scf.condition(%21) %arg9, %arg10, %arg8 : f32, f32, i32 loc(#loc479)
        } do {
        ^bb0(%arg8: f32 loc("/Users/mac/Projects/mlir/cpp-to-ops-converter/script/..//ITK_POM2K/pom2k_c_header.h":4:16), %arg9: f32 loc("/Users/mac/Projects/mlir/cpp-to-ops-converter/script/..//ITK_POM2K/pom2k_c_header.h":4:16), %arg10: i32 loc("/Users/mac/Projects/mlir/cpp-to-ops-converter/script/..//ITK_POM2K/pom2k_fun.c":219:7)):
          %20 = affine.load %3[0] : memref<1xi32> loc(#loc294)
          %21 = arith.muli %arg10, %20 : i32 loc(#loc267)
          %22 = arith.addi %arg7, %21 : i32 loc(#loc268)
          %23 = arith.index_cast %22 : i32 to index loc(#loc480)
          %24 = arith.addi %23, %c0 : index loc(#loc481)
          %25 = memref.load %arg0[%24] : memref<?xf32> loc(#loc481)
          %26 = arith.cmpf une, %25, %cst_1 : f32 loc(#loc482)
          %27:2 = scf.if %26 -> (f32, f32) {
            %29 = arith.addi %arg10, %c1_i32 : i32 loc(#loc484)
            %30 = arith.muli %29, %20 : i32 loc(#loc267)
            %31 = arith.addi %arg7, %30 : i32 loc(#loc268)
            %32 = arith.index_cast %31 : i32 to index loc(#loc485)
            %33 = arith.addi %32, %c0 : index loc(#loc486)
            %34 = memref.load %arg0[%33] : memref<?xf32> loc(#loc486)
            %35 = arith.cmpf une, %34, %cst_1 : f32 loc(#loc487)
            %36:2 = scf.if %35 -> (f32, f32) {
              %37 = memref.load %arg1[%33] : memref<?xf32> loc(#loc489)
              %38 = memref.load %arg1[%24] : memref<?xf32> loc(#loc490)
              %39 = arith.subf %37, %38 : f32 loc(#loc491)
              %40 = arith.extf %39 : f32 to f64 loc(#loc489)
              %41 = math.absf %40 : f64 loc(#loc492)
              %42 = arith.addf %38, %37 : f32 loc(#loc493)
              %43 = arith.extf %42 : f32 to f64 loc(#loc494)
              %44 = arith.divf %41, %43 : f64 loc(#loc495)
              %45 = affine.load %8[0] : memref<1xf32> loc(#loc396)
              %46 = arith.extf %45 : f32 to f64 loc(#loc396)
              %47 = arith.cmpf oge, %44, %46 : f64 loc(#loc496)
              %48:2 = scf.if %47 -> (f32, f32) {
                %49 = memref.load %arg1[%33] : memref<?xf32> loc(#loc498)
                %50 = memref.load %arg1[%24] : memref<?xf32> loc(#loc499)
                %51 = arith.addf %49, %50 : f32 loc(#loc500)
                %52 = arith.divf %51, %cst_0 : f32 loc(#loc501)
                %53 = arith.subf %49, %50 : f32 loc(#loc502)
                %54 = func.call @copysignf(%45, %53) : (f32, f32) -> f32 loc(#loc503)
                %55 = affine.load %3[0] : memref<1xi32> loc(#loc294)
                %56 = arith.muli %29, %55 : i32 loc(#loc267)
                %57 = arith.addi %arg7, %56 : i32 loc(#loc268)
                %58 = arith.index_cast %57 : i32 to index loc(#loc504)
                %59 = arith.addf %54, %cst : f32 loc(#loc505)
                %60 = arith.mulf %52, %59 : f32 loc(#loc506)
                %61 = arith.addi %58, %c0 : index loc(#loc507)
                memref.store %60, %arg1[%61] : memref<?xf32> loc(#loc508)
                %62 = affine.load %3[0] : memref<1xi32> loc(#loc294)
                %63 = arith.muli %arg10, %62 : i32 loc(#loc267)
                %64 = arith.addi %arg7, %63 : i32 loc(#loc268)
                %65 = arith.index_cast %64 : i32 to index loc(#loc509)
                %66 = arith.subf %cst, %54 : f32 loc(#loc510)
                %67 = arith.mulf %52, %66 : f32 loc(#loc511)
                %68 = arith.addi %65, %c0 : index loc(#loc512)
                memref.store %67, %arg1[%68] : memref<?xf32> loc(#loc513)
                scf.yield %54, %52 : f32, f32 loc(#loc497)
              } else {
                scf.yield %arg8, %arg9 : f32, f32 loc(#loc497)
              } loc(#loc497)
              scf.yield %48#0, %48#1 : f32, f32 loc(#loc0)
            } else {
              scf.yield %arg8, %arg9 : f32, f32 loc(#loc488)
            } loc(#loc488)
            scf.yield %36#0, %36#1 : f32, f32 loc(#loc483)
          } else {
            scf.yield %arg8, %arg9 : f32, f32 loc(#loc483)
          } loc(#loc483)
          %28 = arith.addi %arg10, %c1_i32 : i32 loc(#loc514)
          scf.yield %28, %27#0, %27#1 : i32, f32, f32 loc(#loc479)
        } loc(#loc477)
        %14 = affine.load %5[0] : memref<1xi32> loc(#loc393)
        %15 = arith.addi %14, %c1_i32 : i32 loc(#loc382)
        %16 = arith.index_cast %15 : i32 to index loc(#loc382)
        %17 = arith.index_cast %14 : i32 to index loc(#loc382)
        %18:2 = scf.for %arg8 = %c1 to %16 step %c1 iter_args(%arg9 = %13#0, %arg10 = %13#1) -> (f32, f32) {
          %20 = arith.subi %arg8, %c1 : index loc(#loc382)
          %21 = arith.muli %20, %c-1 : index loc(#loc382)
          %22 = arith.addi %17, %21 : index loc(#loc382)
          %23 = arith.index_cast %22 : index to i32 loc(#loc382)
          %24 = affine.load %3[0] : memref<1xi32> loc(#loc294)
          %25 = arith.muli %23, %24 : i32 loc(#loc267)
          %26 = arith.addi %arg7, %25 : i32 loc(#loc268)
          %27 = arith.index_cast %26 : i32 to index loc(#loc515)
          %28 = arith.addi %27, %c0 : index loc(#loc516)
          %29 = memref.load %arg0[%28] : memref<?xf32> loc(#loc516)
          %30 = arith.cmpf une, %29, %cst_1 : f32 loc(#loc517)
          %31:2 = scf.if %30 -> (f32, f32) {
            %32 = arith.addi %23, %c1_i32 : i32 loc(#loc519)
            %33 = arith.muli %32, %24 : i32 loc(#loc267)
            %34 = arith.addi %arg7, %33 : i32 loc(#loc268)
            %35 = arith.index_cast %34 : i32 to index loc(#loc520)
            %36 = arith.addi %35, %c0 : index loc(#loc521)
            %37 = memref.load %arg0[%36] : memref<?xf32> loc(#loc521)
            %38 = arith.cmpf une, %37, %cst_1 : f32 loc(#loc522)
            %39:2 = scf.if %38 -> (f32, f32) {
              %40 = memref.load %arg1[%36] : memref<?xf32> loc(#loc524)
              %41 = memref.load %arg1[%28] : memref<?xf32> loc(#loc525)
              %42 = arith.subf %40, %41 : f32 loc(#loc526)
              %43 = arith.extf %42 : f32 to f64 loc(#loc524)
              %44 = math.absf %43 : f64 loc(#loc527)
              %45 = arith.addf %41, %40 : f32 loc(#loc528)
              %46 = arith.extf %45 : f32 to f64 loc(#loc529)
              %47 = arith.divf %44, %46 : f64 loc(#loc530)
              %48 = affine.load %9[0] : memref<1xf32> loc(#loc397)
              %49 = arith.extf %48 : f32 to f64 loc(#loc397)
              %50 = arith.cmpf oge, %47, %49 : f64 loc(#loc531)
              %51:2 = scf.if %50 -> (f32, f32) {
                %52 = memref.load %arg1[%36] : memref<?xf32> loc(#loc533)
                %53 = memref.load %arg1[%28] : memref<?xf32> loc(#loc534)
                %54 = arith.addf %52, %53 : f32 loc(#loc535)
                %55 = arith.divf %54, %cst_0 : f32 loc(#loc536)
                %56 = arith.subf %52, %53 : f32 loc(#loc537)
                %57 = func.call @copysignf(%48, %56) : (f32, f32) -> f32 loc(#loc538)
                %58 = affine.load %3[0] : memref<1xi32> loc(#loc294)
                %59 = arith.muli %32, %58 : i32 loc(#loc267)
                %60 = arith.addi %arg7, %59 : i32 loc(#loc268)
                %61 = arith.index_cast %60 : i32 to index loc(#loc539)
                %62 = arith.addf %57, %cst : f32 loc(#loc540)
                %63 = arith.mulf %55, %62 : f32 loc(#loc541)
                %64 = arith.addi %61, %c0 : index loc(#loc542)
                memref.store %63, %arg1[%64] : memref<?xf32> loc(#loc543)
                %65 = affine.load %3[0] : memref<1xi32> loc(#loc294)
                %66 = arith.muli %23, %65 : i32 loc(#loc267)
                %67 = arith.addi %arg7, %66 : i32 loc(#loc268)
                %68 = arith.index_cast %67 : i32 to index loc(#loc544)
                %69 = arith.subf %cst, %57 : f32 loc(#loc545)
                %70 = arith.mulf %55, %69 : f32 loc(#loc546)
                %71 = arith.addi %68, %c0 : index loc(#loc547)
                memref.store %70, %arg1[%71] : memref<?xf32> loc(#loc548)
                scf.yield %57, %55 : f32, f32 loc(#loc532)
              } else {
                scf.yield %arg9, %arg10 : f32, f32 loc(#loc532)
              } loc(#loc532)
              scf.yield %51#0, %51#1 : f32, f32 loc(#loc0)
            } else {
              scf.yield %arg9, %arg10 : f32, f32 loc(#loc523)
            } loc(#loc523)
            scf.yield %39#0, %39#1 : f32, f32 loc(#loc518)
          } else {
            scf.yield %arg9, %arg10 : f32, f32 loc(#loc518)
          } loc(#loc518)
          scf.yield %31#0, %31#1 : f32, f32 loc(#loc549)
        } loc(#loc382)
        %19 = arith.addi %arg7, %c1_i32 : i32 loc(#loc550)
        scf.yield %19, %18#0, %18#1 : i32, f32, f32 loc(#loc476)
      } loc(#loc474)
      scf.yield %12#0, %12#1 : f32, f32 loc(#loc551)
    } loc(#loc383)
    return loc(#loc552)
  } loc(#loc381)
  func.func private @copysignf(f32, f32) -> f32 attributes {llvm.linkage = #llvm.linkage<external>} loc(#loc425)
  func.func @ext_dens_(%arg0: memref<?xf32> loc("/Users/mac/Projects/mlir/cpp-to-ops-converter/script/..//ITK_POM2K/pom2k_fun.c":250:6), %arg1: memref<?xf32> loc("/Users/mac/Projects/mlir/cpp-to-ops-converter/script/..//ITK_POM2K/pom2k_fun.c":250:6), %arg2: memref<?xf32> loc("/Users/mac/Projects/mlir/cpp-to-ops-converter/script/..//ITK_POM2K/pom2k_fun.c":250:6), %arg3: memref<?xf32> loc("/Users/mac/Projects/mlir/cpp-to-ops-converter/script/..//ITK_POM2K/pom2k_fun.c":250:6), %arg4: memref<?xf32> loc("/Users/mac/Projects/mlir/cpp-to-ops-converter/script/..//ITK_POM2K/pom2k_fun.c":250:6), %arg5: memref<?xf32> loc("/Users/mac/Projects/mlir/cpp-to-ops-converter/script/..//ITK_POM2K/pom2k_fun.c":250:6), %arg6: memref<?xf32> loc("/Users/mac/Projects/mlir/cpp-to-ops-converter/script/..//ITK_POM2K/pom2k_fun.c":250:6), %arg7: memref<?xf32> loc("/Users/mac/Projects/mlir/cpp-to-ops-converter/script/..//ITK_POM2K/pom2k_fun.c":250:6)) attributes {llvm.linkage = #llvm.linkage<external>} {
    %c1_i32 = arith.constant 1 : i32 loc(#loc554)
    %cst = arith.constant 2.000000e+00 : f32 loc(#loc555)
    %cst_0 = arith.constant 1.000000e+00 : f32 loc(#loc556)
    %cst_1 = arith.constant 1.000000e+05 : f32 loc(#loc557)
    %cst_2 = arith.constant 3.500000e+01 : f32 loc(#loc558)
    %cst_3 = arith.constant 1.340000e+00 : f32 loc(#loc559)
    %cst_4 = arith.constant 4.500000e-02 : f32 loc(#loc560)
    %cst_5 = arith.constant 4.550000e+00 : f32 loc(#loc561)
    %cst_6 = arith.constant 0.0820999965 : f32 loc(#loc562)
    %cst_7 = arith.constant 1.449100e+03 : f32 loc(#loc563)
    %cst_8 = arith.constant 4.831400e-04 : f32 loc(#loc564)
    %cst_9 = arith.constant 1.500000e+00 : f32 loc(#loc565)
    %cst_10 = arith.constant 1.654600e-06 : f32 loc(#loc566)
    %cst_11 = arith.constant 1.022700e-04 : f32 loc(#loc567)
    %cst_12 = arith.constant -5.724660e-03 : f32 loc(#loc568)
    %cst_13 = arith.constant 5.387500e-09 : f32 loc(#loc569)
    %cst_14 = arith.constant 8.24669996E-7 : f32 loc(#loc570)
    %cst_15 = arith.constant 7.643800e-05 : f32 loc(#loc571)
    %cst_16 = arith.constant 4.089900e-03 : f32 loc(#loc572)
    %cst_17 = arith.constant 0.82449299 : f32 loc(#loc573)
    %cst_18 = arith.constant 6.53633192E-9 : f32 loc(#loc574)
    %cst_19 = arith.constant 1.12008297E-6 : f32 loc(#loc575)
    %cst_20 = arith.constant 1.00168501E-4 : f32 loc(#loc576)
    %cst_21 = arith.constant 9.095290e-03 : f32 loc(#loc577)
    %cst_22 = arith.constant 0.0679395198 : f32 loc(#loc578)
    %cst_23 = arith.constant -1.574060e-01 : f32 loc(#loc579)
    %cst_24 = arith.constant 9.99999974E-6 : f32 loc(#loc580)
    %c0_i32 = arith.constant 0 : i32 loc(#loc581)
    %c0 = arith.constant 0 : index loc(#loc389)
    %0 = memref.get_global @kbm1 : memref<1xi32> loc(#loc582)
    %1 = memref.get_global @jm : memref<1xi32> loc(#loc583)
    %2 = memref.get_global @im : memref<1xi32> loc(#loc584)
    %3 = memref.get_global @grav : memref<1xf32> loc(#loc585)
    %4 = memref.get_global @rhoref : memref<1xf32> loc(#loc586)
    %5 = scf.while (%arg8 = %c0_i32) : (i32) -> i32 {
      %6 = affine.load %0[0] : memref<1xi32> loc(#loc582)
      %7 = arith.cmpi slt, %arg8, %6 : i32 loc(#loc587)
      scf.condition(%7) %arg8 : i32 loc(#loc588)
    } do {
    ^bb0(%arg8: i32 loc("/Users/mac/Projects/mlir/cpp-to-ops-converter/script/..//ITK_POM2K/pom2k_fun.c":251:3)):
      %6 = arith.index_cast %arg8 : i32 to index loc(#loc589)
      %7 = arith.addi %6, %c0 : index loc(#loc590)
      %8 = scf.while (%arg9 = %c0_i32) : (i32) -> i32 {
        %10 = affine.load %1[0] : memref<1xi32> loc(#loc583)
        %11 = arith.cmpi slt, %arg9, %10 : i32 loc(#loc591)
        scf.condition(%11) %arg9 : i32 loc(#loc592)
      } do {
      ^bb0(%arg9: i32 loc("/Users/mac/Projects/mlir/cpp-to-ops-converter/script/..//ITK_POM2K/pom2k_fun.c":252:5)):
        %10:2 = scf.while (%arg10 = %c0_i32) : (i32) -> (i32, i32) {
          %12 = affine.load %2[0] : memref<1xi32> loc(#loc584)
          %13 = arith.cmpi slt, %arg10, %12 : i32 loc(#loc593)
          scf.condition(%13) %12, %arg10 : i32, i32 loc(#loc594)
        } do {
        ^bb0(%arg10: i32 loc("/Users/mac/Projects/mlir/cpp-to-ops-converter/script/..//ITK_POM2K/pom2k_fun.c":253:7), %arg11: i32 loc("/Users/mac/Projects/mlir/cpp-to-ops-converter/script/..//ITK_POM2K/pom2k_fun.c":253:7)):
          %12 = arith.muli %arg9, %arg10 : i32 loc(#loc595)
          %13 = arith.addi %arg11, %12 : i32 loc(#loc596)
          %14 = arith.muli %arg8, %arg10 : i32 loc(#loc597)
          %15 = affine.load %1[0] : memref<1xi32> loc(#loc598)
          %16 = arith.muli %14, %15 : i32 loc(#loc599)
          %17 = arith.addi %13, %16 : i32 loc(#loc600)
          %18 = arith.index_cast %17 : i32 to index loc(#loc601)
          %19 = arith.addi %18, %c0 : index loc(#loc602)
          %20 = memref.load %arg1[%19] : memref<?xf32> loc(#loc602)
          %21 = affine.load %arg6[0] : memref<?xf32> loc(#loc603)
          %22 = arith.addf %20, %21 : f32 loc(#loc604)
          %23 = memref.load %arg0[%19] : memref<?xf32> loc(#loc605)
          %24 = affine.load %arg7[0] : memref<?xf32> loc(#loc606)
          %25 = arith.addf %23, %24 : f32 loc(#loc607)
          %26 = arith.mulf %22, %22 : f32 loc(#loc608)
          %27 = arith.mulf %26, %22 : f32 loc(#loc609)
          %28 = arith.mulf %27, %22 : f32 loc(#loc610)
          %29 = affine.load %3[0] : memref<1xf32> loc(#loc585)
          %30 = affine.load %4[0] : memref<1xf32> loc(#loc586)
          %31 = arith.mulf %29, %30 : f32 loc(#loc611)
          %32 = memref.load %arg5[%7] : memref<?xf32> loc(#loc590)
          %33 = arith.negf %32 : f32 loc(#loc612)
          %34 = arith.index_cast %13 : i32 to index loc(#loc613)
          %35 = arith.addi %34, %c0 : index loc(#loc614)
          %36 = memref.load %arg3[%35] : memref<?xf32> loc(#loc614)
          %37 = arith.mulf %33, %36 : f32 loc(#loc615)
          %38 = arith.mulf %31, %37 : f32 loc(#loc616)
          %39 = arith.mulf %38, %cst_24 : f32 loc(#loc617)
          %40 = arith.mulf %22, %cst_22 : f32 loc(#loc618)
          %41 = arith.addf %40, %cst_23 : f32 loc(#loc619)
          %42 = arith.mulf %26, %cst_21 : f32 loc(#loc620)
          %43 = arith.subf %41, %42 : f32 loc(#loc621)
          %44 = arith.mulf %27, %cst_20 : f32 loc(#loc622)
          %45 = arith.addf %43, %44 : f32 loc(#loc623)
          %46 = arith.mulf %28, %cst_19 : f32 loc(#loc624)
          %47 = arith.subf %45, %46 : f32 loc(#loc625)
          %48 = arith.mulf %28, %cst_18 : f32 loc(#loc626)
          %49 = arith.mulf %48, %22 : f32 loc(#loc627)
          %50 = arith.addf %47, %49 : f32 loc(#loc628)
          %51 = arith.mulf %22, %cst_16 : f32 loc(#loc629)
          %52 = arith.subf %cst_17, %51 : f32 loc(#loc630)
          %53 = arith.mulf %26, %cst_15 : f32 loc(#loc631)
          %54 = arith.addf %52, %53 : f32 loc(#loc632)
          %55 = arith.mulf %27, %cst_14 : f32 loc(#loc633)
          %56 = arith.subf %54, %55 : f32 loc(#loc634)
          %57 = arith.mulf %28, %cst_13 : f32 loc(#loc635)
          %58 = arith.addf %56, %57 : f32 loc(#loc636)
          %59 = arith.mulf %58, %25 : f32 loc(#loc637)
          %60 = arith.addf %50, %59 : f32 loc(#loc638)
          %61 = arith.mulf %22, %cst_11 : f32 loc(#loc639)
          %62 = arith.addf %61, %cst_12 : f32 loc(#loc640)
          %63 = arith.mulf %26, %cst_10 : f32 loc(#loc641)
          %64 = arith.subf %62, %63 : f32 loc(#loc642)
          %65 = arith.extf %25 : f32 to f64 loc(#loc643)
          %66 = math.absf %65 : f64 loc(#loc644)
          %67 = arith.truncf %66 : f64 to f32 loc(#loc644)
          %68 = math.powf %67, %cst_9 : f32 loc(#loc645)
          %69 = arith.mulf %64, %68 : f32 loc(#loc646)
          %70 = arith.addf %60, %69 : f32 loc(#loc647)
          %71 = arith.mulf %25, %cst_8 : f32 loc(#loc648)
          %72 = arith.mulf %71, %25 : f32 loc(#loc649)
          %73 = arith.addf %70, %72 : f32 loc(#loc650)
          %74 = arith.mulf %39, %cst_6 : f32 loc(#loc651)
          %75 = arith.addf %74, %cst_7 : f32 loc(#loc652)
          %76 = arith.mulf %22, %cst_5 : f32 loc(#loc653)
          %77 = arith.addf %75, %76 : f32 loc(#loc654)
          %78 = arith.mulf %26, %cst_4 : f32 loc(#loc655)
          %79 = arith.subf %77, %78 : f32 loc(#loc656)
          %80 = arith.subf %25, %cst_2 : f32 loc(#loc657)
          %81 = arith.mulf %80, %cst_3 : f32 loc(#loc658)
          %82 = arith.addf %79, %81 : f32 loc(#loc659)
          %83 = arith.mulf %39, %cst_1 : f32 loc(#loc660)
          %84 = arith.mulf %82, %82 : f32 loc(#loc661)
          %85 = arith.divf %83, %84 : f32 loc(#loc662)
          %86 = arith.mulf %39, %cst : f32 loc(#loc663)
          %87 = arith.divf %86, %84 : f32 loc(#loc664)
          %88 = arith.subf %cst_0, %87 : f32 loc(#loc665)
          %89 = arith.mulf %85, %88 : f32 loc(#loc666)
          %90 = arith.addf %73, %89 : f32 loc(#loc667)
          %91 = arith.divf %90, %30 : f32 loc(#loc668)
          %92 = memref.load %arg4[%35] : memref<?xf32> loc(#loc669)
          %93 = arith.mulf %91, %92 : f32 loc(#loc670)
          memref.store %93, %arg2[%19] : memref<?xf32> loc(#loc671)
          %94 = arith.addi %arg11, %c1_i32 : i32 loc(#loc554)
          scf.yield %94 : i32 loc(#loc594)
        } loc(#loc584)
        %11 = arith.addi %arg9, %c1_i32 : i32 loc(#loc672)
        scf.yield %11 : i32 loc(#loc592)
      } loc(#loc583)
      %9 = arith.addi %arg8, %c1_i32 : i32 loc(#loc673)
      scf.yield %9 : i32 loc(#loc588)
    } loc(#loc582)
    return loc(#loc674)
  } loc(#loc553)
  func.func @ext_seamount_(%arg0: memref<?xf32> loc("/Users/mac/Projects/mlir/cpp-to-ops-converter/script/..//ITK_POM2K/pom2k_fun.c":283:6), %arg1: memref<?xf32> loc("/Users/mac/Projects/mlir/cpp-to-ops-converter/script/..//ITK_POM2K/pom2k_fun.c":283:6), %arg2: memref<?xf32> loc("/Users/mac/Projects/mlir/cpp-to-ops-converter/script/..//ITK_POM2K/pom2k_fun.c":283:6), %arg3: memref<?xf32> loc("/Users/mac/Projects/mlir/cpp-to-ops-converter/script/..//ITK_POM2K/pom2k_fun.c":283:6), %arg4: memref<?xf32> loc("/Users/mac/Projects/mlir/cpp-to-ops-converter/script/..//ITK_POM2K/pom2k_fun.c":283:6), %arg5: memref<?xf32> loc("/Users/mac/Projects/mlir/cpp-to-ops-converter/script/..//ITK_POM2K/pom2k_fun.c":283:6), %arg6: memref<?xf32> loc("/Users/mac/Projects/mlir/cpp-to-ops-converter/script/..//ITK_POM2K/pom2k_fun.c":283:6), %arg7: memref<?xf32> loc("/Users/mac/Projects/mlir/cpp-to-ops-converter/script/..//ITK_POM2K/pom2k_fun.c":283:6), %arg8: memref<?xf32> loc("/Users/mac/Projects/mlir/cpp-to-ops-converter/script/..//ITK_POM2K/pom2k_fun.c":283:6), %arg9: memref<?xf32> loc("/Users/mac/Projects/mlir/cpp-to-ops-converter/script/..//ITK_POM2K/pom2k_fun.c":283:6), %arg10: memref<?xf32> loc("/Users/mac/Projects/mlir/cpp-to-ops-converter/script/..//ITK_POM2K/pom2k_fun.c":283:6), %arg11: memref<?xf32> loc("/Users/mac/Projects/mlir/cpp-to-ops-converter/script/..//ITK_POM2K/pom2k_fun.c":283:6), %arg12: memref<?xf32> loc("/Users/mac/Projects/mlir/cpp-to-ops-converter/script/..//ITK_POM2K/pom2k_fun.c":283:6), %arg13: memref<?xf32> loc("/Users/mac/Projects/mlir/cpp-to-ops-converter/script/..//ITK_POM2K/pom2k_fun.c":283:6), %arg14: memref<?xf32> loc("/Users/mac/Projects/mlir/cpp-to-ops-converter/script/..//ITK_POM2K/pom2k_fun.c":283:6), %arg15: memref<?xf32> loc("/Users/mac/Projects/mlir/cpp-to-ops-converter/script/..//ITK_POM2K/pom2k_fun.c":283:6), %arg16: memref<?xf32> loc("/Users/mac/Projects/mlir/cpp-to-ops-converter/script/..//ITK_POM2K/pom2k_fun.c":283:6), %arg17: memref<?xf32> loc("/Users/mac/Projects/mlir/cpp-to-ops-converter/script/..//ITK_POM2K/pom2k_fun.c":283:6), %arg18: memref<?xf32> loc("/Users/mac/Projects/mlir/cpp-to-ops-converter/script/..//ITK_POM2K/pom2k_fun.c":283:6), %arg19: memref<?xf32> loc("/Users/mac/Projects/mlir/cpp-to-ops-converter/script/..//ITK_POM2K/pom2k_fun.c":283:6), %arg20: memref<?xf32> loc("/Users/mac/Projects/mlir/cpp-to-ops-converter/script/..//ITK_POM2K/pom2k_fun.c":283:6), %arg21: memref<?xf32> loc("/Users/mac/Projects/mlir/cpp-to-ops-converter/script/..//ITK_POM2K/pom2k_fun.c":283:6), %arg22: memref<?xf32> loc("/Users/mac/Projects/mlir/cpp-to-ops-converter/script/..//ITK_POM2K/pom2k_fun.c":283:6), %arg23: memref<?xf32> loc("/Users/mac/Projects/mlir/cpp-to-ops-converter/script/..//ITK_POM2K/pom2k_fun.c":283:6), %arg24: memref<?xf32> loc("/Users/mac/Projects/mlir/cpp-to-ops-converter/script/..//ITK_POM2K/pom2k_fun.c":283:6), %arg25: memref<?xf32> loc("/Users/mac/Projects/mlir/cpp-to-ops-converter/script/..//ITK_POM2K/pom2k_fun.c":283:6), %arg26: memref<?xf32> loc("/Users/mac/Projects/mlir/cpp-to-ops-converter/script/..//ITK_POM2K/pom2k_fun.c":283:6), %arg27: memref<?xf32> loc("/Users/mac/Projects/mlir/cpp-to-ops-converter/script/..//ITK_POM2K/pom2k_fun.c":283:6), %arg28: memref<?xf32> loc("/Users/mac/Projects/mlir/cpp-to-ops-converter/script/..//ITK_POM2K/pom2k_fun.c":283:6), %arg29: memref<?xf32> loc("/Users/mac/Projects/mlir/cpp-to-ops-converter/script/..//ITK_POM2K/pom2k_fun.c":283:6), %arg30: memref<?xf32> loc("/Users/mac/Projects/mlir/cpp-to-ops-converter/script/..//ITK_POM2K/pom2k_fun.c":283:6), %arg31: memref<?xf32> loc("/Users/mac/Projects/mlir/cpp-to-ops-converter/script/..//ITK_POM2K/pom2k_fun.c":283:6), %arg32: memref<?xf32> loc("/Users/mac/Projects/mlir/cpp-to-ops-converter/script/..//ITK_POM2K/pom2k_fun.c":283:6), %arg33: memref<?xf32> loc("/Users/mac/Projects/mlir/cpp-to-ops-converter/script/..//ITK_POM2K/pom2k_fun.c":283:6), %arg34: memref<?xf32> loc("/Users/mac/Projects/mlir/cpp-to-ops-converter/script/..//ITK_POM2K/pom2k_fun.c":283:6), %arg35: memref<?xf32> loc("/Users/mac/Projects/mlir/cpp-to-ops-converter/script/..//ITK_POM2K/pom2k_fun.c":283:6), %arg36: memref<?xf32> loc("/Users/mac/Projects/mlir/cpp-to-ops-converter/script/..//ITK_POM2K/pom2k_fun.c":283:6), %arg37: memref<?xf32> loc("/Users/mac/Projects/mlir/cpp-to-ops-converter/script/..//ITK_POM2K/pom2k_fun.c":283:6), %arg38: memref<?xf32> loc("/Users/mac/Projects/mlir/cpp-to-ops-converter/script/..//ITK_POM2K/pom2k_fun.c":283:6), %arg39: memref<?xf32> loc("/Users/mac/Projects/mlir/cpp-to-ops-converter/script/..//ITK_POM2K/pom2k_fun.c":283:6), %arg40: memref<?xf32> loc("/Users/mac/Projects/mlir/cpp-to-ops-converter/script/..//ITK_POM2K/pom2k_fun.c":283:6), %arg41: memref<?xf32> loc("/Users/mac/Projects/mlir/cpp-to-ops-converter/script/..//ITK_POM2K/pom2k_fun.c":283:6), %arg42: memref<?xf32> loc("/Users/mac/Projects/mlir/cpp-to-ops-converter/script/..//ITK_POM2K/pom2k_fun.c":283:6), %arg43: memref<?xf32> loc("/Users/mac/Projects/mlir/cpp-to-ops-converter/script/..//ITK_POM2K/pom2k_fun.c":283:6), %arg44: memref<?xf32> loc("/Users/mac/Projects/mlir/cpp-to-ops-converter/script/..//ITK_POM2K/pom2k_fun.c":283:6), %arg45: memref<?xf32> loc("/Users/mac/Projects/mlir/cpp-to-ops-converter/script/..//ITK_POM2K/pom2k_fun.c":283:6), %arg46: memref<?xf32> loc("/Users/mac/Projects/mlir/cpp-to-ops-converter/script/..//ITK_POM2K/pom2k_fun.c":283:6), %arg47: memref<?xf32> loc("/Users/mac/Projects/mlir/cpp-to-ops-converter/script/..//ITK_POM2K/pom2k_fun.c":283:6), %arg48: memref<?xf32> loc("/Users/mac/Projects/mlir/cpp-to-ops-converter/script/..//ITK_POM2K/pom2k_fun.c":283:6), %arg49: memref<?xf32> loc("/Users/mac/Projects/mlir/cpp-to-ops-converter/script/..//ITK_POM2K/pom2k_fun.c":283:6), %arg50: memref<?xf32> loc("/Users/mac/Projects/mlir/cpp-to-ops-converter/script/..//ITK_POM2K/pom2k_fun.c":283:6), %arg51: memref<?xf32> loc("/Users/mac/Projects/mlir/cpp-to-ops-converter/script/..//ITK_POM2K/pom2k_fun.c":283:6)) attributes {llvm.linkage = #llvm.linkage<external>} {
    %cst = arith.constant 9.99999974E-6 : f32 loc(#loc676)
    %cst_0 = arith.constant -1.574060e-01 : f32 loc(#loc677)
    %cst_1 = arith.constant 0.0679395198 : f32 loc(#loc678)
    %cst_2 = arith.constant 9.095290e-03 : f32 loc(#loc679)
    %cst_3 = arith.constant 1.00168501E-4 : f32 loc(#loc680)
    %cst_4 = arith.constant 1.12008297E-6 : f32 loc(#loc681)
    %cst_5 = arith.constant 6.53633192E-9 : f32 loc(#loc682)
    %cst_6 = arith.constant 0.82449299 : f32 loc(#loc683)
    %cst_7 = arith.constant 4.089900e-03 : f32 loc(#loc684)
    %cst_8 = arith.constant 7.643800e-05 : f32 loc(#loc685)
    %cst_9 = arith.constant 8.24669996E-7 : f32 loc(#loc686)
    %cst_10 = arith.constant 5.387500e-09 : f32 loc(#loc687)
    %cst_11 = arith.constant -5.724660e-03 : f32 loc(#loc688)
    %cst_12 = arith.constant 1.022700e-04 : f32 loc(#loc689)
    %cst_13 = arith.constant 1.654600e-06 : f32 loc(#loc690)
    %cst_14 = arith.constant 1.500000e+00 : f32 loc(#loc691)
    %cst_15 = arith.constant 4.831400e-04 : f32 loc(#loc692)
    %cst_16 = arith.constant 1.449100e+03 : f32 loc(#loc693)
    %cst_17 = arith.constant 0.0820999965 : f32 loc(#loc694)
    %cst_18 = arith.constant 4.550000e+00 : f32 loc(#loc695)
    %cst_19 = arith.constant 4.500000e-02 : f32 loc(#loc696)
    %cst_20 = arith.constant 1.340000e+00 : f32 loc(#loc697)
    %cst_21 = arith.constant 1.000000e+05 : f32 loc(#loc698)
    %cst_22 = arith.constant 2.500000e-01 : f32 loc(#loc699)
    %c-3_i32 = arith.constant -3 : i32 loc(#loc700)
    %c-1_i32 = arith.constant -1 : i32 loc(#loc701)
    %cst_23 = arith.constant 6.250000e+08 : f32 loc(#loc702)
    %cst_24 = arith.constant 3.500000e+01 : f32 loc(#loc703)
    %cst_25 = arith.constant 1.000000e+03 : f32 loc(#loc704)
    %cst_26 = arith.constant 1.500000e+01 : f32 loc(#loc705)
    %cst_27 = arith.constant 5.000000e+00 : f32 loc(#loc706)
    %c2_i32 = arith.constant 2 : i32 loc(#loc707)
    %cst_28 = arith.constant 1.000000e+00 : f32 loc(#loc708)
    %cst_29 = arith.constant 4.500000e+03 : f32 loc(#loc709)
    %cst_30 = arith.constant 3.000000e+00 : f32 loc(#loc710)
    %cst_31 = arith.constant 4.000000e+00 : f32 loc(#loc711)
    %cst_32 = arith.constant 0.000000e+00 : f32 loc(#loc712)
    %cst_33 = arith.constant 9.99999974E-5 : f32 loc(#loc713)
    %cst_34 = arith.constant 2.000000e+00 : f32 loc(#loc714)
    %c1_i32 = arith.constant 1 : i32 loc(#loc701)
    %c0_i32 = arith.constant 0 : i32 loc(#loc715)
    %cst_35 = arith.constant 2.000000e-01 : f32 loc(#loc716)
    %cst_36 = arith.constant 8.000000e+03 : f32 loc(#loc717)
    %cst_37 = arith.constant 0.899999976 : f32 loc(#loc718)
    %c0 = arith.constant 0 : index loc(#loc719)
    %0 = memref.get_global @jm : memref<1xi32> loc(#loc720)
    %1 = memref.get_global @im : memref<1xi32> loc(#loc721)
    %2 = memref.get_global @pi : memref<1xf32> loc(#loc722)
    %3 = scf.while (%arg52 = %c0_i32) : (i32) -> i32 {
      %107 = affine.load %0[0] : memref<1xi32> loc(#loc720)
      %108 = arith.cmpi slt, %arg52, %107 : i32 loc(#loc723)
      scf.condition(%108) %arg52 : i32 loc(#loc724)
    } do {
    ^bb0(%arg52: i32 loc("/Users/mac/Projects/mlir/cpp-to-ops-converter/script/..//ITK_POM2K/pom2k_fun.c":314:3)):
      %107 = arith.addi %arg52, %c1_i32 : i32 loc(#loc725)
      %108 = arith.sitofp %107 : i32 to f32 loc(#loc726)
      %109:2 = scf.while (%arg53 = %c0_i32) : (i32) -> (i32, i32) {
        %110 = affine.load %1[0] : memref<1xi32> loc(#loc721)
        %111 = arith.cmpi slt, %arg53, %110 : i32 loc(#loc727)
        scf.condition(%111) %110, %arg53 : i32, i32 loc(#loc728)
      } do {
      ^bb0(%arg53: i32 loc("/Users/mac/Projects/mlir/cpp-to-ops-converter/script/..//ITK_POM2K/pom2k_fun.c":315:5), %arg54: i32 loc("/Users/mac/Projects/mlir/cpp-to-ops-converter/script/..//ITK_POM2K/pom2k_fun.c":315:5)):
        %110 = arith.muli %arg52, %arg53 : i32 loc(#loc267)
        %111 = arith.addi %arg54, %110 : i32 loc(#loc268)
        %112 = arith.index_cast %111 : i32 to index loc(#loc729)
        %113 = affine.load %2[0] : memref<1xf32> loc(#loc722)
        %114 = arith.addi %arg54, %c1_i32 : i32 loc(#loc730)
        %115 = arith.sitofp %114 : i32 to f32 loc(#loc731)
        %116 = arith.mulf %113, %115 : f32 loc(#loc732)
        %117 = arith.sitofp %arg53 : i32 to f32 loc(#loc733)
        %118 = arith.divf %116, %117 : f32 loc(#loc734)
        %119 = func.call @sinf(%118) : (f32) -> f32 loc(#loc735)
        %120 = arith.mulf %119, %cst_36 : f32 loc(#loc736)
        %121 = arith.divf %120, %cst_34 : f32 loc(#loc737)
        %122 = arith.subf %cst_36, %121 : f32 loc(#loc738)
        %123 = arith.addi %112, %c0 : index loc(#loc739)
        memref.store %122, %arg0[%123] : memref<?xf32> loc(#loc740)
        %124 = affine.load %1[0] : memref<1xi32> loc(#loc294)
        %125 = arith.muli %arg52, %124 : i32 loc(#loc267)
        %126 = arith.addi %arg54, %125 : i32 loc(#loc268)
        %127 = arith.index_cast %126 : i32 to index loc(#loc741)
        %128 = affine.load %2[0] : memref<1xf32> loc(#loc742)
        %129 = arith.mulf %128, %108 : f32 loc(#loc743)
        %130 = affine.load %0[0] : memref<1xi32> loc(#loc744)
        %131 = arith.sitofp %130 : i32 to f32 loc(#loc745)
        %132 = arith.divf %129, %131 : f32 loc(#loc746)
        %133 = func.call @sinf(%132) : (f32) -> f32 loc(#loc747)
        %134 = arith.mulf %133, %cst_36 : f32 loc(#loc748)
        %135 = arith.divf %134, %cst_34 : f32 loc(#loc749)
        %136 = arith.subf %cst_36, %135 : f32 loc(#loc750)
        %137 = arith.addi %127, %c0 : index loc(#loc751)
        memref.store %136, %arg1[%137] : memref<?xf32> loc(#loc752)
        %138 = affine.load %1[0] : memref<1xi32> loc(#loc294)
        %139 = arith.muli %arg52, %138 : i32 loc(#loc267)
        %140 = arith.addi %arg54, %139 : i32 loc(#loc268)
        %141 = arith.index_cast %140 : i32 to index loc(#loc753)
        %142 = arith.addi %141, %c0 : index loc(#loc754)
        memref.store %cst_33, %arg2[%142] : memref<?xf32> loc(#loc755)
        scf.yield %114 : i32 loc(#loc728)
      } loc(#loc721)
      scf.yield %107 : i32 loc(#loc724)
    } loc(#loc720)
    %4 = scf.while (%arg52 = %c0_i32) : (i32) -> i32 {
      %107 = affine.load %0[0] : memref<1xi32> loc(#loc756)
      %108 = arith.cmpi slt, %arg52, %107 : i32 loc(#loc757)
      scf.condition(%108) %arg52 : i32 loc(#loc758)
    } do {
    ^bb0(%arg52: i32 loc("/Users/mac/Projects/mlir/cpp-to-ops-converter/script/..//ITK_POM2K/pom2k_fun.c":374:3)):
      %107 = affine.load %1[0] : memref<1xi32> loc(#loc294)
      %108 = arith.muli %arg52, %107 : i32 loc(#loc267)
      %109 = arith.addi %108, %c1_i32 : i32 loc(#loc268)
      %110 = arith.index_cast %109 : i32 to index loc(#loc759)
      %111 = arith.addi %110, %c0 : index loc(#loc760)
      memref.store %cst_32, %arg3[%111] : memref<?xf32> loc(#loc761)
      %112:2 = scf.while (%arg53 = %c1_i32) : (i32) -> (i32, i32) {
        %114 = affine.load %1[0] : memref<1xi32> loc(#loc762)
        %115 = arith.cmpi slt, %arg53, %114 : i32 loc(#loc763)
        scf.condition(%115) %114, %arg53 : i32, i32 loc(#loc764)
      } do {
      ^bb0(%arg53: i32 loc("/Users/mac/Projects/mlir/cpp-to-ops-converter/script/..//ITK_POM2K/pom2k_fun.c":376:5), %arg54: i32 loc("/Users/mac/Projects/mlir/cpp-to-ops-converter/script/..//ITK_POM2K/pom2k_fun.c":376:5)):
        %114 = arith.muli %arg52, %arg53 : i32 loc(#loc267)
        %115 = arith.addi %arg54, %114 : i32 loc(#loc268)
        %116 = arith.index_cast %115 : i32 to index loc(#loc765)
        %117 = arith.addi %arg54, %c-1_i32 : i32 loc(#loc766)
        %118 = arith.addi %117, %114 : i32 loc(#loc268)
        %119 = arith.index_cast %118 : i32 to index loc(#loc767)
        %120 = arith.addi %119, %c0 : index loc(#loc768)
        %121 = memref.load %arg3[%120] : memref<?xf32> loc(#loc768)
        %122 = memref.load %arg0[%120] : memref<?xf32> loc(#loc769)
        %123 = arith.addf %121, %122 : f32 loc(#loc770)
        %124 = arith.addi %116, %c0 : index loc(#loc771)
        memref.store %123, %arg3[%124] : memref<?xf32> loc(#loc772)
        %125 = arith.addi %arg54, %c1_i32 : i32 loc(#loc773)
        scf.yield %125 : i32 loc(#loc764)
      } loc(#loc762)
      %113 = arith.addi %arg52, %c1_i32 : i32 loc(#loc774)
      scf.yield %113 : i32 loc(#loc758)
    } loc(#loc756)
    %5:2 = scf.while (%arg52 = %c0_i32) : (i32) -> (i32, i32) {
      %107 = affine.load %1[0] : memref<1xi32> loc(#loc775)
      %108 = arith.cmpi slt, %arg52, %107 : i32 loc(#loc776)
      scf.condition(%108) %107, %arg52 : i32, i32 loc(#loc777)
    } do {
    ^bb0(%arg52: i32 loc("/Users/mac/Projects/mlir/cpp-to-ops-converter/script/..//ITK_POM2K/pom2k_fun.c":380:3), %arg53: i32 loc("/Users/mac/Projects/mlir/cpp-to-ops-converter/script/..//ITK_POM2K/pom2k_fun.c":380:3)):
      %107 = arith.muli %arg52, %c1_i32 : i32 loc(#loc267)
      %108 = arith.addi %arg53, %107 : i32 loc(#loc268)
      %109 = arith.index_cast %108 : i32 to index loc(#loc778)
      %110 = arith.addi %109, %c0 : index loc(#loc779)
      memref.store %cst_32, %arg4[%110] : memref<?xf32> loc(#loc780)
      %111 = scf.while (%arg54 = %c1_i32) : (i32) -> i32 {
        %113 = affine.load %0[0] : memref<1xi32> loc(#loc781)
        %114 = arith.cmpi slt, %arg54, %113 : i32 loc(#loc782)
        scf.condition(%114) %arg54 : i32 loc(#loc783)
      } do {
      ^bb0(%arg54: i32 loc("/Users/mac/Projects/mlir/cpp-to-ops-converter/script/..//ITK_POM2K/pom2k_fun.c":382:5)):
        %113 = affine.load %1[0] : memref<1xi32> loc(#loc294)
        %114 = arith.muli %arg54, %113 : i32 loc(#loc267)
        %115 = arith.addi %arg53, %114 : i32 loc(#loc268)
        %116 = arith.index_cast %115 : i32 to index loc(#loc784)
        %117 = arith.addi %arg54, %c-1_i32 : i32 loc(#loc785)
        %118 = arith.muli %117, %113 : i32 loc(#loc267)
        %119 = arith.addi %arg53, %118 : i32 loc(#loc268)
        %120 = arith.index_cast %119 : i32 to index loc(#loc786)
        %121 = arith.addi %120, %c0 : index loc(#loc787)
        %122 = memref.load %arg4[%121] : memref<?xf32> loc(#loc787)
        %123 = memref.load %arg1[%121] : memref<?xf32> loc(#loc788)
        %124 = arith.addf %122, %123 : f32 loc(#loc789)
        %125 = arith.addi %116, %c0 : index loc(#loc790)
        memref.store %124, %arg4[%125] : memref<?xf32> loc(#loc791)
        %126 = arith.addi %arg54, %c1_i32 : i32 loc(#loc792)
        scf.yield %126 : i32 loc(#loc783)
      } loc(#loc781)
      %112 = arith.addi %arg53, %c1_i32 : i32 loc(#loc793)
      scf.yield %112 : i32 loc(#loc777)
    } loc(#loc775)
    %6 = memref.get_global @jmm1 : memref<1xi32> loc(#loc794)
    %7 = memref.get_global @imm1 : memref<1xi32> loc(#loc795)
    %8 = scf.while (%arg52 = %c0_i32) : (i32) -> i32 {
      %107 = affine.load %6[0] : memref<1xi32> loc(#loc794)
      %108 = arith.cmpi slt, %arg52, %107 : i32 loc(#loc796)
      scf.condition(%108) %arg52 : i32 loc(#loc797)
    } do {
    ^bb0(%arg52: i32 loc("/Users/mac/Projects/mlir/cpp-to-ops-converter/script/..//ITK_POM2K/pom2k_fun.c":391:3)):
      %107 = arith.addi %arg52, %c1_i32 : i32 loc(#loc798)
      %108 = scf.while (%arg53 = %c0_i32) : (i32) -> i32 {
        %109 = affine.load %7[0] : memref<1xi32> loc(#loc795)
        %110 = arith.cmpi slt, %arg53, %109 : i32 loc(#loc799)
        scf.condition(%110) %arg53 : i32 loc(#loc800)
      } do {
      ^bb0(%arg53: i32 loc("/Users/mac/Projects/mlir/cpp-to-ops-converter/script/..//ITK_POM2K/pom2k_fun.c":392:5)):
        %109 = affine.load %1[0] : memref<1xi32> loc(#loc294)
        %110 = arith.muli %arg52, %109 : i32 loc(#loc267)
…
#loc8317 = loc("/Users/mac/Projects/mlir/cpp-to-ops-converter/script/..//ITK_POM2K/pom2k_fun.c":4020:46)
#loc8318 = loc("/Users/mac/Projects/mlir/cpp-to-ops-converter/script/..//ITK_POM2K/pom2k_fun.c":4020:27)
#loc8319 = loc("/Users/mac/Projects/mlir/cpp-to-ops-converter/script/..//ITK_POM2K/pom2k_fun.c":4021:48)
#loc8320 = loc("/Users/mac/Projects/mlir/cpp-to-ops-converter/script/..//ITK_POM2K/pom2k_fun.c":4021:58)
#loc8321 = loc("/Users/mac/Projects/mlir/cpp-to-ops-converter/script/..//ITK_POM2K/pom2k_fun.c":4021:56)
#loc8322 = loc("/Users/mac/Projects/mlir/cpp-to-ops-converter/script/..//ITK_POM2K/pom2k_fun.c":4021:78)
#loc8323 = loc("/Users/mac/Projects/mlir/cpp-to-ops-converter/script/..//ITK_POM2K/pom2k_fun.c":4021:76)
#loc8324 = loc("/Users/mac/Projects/mlir/cpp-to-ops-converter/script/..//ITK_POM2K/pom2k_fun.c":4021:97)
#loc8325 = loc("/Users/mac/Projects/mlir/cpp-to-ops-converter/script/..//ITK_POM2K/pom2k_fun.c":4021:27)
#loc8326 = loc("/Users/mac/Projects/mlir/cpp-to-ops-converter/script/..//ITK_POM2K/pom2k_fun.c":4022:25)
#loc8327 = loc("/Users/mac/Projects/mlir/cpp-to-ops-converter/script/..//ITK_POM2K/pom2k_fun.c":4022:30)
#loc8328 = loc("/Users/mac/Projects/mlir/cpp-to-ops-converter/script/..//ITK_POM2K/pom2k_fun.c":4022:50)
#loc8329 = loc("/Users/mac/Projects/mlir/cpp-to-ops-converter/script/..//ITK_POM2K/pom2k_fun.c":4022:48)
#loc8330 = loc("/Users/mac/Projects/mlir/cpp-to-ops-converter/script/..//ITK_POM2K/pom2k_fun.c":4022:70)
#loc8331 = loc("/Users/mac/Projects/mlir/cpp-to-ops-converter/script/..//ITK_POM2K/pom2k_fun.c":4022:68)
#loc8332 = loc("/Users/mac/Projects/mlir/cpp-to-ops-converter/script/..//ITK_POM2K/pom2k_fun.c":4022:89)
#loc8333 = loc("/Users/mac/Projects/mlir/cpp-to-ops-converter/script/..//ITK_POM2K/pom2k_fun.c":4022:27)
#loc8334 = loc("/Users/mac/Projects/mlir/cpp-to-ops-converter/script/..//ITK_POM2K/pom2k_fun.c":4023:25)
#loc8335 = loc("/Users/mac/Projects/mlir/cpp-to-ops-converter/script/..//ITK_POM2K/pom2k_fun.c":4023:30)
#loc8336 = loc("/Users/mac/Projects/mlir/cpp-to-ops-converter/script/..//ITK_POM2K/pom2k_fun.c":4023:50)
#loc8337 = loc("/Users/mac/Projects/mlir/cpp-to-ops-converter/script/..//ITK_POM2K/pom2k_fun.c":4023:48)
#loc8338 = loc("/Users/mac/Projects/mlir/cpp-to-ops-converter/script/..//ITK_POM2K/pom2k_fun.c":4023:70)
#loc8339 = loc("/Users/mac/Projects/mlir/cpp-to-ops-converter/script/..//ITK_POM2K/pom2k_fun.c":4023:68)
#loc8340 = loc("/Users/mac/Projects/mlir/cpp-to-ops-converter/script/..//ITK_POM2K/pom2k_fun.c":4023:89)
#loc8341 = loc("/Users/mac/Projects/mlir/cpp-to-ops-converter/script/..//ITK_POM2K/pom2k_fun.c":4023:27)
#loc8342 = loc("/Users/mac/Projects/mlir/cpp-to-ops-converter/script/..//ITK_POM2K/pom2k_fun.c":4019:31)
#loc8343 = loc("/Users/mac/Projects/mlir/cpp-to-ops-converter/script/..//ITK_POM2K/pom2k_fun.c":4018:29)
#loc8344 = loc("/Users/mac/Projects/mlir/cpp-to-ops-converter/script/..//ITK_POM2K/pom2k_fun.c":4017:27)
#loc8345 = loc("/Users/mac/Projects/mlir/cpp-to-ops-converter/script/..//ITK_POM2K/pom2k_fun.c":4045:22)
#loc8346 = loc("/Users/mac/Projects/mlir/cpp-to-ops-converter/script/..//ITK_POM2K/pom2k_fun.c":4045:20)
#loc8348 = loc("/Users/mac/Projects/mlir/cpp-to-ops-converter/script/..//ITK_POM2K/pom2k_fun.c":4046:24)
#loc8349 = loc("/Users/mac/Projects/mlir/cpp-to-ops-converter/script/..//ITK_POM2K/pom2k_fun.c":4046:22)
#loc8351 = loc("/Users/mac/Projects/mlir/cpp-to-ops-converter/script/..//ITK_POM2K/pom2k_fun.c":4047:18)
#loc8352 = loc("/Users/mac/Projects/mlir/cpp-to-ops-converter/script/..//ITK_POM2K/pom2k_fun.c":4047:21)
#loc8353 = loc("/Users/mac/Projects/mlir/cpp-to-ops-converter/script/..//ITK_POM2K/pom2k_fun.c":4047:28)
#loc8354 = loc("/Users/mac/Projects/mlir/cpp-to-ops-converter/script/..//ITK_POM2K/pom2k_fun.c":4047:43)
#loc8355 = loc("/Users/mac/Projects/mlir/cpp-to-ops-converter/script/..//ITK_POM2K/pom2k_fun.c":4047:48)
#loc8356 = loc("/Users/mac/Projects/mlir/cpp-to-ops-converter/script/..//ITK_POM2K/pom2k_fun.c":4047:55)
#loc8357 = loc("/Users/mac/Projects/mlir/cpp-to-ops-converter/script/..//ITK_POM2K/pom2k_fun.c":4047:32)
#loc8358 = loc("/Users/mac/Projects/mlir/cpp-to-ops-converter/script/..//ITK_POM2K/pom2k_fun.c":4047:78)
#loc8359 = loc("/Users/mac/Projects/mlir/cpp-to-ops-converter/script/..//ITK_POM2K/pom2k_fun.c":4047:59)
#loc8360 = loc("/Users/mac/Projects/mlir/cpp-to-ops-converter/script/..//ITK_POM2K/pom2k_fun.c":4047:57)
#loc8361 = loc("/Users/mac/Projects/mlir/cpp-to-ops-converter/script/..//ITK_POM2K/pom2k_fun.c":4047:7)
#loc8362 = loc("/Users/mac/Projects/mlir/cpp-to-ops-converter/script/..//ITK_POM2K/pom2k_fun.c":4047:30)
#loc8363 = loc("/Users/mac/Projects/mlir/cpp-to-ops-converter/script/..//ITK_POM2K/pom2k_fun.c":4048:18)
#loc8364 = loc("/Users/mac/Projects/mlir/cpp-to-ops-converter/script/..//ITK_POM2K/pom2k_fun.c":4048:21)
#loc8365 = loc("/Users/mac/Projects/mlir/cpp-to-ops-converter/script/..//ITK_POM2K/pom2k_fun.c":4048:28)
#loc8366 = loc("/Users/mac/Projects/mlir/cpp-to-ops-converter/script/..//ITK_POM2K/pom2k_fun.c":4048:43)
#loc8367 = loc("/Users/mac/Projects/mlir/cpp-to-ops-converter/script/..//ITK_POM2K/pom2k_fun.c":4048:48)
#loc8368 = loc("/Users/mac/Projects/mlir/cpp-to-ops-converter/script/..//ITK_POM2K/pom2k_fun.c":4048:55)
#loc8369 = loc("/Users/mac/Projects/mlir/cpp-to-ops-converter/script/..//ITK_POM2K/pom2k_fun.c":4048:32)
#loc8370 = loc("/Users/mac/Projects/mlir/cpp-to-ops-converter/script/..//ITK_POM2K/pom2k_fun.c":4048:78)
#loc8371 = loc("/Users/mac/Projects/mlir/cpp-to-ops-converter/script/..//ITK_POM2K/pom2k_fun.c":4048:59)
#loc8372 = loc("/Users/mac/Projects/mlir/cpp-to-ops-converter/script/..//ITK_POM2K/pom2k_fun.c":4048:57)
#loc8373 = loc("/Users/mac/Projects/mlir/cpp-to-ops-converter/script/..//ITK_POM2K/pom2k_fun.c":4048:7)
#loc8374 = loc("/Users/mac/Projects/mlir/cpp-to-ops-converter/script/..//ITK_POM2K/pom2k_fun.c":4048:30)
#loc8375 = loc("/Users/mac/Projects/mlir/cpp-to-ops-converter/script/..//ITK_POM2K/pom2k_fun.c":4049:23)
#loc8376 = loc("/Users/mac/Projects/mlir/cpp-to-ops-converter/script/..//ITK_POM2K/pom2k_fun.c":4049:43)
#loc8377 = loc("/Users/mac/Projects/mlir/cpp-to-ops-converter/script/..//ITK_POM2K/pom2k_fun.c":4049:27)
#loc8378 = loc("/Users/mac/Projects/mlir/cpp-to-ops-converter/script/..//ITK_POM2K/pom2k_fun.c":4049:61)
#loc8379 = loc("/Users/mac/Projects/mlir/cpp-to-ops-converter/script/..//ITK_POM2K/pom2k_fun.c":4049:47)
#loc8380 = loc("/Users/mac/Projects/mlir/cpp-to-ops-converter/script/..//ITK_POM2K/pom2k_fun.c":4049:45)
#loc8381 = loc("/Users/mac/Projects/mlir/cpp-to-ops-converter/script/..//ITK_POM2K/pom2k_fun.c":4049:7)
#loc8382 = loc("/Users/mac/Projects/mlir/cpp-to-ops-converter/script/..//ITK_POM2K/pom2k_fun.c":4049:25)
#loc8383 = loc("/Users/mac/Projects/mlir/cpp-to-ops-converter/script/..//ITK_POM2K/pom2k_fun.c":4050:23)
#loc8384 = loc("/Users/mac/Projects/mlir/cpp-to-ops-converter/script/..//ITK_POM2K/pom2k_fun.c":4050:43)
#loc8385 = loc("/Users/mac/Projects/mlir/cpp-to-ops-converter/script/..//ITK_POM2K/pom2k_fun.c":4050:27)
#loc8386 = loc("/Users/mac/Projects/mlir/cpp-to-ops-converter/script/..//ITK_POM2K/pom2k_fun.c":4050:61)
#loc8387 = loc("/Users/mac/Projects/mlir/cpp-to-ops-converter/script/..//ITK_POM2K/pom2k_fun.c":4050:47)
#loc8388 = loc("/Users/mac/Projects/mlir/cpp-to-ops-converter/script/..//ITK_POM2K/pom2k_fun.c":4050:45)
#loc8389 = loc("/Users/mac/Projects/mlir/cpp-to-ops-converter/script/..//ITK_POM2K/pom2k_fun.c":4050:7)
#loc8390 = loc("/Users/mac/Projects/mlir/cpp-to-ops-converter/script/..//ITK_POM2K/pom2k_fun.c":4050:25)
#loc8391 = loc("/Users/mac/Projects/mlir/cpp-to-ops-converter/script/..//ITK_POM2K/pom2k_fun.c":4046:29)
#loc8392 = loc("/Users/mac/Projects/mlir/cpp-to-ops-converter/script/..//ITK_POM2K/pom2k_fun.c":4052:24)
#loc8393 = loc("/Users/mac/Projects/mlir/cpp-to-ops-converter/script/..//ITK_POM2K/pom2k_fun.c":4052:22)
#loc8395 = loc("/Users/mac/Projects/mlir/cpp-to-ops-converter/script/..//ITK_POM2K/pom2k_fun.c":4053:15)
#loc8396 = loc("/Users/mac/Projects/mlir/cpp-to-ops-converter/script/..//ITK_POM2K/pom2k_fun.c":4053:18)
#loc8397 = loc("/Users/mac/Projects/mlir/cpp-to-ops-converter/script/..//ITK_POM2K/pom2k_fun.c":4053:28)
#loc8398 = loc("/Users/mac/Projects/mlir/cpp-to-ops-converter/script/..//ITK_POM2K/pom2k_fun.c":4053:40)
#loc8399 = loc("/Users/mac/Projects/mlir/cpp-to-ops-converter/script/..//ITK_POM2K/pom2k_fun.c":4053:45)
#loc8400 = loc("/Users/mac/Projects/mlir/cpp-to-ops-converter/script/..//ITK_POM2K/pom2k_fun.c":4053:55)
#loc8401 = loc("/Users/mac/Projects/mlir/cpp-to-ops-converter/script/..//ITK_POM2K/pom2k_fun.c":4053:32)
#loc8402 = loc("/Users/mac/Projects/mlir/cpp-to-ops-converter/script/..//ITK_POM2K/pom2k_fun.c":4053:78)
#loc8403 = loc("/Users/mac/Projects/mlir/cpp-to-ops-converter/script/..//ITK_POM2K/pom2k_fun.c":4053:59)
#loc8404 = loc("/Users/mac/Projects/mlir/cpp-to-ops-converter/script/..//ITK_POM2K/pom2k_fun.c":4053:57)
#loc8405 = loc("/Users/mac/Projects/mlir/cpp-to-ops-converter/script/..//ITK_POM2K/pom2k_fun.c":4053:7)
#loc8406 = loc("/Users/mac/Projects/mlir/cpp-to-ops-converter/script/..//ITK_POM2K/pom2k_fun.c":4053:30)
#loc8407 = loc("/Users/mac/Projects/mlir/cpp-to-ops-converter/script/..//ITK_POM2K/pom2k_fun.c":4054:15)
#loc8408 = loc("/Users/mac/Projects/mlir/cpp-to-ops-converter/script/..//ITK_POM2K/pom2k_fun.c":4054:18)
#loc8409 = loc("/Users/mac/Projects/mlir/cpp-to-ops-converter/script/..//ITK_POM2K/pom2k_fun.c":4054:28)
#loc8410 = loc("/Users/mac/Projects/mlir/cpp-to-ops-converter/script/..//ITK_POM2K/pom2k_fun.c":4054:40)
#loc8411 = loc("/Users/mac/Projects/mlir/cpp-to-ops-converter/script/..//ITK_POM2K/pom2k_fun.c":4054:45)
#loc8412 = loc("/Users/mac/Projects/mlir/cpp-to-ops-converter/script/..//ITK_POM2K/pom2k_fun.c":4054:55)
#loc8413 = loc("/Users/mac/Projects/mlir/cpp-to-ops-converter/script/..//ITK_POM2K/pom2k_fun.c":4054:32)
#loc8414 = loc("/Users/mac/Projects/mlir/cpp-to-ops-converter/script/..//ITK_POM2K/pom2k_fun.c":4054:78)
#loc8415 = loc("/Users/mac/Projects/mlir/cpp-to-ops-converter/script/..//ITK_POM2K/pom2k_fun.c":4054:59)
#loc8416 = loc("/Users/mac/Projects/mlir/cpp-to-ops-converter/script/..//ITK_POM2K/pom2k_fun.c":4054:57)
#loc8417 = loc("/Users/mac/Projects/mlir/cpp-to-ops-converter/script/..//ITK_POM2K/pom2k_fun.c":4054:7)
#loc8418 = loc("/Users/mac/Projects/mlir/cpp-to-ops-converter/script/..//ITK_POM2K/pom2k_fun.c":4054:30)
#loc8419 = loc("/Users/mac/Projects/mlir/cpp-to-ops-converter/script/..//ITK_POM2K/pom2k_fun.c":4055:23)
#loc8420 = loc("/Users/mac/Projects/mlir/cpp-to-ops-converter/script/..//ITK_POM2K/pom2k_fun.c":4055:43)
#loc8421 = loc("/Users/mac/Projects/mlir/cpp-to-ops-converter/script/..//ITK_POM2K/pom2k_fun.c":4055:27)
#loc8422 = loc("/Users/mac/Projects/mlir/cpp-to-ops-converter/script/..//ITK_POM2K/pom2k_fun.c":4055:61)
#loc8423 = loc("/Users/mac/Projects/mlir/cpp-to-ops-converter/script/..//ITK_POM2K/pom2k_fun.c":4055:47)
#loc8424 = loc("/Users/mac/Projects/mlir/cpp-to-ops-converter/script/..//ITK_POM2K/pom2k_fun.c":4055:45)
#loc8425 = loc("/Users/mac/Projects/mlir/cpp-to-ops-converter/script/..//ITK_POM2K/pom2k_fun.c":4055:7)
#loc8426 = loc("/Users/mac/Projects/mlir/cpp-to-ops-converter/script/..//ITK_POM2K/pom2k_fun.c":4055:25)
#loc8427 = loc("/Users/mac/Projects/mlir/cpp-to-ops-converter/script/..//ITK_POM2K/pom2k_fun.c":4056:23)
#loc8428 = loc("/Users/mac/Projects/mlir/cpp-to-ops-converter/script/..//ITK_POM2K/pom2k_fun.c":4056:43)
#loc8429 = loc("/Users/mac/Projects/mlir/cpp-to-ops-converter/script/..//ITK_POM2K/pom2k_fun.c":4056:27)
#loc8430 = loc("/Users/mac/Projects/mlir/cpp-to-ops-converter/script/..//ITK_POM2K/pom2k_fun.c":4056:61)
#loc8431 = loc("/Users/mac/Projects/mlir/cpp-to-ops-converter/script/..//ITK_POM2K/pom2k_fun.c":4056:47)
#loc8432 = loc("/Users/mac/Projects/mlir/cpp-to-ops-converter/script/..//ITK_POM2K/pom2k_fun.c":4056:45)
#loc8433 = loc("/Users/mac/Projects/mlir/cpp-to-ops-converter/script/..//ITK_POM2K/pom2k_fun.c":4056:7)
#loc8434 = loc("/Users/mac/Projects/mlir/cpp-to-ops-converter/script/..//ITK_POM2K/pom2k_fun.c":4056:25)
#loc8435 = loc("/Users/mac/Projects/mlir/cpp-to-ops-converter/script/..//ITK_POM2K/pom2k_fun.c":4052:29)
#loc8436 = loc("/Users/mac/Projects/mlir/cpp-to-ops-converter/script/..//ITK_POM2K/pom2k_fun.c":4045:27)
#loc8437 = loc("/Users/mac/Projects/mlir/cpp-to-ops-converter/script/..//ITK_POM2K/pom2k_fun.c":4061:3)
#loc8438 = loc("/Users/mac/Projects/mlir/cpp-to-ops-converter/script/..//ITK_POM2K/pom2k_fun.c":4062:3)
#loc8439 = loc("/Users/mac/Projects/mlir/cpp-to-ops-converter/script/..//ITK_POM2K/pom2k_fun.c":4063:3)
#loc8440 = loc("/Users/mac/Projects/mlir/cpp-to-ops-converter/script/..//ITK_POM2K/pom2k_fun.c":4064:3)
#loc8441 = loc("/Users/mac/Projects/mlir/cpp-to-ops-converter/script/..//ITK_POM2K/pom2k_fun.c":4066:1)
#loc8443 = loc("/Users/mac/Projects/mlir/cpp-to-ops-converter/script/..//ITK_POM2K/pom2k_fun.c":4369:11)
#loc8444 = loc("/Users/mac/Projects/mlir/cpp-to-ops-converter/script/..//ITK_POM2K/pom2k_fun.c":4232:24)
#loc8445 = loc("/Users/mac/Projects/mlir/cpp-to-ops-converter/script/..//ITK_POM2K/pom2k_fun.c":4162:29)
#loc8446 = loc("/Users/mac/Projects/mlir/cpp-to-ops-converter/script/..//ITK_POM2K/pom2k_fun.c":4068:1)
#loc8447 = loc("/Users/mac/Projects/mlir/cpp-to-ops-converter/script/..//ITK_POM2K/pom2k_fun.c":4078:38)
#loc8448 = loc("/Users/mac/Projects/mlir/cpp-to-ops-converter/script/..//ITK_POM2K/pom2k_fun.c":4300:21)
#loc8449 = loc("/Users/mac/Projects/mlir/cpp-to-ops-converter/script/..//ITK_POM2K/pom2k_fun.c":4231:31)
#loc8450 = loc("/Users/mac/Projects/mlir/cpp-to-ops-converter/script/..//ITK_POM2K/pom2k_fun.c":4231:16)
#loc8451 = loc("/Users/mac/Projects/mlir/cpp-to-ops-converter/script/..//ITK_POM2K/pom2k_fun.c":4212:30)
#loc8452 = loc("/Users/mac/Projects/mlir/cpp-to-ops-converter/script/..//ITK_POM2K/pom2k_fun.c":4161:15)
#loc8453 = loc("/Users/mac/Projects/mlir/cpp-to-ops-converter/script/..//ITK_POM2K/pom2k_fun.c":4075:48)
#loc8454 = loc("/Users/mac/Projects/mlir/cpp-to-ops-converter/script/..//ITK_POM2K/pom2k_fun.c":4075:41)
#loc8455 = loc("/Users/mac/Projects/mlir/cpp-to-ops-converter/script/..//ITK_POM2K/pom2k_fun.c":4075:34)
#loc8456 = loc("/Users/mac/Projects/mlir/cpp-to-ops-converter/script/..//ITK_POM2K/pom2k_fun.c":4075:27)
#loc8457 = loc("/Users/mac/Projects/mlir/cpp-to-ops-converter/script/..//ITK_POM2K/pom2k_fun.c":4075:20)
#loc8458 = loc("/Users/mac/Projects/mlir/cpp-to-ops-converter/script/..//ITK_POM2K/pom2k_fun.c":4074:45)
#loc8459 = loc("/Users/mac/Projects/mlir/cpp-to-ops-converter/script/..//ITK_POM2K/pom2k_fun.c":4074:39)
#loc8460 = loc("/Users/mac/Projects/mlir/cpp-to-ops-converter/script/..//ITK_POM2K/pom2k_fun.c":4074:33)
#loc8461 = loc("/Users/mac/Projects/mlir/cpp-to-ops-converter/script/..//ITK_POM2K/pom2k_fun.c":4074:27)
#loc8462 = loc("/Users/mac/Projects/mlir/cpp-to-ops-converter/script/..//ITK_POM2K/pom2k_fun.c":4074:20)
#loc8463 = loc("/Users/mac/Projects/mlir/cpp-to-ops-converter/script/..//ITK_POM2K/pom2k_fun.c":4073:46)
#loc8464 = loc("/Users/mac/Projects/mlir/cpp-to-ops-converter/script/..//ITK_POM2K/pom2k_fun.c":4073:39)
#loc8465 = loc("/Users/mac/Projects/mlir/cpp-to-ops-converter/script/..//ITK_POM2K/pom2k_fun.c":4073:32)
#loc8466 = loc("/Users/mac/Projects/mlir/cpp-to-ops-converter/script/..//ITK_POM2K/pom2k_fun.c":4073:25)
#loc8467 = loc("/Users/mac/Projects/mlir/cpp-to-ops-converter/script/..//ITK_POM2K/pom2k_fun.c":4073:18)
#loc8468 = loc("/Users/mac/Projects/mlir/cpp-to-ops-converter/script/..//ITK_POM2K/pom2k_fun.c":4078:23)
#loc8469 = loc("/Users/mac/Projects/mlir/cpp-to-ops-converter/script/..//ITK_POM2K/pom2k_fun.c":4078:28)
#loc8470 = loc("/Users/mac/Projects/mlir/cpp-to-ops-converter/script/..//ITK_POM2K/pom2k_fun.c":4078:26)
#loc8471 = loc("/Users/mac/Projects/mlir/cpp-to-ops-converter/script/..//ITK_POM2K/pom2k_fun.c":4078:33)
#loc8472 = loc("/Users/mac/Projects/mlir/cpp-to-ops-converter/script/..//ITK_POM2K/pom2k_fun.c":4078:31)
#loc8473 = loc("/Users/mac/Projects/mlir/cpp-to-ops-converter/script/..//ITK_POM2K/pom2k_fun.c":4078:36)
#loc8474 = loc("/Users/mac/Projects/mlir/cpp-to-ops-converter/script/..//ITK_POM2K/pom2k_fun.c":4078:7)
#loc8475 = loc("/Users/mac/Projects/mlir/cpp-to-ops-converter/script/..//ITK_POM2K/pom2k_fun.c":4161:22)
#loc8476 = loc("/Users/mac/Projects/mlir/cpp-to-ops-converter/script/..//ITK_POM2K/pom2k_fun.c":4161:20)
#loc8478 = loc("/Users/mac/Projects/mlir/cpp-to-ops-converter/script/..//ITK_POM2K/pom2k_fun.c":4162:24)
#loc8479 = loc("/Users/mac/Projects/mlir/cpp-to-ops-converter/script/..//ITK_POM2K/pom2k_fun.c":4162:22)
#loc8481 = loc("/Users/mac/Projects/mlir/cpp-to-ops-converter/script/..//ITK_POM2K/pom2k_fun.c":4163:20)
#loc8482 = loc("/Users/mac/Projects/mlir/cpp-to-ops-converter/script/..//ITK_POM2K/pom2k_fun.c":4163:24)
#loc8483 = loc("/Users/mac/Projects/mlir/cpp-to-ops-converter/script/..//ITK_POM2K/pom2k_fun.c":4163:40)
#loc8484 = loc("/Users/mac/Projects/mlir/cpp-to-ops-converter/script/..//ITK_POM2K/pom2k_fun.c":4163:38)
#loc8485 = loc("/Users/mac/Projects/mlir/cpp-to-ops-converter/script/..//ITK_POM2K/pom2k_fun.c":4163:22)
#loc8486 = loc("/Users/mac/Projects/mlir/cpp-to-ops-converter/script/..//ITK_POM2K/pom2k_fun.c":4161:27)
#loc8487 = loc("/Users/mac/Projects/mlir/cpp-to-ops-converter/script/..//ITK_POM2K/pom2k_fun.c":4178:22)
#loc8488 = loc("/Users/mac/Projects/mlir/cpp-to-ops-converter/script/..//ITK_POM2K/pom2k_fun.c":4181:29)
#loc8489 = loc("/Users/mac/Projects/mlir/cpp-to-ops-converter/script/..//ITK_POM2K/pom2k_fun.c":4181:59)
#loc8490 = loc("/Users/mac/Projects/mlir/cpp-to-ops-converter/script/..//ITK_POM2K/pom2k_fun.c":4178:20)
#loc8492 = loc("/Users/mac/Projects/mlir/cpp-to-ops-converter/script/..//ITK_POM2K/pom2k_fun.c":4181:52)
#loc8493 = loc("/Users/mac/Projects/mlir/cpp-to-ops-converter/script/..//ITK_POM2K/pom2k_fun.c":4182:38)
#loc8494 = loc("/Users/mac/Projects/mlir/cpp-to-ops-converter/script/..//ITK_POM2K/pom2k_fun.c":4182:34)
#loc8495 = loc("/Users/mac/Projects/mlir/cpp-to-ops-converter/script/..//ITK_POM2K/pom2k_fun.c":4179:24)
#loc8496 = loc("/Users/mac/Projects/mlir/cpp-to-ops-converter/script/..//ITK_POM2K/pom2k_fun.c":4179:22)
#loc8498 = loc("/Users/mac/Projects/mlir/cpp-to-ops-converter/script/..//ITK_POM2K/pom2k_fun.c":4180:26)
#loc8499 = loc("/Users/mac/Projects/mlir/cpp-to-ops-converter/script/..//ITK_POM2K/pom2k_fun.c":4180:24)
#loc8501 = loc("/Users/mac/Projects/mlir/cpp-to-ops-converter/script/..//ITK_POM2K/pom2k_fun.c":4181:24)
#loc8502 = loc("/Users/mac/Projects/mlir/cpp-to-ops-converter/script/..//ITK_POM2K/pom2k_fun.c":4181:28)
#loc8503 = loc("/Users/mac/Projects/mlir/cpp-to-ops-converter/script/..//ITK_POM2K/pom2k_fun.c":4181:55)
#loc8504 = loc("/Users/mac/Projects/mlir/cpp-to-ops-converter/script/..//ITK_POM2K/pom2k_fun.c":4181:37)
#loc8505 = loc("/Users/mac/Projects/mlir/cpp-to-ops-converter/script/..//ITK_POM2K/pom2k_fun.c":4181:57)
#loc8506 = loc("/Users/mac/Projects/mlir/cpp-to-ops-converter/script/..//ITK_POM2K/pom2k_fun.c":4181:34)
#loc8507 = loc("/Users/mac/Projects/mlir/cpp-to-ops-converter/script/..//ITK_POM2K/pom2k_fun.c":4182:42)
#loc8508 = loc("/Users/mac/Projects/mlir/cpp-to-ops-converter/script/..//ITK_POM2K/pom2k_fun.c":4182:40)
#loc8509 = loc("/Users/mac/Projects/mlir/cpp-to-ops-converter/script/..//ITK_POM2K/pom2k_fun.c":4182:64)
#loc8510 = loc("/Users/mac/Projects/mlir/cpp-to-ops-converter/script/..//ITK_POM2K/pom2k_fun.c":4182:51)
#loc8511 = loc("/Users/mac/Projects/mlir/cpp-to-ops-converter/script/..//ITK_POM2K/pom2k_fun.c":4182:49)
#loc8512 = loc("/Users/mac/Projects/mlir/cpp-to-ops-converter/script/..//ITK_POM2K/pom2k_fun.c":4182:66)
#loc8513 = loc("/Users/mac/Projects/mlir/cpp-to-ops-converter/script/..//ITK_POM2K/pom2k_fun.c":4182:31)
#loc8514 = loc("/Users/mac/Projects/mlir/cpp-to-ops-converter/script/..//ITK_POM2K/pom2k_fun.c":4181:9)
#loc8515 = loc("/Users/mac/Projects/mlir/cpp-to-ops-converter/script/..//ITK_POM2K/pom2k_fun.c":4181:26)
#loc8516 = loc("/Users/mac/Projects/mlir/cpp-to-ops-converter/script/..//ITK_POM2K/pom2k_fun.c":4180:31)
#loc8517 = loc("/Users/mac/Projects/mlir/cpp-to-ops-converter/script/..//ITK_POM2K/pom2k_fun.c":4179:29)
#loc8518 = loc("/Users/mac/Projects/mlir/cpp-to-ops-converter/script/..//ITK_POM2K/pom2k_fun.c":4187:22)
#loc8519 = loc("/Users/mac/Projects/mlir/cpp-to-ops-converter/script/..//ITK_POM2K/pom2k_fun.c":4187:20)
#loc8521 = loc("/Users/mac/Projects/mlir/cpp-to-ops-converter/script/..//ITK_POM2K/pom2k_fun.c":4191:34)
#loc8522 = loc("/Users/mac/Projects/mlir/cpp-to-ops-converter/script/..//ITK_POM2K/pom2k_fun.c":4191:30)
#loc8523 = loc("/Users/mac/Projects/mlir/cpp-to-ops-converter/script/..//ITK_POM2K/pom2k_fun.c":4191:43)
#loc8524 = loc("/Users/mac/Projects/mlir/cpp-to-ops-converter/script/..//ITK_POM2K/pom2k_fun.c":4191:45)
#loc8525 = loc("/Users/mac/Projects/mlir/cpp-to-ops-converter/script/..//ITK_POM2K/pom2k_fun.c":4191:38)
#loc8526 = loc("/Users/mac/Projects/mlir/cpp-to-ops-converter/script/..//ITK_POM2K/pom2k_fun.c":4188:24)
#loc8527 = loc("/Users/mac/Projects/mlir/cpp-to-ops-converter/script/..//ITK_POM2K/pom2k_fun.c":4188:22)
#loc8529 = loc("/Users/mac/Projects/mlir/cpp-to-ops-converter/script/..//ITK_POM2K/pom2k_fun.c":4189:26)
#loc8530 = loc("/Users/mac/Projects/mlir/cpp-to-ops-converter/script/..//ITK_POM2K/pom2k_fun.c":4189:24)
#loc8532 = loc("/Users/mac/Projects/mlir/cpp-to-ops-converter/script/..//ITK_POM2K/pom2k_fun.c":4190:24)
#loc8533 = loc("/Users/mac/Projects/mlir/cpp-to-ops-converter/script/..//ITK_POM2K/pom2k_fun.c":4190:29)
#loc8534 = loc("/Users/mac/Projects/mlir/cpp-to-ops-converter/script/..//ITK_POM2K/pom2k_fun.c":4190:28)
#loc8535 = loc("/Users/mac/Projects/mlir/cpp-to-ops-converter/script/..//ITK_POM2K/pom2k_fun.c":4190:37)
#loc8536 = loc("/Users/mac/Projects/mlir/cpp-to-ops-converter/script/..//ITK_POM2K/pom2k_fun.c":4190:57)
#loc8537 = loc("/Users/mac/Projects/mlir/cpp-to-ops-converter/script/..//ITK_POM2K/pom2k_fun.c":4190:55)
#loc8538 = loc("/Users/mac/Projects/mlir/cpp-to-ops-converter/script/..//ITK_POM2K/pom2k_fun.c":4190:34)
#loc8539 = loc("/Users/mac/Projects/mlir/cpp-to-ops-converter/script/..//ITK_POM2K/pom2k_fun.c":4191:36)
#loc8540 = loc("/Users/mac/Projects/mlir/cpp-to-ops-converter/script/..//ITK_POM2K/pom2k_fun.c":4191:62)
#loc8541 = loc("/Users/mac/Projects/mlir/cpp-to-ops-converter/script/..//ITK_POM2K/pom2k_fun.c":4191:49)
#loc8542 = loc("/Users/mac/Projects/mlir/cpp-to-ops-converter/script/..//ITK_POM2K/pom2k_fun.c":4191:47)
#loc8543 = loc("/Users/mac/Projects/mlir/cpp-to-ops-converter/script/..//ITK_POM2K/pom2k_fun.c":4191:64)
#loc8544 = loc("/Users/mac/Projects/mlir/cpp-to-ops-converter/script/..//ITK_POM2K/pom2k_fun.c":4191:27)
#loc8545 = loc("/Users/mac/Projects/mlir/cpp-to-ops-converter/script/..//ITK_POM2K/pom2k_fun.c":4190:26)
#loc8546 = loc("/Users/mac/Projects/mlir/cpp-to-ops-converter/script/..//ITK_POM2K/pom2k_fun.c":4189:31)
#loc8547 = loc("/Users/mac/Projects/mlir/cpp-to-ops-converter/script/..//ITK_POM2K/pom2k_fun.c":4188:29)
#loc8548 = loc("/Users/mac/Projects/mlir/cpp-to-ops-converter/script/..//ITK_POM2K/pom2k_fun.c":4187:29)
#loc8549 = loc("/Users/mac/Projects/mlir/cpp-to-ops-converter/script/..//ITK_POM2K/pom2k_fun.c":4209:22)
#loc8550 = loc("/Users/mac/Projects/mlir/cpp-to-ops-converter/script/..//ITK_POM2K/pom2k_fun.c":4210:24)
#loc8551 = loc("/Users/mac/Projects/mlir/cpp-to-ops-converter/script/..//ITK_POM2K/pom2k_fun.c":4211:26)
#loc8552 = loc("/Users/mac/Projects/mlir/cpp-to-ops-converter/script/..//ITK_POM2K/pom2k_fun.c":4212:26)
#loc8553 = loc("/Users/mac/Projects/mlir/cpp-to-ops-converter/script/..//ITK_POM2K/pom2k_fun.c":4212:9)
#loc8554 = loc("/Users/mac/Projects/mlir/cpp-to-ops-converter/script/..//ITK_POM2K/pom2k_fun.c":4212:28)
#loc8555 = loc("/Users/mac/Projects/mlir/cpp-to-ops-converter/script/..//ITK_POM2K/pom2k_fun.c":4231:6)
#loc8556 = loc("/Users/mac/Projects/mlir/cpp-to-ops-converter/script/..//ITK_POM2K/pom2k_fun.c":4231:13)
#loc8557 = loc("/Users/mac/Projects/mlir/cpp-to-ops-converter/script/..//ITK_POM2K/pom2k_fun.c":4231:18)
#loc8558 = loc("/Users/mac/Projects/mlir/cpp-to-ops-converter/script/..//ITK_POM2K/pom2k_fun.c":4231:28)
#loc8559 = loc("/Users/mac/Projects/mlir/cpp-to-ops-converter/script/..//ITK_POM2K/pom2k_fun.c":4231:3)
#loc8560 = loc("/Users/mac/Projects/mlir/cpp-to-ops-converter/script/..//ITK_POM2K/pom2k_fun.c":4236:36)
#loc8561 = loc("/Users/mac/Projects/mlir/cpp-to-ops-converter/script/..//ITK_POM2K/pom2k_fun.c":4233:26)
#loc8562 = loc("/Users/mac/Projects/mlir/cpp-to-ops-converter/script/..//ITK_POM2K/pom2k_fun.c":4234:28)
#loc8563 = loc("/Users/mac/Projects/mlir/cpp-to-ops-converter/script/..//ITK_POM2K/pom2k_fun.c":4236:40)
#loc8564 = loc("/Users/mac/Projects/mlir/cpp-to-ops-converter/script/..//ITK_POM2K/pom2k_fun.c":4236:43)
#loc8565 = loc("/Users/mac/Projects/mlir/cpp-to-ops-converter/script/..//ITK_POM2K/pom2k_fun.c":4236:34)
#loc8566 = loc("/Users/mac/Projects/mlir/cpp-to-ops-converter/script/..//ITK_POM2K/pom2k_fun.c":4236:52)
#loc8567 = loc("/Users/mac/Projects/mlir/cpp-to-ops-converter/script/..//ITK_POM2K/pom2k_fun.c":4236:74)
#loc8568 = loc("/Users/mac/Projects/mlir/cpp-to-ops-converter/script/..//ITK_POM2K/pom2k_fun.c":4237:39)
#loc8569 = loc("/Users/mac/Projects/mlir/cpp-to-ops-converter/script/..//ITK_POM2K/pom2k_fun.c":4237:84)
#loc8570 = loc("/Users/mac/Projects/mlir/cpp-to-ops-converter/script/..//ITK_POM2K/pom2k_fun.c":4235:28)
#loc8571 = loc("/Users/mac/Projects/mlir/cpp-to-ops-converter/script/..//ITK_POM2K/pom2k_fun.c":4235:48)
#loc8572 = loc("/Users/mac/Projects/mlir/cpp-to-ops-converter/script/..//ITK_POM2K/pom2k_fun.c":4235:32)
#loc8573 = loc("/Users/mac/Projects/mlir/cpp-to-ops-converter/script/..//ITK_POM2K/pom2k_fun.c":4236:57)
#loc8574 = loc("/Users/mac/Projects/mlir/cpp-to-ops-converter/script/..//ITK_POM2K/pom2k_fun.c":4236:56)
#loc8575 = loc("/Users/mac/Projects/mlir/cpp-to-ops-converter/script/..//ITK_POM2K/pom2k_fun.c":4236:72)
#loc8576 = loc("/Users/mac/Projects/mlir/cpp-to-ops-converter/script/..//ITK_POM2K/pom2k_fun.c":4236:47)
#loc8577 = loc("/Users/mac/Projects/mlir/cpp-to-ops-converter/script/..//ITK_POM2K/pom2k_fun.c":4236:45)
#loc8578 = loc("/Users/mac/Projects/mlir/cpp-to-ops-converter/script/..//ITK_POM2K/pom2k_fun.c":4237:82)
#loc8579 = loc("/Users/mac/Projects/mlir/cpp-to-ops-converter/script/..//ITK_POM2K/pom2k_fun.c":4237:55)
#loc8580 = loc("/Users/mac/Projects/mlir/cpp-to-ops-converter/script/..//ITK_POM2K/pom2k_fun.c":4237:53)
#loc8581 = loc("/Users/mac/Projects/mlir/cpp-to-ops-converter/script/..//ITK_POM2K/pom2k_fun.c":4237:31)
#loc8582 = loc("/Users/mac/Projects/mlir/cpp-to-ops-converter/script/..//ITK_POM2K/pom2k_fun.c":4236:31)
#loc8583 = loc("/Users/mac/Projects/mlir/cpp-to-ops-converter/script/..//ITK_POM2K/pom2k_fun.c":4235:11)
#loc8584 = loc("/Users/mac/Projects/mlir/cpp-to-ops-converter/script/..//ITK_POM2K/pom2k_fun.c":4235:30)
#loc8585 = loc("/Users/mac/Projects/mlir/cpp-to-ops-converter/script/..//ITK_POM2K/pom2k_fun.c":4255:6)
#loc8586 = loc("/Users/mac/Projects/mlir/cpp-to-ops-converter/script/..//ITK_POM2K/pom2k_fun.c":4255:13)
#loc8587 = loc("/Users/mac/Projects/mlir/cpp-to-ops-converter/script/..//ITK_POM2K/pom2k_fun.c":4255:3)
#loc8588 = loc("/Users/mac/Projects/mlir/cpp-to-ops-converter/script/..//ITK_POM2K/pom2k_fun.c":4256:24)
#loc8589 = loc("/Users/mac/Projects/mlir/cpp-to-ops-converter/script/..//ITK_POM2K/pom2k_fun.c":4256:22)
#loc8591 = loc("/Users/mac/Projects/mlir/cpp-to-ops-converter/script/..//ITK_POM2K/pom2k_fun.c":4257:26)
#loc8592 = loc("/Users/mac/Projects/mlir/cpp-to-ops-converter/script/..//ITK_POM2K/pom2k_fun.c":4257:24)
#loc8594 = loc("/Users/mac/Projects/mlir/cpp-to-ops-converter/script/..//ITK_POM2K/pom2k_fun.c":4258:25)
#loc8595 = loc("/Users/mac/Projects/mlir/cpp-to-ops-converter/script/..//ITK_POM2K/pom2k_fun.c":4258:29)
#loc8596 = loc("/Users/mac/Projects/mlir/cpp-to-ops-converter/script/..//ITK_POM2K/pom2k_fun.c":4258:66)
#loc8597 = loc("/Users/mac/Projects/mlir/cpp-to-ops-converter/script/..//ITK_POM2K/pom2k_fun.c":4258:46)
#loc8598 = loc("/Users/mac/Projects/mlir/cpp-to-ops-converter/script/..//ITK_POM2K/pom2k_fun.c":4258:27)
#loc8599 = loc("/Users/mac/Projects/mlir/cpp-to-ops-converter/script/..//ITK_POM2K/pom2k_fun.c":4259:25)
#loc8600 = loc("/Users/mac/Projects/mlir/cpp-to-ops-converter/script/..//ITK_POM2K/pom2k_fun.c":4259:30)
#loc8601 = loc("/Users/mac/Projects/mlir/cpp-to-ops-converter/script/..//ITK_POM2K/pom2k_fun.c":4259:29)
#loc8602 = loc("/Users/mac/Projects/mlir/cpp-to-ops-converter/script/..//ITK_POM2K/pom2k_fun.c":4259:54)
#loc8603 = loc("/Users/mac/Projects/mlir/cpp-to-ops-converter/script/..//ITK_POM2K/pom2k_fun.c":4259:37)
#loc8604 = loc("/Users/mac/Projects/mlir/cpp-to-ops-converter/script/..//ITK_POM2K/pom2k_fun.c":4259:35)
#loc8605 = loc("/Users/mac/Projects/mlir/cpp-to-ops-converter/script/..//ITK_POM2K/pom2k_fun.c":4259:60)
#loc8606 = loc("/Users/mac/Projects/mlir/cpp-to-ops-converter/script/..//ITK_POM2K/pom2k_fun.c":4259:59)
#loc8607 = loc("/Users/mac/Projects/mlir/cpp-to-ops-converter/script/..//ITK_POM2K/pom2k_fun.c":4259:68)
#loc8608 = loc("/Users/mac/Projects/mlir/cpp-to-ops-converter/script/..//ITK_POM2K/pom2k_fun.c":4259:66)
#loc8609 = loc("/Users/mac/Projects/mlir/cpp-to-ops-converter/script/..//ITK_POM2K/pom2k_fun.c":4259:56)
#loc8610 = loc("/Users/mac/Projects/mlir/cpp-to-ops-converter/script/..//ITK_POM2K/pom2k_fun.c":4259:86)
#loc8611 = loc("/Users/mac/Projects/mlir/cpp-to-ops-converter/script/..//ITK_POM2K/pom2k_fun.c":4259:84)
#loc8612 = loc("/Users/mac/Projects/mlir/cpp-to-ops-converter/script/..//ITK_POM2K/pom2k_fun.c":4259:27)
#loc8613 = loc("/Users/mac/Projects/mlir/cpp-to-ops-converter/script/..//ITK_POM2K/pom2k_fun.c":4260:25)
#loc8614 = loc("/Users/mac/Projects/mlir/cpp-to-ops-converter/script/..//ITK_POM2K/pom2k_fun.c":4260:9)
#loc8615 = loc("/Users/mac/Projects/mlir/cpp-to-ops-converter/script/..//ITK_POM2K/pom2k_fun.c":4260:29)
#loc8616 = loc("/Users/mac/Projects/mlir/cpp-to-ops-converter/script/..//ITK_POM2K/pom2k_fun.c":4260:50)
#loc8617 = loc("/Users/mac/Projects/mlir/cpp-to-ops-converter/script/..//ITK_POM2K/pom2k_fun.c":4260:67)
#loc8618 = loc("/Users/mac/Projects/mlir/cpp-to-ops-converter/script/..//ITK_POM2K/pom2k_fun.c":4260:47)
#loc8619 = loc("/Users/mac/Projects/mlir/cpp-to-ops-converter/script/..//ITK_POM2K/pom2k_fun.c":4260:27)
#loc8620 = loc("/Users/mac/Projects/mlir/cpp-to-ops-converter/script/..//ITK_POM2K/pom2k_fun.c":4257:31)
#loc8621 = loc("/Users/mac/Projects/mlir/cpp-to-ops-converter/script/..//ITK_POM2K/pom2k_fun.c":4256:29)
#loc8622 = loc("/Users/mac/Projects/mlir/cpp-to-ops-converter/script/..//ITK_POM2K/pom2k_fun.c":4277:11)
#loc8623 = loc("/Users/mac/Projects/mlir/cpp-to-ops-converter/script/..//ITK_POM2K/pom2k_fun.c":4277:18)
#loc8624 = loc("/Users/mac/Projects/mlir/cpp-to-ops-converter/script/..//ITK_POM2K/pom2k_fun.c":4277:8)
#loc8625 = loc("/Users/mac/Projects/mlir/cpp-to-ops-converter/script/..//ITK_POM2K/pom2k_fun.c":4278:24)
#loc8626 = loc("/Users/mac/Projects/mlir/cpp-to-ops-converter/script/..//ITK_POM2K/pom2k_fun.c":4278:22)
#loc8628 = loc("/Users/mac/Projects/mlir/cpp-to-ops-converter/script/..//ITK_POM2K/pom2k_fun.c":4279:26)
#loc8629 = loc("/Users/mac/Projects/mlir/cpp-to-ops-converter/script/..//ITK_POM2K/pom2k_fun.c":4279:24)
#loc8631 = loc("/Users/mac/Projects/mlir/cpp-to-ops-converter/script/..//ITK_POM2K/pom2k_fun.c":4280:25)
#loc8632 = loc("/Users/mac/Projects/mlir/cpp-to-ops-converter/script/..//ITK_POM2K/pom2k_fun.c":4280:29)
#loc8633 = loc("/Users/mac/Projects/mlir/cpp-to-ops-converter/script/..//ITK_POM2K/pom2k_fun.c":4280:66)
#loc8634 = loc("/Users/mac/Projects/mlir/cpp-to-ops-converter/script/..//ITK_POM2K/pom2k_fun.c":4280:46)
#loc8635 = loc("/Users/mac/Projects/mlir/cpp-to-ops-converter/script/..//ITK_POM2K/pom2k_fun.c":4280:27)
#loc8636 = loc("/Users/mac/Projects/mlir/cpp-to-ops-converter/script/..//ITK_POM2K/pom2k_fun.c":4281:25)
#loc8637 = loc("/Users/mac/Projects/mlir/cpp-to-ops-converter/script/..//ITK_POM2K/pom2k_fun.c":4281:29)
#loc8638 = loc("/Users/mac/Projects/mlir/cpp-to-ops-converter/script/..//ITK_POM2K/pom2k_fun.c":4281:54)
#loc8639 = loc("/Users/mac/Projects/mlir/cpp-to-ops-converter/script/..//ITK_POM2K/pom2k_fun.c":4281:37)
#loc8640 = loc("/Users/mac/Projects/mlir/cpp-to-ops-converter/script/..//ITK_POM2K/pom2k_fun.c":4281:58)
#loc8641 = loc("/Users/mac/Projects/mlir/cpp-to-ops-converter/script/..//ITK_POM2K/pom2k_fun.c":4281:56)
#loc8642 = loc("/Users/mac/Projects/mlir/cpp-to-ops-converter/script/..//ITK_POM2K/pom2k_fun.c":4281:96)
#loc8643 = loc("/Users/mac/Projects/mlir/cpp-to-ops-converter/script/..//ITK_POM2K/pom2k_fun.c":4281:79)
#loc8644 = loc("/Users/mac/Projects/mlir/cpp-to-ops-converter/script/..//ITK_POM2K/pom2k_fun.c":4281:77)
#loc8645 = loc("/Users/mac/Projects/mlir/cpp-to-ops-converter/script/..//ITK_POM2K/pom2k_fun.c":4281:34)
#loc8646 = loc("/Users/mac/Projects/mlir/cpp-to-ops-converter/script/..//ITK_POM2K/pom2k_fun.c":4282:32)
#loc8647 = loc("/Users/mac/Projects/mlir/cpp-to-ops-converter/script/..//ITK_POM2K/pom2k_fun.c":4282:40)
#loc8648 = loc("/Users/mac/Projects/mlir/cpp-to-ops-converter/script/..//ITK_POM2K/pom2k_fun.c":4282:38)
#loc8649 = loc("/Users/mac/Projects/mlir/cpp-to-ops-converter/script/..//ITK_POM2K/pom2k_fun.c":4282:29)
#loc8650 = loc("/Users/mac/Projects/mlir/cpp-to-ops-converter/script/..//ITK_POM2K/pom2k_fun.c":4283:31)
#loc8651 = loc("/Users/mac/Projects/mlir/cpp-to-ops-converter/script/..//ITK_POM2K/pom2k_fun.c":4283:29)
#loc8652 = loc("/Users/mac/Projects/mlir/cpp-to-ops-converter/script/..//ITK_POM2K/pom2k_fun.c":4281:27)
#loc8653 = loc("/Users/mac/Projects/mlir/cpp-to-ops-converter/script/..//ITK_POM2K/pom2k_fun.c":4284:25)
#loc8654 = loc("/Users/mac/Projects/mlir/cpp-to-ops-converter/script/..//ITK_POM2K/pom2k_fun.c":4284:9)
#loc8655 = loc("/Users/mac/Projects/mlir/cpp-to-ops-converter/script/..//ITK_POM2K/pom2k_fun.c":4284:29)
#loc8656 = loc("/Users/mac/Projects/mlir/cpp-to-ops-converter/script/..//ITK_POM2K/pom2k_fun.c":4284:50)
#loc8657 = loc("/Users/mac/Projects/mlir/cpp-to-ops-converter/script/..//ITK_POM2K/pom2k_fun.c":4284:67)
#loc8658 = loc("/Users/mac/Projects/mlir/cpp-to-ops-converter/script/..//ITK_POM2K/pom2k_fun.c":4284:47)
#loc8659 = loc("/Users/mac/Projects/mlir/cpp-to-ops-converter/script/..//ITK_POM2K/pom2k_fun.c":4284:27)
#loc8660 = loc("/Users/mac/Projects/mlir/cpp-to-ops-converter/script/..//ITK_POM2K/pom2k_fun.c":4279:31)
#loc8661 = loc("/Users/mac/Projects/mlir/cpp-to-ops-converter/script/..//ITK_POM2K/pom2k_fun.c":4278:29)
#loc8662 = loc("/Users/mac/Projects/mlir/cpp-to-ops-converter/script/..//ITK_POM2K/pom2k_fun.c":4300:11)
#loc8663 = loc("/Users/mac/Projects/mlir/cpp-to-ops-converter/script/..//ITK_POM2K/pom2k_fun.c":4300:18)
#loc8664 = loc("/Users/mac/Projects/mlir/cpp-to-ops-converter/script/..//ITK_POM2K/pom2k_fun.c":4300:23)
#loc8665 = loc("/Users/mac/Projects/mlir/cpp-to-ops-converter/script/..//ITK_POM2K/pom2k_fun.c":4300:33)
#loc8666 = loc("/Users/mac/Projects/mlir/cpp-to-ops-converter/script/..//ITK_POM2K/pom2k_fun.c":4300:8)
#loc8667 = loc("/Users/mac/Projects/mlir/cpp-to-ops-converter/script/..//ITK_POM2K/pom2k_fun.c":4301:24)
#loc8668 = loc("/Users/mac/Projects/mlir/cpp-to-ops-converter/script/..//ITK_POM2K/pom2k_fun.c":4301:22)
#loc8670 = loc("/Users/mac/Projects/mlir/cpp-to-ops-converter/script/..//ITK_POM2K/pom2k_fun.c":4302:26)
#loc8671 = loc("/Users/mac/Projects/mlir/cpp-to-ops-converter/script/..//ITK_POM2K/pom2k_fun.c":4302:24)
#loc8673 = loc("/Users/mac/Projects/mlir/cpp-to-ops-converter/script/..//ITK_POM2K/pom2k_fun.c":4303:25)
#loc8674 = loc("/Users/mac/Projects/mlir/cpp-to-ops-converter/script/..//ITK_POM2K/pom2k_fun.c":4303:9)
#loc8675 = loc("/Users/mac/Projects/mlir/cpp-to-ops-converter/script/..//ITK_POM2K/pom2k_fun.c":4303:27)
#loc8676 = loc("/Users/mac/Projects/mlir/cpp-to-ops-converter/script/..//ITK_POM2K/pom2k_fun.c":4304:25)
#loc8677 = loc("/Users/mac/Projects/mlir/cpp-to-ops-converter/script/..//ITK_POM2K/pom2k_fun.c":4304:45)
#loc8678 = loc("/Users/mac/Projects/mlir/cpp-to-ops-converter/script/..//ITK_POM2K/pom2k_fun.c":4304:29)
#loc8679 = loc("/Users/mac/Projects/mlir/cpp-to-ops-converter/script/..//ITK_POM2K/pom2k_fun.c":4304:9)
#loc8680 = loc("/Users/mac/Projects/mlir/cpp-to-ops-converter/script/..//ITK_POM2K/pom2k_fun.c":4304:27)
#loc8681 = loc("/Users/mac/Projects/mlir/cpp-to-ops-converter/script/..//ITK_POM2K/pom2k_fun.c":4302:31)
#loc8682 = loc("/Users/mac/Projects/mlir/cpp-to-ops-converter/script/..//ITK_POM2K/pom2k_fun.c":4301:29)
#loc8683 = loc("/Users/mac/Projects/mlir/cpp-to-ops-converter/script/..//ITK_POM2K/pom2k_fun.c":4323:22)
#loc8684 = loc("/Users/mac/Projects/mlir/cpp-to-ops-converter/script/..//ITK_POM2K/pom2k_fun.c":4323:20)
#loc8686 = loc("/Users/mac/Projects/mlir/cpp-to-ops-converter/script/..//ITK_POM2K/pom2k_fun.c":4326:99)
#loc8687 = loc("/Users/mac/Projects/mlir/cpp-to-ops-converter/script/..//ITK_POM2K/pom2k_fun.c":4328:138)
#loc8688 = loc("/Users/mac/Projects/mlir/cpp-to-ops-converter/script/..//ITK_POM2K/pom2k_fun.c":4329:53)
#loc8689 = loc("/Users/mac/Projects/mlir/cpp-to-ops-converter/script/..//ITK_POM2K/pom2k_fun.c":4329:49)
#loc8690 = loc("/Users/mac/Projects/mlir/cpp-to-ops-converter/script/..//ITK_POM2K/pom2k_fun.c":4324:24)
#loc8691 = loc("/Users/mac/Projects/mlir/cpp-to-ops-converter/script/..//ITK_POM2K/pom2k_fun.c":4324:22)
#loc8693 = loc("/Users/mac/Projects/mlir/cpp-to-ops-converter/script/..//ITK_POM2K/pom2k_fun.c":4325:26)
#loc8694 = loc("/Users/mac/Projects/mlir/cpp-to-ops-converter/script/..//ITK_POM2K/pom2k_fun.c":4325:24)
#loc8696 = loc("/Users/mac/Projects/mlir/cpp-to-ops-converter/script/..//ITK_POM2K/pom2k_fun.c":4326:25)
#loc8697 = loc("/Users/mac/Projects/mlir/cpp-to-ops-converter/script/..//ITK_POM2K/pom2k_fun.c":4326:37)
#loc8698 = loc("/Users/mac/Projects/mlir/cpp-to-ops-converter/script/..//ITK_POM2K/pom2k_fun.c":4326:56)
#loc8699 = loc("/Users/mac/Projects/mlir/cpp-to-ops-converter/script/..//ITK_POM2K/pom2k_fun.c":4326:103)
#loc8700 = loc("/Users/mac/Projects/mlir/cpp-to-ops-converter/script/..//ITK_POM2K/pom2k_fun.c":4326:83)
#loc8701 = loc("/Users/mac/Projects/mlir/cpp-to-ops-converter/script/..//ITK_POM2K/pom2k_fun.c":4326:81)
#loc8702 = loc("/Users/mac/Projects/mlir/cpp-to-ops-converter/script/..//ITK_POM2K/pom2k_fun.c":4326:73)
#loc8703 = loc("/Users/mac/Projects/mlir/cpp-to-ops-converter/script/..//ITK_POM2K/pom2k_fun.c":4326:54)
#loc8704 = loc("/Users/mac/Projects/mlir/cpp-to-ops-converter/script/..//ITK_POM2K/pom2k_fun.c":4326:105)
#loc8705 = loc("/Users/mac/Projects/mlir/cpp-to-ops-converter/script/..//ITK_POM2K/pom2k_fun.c":4326:34)
#loc8706 = loc("/Users/mac/Projects/mlir/cpp-to-ops-converter/script/..//ITK_POM2K/pom2k_fun.c":4326:27)
#loc8707 = loc("/Users/mac/Projects/mlir/cpp-to-ops-converter/script/..//ITK_POM2K/pom2k_fun.c":4327:25)
#loc8708 = loc("/Users/mac/Projects/mlir/cpp-to-ops-converter/script/..//ITK_POM2K/pom2k_fun.c":4327:29)
#loc8709 = loc("/Users/mac/Projects/mlir/cpp-to-ops-converter/script/..//ITK_POM2K/pom2k_fun.c":4327:48)
#loc8710 = loc("/Users/mac/Projects/mlir/cpp-to-ops-converter/script/..//ITK_POM2K/pom2k_fun.c":4327:46)
#loc8711 = loc("/Users/mac/Projects/mlir/cpp-to-ops-converter/script/..//ITK_POM2K/pom2k_fun.c":4327:27)
#loc8712 = loc("/Users/mac/Projects/mlir/cpp-to-ops-converter/script/..//ITK_POM2K/pom2k_fun.c":4328:25)
#loc8713 = loc("/Users/mac/Projects/mlir/cpp-to-ops-converter/script/..//ITK_POM2K/pom2k_fun.c":4328:30)
#loc8714 = loc("/Users/mac/Projects/mlir/cpp-to-ops-converter/script/..//ITK_POM2K/pom2k_fun.c":4328:69)
#loc8715 = loc("/Users/mac/Projects/mlir/cpp-to-ops-converter/script/..//ITK_POM2K/pom2k_fun.c":4328:49)
#loc8716 = loc("/Users/mac/Projects/mlir/cpp-to-ops-converter/script/..//ITK_POM2K/pom2k_fun.c":4328:47)
#loc8717 = loc("/Users/mac/Projects/mlir/cpp-to-ops-converter/script/..//ITK_POM2K/pom2k_fun.c":4328:73)
#loc8718 = loc("/Users/mac/Projects/mlir/cpp-to-ops-converter/script/..//ITK_POM2K/pom2k_fun.c":4328:71)
#loc8719 = loc("/Users/mac/Projects/mlir/cpp-to-ops-converter/script/..//ITK_POM2K/pom2k_fun.c":4328:92)
#loc8720 = loc("/Users/mac/Projects/mlir/cpp-to-ops-converter/script/..//ITK_POM2K/pom2k_fun.c":4328:100)
#loc8721 = loc("/Users/mac/Projects/mlir/cpp-to-ops-converter/script/..//ITK_POM2K/pom2k_fun.c":4328:142)
#loc8722 = loc("/Users/mac/Projects/mlir/cpp-to-ops-converter/script/..//ITK_POM2K/pom2k_fun.c":4328:121)
#loc8723 = loc("/Users/mac/Projects/mlir/cpp-to-ops-converter/script/..//ITK_POM2K/pom2k_fun.c":4328:119)
#loc8724 = loc("/Users/mac/Projects/mlir/cpp-to-ops-converter/script/..//ITK_POM2K/pom2k_fun.c":4328:97)
#loc8725 = loc("/Users/mac/Projects/mlir/cpp-to-ops-converter/script/..//ITK_POM2K/pom2k_fun.c":4329:45)
#loc8726 = loc("/Users/mac/Projects/mlir/cpp-to-ops-converter/script/..//ITK_POM2K/pom2k_fun.c":4329:32)
#loc8727 = loc("/Users/mac/Projects/mlir/cpp-to-ops-converter/script/..//ITK_POM2K/pom2k_fun.c":4329:47)
#loc8728 = loc("/Users/mac/Projects/mlir/cpp-to-ops-converter/script/..//ITK_POM2K/pom2k_fun.c":4329:29)
#loc8729 = loc("/Users/mac/Projects/mlir/cpp-to-ops-converter/script/..//ITK_POM2K/pom2k_fun.c":4328:90)
#loc8730 = loc("/Users/mac/Projects/mlir/cpp-to-ops-converter/script/..//ITK_POM2K/pom2k_fun.c":4329:59)
#loc8731 = loc("/Users/mac/Projects/mlir/cpp-to-ops-converter/script/..//ITK_POM2K/pom2k_fun.c":4329:57)
#loc8732 = loc("/Users/mac/Projects/mlir/cpp-to-ops-converter/script/..//ITK_POM2K/pom2k_fun.c":4328:27)
#loc8733 = loc("/Users/mac/Projects/mlir/cpp-to-ops-converter/script/..//ITK_POM2K/pom2k_fun.c":4325:31)
#loc8734 = loc("/Users/mac/Projects/mlir/cpp-to-ops-converter/script/..//ITK_POM2K/pom2k_fun.c":4324:29)
#loc8735 = loc("/Users/mac/Projects/mlir/cpp-to-ops-converter/script/..//ITK_POM2K/pom2k_fun.c":4348:22)
#loc8736 = loc("/Users/mac/Projects/mlir/cpp-to-ops-converter/script/..//ITK_POM2K/pom2k_fun.c":4348:20)
#loc8738 = loc("/Users/mac/Projects/mlir/cpp-to-ops-converter/script/..//ITK_POM2K/pom2k_fun.c":4349:24)
#loc8739 = loc("/Users/mac/Projects/mlir/cpp-to-ops-converter/script/..//ITK_POM2K/pom2k_fun.c":4349:22)
#loc8741 = loc("/Users/mac/Projects/mlir/cpp-to-ops-converter/script/..//ITK_POM2K/pom2k_fun.c":4350:20)
#loc8742 = loc("/Users/mac/Projects/mlir/cpp-to-ops-converter/script/..//ITK_POM2K/pom2k_fun.c":4350:25)
#loc8743 = loc("/Users/mac/Projects/mlir/cpp-to-ops-converter/script/..//ITK_POM2K/pom2k_fun.c":4350:29)
#loc8744 = loc("/Users/mac/Projects/mlir/cpp-to-ops-converter/script/..//ITK_POM2K/pom2k_fun.c":4350:34)
#loc8745 = loc("/Users/mac/Projects/mlir/cpp-to-ops-converter/script/..//ITK_POM2K/pom2k_fun.c":4350:74)
#loc8746 = loc("/Users/mac/Projects/mlir/cpp-to-ops-converter/script/..//ITK_POM2K/pom2k_fun.c":4350:79)
#loc8747 = loc("/Users/mac/Projects/mlir/cpp-to-ops-converter/script/..//ITK_POM2K/pom2k_fun.c":4350:83)
#loc8748 = loc("/Users/mac/Projects/mlir/cpp-to-ops-converter/script/..//ITK_POM2K/pom2k_fun.c":4350:60)
#loc8749 = loc("/Users/mac/Projects/mlir/cpp-to-ops-converter/script/..//ITK_POM2K/pom2k_fun.c":4350:58)
#loc8750 = loc("/Users/mac/Projects/mlir/cpp-to-ops-converter/script/..//ITK_POM2K/pom2k_fun.c":4350:87)
#loc8751 = loc("/Users/mac/Projects/mlir/cpp-to-ops-converter/script/..//ITK_POM2K/pom2k_fun.c":4350:85)
#loc8752 = loc("/Users/mac/Projects/mlir/cpp-to-ops-converter/script/..//ITK_POM2K/pom2k_fun.c":4351:35)
#loc8753 = loc("/Users/mac/Projects/mlir/cpp-to-ops-converter/script/..//ITK_POM2K/pom2k_fun.c":4351:43)
#loc8754 = loc("/Users/mac/Projects/mlir/cpp-to-ops-converter/script/..//ITK_POM2K/pom2k_fun.c":4351:86)
#loc8755 = loc("/Users/mac/Projects/mlir/cpp-to-ops-converter/script/..//ITK_POM2K/pom2k_fun.c":4351:89)
#loc8756 = loc("/Users/mac/Projects/mlir/cpp-to-ops-converter/script/..//ITK_POM2K/pom2k_fun.c":4351:93)
#loc8757 = loc("/Users/mac/Projects/mlir/cpp-to-ops-converter/script/..//ITK_POM2K/pom2k_fun.c":4351:71)
#loc8758 = loc("/Users/mac/Projects/mlir/cpp-to-ops-converter/script/..//ITK_POM2K/pom2k_fun.c":4351:69)
#loc8759 = loc("/Users/mac/Projects/mlir/cpp-to-ops-converter/script/..//ITK_POM2K/pom2k_fun.c":4351:40)
#loc8760 = loc("/Users/mac/Projects/mlir/cpp-to-ops-converter/script/..//ITK_POM2K/pom2k_fun.c":4352:49)
#loc8761 = loc("/Users/mac/Projects/mlir/cpp-to-ops-converter/script/..//ITK_POM2K/pom2k_fun.c":4352:36)
#loc8762 = loc("/Users/mac/Projects/mlir/cpp-to-ops-converter/script/..//ITK_POM2K/pom2k_fun.c":4352:64)
#loc8763 = loc("/Users/mac/Projects/mlir/cpp-to-ops-converter/script/..//ITK_POM2K/pom2k_fun.c":4352:53)
#loc8764 = loc("/Users/mac/Projects/mlir/cpp-to-ops-converter/script/..//ITK_POM2K/pom2k_fun.c":4352:51)
#loc8765 = loc("/Users/mac/Projects/mlir/cpp-to-ops-converter/script/..//ITK_POM2K/pom2k_fun.c":4352:33)
#loc8766 = loc("/Users/mac/Projects/mlir/cpp-to-ops-converter/script/..//ITK_POM2K/pom2k_fun.c":4351:33)
#loc8767 = loc("/Users/mac/Projects/mlir/cpp-to-ops-converter/script/..//ITK_POM2K/pom2k_fun.c":4353:70)
#loc8768 = loc("/Users/mac/Projects/mlir/cpp-to-ops-converter/script/..//ITK_POM2K/pom2k_fun.c":4353:68)
#loc8769 = loc("/Users/mac/Projects/mlir/cpp-to-ops-converter/script/..//ITK_POM2K/pom2k_fun.c":4353:60)
#loc8770 = loc("/Users/mac/Projects/mlir/cpp-to-ops-converter/script/..//ITK_POM2K/pom2k_fun.c":4353:96)
#loc8771 = loc("/Users/mac/Projects/mlir/cpp-to-ops-converter/script/..//ITK_POM2K/pom2k_fun.c":4353:33)
#loc8772 = loc("/Users/mac/Projects/mlir/cpp-to-ops-converter/script/..//ITK_POM2K/pom2k_fun.c":4350:31)
#loc8773 = loc("/Users/mac/Projects/mlir/cpp-to-ops-converter/script/..//ITK_POM2K/pom2k_fun.c":4349:29)
#loc8774 = loc("/Users/mac/Projects/mlir/cpp-to-ops-converter/script/..//ITK_POM2K/pom2k_fun.c":4348:27)
#loc8775 = loc("/Users/mac/Projects/mlir/cpp-to-ops-converter/script/..//ITK_POM2K/pom2k_fun.c":4366:22)
#loc8776 = loc("/Users/mac/Projects/mlir/cpp-to-ops-converter/script/..//ITK_POM2K/pom2k_fun.c":4366:20)
#loc8778 = loc("/Users/mac/Projects/mlir/cpp-to-ops-converter/script/..//ITK_POM2K/pom2k_fun.c":4367:14)
#loc8779 = loc("/Users/mac/Projects/mlir/cpp-to-ops-converter/script/..//ITK_POM2K/pom2k_fun.c":4367:17)
#loc8780 = loc("/Users/mac/Projects/mlir/cpp-to-ops-converter/script/..//ITK_POM2K/pom2k_fun.c":4367:21)
#loc8781 = loc("/Users/mac/Projects/mlir/cpp-to-ops-converter/script/..//ITK_POM2K/pom2k_fun.c":4370:25)
#loc8782 = loc("/Users/mac/Projects/mlir/cpp-to-ops-converter/script/..//ITK_POM2K/pom2k_fun.c":4368:24)
#loc8783 = loc("/Users/mac/Projects/mlir/cpp-to-ops-converter/script/..//ITK_POM2K/pom2k_fun.c":4368:22)
#loc8785 = loc("/Users/mac/Projects/mlir/cpp-to-ops-converter/script/..//ITK_POM2K/pom2k_fun.c":4369:26)
#loc8786 = loc("/Users/mac/Projects/mlir/cpp-to-ops-converter/script/..//ITK_POM2K/pom2k_fun.c":4369:24)
#loc8788 = loc("/Users/mac/Projects/mlir/cpp-to-ops-converter/script/..//ITK_POM2K/pom2k_fun.c":4370:29)
#loc8789 = loc("/Users/mac/Projects/mlir/cpp-to-ops-converter/script/..//ITK_POM2K/pom2k_fun.c":4370:34)
#loc8790 = loc("/Users/mac/Projects/mlir/cpp-to-ops-converter/script/..//ITK_POM2K/pom2k_fun.c":4370:83)
#loc8791 = loc("/Users/mac/Projects/mlir/cpp-to-ops-converter/script/..//ITK_POM2K/pom2k_fun.c":4370:59)
#loc8792 = loc("/Users/mac/Projects/mlir/cpp-to-ops-converter/script/..//ITK_POM2K/pom2k_fun.c":4370:57)
#loc8793 = loc("/Users/mac/Projects/mlir/cpp-to-ops-converter/script/..//ITK_POM2K/pom2k_fun.c":4370:87)
#loc8794 = loc("/Users/mac/Projects/mlir/cpp-to-ops-converter/script/..//ITK_POM2K/pom2k_fun.c":4370:85)
#loc8795 = loc("/Users/mac/Projects/mlir/cpp-to-ops-converter/script/..//ITK_POM2K/pom2k_fun.c":4370:31)
#loc8796 = loc("/Users/mac/Projects/mlir/cpp-to-ops-converter/script/..//ITK_POM2K/pom2k_fun.c":4369:31)
#loc8797 = loc("/Users/mac/Projects/mlir/cpp-to-ops-converter/script/..//ITK_POM2K/pom2k_fun.c":4368:29)
#loc8798 = loc("/Users/mac/Projects/mlir/cpp-to-ops-converter/script/..//ITK_POM2K/pom2k_fun.c":4366:29)
#loc8799 = loc("/Users/mac/Projects/mlir/cpp-to-ops-converter/script/..//ITK_POM2K/pom2k_fun.c":4375:1)
#loc8800 = loc("/Users/mac/Projects/mlir/cpp-to-ops-converter/script/..//ITK_POM2K/pom2k_fun.c":4376:1)
#loc8802 = loc("/Users/mac/Projects/mlir/cpp-to-ops-converter/script/..//ITK_POM2K/pom2k_fun.c":4431:1)
#loc8804 = loc("/Users/mac/Projects/mlir/cpp-to-ops-converter/script/..//ITK_POM2K/pom2k_fun.c":4435:3)
#loc8805 = loc("/Users/mac/Projects/mlir/cpp-to-ops-converter/script/..//ITK_POM2K/pom2k_fun.c":4436:15)
#loc8806 = loc("/Users/mac/Projects/mlir/cpp-to-ops-converter/script/..//ITK_POM2K/pom2k_fun.c":4436:23)
#loc8807 = loc("/Users/mac/Projects/mlir/cpp-to-ops-converter/script/..//ITK_POM2K/pom2k_fun.c":4436:21)
#loc8808 = loc("/Users/mac/Projects/mlir/cpp-to-ops-converter/script/..//ITK_POM2K/pom2k_fun.c":4436:33)
#loc8809 = loc("/Users/mac/Projects/mlir/cpp-to-ops-converter/script/..//ITK_POM2K/pom2k_fun.c":4436:31)
#loc8810 = loc("/Users/mac/Projects/mlir/cpp-to-ops-converter/script/..//ITK_POM2K/pom2k_fun.c":4438:3)
#loc8811 = loc("/Users/mac/Projects/mlir/cpp-to-ops-converter/script/..//ITK_POM2K/pom2k_fun.c":4442:1)
#loc8813 = loc("/Users/mac/Projects/mlir/cpp-to-ops-converter/script/..//ITK_POM2K/pom2k_fun.c":4446:3)
#loc8814 = loc("/Users/mac/Projects/mlir/cpp-to-ops-converter/script/..//ITK_POM2K/pom2k_fun.c":4447:15)
#loc8815 = loc("/Users/mac/Projects/mlir/cpp-to-ops-converter/script/..//ITK_POM2K/pom2k_fun.c":4449:3)
#loc8816 = loc("/Users/mac/Projects/mlir/cpp-to-ops-converter/script/..//ITK_POM2K/pom2k_fun.c":4449:15)
#loc8817 = loc("/Users/mac/Projects/mlir/cpp-to-ops-converter/script/..//ITK_POM2K/pom2k_fun.c":4453:1)
#loc8819 = loc("/Users/mac/Projects/mlir/cpp-to-ops-converter/script/..//ITK_POM2K/pom2k_fun.c":4462:1)
#loc8821 = loc("/Users/mac/Projects/mlir/cpp-to-ops-converter/script/..//ITK_POM2K/pom2k_fun.c":4480:1)
#loc8823 = loc("/Users/mac/Projects/mlir/cpp-to-ops-converter/script/..//ITK_POM2K/pom2k_fun.c":4499:1)
#loc8825 = loc("/Users/mac/Projects/mlir/cpp-to-ops-converter/script/..//ITK_POM2K/pom2k_fun.c":4521:1)
#loc8827 = loc("/Users/mac/Projects/mlir/cpp-to-ops-converter/script/..//ITK_POM2K/pom2k_fun.c":4542:1)
