"builtin.module"() ({
  "memref.global"() {sym_name = "small", type = memref<1xf32>} : () -> ()
  "memref.global"() {sym_name = "kappa", type = memref<1xf32>} : () -> ()
  "memref.global"() {sym_name = "rhoref", type = memref<1xf32>} : () -> ()
  "memref.global"() {sym_name = "sbias", type = memref<1xf32>} : () -> ()
  "memref.global"() {sym_name = "tbias", type = memref<1xf32>} : () -> ()
  "memref.global"() {sym_name = "kb", type = memref<1xi32>} : () -> ()
  "memref.global"() {sym_name = "grav", type = memref<1xf32>} : () -> ()
  "memref.global"() {sym_name = "imm1", type = memref<1xi32>} : () -> ()
  "memref.global"() {sym_name = "jmm1", type = memref<1xi32>} : () -> ()
  "memref.global"() {sym_name = "umol", type = memref<1xf32>} : () -> ()
  "memref.global"() {sym_name = "dti2", type = memref<1xf32>} : () -> ()
  "memref.global"() {sym_name = "kbm1", type = memref<1xi32>} : () -> ()
  "memref.global"() {sym_name = "im", type = memref<1xi32>} : () -> ()
  "memref.global"() {sym_name = "jm", type = memref<1xi32>} : () -> ()
  "func.func"() ({
  ^bb0(%arg0: memref<?xf32>, %arg1: memref<?xf32>, %arg2: memref<?xf32>, %arg3: memref<?xf32>, %arg4: memref<?xf32>, %arg5: memref<?xf32>, %arg6: memref<?xf32>, %arg7: memref<?xf32>, %arg8: memref<?xf32>, %arg9: memref<?xf32>, %arg10: memref<?xf32>, %arg11: memref<?xf32>, %arg12: memref<?xf32>, %arg13: memref<?xf32>, %arg14: memref<?xf32>, %arg15: memref<?xf32>, %arg16: memref<?xf32>, %arg17: memref<?xf32>, %arg18: memref<?xf32>, %arg19: memref<?xf32>, %arg20: memref<?xf32>, %arg21: memref<?xf32>, %arg22: memref<?xf32>, %arg23: memref<?xf32>, %arg24: memref<?xf32>, %arg25: memref<?xf32>, %arg26: memref<?xf32>, %arg27: memref<?xf32>, %arg28: memref<?xf32>, %arg29: memref<?xf32>, %arg30: memref<?xf32>, %arg31: memref<?xf32>, %arg32: memref<?xf32>, %arg33: memref<?xf32>, %arg34: memref<?xf32>, %arg35: memref<?xf32>, %arg36: memref<?xf32>, %arg37: memref<?xf32>, %arg38: memref<?xf32>, %arg39: memref<?xf32>, %arg40: memref<?xf32>, %arg41: memref<?xf32>):
    %0 = "arith.constant"() {value = -1 : i32} : () -> i32
    %1 = "arith.constant"() {value = -2 : i32} : () -> i32
    %2 = "arith.constant"() {value = 12.2543993 : f32} : () -> f32
    %3 = "arith.constant"() {value = 0.332530111 : f32} : () -> f32
    %4 = "arith.constant"() {value = 6.12719965 : f32} : () -> f32
    %5 = "arith.constant"() {value = 2.136240e+01 : f32} : () -> f32
    %6 = "arith.constant"() {value = 2.242200e+01 : f32} : () -> f32
    %7 = "arith.constant"() {value = 7.600000e-01 : f32} : () -> f32
    %8 = "arith.constant"() {value = 135.655716 : f32} : () -> f32
    %9 = "arith.constant"() {value = true} : () -> i1
    %10 = "arith.constant"() {value = 6.50736904 : f32} : () -> f32
    %11 = "arith.constant"() {value = 4.100000e-01 : f32} : () -> f32
    %12 = "arith.constant"() {value = 1.000000e-01 : f32} : () -> f32
    %13 = "arith.constant"() {value = -2.000000e+00 : f32} : () -> f32
    %14 = "arith.constant"() {value = 2.500000e-01 : f32} : () -> f32
    %15 = "arith.constant"() {value = 2.800000e-02 : f32} : () -> f32
    %16 = "arith.constant"() {value = -5.000000e-01 : f32} : () -> f32
    %17 = "arith.constant"() {value = 4.000000e-01 : f32} : () -> f32
    %18 = "arith.constant"() {value = 1.642000e-02 : f32} : () -> f32
    %19 = "arith.constant"() {value = 3.500000e+01 : f32} : () -> f32
    %20 = "arith.constant"() {value = 1.340000e+00 : f32} : () -> f32
    %21 = "arith.constant"() {value = 4.500000e-02 : f32} : () -> f32
    %22 = "arith.constant"() {value = 4.550000e+00 : f32} : () -> f32
    %23 = "arith.constant"() {value = 0.00820999965 : f32} : () -> f32
    %24 = "arith.constant"() {value = 1.449100e+03 : f32} : () -> f32
    %25 = "arith.constant"() {value = 9.99999974E-5 : f32} : () -> f32
    %26 = "arith.constant"() {value = 5.000000e-01 : f32} : () -> f32
    %27 = "arith.constant"() {value = 2.000000e+00 : f32} : () -> f32
    %28 = "arith.constant"() {value = 1 : i32} : () -> i32
    %29 = "arith.constant"() {value = 0 : i32} : () -> i32
    %30 = "arith.constant"() {value = 0.000000e+00 : f32} : () -> f32
    %31 = "arith.constant"() {value = 2.000000e+05 : f32} : () -> f32
    %32 = "arith.constant"() {value = 1.000000e+00 : f32} : () -> f32
    %33 = "arith.constant"() {value = 1.330000e+00 : f32} : () -> f32
    %34 = "arith.constant"() {value = 1.800000e+00 : f32} : () -> f32
    %35 = "arith.constant"() {value = 1.660000e+01 : f32} : () -> f32
    %36 = "arith.constant"() {value = 7.400000e-01 : f32} : () -> f32
    %37 = "arith.constant"() {value = 9.200000e-01 : f32} : () -> f32
    %38 = "arith.constant"() {value = 0 : index} : () -> index
    %39 = "memref.get_global"() {name = @jm} : () -> memref<1xi32>
    %40 = "memref.get_global"() {name = @im} : () -> memref<1xi32>
    %41 = "scf.while"(%29) ({
    ^bb0(%arg42: i32):
      %81 = "arith.constant"() {value = 0 : index} : () -> index
      %82 = "memref.load"(%39, %81) : (memref<1xi32>, index) -> i32
      %83 = "arith.cmpi"(%arg42, %82) {predicate = 2 : i64} : (i32, i32) -> i1
      "scf.condition"(%83, %arg42) : (i1, i32) -> ()
    }, {
    ^bb0(%arg42: i32):
      %81:2 = "scf.while"(%29) ({
      ^bb0(%arg43: i32):
        %83 = "arith.constant"() {value = 0 : index} : () -> index
        %84 = "memref.load"(%40, %83) : (memref<1xi32>, index) -> i32
        %85 = "arith.cmpi"(%arg43, %84) {predicate = 2 : i64} : (i32, i32) -> i1
        "scf.condition"(%85, %84, %arg43) : (i1, i32, i32) -> ()
      }, {
      ^bb0(%arg43: i32, %arg44: i32):
        %83 = "arith.muli"(%arg42, %arg43) : (i32, i32) -> i32
        %84 = "arith.addi"(%arg44, %83) : (i32, i32) -> i32
        %85 = "arith.index_cast"(%84) : (i32) -> index
        %86 = "arith.addi"(%85, %38) : (index, index) -> index
        %87 = "memref.load"(%arg4, %86) : (memref<?xf32>, index) -> f32
        %88 = "memref.load"(%arg5, %86) : (memref<?xf32>, index) -> f32
        %89 = "arith.addf"(%87, %88) : (f32, f32) -> f32
        "memref.store"(%89, %arg2, %86) : (f32, memref<?xf32>, index) -> ()
        %90 = "arith.addi"(%arg44, %28) : (i32, i32) -> i32
        "scf.yield"(%90) : (i32) -> ()
      }) {arg1 = "for (int i = 0; i < im; i++) {", arg3 = "for (int i = 0; i < im; i++) {", depth = 2 : i8, induction_variable = "i", lb = 0 : i32, loop_index = 0 : i32, step = 1 : i8, ub = @im} : (i32) -> (i32, i32)
      %82 = "arith.addi"(%arg42, %28) : (i32, i32) -> i32
      "scf.yield"(%82) : (i32) -> ()
    }) {arg1 = "for (int j = 0; j < jm; j++) {", depth = 1 : i8, induction_variable = "j", lb = 0 : i32, loop_index = 1 : i32, step = 1 : i8, ub = @jm} : (i32) -> i32
    %42 = "memref.get_global"() {name = @kbm1} : () -> memref<1xi32>
    %43 = "memref.get_global"() {name = @dti2} : () -> memref<1xf32>
    %44 = "memref.get_global"() {name = @umol} : () -> memref<1xf32>
    %45 = "scf.while"(%28) ({
    ^bb0(%arg42: i32):
      %81 = "arith.constant"() {value = 0 : index} : () -> index
      %82 = "memref.load"(%42, %81) : (memref<1xi32>, index) -> i32
      %83 = "arith.cmpi"(%arg42, %82) {predicate = 2 : i64} : (i32, i32) -> i1
      "scf.condition"(%83, %arg42) : (i1, i32) -> ()
    }, {
    ^bb0(%arg42: i32):
      %81 = "arith.addi"(%arg42, %28) : (i32, i32) -> i32
      %82 = "arith.addi"(%arg42, %0) : (i32, i32) -> i32
      %83 = "arith.index_cast"(%82) : (i32) -> index
      %84 = "arith.addi"(%83, %38) : (index, index) -> index
      %85 = "arith.index_cast"(%arg42) : (i32) -> index
      %86 = "arith.addi"(%85, %38) : (index, index) -> index
      %87 = "scf.while"(%29) ({
      ^bb0(%arg43: i32):
        %88 = "arith.constant"() {value = 0 : index} : () -> index
        %89 = "memref.load"(%39, %88) : (memref<1xi32>, index) -> i32
        %90 = "arith.cmpi"(%arg43, %89) {predicate = 2 : i64} : (i32, i32) -> i1
        "scf.condition"(%90, %arg43) : (i1, i32) -> ()
      }, {
      ^bb0(%arg43: i32):
        %88:2 = "scf.while"(%29) ({
        ^bb0(%arg44: i32):
          %90 = "arith.constant"() {value = 0 : index} : () -> index
          %91 = "memref.load"(%40, %90) : (memref<1xi32>, index) -> i32
          %92 = "arith.cmpi"(%arg44, %91) {predicate = 2 : i64} : (i32, i32) -> i1
          "scf.condition"(%92, %91, %arg44) : (i1, i32, i32) -> ()
        }, {
        ^bb0(%arg44: i32, %arg45: i32):
          %90 = "arith.muli"(%arg43, %arg44) : (i32, i32) -> i32
          %91 = "arith.addi"(%arg45, %90) : (i32, i32) -> i32
          %92 = "arith.muli"(%arg42, %arg44) : (i32, i32) -> i32
          %93 = "arith.constant"() {value = 0 : index} : () -> index
          %94 = "memref.load"(%39, %93) : (memref<1xi32>, index) -> i32
          %95 = "arith.muli"(%92, %94) : (i32, i32) -> i32
          %96 = "arith.addi"(%91, %95) : (i32, i32) -> i32
          %97 = "arith.index_cast"(%96) : (i32) -> index
          %98 = "arith.constant"() {value = 0 : index} : () -> index
          %99 = "memref.load"(%43, %98) : (memref<1xf32>, index) -> f32
          %100 = "arith.negf"(%99) : (f32) -> f32
          %101 = "arith.muli"(%81, %arg44) : (i32, i32) -> i32
          %102 = "arith.muli"(%101, %94) : (i32, i32) -> i32
          %103 = "arith.addi"(%91, %102) : (i32, i32) -> i32
          %104 = "arith.index_cast"(%103) : (i32) -> index
          %105 = "arith.addi"(%104, %38) : (index, index) -> index
          %106 = "memref.load"(%arg8, %105) : (memref<?xf32>, index) -> f32
          %107 = "arith.addi"(%97, %38) : (index, index) -> index
          %108 = "memref.load"(%arg8, %107) : (memref<?xf32>, index) -> f32
          %109 = "arith.addf"(%106, %108) : (f32, f32) -> f32
          %110 = "arith.constant"() {value = 0 : index} : () -> index
          %111 = "memref.load"(%44, %110) : (memref<1xf32>, index) -> f32
          %112 = "arith.mulf"(%111, %27) : (f32, f32) -> f32
          %113 = "arith.addf"(%109, %112) : (f32, f32) -> f32
          %114 = "arith.mulf"(%100, %113) : (f32, f32) -> f32
          %115 = "arith.mulf"(%114, %26) : (f32, f32) -> f32
          %116 = "memref.load"(%arg10, %84) : (memref<?xf32>, index) -> f32
          %117 = "memref.load"(%arg9, %86) : (memref<?xf32>, index) -> f32
          %118 = "arith.mulf"(%116, %117) : (f32, f32) -> f32
          %119 = "arith.index_cast"(%91) : (i32) -> index
          %120 = "arith.addi"(%119, %38) : (index, index) -> index
          %121 = "memref.load"(%arg2, %120) : (memref<?xf32>, index) -> f32
          %122 = "arith.mulf"(%118, %121) : (f32, f32) -> f32
          %123 = "arith.mulf"(%122, %121) : (f32, f32) -> f32
          %124 = "arith.divf"(%115, %123) : (f32, f32) -> f32
          "memref.store"(%124, %arg6, %107) : (f32, memref<?xf32>, index) -> ()
          %125 = "arith.constant"() {value = 0 : index} : () -> index
          %126 = "memref.load"(%40, %125) : (memref<1xi32>, index) -> i32
          %127 = "arith.muli"(%arg43, %126) : (i32, i32) -> i32
          %128 = "arith.addi"(%arg45, %127) : (i32, i32) -> i32
          %129 = "arith.muli"(%arg42, %126) : (i32, i32) -> i32
          %130 = "arith.constant"() {value = 0 : index} : () -> index
          %131 = "memref.load"(%39, %130) : (memref<1xi32>, index) -> i32
          %132 = "arith.muli"(%129, %131) : (i32, i32) -> i32
          %133 = "arith.addi"(%128, %132) : (i32, i32) -> i32
          %134 = "arith.index_cast"(%133) : (i32) -> index
          %135 = "arith.constant"() {value = 0 : index} : () -> index
          %136 = "memref.load"(%43, %135) : (memref<1xf32>, index) -> f32
          %137 = "arith.negf"(%136) : (f32) -> f32
          %138 = "arith.muli"(%82, %126) : (i32, i32) -> i32
          %139 = "arith.muli"(%138, %131) : (i32, i32) -> i32
          %140 = "arith.addi"(%128, %139) : (i32, i32) -> i32
          %141 = "arith.index_cast"(%140) : (i32) -> index
          %142 = "arith.addi"(%141, %38) : (index, index) -> index
          %143 = "memref.load"(%arg8, %142) : (memref<?xf32>, index) -> f32
          %144 = "arith.addi"(%134, %38) : (index, index) -> index
          %145 = "memref.load"(%arg8, %144) : (memref<?xf32>, index) -> f32
          %146 = "arith.addf"(%143, %145) : (f32, f32) -> f32
          %147 = "arith.constant"() {value = 0 : index} : () -> index
          %148 = "memref.load"(%44, %147) : (memref<1xf32>, index) -> f32
          %149 = "arith.mulf"(%148, %27) : (f32, f32) -> f32
          %150 = "arith.addf"(%146, %149) : (f32, f32) -> f32
          %151 = "arith.mulf"(%137, %150) : (f32, f32) -> f32
          %152 = "arith.mulf"(%151, %26) : (f32, f32) -> f32
          %153 = "memref.load"(%arg10, %84) : (memref<?xf32>, index) -> f32
          %154 = "memref.load"(%arg9, %84) : (memref<?xf32>, index) -> f32
          %155 = "arith.mulf"(%153, %154) : (f32, f32) -> f32
          %156 = "arith.index_cast"(%128) : (i32) -> index
          %157 = "arith.addi"(%156, %38) : (index, index) -> index
          %158 = "memref.load"(%arg2, %157) : (memref<?xf32>, index) -> f32
          %159 = "arith.mulf"(%155, %158) : (f32, f32) -> f32
          %160 = "arith.mulf"(%159, %158) : (f32, f32) -> f32
          %161 = "arith.divf"(%152, %160) : (f32, f32) -> f32
          "memref.store"(%161, %arg7, %144) : (f32, memref<?xf32>, index) -> ()
          %162 = "arith.addi"(%arg45, %28) : (i32, i32) -> i32
          "scf.yield"(%162) : (i32) -> ()
        }) {arg1 = "for (int i = 0; i < im; i++) {", arg3 = "for (int i = 0; i < im; i++) {", depth = 3 : i8, induction_variable = "i", lb = 0 : i32, loop_index = 2 : i32, step = 1 : i8, ub = @im} : (i32) -> (i32, i32)
        %89 = "arith.addi"(%arg43, %28) : (i32, i32) -> i32
        "scf.yield"(%89) : (i32) -> ()
      }) {arg1 = "for (int j = 0; j < jm; j++) {", depth = 2 : i8, induction_variable = "j", lb = 0 : i32, loop_index = 3 : i32, step = 1 : i8, ub = @jm} : (i32) -> i32
      "scf.yield"(%81) : (i32) -> ()
    }) {arg1 = "for (int k = 1; k < kbm1; k++) {", depth = 1 : i8, induction_variable = "k", lb = 1 : i32, loop_index = 4 : i32, step = 1 : i8, ub = @kbm1} : (i32) -> i32
    %46:2 = "scf.while"(%29) ({
    ^bb0(%arg42: i32):
      %81 = "arith.constant"() {value = 0 : index} : () -> index
      %82 = "memref.load"(%40, %81) : (memref<1xi32>, index) -> i32
      %83 = "arith.cmpi"(%arg42, %82) {predicate = 2 : i64} : (i32, i32) -> i1
      "scf.condition"(%83, %82, %arg42) : (i1, i32, i32) -> ()
    }, {
    ^bb0(%arg42: i32, %arg43: i32):
      %81 = "arith.constant"() {value = 0 : index} : () -> index
      %82 = "memref.load"(%39, %81) : (memref<1xi32>, index) -> i32
      %83 = "arith.addi"(%82, %0) : (i32, i32) -> i32
      %84 = "arith.muli"(%83, %arg42) : (i32, i32) -> i32
      %85 = "arith.addi"(%arg43, %84) : (i32, i32) -> i32
      %86 = "arith.muli"(%29, %arg42) : (i32, i32) -> i32
      %87 = "arith.muli"(%86, %82) : (i32, i32) -> i32
      %88 = "arith.addi"(%85, %87) : (i32, i32) -> i32
      %89 = "arith.index_cast"(%88) : (i32) -> index
      %90 = "arith.addi"(%89, %38) : (index, index) -> index
      "memref.store"(%30, %arg11, %90) : (f32, memref<?xf32>, index) -> ()
      %91 = "arith.constant"() {value = 0 : index} : () -> index
      %92 = "memref.load"(%39, %91) : (memref<1xi32>, index) -> i32
      %93 = "arith.addi"(%92, %0) : (i32, i32) -> i32
      %94 = "arith.constant"() {value = 0 : index} : () -> index
      %95 = "memref.load"(%40, %94) : (memref<1xi32>, index) -> i32
      %96 = "arith.muli"(%93, %95) : (i32, i32) -> i32
      %97 = "arith.addi"(%arg43, %96) : (i32, i32) -> i32
      %98 = "arith.muli"(%29, %95) : (i32, i32) -> i32
      %99 = "arith.muli"(%98, %92) : (i32, i32) -> i32
      %100 = "arith.addi"(%97, %99) : (i32, i32) -> i32
      %101 = "arith.index_cast"(%100) : (i32) -> index
      %102 = "arith.addi"(%101, %38) : (index, index) -> index
      "memref.store"(%30, %arg12, %102) : (f32, memref<?xf32>, index) -> ()
      %103 = "arith.constant"() {value = 0 : index} : () -> index
      %104 = "memref.load"(%39, %103) : (memref<1xi32>, index) -> i32
      %105 = "arith.addi"(%104, %0) : (i32, i32) -> i32
      %106 = "arith.constant"() {value = 0 : index} : () -> index
      %107 = "memref.load"(%40, %106) : (memref<1xi32>, index) -> i32
      %108 = "arith.muli"(%105, %107) : (i32, i32) -> i32
      %109 = "arith.addi"(%arg43, %108) : (i32, i32) -> i32
      %110 = "arith.index_cast"(%109) : (i32) -> index
      %111 = "arith.addi"(%110, %38) : (index, index) -> index
      "memref.store"(%30, %arg35, %111) : (f32, memref<?xf32>, index) -> ()
      %112 = "arith.addi"(%arg43, %28) : (i32, i32) -> i32
      "scf.yield"(%112) : (i32) -> ()
    }) {arg1 = "for (int i = 0; i < im; i++) {", arg3 = "for (int i = 0; i < im; i++) {", depth = 1 : i8, induction_variable = "i", lb = 0 : i32, loop_index = 5 : i32, step = 1 : i8, ub = @im} : (i32) -> (i32, i32)
    %47:2 = "scf.while"(%29) ({
    ^bb0(%arg42: i32):
      %81 = "arith.constant"() {value = 0 : index} : () -> index
      %82 = "memref.load"(%39, %81) : (memref<1xi32>, index) -> i32
      %83 = "arith.cmpi"(%arg42, %82) {predicate = 2 : i64} : (i32, i32) -> i1
      "scf.condition"(%83, %82, %arg42) : (i1, i32, i32) -> ()
    }, {
    ^bb0(%arg42: i32, %arg43: i32):
      %81 = "arith.constant"() {value = 0 : index} : () -> index
      %82 = "memref.load"(%40, %81) : (memref<1xi32>, index) -> i32
      %83 = "arith.addi"(%82, %0) : (i32, i32) -> i32
      %84 = "arith.muli"(%arg43, %82) : (i32, i32) -> i32
      %85 = "arith.addi"(%83, %84) : (i32, i32) -> i32
      %86 = "arith.muli"(%29, %82) : (i32, i32) -> i32
      %87 = "arith.muli"(%86, %arg42) : (i32, i32) -> i32
      %88 = "arith.addi"(%85, %87) : (i32, i32) -> i32
      %89 = "arith.index_cast"(%88) : (i32) -> index
      %90 = "arith.addi"(%89, %38) : (index, index) -> index
      "memref.store"(%30, %arg11, %90) : (f32, memref<?xf32>, index) -> ()
      %91 = "arith.constant"() {value = 0 : index} : () -> index
      %92 = "memref.load"(%40, %91) : (memref<1xi32>, index) -> i32
      %93 = "arith.addi"(%92, %0) : (i32, i32) -> i32
      %94 = "arith.muli"(%arg43, %92) : (i32, i32) -> i32
      %95 = "arith.addi"(%93, %94) : (i32, i32) -> i32
      %96 = "arith.muli"(%29, %92) : (i32, i32) -> i32
      %97 = "arith.constant"() {value = 0 : index} : () -> index
      %98 = "memref.load"(%39, %97) : (memref<1xi32>, index) -> i32
      %99 = "arith.muli"(%96, %98) : (i32, i32) -> i32
      %100 = "arith.addi"(%95, %99) : (i32, i32) -> i32
      %101 = "arith.index_cast"(%100) : (i32) -> index
      %102 = "arith.addi"(%101, %38) : (index, index) -> index
      "memref.store"(%30, %arg12, %102) : (f32, memref<?xf32>, index) -> ()
      %103 = "arith.constant"() {value = 0 : index} : () -> index
      %104 = "memref.load"(%40, %103) : (memref<1xi32>, index) -> i32
      %105 = "arith.addi"(%104, %0) : (i32, i32) -> i32
      %106 = "arith.muli"(%arg43, %104) : (i32, i32) -> i32
      %107 = "arith.addi"(%105, %106) : (i32, i32) -> i32
      %108 = "arith.index_cast"(%107) : (i32) -> index
      %109 = "arith.addi"(%108, %38) : (index, index) -> index
      "memref.store"(%30, %arg35, %109) : (f32, memref<?xf32>, index) -> ()
      %110 = "arith.addi"(%arg43, %28) : (i32, i32) -> i32
      "scf.yield"(%110) : (i32) -> ()
    }) {arg1 = "for (int j = 0; j < jm; j++) {", arg3 = "for (int j = 0; j < jm; j++) {", depth = 1 : i8, induction_variable = "j", lb = 0 : i32, loop_index = 6 : i32, step = 1 : i8, ub = @jm} : (i32) -> (i32, i32)
    %48 = "scf.while"(%29) ({
    ^bb0(%arg42: i32):
      %81 = "arith.constant"() {value = 0 : index} : () -> index
      %82 = "memref.load"(%40, %81) : (memref<1xi32>, index) -> i32
      %83 = "arith.cmpi"(%arg42, %82) {predicate = 2 : i64} : (i32, i32) -> i1
      "scf.condition"(%83, %arg42) : (i1, i32) -> ()
    }, {
    ^bb0(%arg42: i32):
      %81 = "scf.while"(%29) ({
      ^bb0(%arg43: i32):
        %83 = "arith.constant"() {value = 0 : index} : () -> index
        %84 = "memref.load"(%39, %83) : (memref<1xi32>, index) -> i32
        %85 = "arith.cmpi"(%arg43, %84) {predicate = 2 : i64} : (i32, i32) -> i1
        "scf.condition"(%85, %arg43) : (i1, i32) -> ()
      }, {
      ^bb0(%arg43: i32):
        %83 = "scf.while"(%28) ({
        ^bb0(%arg44: i32):
          %85 = "arith.constant"() {value = 0 : index} : () -> index
          %86 = "memref.load"(%42, %85) : (memref<1xi32>, index) -> i32
          %87 = "arith.cmpi"(%arg44, %86) {predicate = 2 : i64} : (i32, i32) -> i1
          "scf.condition"(%87, %arg44) : (i1, i32) -> ()
        }, {
        ^bb0(%arg44: i32):
          %85 = "arith.constant"() {value = 0 : index} : () -> index
          %86 = "memref.load"(%40, %85) : (memref<1xi32>, index) -> i32
          %87 = "arith.muli"(%arg43, %86) : (i32, i32) -> i32
          %88 = "arith.addi"(%arg42, %87) : (i32, i32) -> i32
          %89 = "arith.muli"(%arg44, %86) : (i32, i32) -> i32
          %90 = "arith.constant"() {value = 0 : index} : () -> index
          %91 = "memref.load"(%39, %90) : (memref<1xi32>, index) -> i32
          %92 = "arith.muli"(%89, %91) : (i32, i32) -> i32
          %93 = "arith.addi"(%88, %92) : (i32, i32) -> i32
          %94 = "arith.index_cast"(%93) : (i32) -> index
          %95 = "arith.addi"(%94, %38) : (index, index) -> index
          "memref.store"(%30, %arg39, %95) : (f32, memref<?xf32>, index) -> ()
          %96 = "arith.addi"(%arg44, %28) : (i32, i32) -> i32
          "scf.yield"(%96) : (i32) -> ()
        }) {arg1 = "for (int k = 1; k < kbm1; k++) {", depth = 3 : i8, induction_variable = "k", lb = 1 : i32, loop_index = 7 : i32, step = 1 : i8, ub = @kbm1} : (i32) -> i32
        %84 = "arith.addi"(%arg43, %28) : (i32, i32) -> i32
        "scf.yield"(%84) : (i32) -> ()
      }) {arg1 = "for (int j = 0; j < jm; j++) {", depth = 2 : i8, induction_variable = "j", lb = 0 : i32, loop_index = 8 : i32, step = 1 : i8, ub = @jm} : (i32) -> i32
      %82 = "arith.addi"(%arg42, %28) : (i32, i32) -> i32
      "scf.yield"(%82) : (i32) -> ()
    }) {arg1 = "for (int i = 0; i < im; i++) {", depth = 1 : i8, induction_variable = "i", lb = 0 : i32, loop_index = 9 : i32, step = 1 : i8, ub = @im} : (i32) -> i32
    %49 = "memref.get_global"() {name = @jmm1} : () -> memref<1xi32>
    %50 = "memref.get_global"() {name = @imm1} : () -> memref<1xi32>
    %51 = "memref.get_global"() {name = @grav} : () -> memref<1xf32>
    %52 = "memref.get_global"() {name = @kb} : () -> memref<1xi32>
    %53 = "scf.while"(%29) ({
    ^bb0(%arg42: i32):
      %81 = "arith.constant"() {value = 0 : index} : () -> index
      %82 = "memref.load"(%49, %81) : (memref<1xi32>, index) -> i32
      %83 = "arith.cmpi"(%arg42, %82) {predicate = 2 : i64} : (i32, i32) -> i1
      "scf.condition"(%83, %arg42) : (i1, i32) -> ()
    }, {
    ^bb0(%arg42: i32):
      %81 = "arith.addi"(%arg42, %28) : (i32, i32) -> i32
      %82 = "scf.while"(%29) ({
      ^bb0(%arg43: i32):
        %83 = "arith.constant"() {value = 0 : index} : () -> index
        %84 = "memref.load"(%50, %83) : (memref<1xi32>, index) -> i32
        %85 = "arith.cmpi"(%arg43, %84) {predicate = 2 : i64} : (i32, i32) -> i1
        "scf.condition"(%85, %arg43) : (i1, i32) -> ()
      }, {
      ^bb0(%arg43: i32):
        %83 = "arith.constant"() {value = 0 : index} : () -> index
        %84 = "memref.load"(%40, %83) : (memref<1xi32>, index) -> i32
        %85 = "arith.muli"(%arg42, %84) : (i32, i32) -> i32
        %86 = "arith.addi"(%arg43, %85) : (i32, i32) -> i32
        %87 = "arith.index_cast"(%86) : (i32) -> index
        %88 = "arith.addi"(%87, %38) : (index, index) -> index
        %89 = "memref.load"(%arg13, %88) : (memref<?xf32>, index) -> f32
        %90 = "arith.addi"(%arg43, %28) : (i32, i32) -> i32
        %91 = "arith.addi"(%90, %85) : (i32, i32) -> i32
        %92 = "arith.index_cast"(%91) : (i32) -> index
        %93 = "arith.addi"(%92, %38) : (index, index) -> index
        %94 = "memref.load"(%arg13, %93) : (memref<?xf32>, index) -> f32
        %95 = "arith.addf"(%89, %94) : (f32, f32) -> f32
        %96 = "arith.mulf"(%95, %26) : (f32, f32) -> f32
        %97 = "arith.mulf"(%96, %96) : (f32, f32) -> f32
        %98 = "memref.load"(%arg14, %88) : (memref<?xf32>, index) -> f32
        %99 = "arith.muli"(%81, %84) : (i32, i32) -> i32
        %100 = "arith.addi"(%arg43, %99) : (i32, i32) -> i32
        %101 = "arith.index_cast"(%100) : (i32) -> index
        %102 = "arith.addi"(%101, %38) : (index, index) -> index
        %103 = "memref.load"(%arg14, %102) : (memref<?xf32>, index) -> f32
        %104 = "arith.addf"(%98, %103) : (f32, f32) -> f32
        %105 = "arith.mulf"(%104, %26) : (f32, f32) -> f32
        %106 = "arith.mulf"(%105, %105) : (f32, f32) -> f32
        %107 = "arith.addf"(%97, %106) : (f32, f32) -> f32
        %108 = "math.sqrt"(%107) : (f32) -> f32
        %109 = "arith.muli"(%29, %84) : (i32, i32) -> i32
        %110 = "arith.constant"() {value = 0 : index} : () -> index
        %111 = "memref.load"(%39, %110) : (memref<1xi32>, index) -> i32
        %112 = "arith.muli"(%109, %111) : (i32, i32) -> i32
        %113 = "arith.addi"(%86, %112) : (i32, i32) -> i32
        %114 = "arith.index_cast"(%113) : (i32) -> index
        %115 = "arith.addi"(%114, %38) : (index, index) -> index
        "memref.store"(%30, %arg11, %115) : (f32, memref<?xf32>, index) -> ()
        %116 = "arith.constant"() {value = 0 : index} : () -> index
        %117 = "memref.load"(%40, %116) : (memref<1xi32>, index) -> i32
        %118 = "arith.muli"(%arg42, %117) : (i32, i32) -> i32
        %119 = "arith.addi"(%arg43, %118) : (i32, i32) -> i32
        %120 = "arith.muli"(%29, %117) : (i32, i32) -> i32
        %121 = "arith.constant"() {value = 0 : index} : () -> index
        %122 = "memref.load"(%39, %121) : (memref<1xi32>, index) -> i32
        %123 = "arith.muli"(%120, %122) : (i32, i32) -> i32
        %124 = "arith.addi"(%119, %123) : (i32, i32) -> i32
        %125 = "arith.index_cast"(%124) : (i32) -> index
        %126 = "arith.mulf"(%108, %8) : (f32, f32) -> f32
        %127 = "arith.addi"(%125, %38) : (index, index) -> index
        "memref.store"(%126, %arg12, %127) : (f32, memref<?xf32>, index) -> ()
        %128 = "arith.constant"() {value = 0 : index} : () -> index
        %129 = "memref.load"(%40, %128) : (memref<1xi32>, index) -> i32
        %130 = "arith.muli"(%arg42, %129) : (i32, i32) -> i32
        %131 = "arith.addi"(%arg43, %130) : (i32, i32) -> i32
        %132 = "arith.index_cast"(%131) : (i32) -> index
        %133 = "arith.mulf"(%108, %31) : (f32, f32) -> f32
        %134 = "arith.constant"() {value = 0 : index} : () -> index
        %135 = "memref.load"(%51, %134) : (memref<1xf32>, index) -> f32
        %136 = "arith.divf"(%133, %135) : (f32, f32) -> f32
        %137 = "arith.addi"(%132, %38) : (index, index) -> index
        "memref.store"(%136, %arg35, %137) : (f32, memref<?xf32>, index) -> ()
        %138 = "arith.constant"() {value = 0 : index} : () -> index
        %139 = "memref.load"(%40, %138) : (memref<1xi32>, index) -> i32
        %140 = "arith.muli"(%arg42, %139) : (i32, i32) -> i32
        %141 = "arith.addi"(%arg43, %140) : (i32, i32) -> i32
        %142 = "arith.constant"() {value = 0 : index} : () -> index
        %143 = "memref.load"(%52, %142) : (memref<1xi32>, index) -> i32
        %144 = "arith.addi"(%143, %0) : (i32, i32) -> i32
        %145 = "arith.muli"(%144, %139) : (i32, i32) -> i32
        %146 = "arith.constant"() {value = 0 : index} : () -> index
        %147 = "memref.load"(%39, %146) : (memref<1xi32>, index) -> i32
        %148 = "arith.muli"(%145, %147) : (i32, i32) -> i32
        %149 = "arith.addi"(%141, %148) : (i32, i32) -> i32
        %150 = "arith.index_cast"(%149) : (i32) -> index
        %151 = "arith.index_cast"(%141) : (i32) -> index
        %152 = "arith.addi"(%151, %38) : (index, index) -> index
        %153 = "memref.load"(%arg16, %152) : (memref<?xf32>, index) -> f32
        %154 = "arith.addi"(%90, %140) : (i32, i32) -> i32
        %155 = "arith.index_cast"(%154) : (i32) -> index
        %156 = "arith.addi"(%155, %38) : (index, index) -> index
        %157 = "memref.load"(%arg16, %156) : (memref<?xf32>, index) -> f32
        %158 = "arith.addf"(%153, %157) : (f32, f32) -> f32
        %159 = "arith.mulf"(%158, %26) : (f32, f32) -> f32
        %160 = "arith.mulf"(%159, %159) : (f32, f32) -> f32
        %161 = "memref.load"(%arg17, %152) : (memref<?xf32>, index) -> f32
        %162 = "arith.muli"(%81, %139) : (i32, i32) -> i32
        %163 = "arith.addi"(%arg43, %162) : (i32, i32) -> i32
        %164 = "arith.index_cast"(%163) : (i32) -> index
        %165 = "arith.addi"(%164, %38) : (index, index) -> index
        %166 = "memref.load"(%arg17, %165) : (memref<?xf32>, index) -> f32
        %167 = "arith.addf"(%161, %166) : (f32, f32) -> f32
        %168 = "arith.mulf"(%167, %26) : (f32, f32) -> f32
        %169 = "arith.mulf"(%168, %168) : (f32, f32) -> f32
        %170 = "arith.addf"(%160, %169) : (f32, f32) -> f32
        %171 = "math.sqrt"(%170) : (f32) -> f32
        %172 = "arith.mulf"(%171, %10) : (f32, f32) -> f32
        %173 = "arith.addi"(%150, %38) : (index, index) -> index
        "memref.store"(%172, %arg15, %173) : (f32, memref<?xf32>, index) -> ()
        "scf.yield"(%90) : (i32) -> ()
      }) {arg1 = "for (int i = 0; i < imm1; i++) {", depth = 2 : i8, induction_variable = "i", lb = 0 : i32, loop_index = 10 : i32, step = 1 : i8, ub = @imm1} : (i32) -> i32
      "scf.yield"(%81) : (i32) -> ()
    }) {arg1 = "for (int j = 0; j < jmm1; j++) {", depth = 1 : i8, induction_variable = "j", lb = 0 : i32, loop_index = 11 : i32, step = 1 : i8, ub = @jmm1} : (i32) -> i32
    %54 = "memref.get_global"() {name = @tbias} : () -> memref<1xf32>
    %55 = "memref.get_global"() {name = @sbias} : () -> memref<1xf32>
    %56 = "memref.get_global"() {name = @rhoref} : () -> memref<1xf32>
    %57 = "scf.while"(%29) ({
    ^bb0(%arg42: i32):
      %81 = "arith.constant"() {value = 0 : index} : () -> index
      %82 = "memref.load"(%42, %81) : (memref<1xi32>, index) -> i32
      %83 = "arith.cmpi"(%arg42, %82) {predicate = 2 : i64} : (i32, i32) -> i1
      "scf.condition"(%83, %arg42) : (i1, i32) -> ()
    }, {
    ^bb0(%arg42: i32):
      %81 = "arith.index_cast"(%arg42) : (i32) -> index
      %82 = "arith.addi"(%81, %38) : (index, index) -> index
      %83 = "scf.while"(%29) ({
      ^bb0(%arg43: i32):
        %85 = "arith.constant"() {value = 0 : index} : () -> index
        %86 = "memref.load"(%39, %85) : (memref<1xi32>, index) -> i32
        %87 = "arith.cmpi"(%arg43, %86) {predicate = 2 : i64} : (i32, i32) -> i1
        "scf.condition"(%87, %arg43) : (i1, i32) -> ()
      }, {
      ^bb0(%arg43: i32):
        %85:2 = "scf.while"(%29) ({
        ^bb0(%arg44: i32):
          %87 = "arith.constant"() {value = 0 : index} : () -> index
          %88 = "memref.load"(%40, %87) : (memref<1xi32>, index) -> i32
          %89 = "arith.cmpi"(%arg44, %88) {predicate = 2 : i64} : (i32, i32) -> i1
          "scf.condition"(%89, %88, %arg44) : (i1, i32, i32) -> ()
        }, {
        ^bb0(%arg44: i32, %arg45: i32):
          %87 = "arith.muli"(%arg43, %arg44) : (i32, i32) -> i32
          %88 = "arith.addi"(%arg45, %87) : (i32, i32) -> i32
          %89 = "arith.muli"(%arg42, %arg44) : (i32, i32) -> i32
          %90 = "arith.constant"() {value = 0 : index} : () -> index
          %91 = "memref.load"(%39, %90) : (memref<1xi32>, index) -> i32
          %92 = "arith.muli"(%89, %91) : (i32, i32) -> i32
          %93 = "arith.addi"(%88, %92) : (i32, i32) -> i32
          %94 = "arith.index_cast"(%93) : (i32) -> index
          %95 = "arith.addi"(%94, %38) : (index, index) -> index
          %96 = "memref.load"(%arg18, %95) : (memref<?xf32>, index) -> f32
          %97 = "arith.constant"() {value = 0 : index} : () -> index
          %98 = "memref.load"(%54, %97) : (memref<1xf32>, index) -> f32
          %99 = "arith.addf"(%96, %98) : (f32, f32) -> f32
          %100 = "memref.load"(%arg19, %95) : (memref<?xf32>, index) -> f32
          %101 = "arith.constant"() {value = 0 : index} : () -> index
          %102 = "memref.load"(%55, %101) : (memref<1xf32>, index) -> f32
          %103 = "arith.addf"(%100, %102) : (f32, f32) -> f32
          %104 = "arith.constant"() {value = 0 : index} : () -> index
          %105 = "memref.load"(%51, %104) : (memref<1xf32>, index) -> f32
          %106 = "arith.constant"() {value = 0 : index} : () -> index
          %107 = "memref.load"(%56, %106) : (memref<1xf32>, index) -> f32
          %108 = "arith.mulf"(%105, %107) : (f32, f32) -> f32
          %109 = "memref.load"(%arg20, %82) : (memref<?xf32>, index) -> f32
          %110 = "arith.negf"(%109) : (f32) -> f32
          %111 = "arith.index_cast"(%88) : (i32) -> index
          %112 = "arith.addi"(%111, %38) : (index, index) -> index
          %113 = "memref.load"(%arg4, %112) : (memref<?xf32>, index) -> f32
          %114 = "arith.mulf"(%110, %113) : (f32, f32) -> f32
          %115 = "arith.mulf"(%108, %114) : (f32, f32) -> f32
          %116 = "arith.mulf"(%115, %25) : (f32, f32) -> f32
          %117 = "arith.mulf"(%116, %23) : (f32, f32) -> f32
          %118 = "arith.addf"(%117, %24) : (f32, f32) -> f32
          %119 = "arith.mulf"(%99, %22) : (f32, f32) -> f32
          %120 = "arith.addf"(%118, %119) : (f32, f32) -> f32
          %121 = "arith.mulf"(%99, %21) : (f32, f32) -> f32
          %122 = "arith.mulf"(%121, %99) : (f32, f32) -> f32
          %123 = "arith.subf"(%120, %122) : (f32, f32) -> f32
          %124 = "arith.subf"(%103, %19) : (f32, f32) -> f32
          %125 = "arith.mulf"(%124, %20) : (f32, f32) -> f32
          %126 = "arith.addf"(%123, %125) : (f32, f32) -> f32
          "memref.store"(%126, %arg3, %95) : (f32, memref<?xf32>, index) -> ()
          %127 = "arith.constant"() {value = 0 : index} : () -> index
          %128 = "memref.load"(%40, %127) : (memref<1xi32>, index) -> i32
          %129 = "arith.muli"(%arg43, %128) : (i32, i32) -> i32
          %130 = "arith.addi"(%arg45, %129) : (i32, i32) -> i32
          %131 = "arith.muli"(%arg42, %128) : (i32, i32) -> i32
          %132 = "arith.constant"() {value = 0 : index} : () -> index
          %133 = "memref.load"(%39, %132) : (memref<1xi32>, index) -> i32
          %134 = "arith.muli"(%131, %133) : (i32, i32) -> i32
          %135 = "arith.addi"(%130, %134) : (i32, i32) -> i32
          %136 = "arith.index_cast"(%135) : (i32) -> index
          %137 = "arith.addi"(%136, %38) : (index, index) -> index
          %138 = "memref.load"(%arg3, %137) : (memref<?xf32>, index) -> f32
          %139 = "arith.mulf"(%116, %18) : (f32, f32) -> f32
          %140 = "arith.divf"(%139, %138) : (f32, f32) -> f32
          %141 = "arith.subf"(%32, %140) : (f32, f32) -> f32
          %142 = "arith.mulf"(%116, %17) : (f32, f32) -> f32
          %143 = "arith.mulf"(%138, %138) : (f32, f32) -> f32
          %144 = "arith.divf"(%142, %143) : (f32, f32) -> f32
          %145 = "arith.subf"(%32, %144) : (f32, f32) -> f32
          %146 = "arith.mulf"(%141, %145) : (f32, f32) -> f32
          %147 = "math.sqrt"(%146) : (f32) -> f32
          %148 = "arith.divf"(%138, %147) : (f32, f32) -> f32
          "memref.store"(%148, %arg3, %137) : (f32, memref<?xf32>, index) -> ()
          %149 = "arith.addi"(%arg45, %28) : (i32, i32) -> i32
          "scf.yield"(%149) : (i32) -> ()
        }) {arg1 = "for (int i = 0; i < im; i++) {", arg3 = "for (int i = 0; i < im; i++) {", depth = 3 : i8, induction_variable = "i", lb = 0 : i32, loop_index = 12 : i32, step = 1 : i8, ub = @im} : (i32) -> (i32, i32)
        %86 = "arith.addi"(%arg43, %28) : (i32, i32) -> i32
        "scf.yield"(%86) : (i32) -> ()
      }) {arg1 = "for (int j = 0; j < jm; j++) {", depth = 2 : i8, induction_variable = "j", lb = 0 : i32, loop_index = 13 : i32, step = 1 : i8, ub = @jm} : (i32) -> i32
      %84 = "arith.addi"(%arg42, %28) : (i32, i32) -> i32
      "scf.yield"(%84) : (i32) -> ()
    }) {arg1 = "for (int k = 0; k < kbm1; k++) {", depth = 1 : i8, induction_variable = "k", lb = 0 : i32, loop_index = 14 : i32, step = 1 : i8, ub = @kbm1} : (i32) -> i32
    %58 = "scf.while"(%28) ({
    ^bb0(%arg42: i32):
      %81 = "arith.constant"() {value = 0 : index} : () -> index
      %82 = "memref.load"(%42, %81) : (memref<1xi32>, index) -> i32
      %83 = "arith.cmpi"(%arg42, %82) {predicate = 2 : i64} : (i32, i32) -> i1
      "scf.condition"(%83, %arg42) : (i1, i32) -> ()
    }, {
    ^bb0(%arg42: i32):
      %81 = "arith.addi"(%arg42, %0) : (i32, i32) -> i32
      %82 = "arith.index_cast"(%81) : (i32) -> index
      %83 = "arith.addi"(%82, %38) : (index, index) -> index
      %84 = "scf.while"(%29) ({
      ^bb0(%arg43: i32):
        %86 = "arith.constant"() {value = 0 : index} : () -> index
        %87 = "memref.load"(%39, %86) : (memref<1xi32>, index) -> i32
        %88 = "arith.cmpi"(%arg43, %87) {predicate = 2 : i64} : (i32, i32) -> i1
        "scf.condition"(%88, %arg43) : (i1, i32) -> ()
      }, {
      ^bb0(%arg43: i32):
        %86:2 = "scf.while"(%29) ({
        ^bb0(%arg44: i32):
          %88 = "arith.constant"() {value = 0 : index} : () -> index
          %89 = "memref.load"(%40, %88) : (memref<1xi32>, index) -> i32
          %90 = "arith.cmpi"(%arg44, %89) {predicate = 2 : i64} : (i32, i32) -> i1
          "scf.condition"(%90, %89, %arg44) : (i1, i32, i32) -> ()
        }, {
        ^bb0(%arg44: i32, %arg45: i32):
          %88 = "arith.muli"(%arg43, %arg44) : (i32, i32) -> i32
          %89 = "arith.addi"(%arg45, %88) : (i32, i32) -> i32
          %90 = "arith.muli"(%arg42, %arg44) : (i32, i32) -> i32
          %91 = "arith.constant"() {value = 0 : index} : () -> index
          %92 = "memref.load"(%39, %91) : (memref<1xi32>, index) -> i32
          %93 = "arith.muli"(%90, %92) : (i32, i32) -> i32
          %94 = "arith.addi"(%89, %93) : (i32, i32) -> i32
          %95 = "arith.index_cast"(%94) : (i32) -> index
          %96 = "arith.addi"(%95, %38) : (index, index) -> index
          %97 = "memref.load"(%arg21, %96) : (memref<?xf32>, index) -> f32
          %98 = "math.absf"(%97) : (f32) -> f32
          "memref.store"(%98, %arg21, %96) : (f32, memref<?xf32>, index) -> ()
          %99 = "arith.constant"() {value = 0 : index} : () -> index
          %100 = "memref.load"(%40, %99) : (memref<1xi32>, index) -> i32
          %101 = "arith.muli"(%arg43, %100) : (i32, i32) -> i32
          %102 = "arith.addi"(%arg45, %101) : (i32, i32) -> i32
          %103 = "arith.muli"(%arg42, %100) : (i32, i32) -> i32
          %104 = "arith.constant"() {value = 0 : index} : () -> index
          %105 = "memref.load"(%39, %104) : (memref<1xi32>, index) -> i32
          %106 = "arith.muli"(%103, %105) : (i32, i32) -> i32
          %107 = "arith.addi"(%102, %106) : (i32, i32) -> i32
          %108 = "arith.index_cast"(%107) : (i32) -> index
          %109 = "arith.addi"(%108, %38) : (index, index) -> index
          %110 = "memref.load"(%arg22, %109) : (memref<?xf32>, index) -> f32
          %111 = "math.absf"(%110) : (f32) -> f32
          "memref.store"(%111, %arg22, %109) : (f32, memref<?xf32>, index) -> ()
          %112 = "arith.constant"() {value = 0 : index} : () -> index
          %113 = "memref.load"(%40, %112) : (memref<1xi32>, index) -> i32
          %114 = "arith.muli"(%arg43, %113) : (i32, i32) -> i32
          %115 = "arith.addi"(%arg45, %114) : (i32, i32) -> i32
          %116 = "arith.muli"(%arg42, %113) : (i32, i32) -> i32
          %117 = "arith.constant"() {value = 0 : index} : () -> index
          %118 = "memref.load"(%39, %117) : (memref<1xi32>, index) -> i32
          %119 = "arith.muli"(%116, %118) : (i32, i32) -> i32
          %120 = "arith.addi"(%115, %119) : (i32, i32) -> i32
          %121 = "arith.index_cast"(%120) : (i32) -> index
          %122 = "arith.constant"() {value = 0 : index} : () -> index
          %123 = "memref.load"(%51, %122) : (memref<1xf32>, index) -> f32
          %124 = "arith.muli"(%81, %113) : (i32, i32) -> i32
          %125 = "arith.muli"(%124, %118) : (i32, i32) -> i32
          %126 = "arith.addi"(%115, %125) : (i32, i32) -> i32
          %127 = "arith.index_cast"(%126) : (i32) -> index
          %128 = "arith.addi"(%127, %38) : (index, index) -> index
          %129 = "memref.load"(%arg33, %128) : (memref<?xf32>, index) -> f32
          %130 = "arith.addi"(%121, %38) : (index, index) -> index
          %131 = "memref.load"(%arg33, %130) : (memref<?xf32>, index) -> f32
          %132 = "arith.subf"(%129, %131) : (f32, f32) -> f32
          %133 = "arith.mulf"(%123, %132) : (f32, f32) -> f32
          %134 = "memref.load"(%arg10, %83) : (memref<?xf32>, index) -> f32
          %135 = "arith.index_cast"(%115) : (i32) -> index
          %136 = "arith.addi"(%135, %38) : (index, index) -> index
          %137 = "memref.load"(%arg4, %136) : (memref<?xf32>, index) -> f32
          %138 = "arith.mulf"(%134, %137) : (f32, f32) -> f32
          %139 = "arith.divf"(%133, %138) : (f32, f32) -> f32
          %140 = "arith.mulf"(%123, %123) : (f32, f32) -> f32
          %141 = "arith.mulf"(%140, %27) : (f32, f32) -> f32
          %142 = "memref.load"(%arg3, %128) : (memref<?xf32>, index) -> f32
          %143 = "arith.mulf"(%142, %142) : (f32, f32) -> f32
          %144 = "memref.load"(%arg3, %130) : (memref<?xf32>, index) -> f32
          %145 = "arith.mulf"(%144, %144) : (f32, f32) -> f32
          %146 = "arith.addf"(%143, %145) : (f32, f32) -> f32
          %147 = "arith.divf"(%141, %146) : (f32, f32) -> f32
          %148 = "arith.addf"(%139, %147) : (f32, f32) -> f32
          "memref.store"(%148, %arg37, %130) : (f32, memref<?xf32>, index) -> ()
          %149 = "arith.addi"(%arg45, %28) : (i32, i32) -> i32
          "scf.yield"(%149) : (i32) -> ()
        }) {arg1 = "for (int i = 0; i < im; i++) {", arg3 = "for (int i = 0; i < im; i++) {", depth = 3 : i8, induction_variable = "i", lb = 0 : i32, loop_index = 15 : i32, step = 1 : i8, ub = @im} : (i32) -> (i32, i32)
        %87 = "arith.addi"(%arg43, %28) : (i32, i32) -> i32
        "scf.yield"(%87) : (i32) -> ()
      }) {arg1 = "for (int j = 0; j < jm; j++) {", depth = 2 : i8, induction_variable = "j", lb = 0 : i32, loop_index = 16 : i32, step = 1 : i8, ub = @jm} : (i32) -> i32
      %85 = "arith.addi"(%arg42, %28) : (i32, i32) -> i32
      "scf.yield"(%85) : (i32) -> ()
    }) {arg1 = "for (int k = 1; k < kbm1; k++) {", depth = 1 : i8, induction_variable = "k", lb = 1 : i32, loop_index = 17 : i32, step = 1 : i8, ub = @kbm1} : (i32) -> i32
    %59 = "scf.while"(%28) ({
    ^bb0(%arg42: i32):
      %81 = "arith.constant"() {value = 0 : index} : () -> index
      %82 = "memref.load"(%42, %81) : (memref<1xi32>, index) -> i32
      %83 = "arith.cmpi"(%arg42, %82) {predicate = 2 : i64} : (i32, i32) -> i1
      "scf.condition"(%83, %arg42) : (i1, i32) -> ()
    }, {
    ^bb0(%arg42: i32):
      %81 = "arith.index_cast"(%arg42) : (i32) -> index
      %82 = "arith.addi"(%81, %38) : (index, index) -> index
      %83 = "scf.while"(%29) ({
      ^bb0(%arg43: i32):
        %85 = "arith.constant"() {value = 0 : index} : () -> index
        %86 = "memref.load"(%39, %85) : (memref<1xi32>, index) -> i32
        %87 = "arith.cmpi"(%arg43, %86) {predicate = 2 : i64} : (i32, i32) -> i1
        "scf.condition"(%87, %arg43) : (i1, i32) -> ()
      }, {
      ^bb0(%arg43: i32):
        %85:2 = "scf.while"(%29) ({
        ^bb0(%arg44: i32):
          %87 = "arith.constant"() {value = 0 : index} : () -> index
          %88 = "memref.load"(%40, %87) : (memref<1xi32>, index) -> i32
          %89 = "arith.cmpi"(%arg44, %88) {predicate = 2 : i64} : (i32, i32) -> i1
          "scf.condition"(%89, %88, %arg44) : (i1, i32, i32) -> ()
        }, {
        ^bb0(%arg44: i32, %arg45: i32):
          %87 = "arith.muli"(%arg43, %arg44) : (i32, i32) -> i32
          %88 = "arith.addi"(%arg45, %87) : (i32, i32) -> i32
          %89 = "arith.muli"(%arg42, %arg44) : (i32, i32) -> i32
          %90 = "arith.constant"() {value = 0 : index} : () -> index
          %91 = "memref.load"(%39, %90) : (memref<1xi32>, index) -> i32
          %92 = "arith.muli"(%89, %91) : (i32, i32) -> i32
          %93 = "arith.addi"(%88, %92) : (i32, i32) -> i32
          %94 = "arith.index_cast"(%93) : (i32) -> index
          %95 = "arith.addi"(%94, %38) : (index, index) -> index
          %96 = "memref.load"(%arg22, %95) : (memref<?xf32>, index) -> f32
          %97 = "memref.load"(%arg21, %95) : (memref<?xf32>, index) -> f32
          %98 = "arith.divf"(%96, %97) : (f32, f32) -> f32
          %99 = "math.absf"(%98) : (f32) -> f32
          "memref.store"(%99, %arg23, %95) : (f32, memref<?xf32>, index) -> ()
          %100 = "memref.load"(%arg24, %82) : (memref<?xf32>, index) -> f32
          %101 = "arith.cmpf"(%100, %16) {predicate = 2 : i64} : (f32, f32) -> i1
          "scf.if"(%101) ({
            %133 = "arith.constant"() {value = 0 : index} : () -> index
            %134 = "memref.load"(%40, %133) : (memref<1xi32>, index) -> i32
            %135 = "arith.muli"(%arg43, %134) : (i32, i32) -> i32
            %136 = "arith.addi"(%arg45, %135) : (i32, i32) -> i32
            %137 = "arith.muli"(%arg42, %134) : (i32, i32) -> i32
            %138 = "arith.constant"() {value = 0 : index} : () -> index
            %139 = "memref.load"(%39, %138) : (memref<1xi32>, index) -> i32
            %140 = "arith.muli"(%137, %139) : (i32, i32) -> i32
            %141 = "arith.addi"(%136, %140) : (i32, i32) -> i32
            %142 = "arith.index_cast"(%141) : (i32) -> index
            %143 = "arith.addi"(%142, %38) : (index, index) -> index
            %144 = "memref.load"(%arg23, %143) : (memref<?xf32>, index) -> f32
            %145 = "memref.get_global"() {name = @kappa} : () -> memref<1xf32>
            %146 = "arith.constant"() {value = 0 : index} : () -> index
            %147 = "memref.load"(%145, %146) : (memref<1xf32>, index) -> f32
            %148 = "arith.index_cast"(%136) : (i32) -> index
            %149 = "arith.addi"(%148, %38) : (index, index) -> index
            %150 = "memref.load"(%arg35, %149) : (memref<?xf32>, index) -> f32
            %151 = "arith.mulf"(%147, %150) : (f32, f32) -> f32
            %152 = "func.call"(%144, %151) {callee = @fmaxf} : (f32, f32) -> f32
            "memref.store"(%152, %arg23, %143) : (f32, memref<?xf32>, index) -> ()
            "scf.yield"() : () -> ()
          }, {
          }) : (i1) -> ()
          %102 = "arith.constant"() {value = 0 : index} : () -> index
          %103 = "memref.load"(%40, %102) : (memref<1xi32>, index) -> i32
          %104 = "arith.muli"(%arg43, %103) : (i32, i32) -> i32
          %105 = "arith.addi"(%arg45, %104) : (i32, i32) -> i32
          %106 = "arith.muli"(%arg42, %103) : (i32, i32) -> i32
          %107 = "arith.constant"() {value = 0 : index} : () -> index
          %108 = "memref.load"(%39, %107) : (memref<1xi32>, index) -> i32
          %109 = "arith.muli"(%106, %108) : (i32, i32) -> i32
          %110 = "arith.addi"(%105, %109) : (i32, i32) -> i32
          %111 = "arith.index_cast"(%110) : (i32) -> index
          %112 = "arith.addi"(%111, %38) : (index, index) -> index
          %113 = "memref.load"(%arg23, %112) : (memref<?xf32>, index) -> f32
          %114 = "arith.mulf"(%113, %113) : (f32, f32) -> f32
          %115 = "memref.load"(%arg37, %112) : (memref<?xf32>, index) -> f32
          %116 = "arith.mulf"(%114, %115) : (f32, f32) -> f32
          %117 = "memref.load"(%arg21, %112) : (memref<?xf32>, index) -> f32
          %118 = "arith.divf"(%116, %117) : (f32, f32) -> f32
          "memref.store"(%118, %arg36, %112) : (f32, memref<?xf32>, index) -> ()
          %119 = "arith.constant"() {value = 0 : index} : () -> index
          %120 = "memref.load"(%40, %119) : (memref<1xi32>, index) -> i32
          %121 = "arith.muli"(%arg43, %120) : (i32, i32) -> i32
          %122 = "arith.addi"(%arg45, %121) : (i32, i32) -> i32
          %123 = "arith.muli"(%arg42, %120) : (i32, i32) -> i32
          %124 = "arith.constant"() {value = 0 : index} : () -> index
          %125 = "memref.load"(%39, %124) : (memref<1xi32>, index) -> i32
          %126 = "arith.muli"(%123, %125) : (i32, i32) -> i32
          %127 = "arith.addi"(%122, %126) : (i32, i32) -> i32
          %128 = "arith.index_cast"(%127) : (i32) -> index
          %129 = "arith.addi"(%128, %38) : (index, index) -> index
          %130 = "memref.load"(%arg36, %129) : (memref<?xf32>, index) -> f32
          %131 = "func.call"(%130, %15) {callee = @fminf} : (f32, f32) -> f32
          "memref.store"(%131, %arg36, %129) : (f32, memref<?xf32>, index) -> ()
          %132 = "arith.addi"(%arg45, %28) : (i32, i32) -> i32
          "scf.yield"(%132) : (i32) -> ()
        }) {arg1 = "for (int i = 0; i < im; i++) {", arg3 = "for (int i = 0; i < im; i++) {", depth = 3 : i8, induction_variable = "i", lb = 0 : i32, loop_index = 18 : i32, step = 1 : i8, ub = @im} : (i32) -> (i32, i32)
        %86 = "arith.addi"(%arg43, %28) : (i32, i32) -> i32
        "scf.yield"(%86) : (i32) -> ()
      }) {arg1 = "for (int j = 0; j < jm; j++) {", depth = 2 : i8, induction_variable = "j", lb = 0 : i32, loop_index = 19 : i32, step = 1 : i8, ub = @jm} : (i32) -> i32
      %84 = "arith.addi"(%arg42, %28) : (i32, i32) -> i32
      "scf.yield"(%84) : (i32) -> ()
    }) {arg1 = "for (int k = 1; k < kbm1; k++) {", depth = 1 : i8, induction_variable = "k", lb = 1 : i32, loop_index = 20 : i32, step = 1 : i8, ub = @kbm1} : (i32) -> i32
    %60 = "memref.get_global"() {name = @kappa} : () -> memref<1xf32>
    %61 = "scf.while"(%29) ({
    ^bb0(%arg42: i32):
      %81 = "arith.constant"() {value = 0 : index} : () -> index
      %82 = "memref.load"(%39, %81) : (memref<1xi32>, index) -> i32
      %83 = "arith.cmpi"(%arg42, %82) {predicate = 2 : i64} : (i32, i32) -> i1
      "scf.condition"(%83, %arg42) : (i1, i32) -> ()
    }, {
    ^bb0(%arg42: i32):
      %81:2 = "scf.while"(%29) ({
      ^bb0(%arg43: i32):
        %83 = "arith.constant"() {value = 0 : index} : () -> index
        %84 = "memref.load"(%40, %83) : (memref<1xi32>, index) -> i32
        %85 = "arith.cmpi"(%arg43, %84) {predicate = 2 : i64} : (i32, i32) -> i1
        "scf.condition"(%85, %84, %arg43) : (i1, i32, i32) -> ()
      }, {
      ^bb0(%arg43: i32, %arg44: i32):
        %83 = "arith.muli"(%arg42, %arg43) : (i32, i32) -> i32
        %84 = "arith.addi"(%arg44, %83) : (i32, i32) -> i32
        %85 = "arith.muli"(%29, %arg43) : (i32, i32) -> i32
        %86 = "arith.constant"() {value = 0 : index} : () -> index
        %87 = "memref.load"(%39, %86) : (memref<1xi32>, index) -> i32
        %88 = "arith.muli"(%85, %87) : (i32, i32) -> i32
        %89 = "arith.addi"(%84, %88) : (i32, i32) -> i32
        %90 = "arith.index_cast"(%89) : (i32) -> index
        %91 = "arith.constant"() {value = 0 : index} : () -> index
        %92 = "memref.load"(%60, %91) : (memref<1xf32>, index) -> f32
        %93 = "arith.index_cast"(%84) : (i32) -> index
        %94 = "arith.addi"(%93, %38) : (index, index) -> index
        %95 = "memref.load"(%arg35, %94) : (memref<?xf32>, index) -> f32
        %96 = "arith.mulf"(%92, %95) : (f32, f32) -> f32
        %97 = "arith.addi"(%90, %38) : (index, index) -> index
        "memref.store"(%96, %arg23, %97) : (f32, memref<?xf32>, index) -> ()
        %98 = "arith.constant"() {value = 0 : index} : () -> index
        %99 = "memref.load"(%40, %98) : (memref<1xi32>, index) -> i32
        %100 = "arith.muli"(%arg42, %99) : (i32, i32) -> i32
        %101 = "arith.addi"(%arg44, %100) : (i32, i32) -> i32
        %102 = "arith.constant"() {value = 0 : index} : () -> index
        %103 = "memref.load"(%52, %102) : (memref<1xi32>, index) -> i32
        %104 = "arith.addi"(%103, %0) : (i32, i32) -> i32
        %105 = "arith.muli"(%104, %99) : (i32, i32) -> i32
        %106 = "arith.constant"() {value = 0 : index} : () -> index
        %107 = "memref.load"(%39, %106) : (memref<1xi32>, index) -> i32
        %108 = "arith.muli"(%105, %107) : (i32, i32) -> i32
        %109 = "arith.addi"(%101, %108) : (i32, i32) -> i32
        %110 = "arith.index_cast"(%109) : (i32) -> index
        %111 = "arith.addi"(%110, %38) : (index, index) -> index
        "memref.store"(%30, %arg23, %111) : (f32, memref<?xf32>, index) -> ()
        %112 = "arith.constant"() {value = 0 : index} : () -> index
        %113 = "memref.load"(%40, %112) : (memref<1xi32>, index) -> i32
        %114 = "arith.muli"(%arg42, %113) : (i32, i32) -> i32
        %115 = "arith.addi"(%arg44, %114) : (i32, i32) -> i32
        %116 = "arith.muli"(%29, %113) : (i32, i32) -> i32
        %117 = "arith.constant"() {value = 0 : index} : () -> index
        %118 = "memref.load"(%39, %117) : (memref<1xi32>, index) -> i32
        %119 = "arith.muli"(%116, %118) : (i32, i32) -> i32
        %120 = "arith.addi"(%115, %119) : (i32, i32) -> i32
        %121 = "arith.index_cast"(%120) : (i32) -> index
        %122 = "arith.addi"(%121, %38) : (index, index) -> index
        "memref.store"(%30, %arg36, %122) : (f32, memref<?xf32>, index) -> ()
        %123 = "arith.constant"() {value = 0 : index} : () -> index
        %124 = "memref.load"(%40, %123) : (memref<1xi32>, index) -> i32
        %125 = "arith.muli"(%arg42, %124) : (i32, i32) -> i32
        %126 = "arith.addi"(%arg44, %125) : (i32, i32) -> i32
        %127 = "arith.constant"() {value = 0 : index} : () -> index
        %128 = "memref.load"(%52, %127) : (memref<1xi32>, index) -> i32
        %129 = "arith.addi"(%128, %0) : (i32, i32) -> i32
        %130 = "arith.muli"(%129, %124) : (i32, i32) -> i32
        %131 = "arith.constant"() {value = 0 : index} : () -> index
        %132 = "memref.load"(%39, %131) : (memref<1xi32>, index) -> i32
        %133 = "arith.muli"(%130, %132) : (i32, i32) -> i32
        %134 = "arith.addi"(%126, %133) : (i32, i32) -> i32
        %135 = "arith.index_cast"(%134) : (i32) -> index
        %136 = "arith.addi"(%135, %38) : (index, index) -> index
        "memref.store"(%30, %arg36, %136) : (f32, memref<?xf32>, index) -> ()
        %137 = "arith.addi"(%arg44, %28) : (i32, i32) -> i32
        "scf.yield"(%137) : (i32) -> ()
      }) {arg1 = "for (int i = 0; i < im; i++) {", arg3 = "for (int i = 0; i < im; i++) {", depth = 2 : i8, induction_variable = "i", lb = 0 : i32, loop_index = 21 : i32, step = 1 : i8, ub = @im} : (i32) -> (i32, i32)
      %82 = "arith.addi"(%arg42, %28) : (i32, i32) -> i32
      "scf.yield"(%82) : (i32) -> ()
    }) {arg1 = "for (int j = 0; j < jm; j++) {", depth = 1 : i8, induction_variable = "j", lb = 0 : i32, loop_index = 22 : i32, step = 1 : i8, ub = @jm} : (i32) -> i32
    %62 = "scf.while"(%28) ({
    ^bb0(%arg42: i32):
      %81 = "arith.constant"() {value = 0 : index} : () -> index
      %82 = "memref.load"(%42, %81) : (memref<1xi32>, index) -> i32
      %83 = "arith.cmpi"(%arg42, %82) {predicate = 2 : i64} : (i32, i32) -> i1
      "scf.condition"(%83, %arg42) : (i1, i32) -> ()
    }, {
    ^bb0(%arg42: i32):
      %81 = "arith.addi"(%arg42, %0) : (i32, i32) -> i32
      %82 = "arith.index_cast"(%81) : (i32) -> index
      %83 = "arith.addi"(%82, %38) : (index, index) -> index
      %84 = "scf.while"(%28) ({
      ^bb0(%arg43: i32):
        %86 = "arith.constant"() {value = 0 : index} : () -> index
        %87 = "memref.load"(%49, %86) : (memref<1xi32>, index) -> i32
        %88 = "arith.cmpi"(%arg43, %87) {predicate = 2 : i64} : (i32, i32) -> i1
        "scf.condition"(%88, %arg43) : (i1, i32) -> ()
      }, {
      ^bb0(%arg43: i32):
        %86 = "arith.addi"(%arg43, %28) : (i32, i32) -> i32
        %87 = "scf.while"(%28) ({
        ^bb0(%arg44: i32):
          %88 = "arith.constant"() {value = 0 : index} : () -> index
          %89 = "memref.load"(%50, %88) : (memref<1xi32>, index) -> i32
          %90 = "arith.cmpi"(%arg44, %89) {predicate = 2 : i64} : (i32, i32) -> i1
          "scf.condition"(%90, %arg44) : (i1, i32) -> ()
        }, {
        ^bb0(%arg44: i32):
          %88 = "arith.constant"() {value = 0 : index} : () -> index
          %89 = "memref.load"(%40, %88) : (memref<1xi32>, index) -> i32
          %90 = "arith.muli"(%arg43, %89) : (i32, i32) -> i32
          %91 = "arith.addi"(%arg44, %90) : (i32, i32) -> i32
          %92 = "arith.muli"(%arg42, %89) : (i32, i32) -> i32
          %93 = "arith.constant"() {value = 0 : index} : () -> index
          %94 = "memref.load"(%39, %93) : (memref<1xi32>, index) -> i32
          %95 = "arith.muli"(%92, %94) : (i32, i32) -> i32
          %96 = "arith.addi"(%91, %95) : (i32, i32) -> i32
          %97 = "arith.index_cast"(%96) : (i32) -> index
          %98 = "arith.addi"(%97, %38) : (index, index) -> index
          %99 = "memref.load"(%arg25, %98) : (memref<?xf32>, index) -> f32
          %100 = "arith.mulf"(%99, %14) : (f32, f32) -> f32
          %101 = "memref.load"(%arg26, %98) : (memref<?xf32>, index) -> f32
          %102 = "arith.muli"(%81, %89) : (i32, i32) -> i32
          %103 = "arith.muli"(%102, %94) : (i32, i32) -> i32
          %104 = "arith.addi"(%91, %103) : (i32, i32) -> i32
          %105 = "arith.index_cast"(%104) : (i32) -> index
          %106 = "arith.addi"(%105, %38) : (index, index) -> index
          %107 = "memref.load"(%arg26, %106) : (memref<?xf32>, index) -> f32
          %108 = "arith.subf"(%101, %107) : (f32, f32) -> f32
          %109 = "arith.addi"(%arg44, %28) : (i32, i32) -> i32
          %110 = "arith.addi"(%109, %90) : (i32, i32) -> i32
          %111 = "arith.addi"(%110, %95) : (i32, i32) -> i32
          %112 = "arith.index_cast"(%111) : (i32) -> index
          %113 = "arith.addi"(%112, %38) : (index, index) -> index
          %114 = "memref.load"(%arg26, %113) : (memref<?xf32>, index) -> f32
          %115 = "arith.addf"(%108, %114) : (f32, f32) -> f32
          %116 = "arith.addi"(%110, %103) : (i32, i32) -> i32
          %117 = "arith.index_cast"(%116) : (i32) -> index
          %118 = "arith.addi"(%117, %38) : (index, index) -> index
          %119 = "memref.load"(%arg26, %118) : (memref<?xf32>, index) -> f32
          %120 = "arith.subf"(%115, %119) : (f32, f32) -> f32
          %121 = "arith.mulf"(%120, %120) : (f32, f32) -> f32
          %122 = "memref.load"(%arg27, %98) : (memref<?xf32>, index) -> f32
          %123 = "memref.load"(%arg27, %106) : (memref<?xf32>, index) -> f32
          %124 = "arith.subf"(%122, %123) : (f32, f32) -> f32
          %125 = "arith.muli"(%86, %89) : (i32, i32) -> i32
          %126 = "arith.addi"(%arg44, %125) : (i32, i32) -> i32
          %127 = "arith.addi"(%126, %95) : (i32, i32) -> i32
          %128 = "arith.index_cast"(%127) : (i32) -> index
          %129 = "arith.addi"(%128, %38) : (index, index) -> index
          %130 = "memref.load"(%arg27, %129) : (memref<?xf32>, index) -> f32
          %131 = "arith.addf"(%124, %130) : (f32, f32) -> f32
          %132 = "arith.addi"(%126, %103) : (i32, i32) -> i32
          %133 = "arith.index_cast"(%132) : (i32) -> index
          %134 = "arith.addi"(%133, %38) : (index, index) -> index
          %135 = "memref.load"(%arg27, %134) : (memref<?xf32>, index) -> f32
          %136 = "arith.subf"(%131, %135) : (f32, f32) -> f32
          %137 = "arith.mulf"(%136, %136) : (f32, f32) -> f32
          %138 = "arith.addf"(%121, %137) : (f32, f32) -> f32
          %139 = "arith.mulf"(%100, %138) : (f32, f32) -> f32
          %140 = "memref.load"(%arg10, %83) : (memref<?xf32>, index) -> f32
          %141 = "arith.index_cast"(%91) : (i32) -> index
          %142 = "arith.addi"(%141, %38) : (index, index) -> index
          %143 = "memref.load"(%arg2, %142) : (memref<?xf32>, index) -> f32
          %144 = "arith.mulf"(%140, %143) : (f32, f32) -> f32
          %145 = "arith.mulf"(%144, %144) : (f32, f32) -> f32
          %146 = "arith.divf"(%139, %145) : (f32, f32) -> f32
          %147 = "arith.mulf"(%99, %30) : (f32, f32) -> f32
          %148 = "memref.load"(%arg37, %98) : (memref<?xf32>, index) -> f32
          %149 = "arith.mulf"(%147, %148) : (f32, f32) -> f32
          %150 = "arith.subf"(%146, %149) : (f32, f32) -> f32
          "memref.store"(%150, %arg39, %98) : (f32, memref<?xf32>, index) -> ()
          %151 = "arith.constant"() {value = 0 : index} : () -> index
          %152 = "memref.load"(%40, %151) : (memref<1xi32>, index) -> i32
          %153 = "arith.muli"(%arg43, %152) : (i32, i32) -> i32
          %154 = "arith.addi"(%arg44, %153) : (i32, i32) -> i32
          %155 = "arith.muli"(%arg42, %152) : (i32, i32) -> i32
          %156 = "arith.constant"() {value = 0 : index} : () -> index
          %157 = "memref.load"(%39, %156) : (memref<1xi32>, index) -> i32
          %158 = "arith.muli"(%155, %157) : (i32, i32) -> i32
          %159 = "arith.addi"(%154, %158) : (i32, i32) -> i32
          %160 = "arith.index_cast"(%159) : (i32) -> index
          %161 = "arith.addi"(%160, %38) : (index, index) -> index
          %162 = "memref.load"(%arg39, %161) : (memref<?xf32>, index) -> f32
          %163 = "memref.load"(%arg28, %161) : (memref<?xf32>, index) -> f32
          %164 = "memref.load"(%arg37, %161) : (memref<?xf32>, index) -> f32
          %165 = "arith.mulf"(%163, %164) : (f32, f32) -> f32
          %166 = "arith.addf"(%162, %165) : (f32, f32) -> f32
          "memref.store"(%166, %arg39, %161) : (f32, memref<?xf32>, index) -> ()
          "scf.yield"(%109) : (i32) -> ()
        }) {arg1 = "for (int i = 1; i < imm1; i++) {", depth = 3 : i8, induction_variable = "i", lb = 1 : i32, loop_index = 23 : i32, step = 1 : i8, ub = @imm1} : (i32) -> i32
        "scf.yield"(%86) : (i32) -> ()
      }) {arg1 = "for (int j = 1; j < jmm1; j++) {", depth = 2 : i8, induction_variable = "j", lb = 1 : i32, loop_index = 24 : i32, step = 1 : i8, ub = @jmm1} : (i32) -> i32
      %85 = "arith.addi"(%arg42, %28) : (i32, i32) -> i32
      "scf.yield"(%85) : (i32) -> ()
    }) {arg1 = "for (int k = 1; k < kbm1; k++) {", depth = 1 : i8, induction_variable = "k", lb = 1 : i32, loop_index = 25 : i32, step = 1 : i8, ub = @kbm1} : (i32) -> i32
    %63 = "memref.get_global"() {name = @small} : () -> memref<1xf32>
    %64 = "scf.while"(%29) ({
    ^bb0(%arg42: i32):
      %81 = "arith.constant"() {value = 0 : index} : () -> index
      %82 = "memref.load"(%52, %81) : (memref<1xi32>, index) -> i32
      %83 = "arith.cmpi"(%arg42, %82) {predicate = 2 : i64} : (i32, i32) -> i1
      "scf.condition"(%83, %arg42) : (i1, i32) -> ()
    }, {
    ^bb0(%arg42: i32):
      %81 = "scf.while"(%29) ({
      ^bb0(%arg43: i32):
        %83 = "arith.constant"() {value = 0 : index} : () -> index
        %84 = "memref.load"(%39, %83) : (memref<1xi32>, index) -> i32
        %85 = "arith.cmpi"(%arg43, %84) {predicate = 2 : i64} : (i32, i32) -> i1
        "scf.condition"(%85, %arg43) : (i1, i32) -> ()
      }, {
      ^bb0(%arg43: i32):
        %83:2 = "scf.while"(%29) ({
        ^bb0(%arg44: i32):
          %85 = "arith.constant"() {value = 0 : index} : () -> index
          %86 = "memref.load"(%40, %85) : (memref<1xi32>, index) -> i32
          %87 = "arith.cmpi"(%arg44, %86) {predicate = 2 : i64} : (i32, i32) -> i1
          "scf.condition"(%87, %86, %arg44) : (i1, i32, i32) -> ()
        }, {
        ^bb0(%arg44: i32, %arg45: i32):
          %85 = "arith.muli"(%arg43, %arg44) : (i32, i32) -> i32
          %86 = "arith.addi"(%arg45, %85) : (i32, i32) -> i32
          %87 = "arith.muli"(%arg42, %arg44) : (i32, i32) -> i32
          %88 = "arith.constant"() {value = 0 : index} : () -> index
          %89 = "memref.load"(%39, %88) : (memref<1xi32>, index) -> i32
          %90 = "arith.muli"(%87, %89) : (i32, i32) -> i32
          %91 = "arith.addi"(%86, %90) : (i32, i32) -> i32
          %92 = "arith.index_cast"(%91) : (i32) -> index
          %93 = "arith.addi"(%92, %38) : (index, index) -> index
          "memref.store"(%32, %arg38, %93) : (f32, memref<?xf32>, index) -> ()
          %94 = "arith.constant"() {value = 0 : index} : () -> index
          %95 = "memref.load"(%40, %94) : (memref<1xi32>, index) -> i32
          %96 = "arith.muli"(%arg43, %95) : (i32, i32) -> i32
          %97 = "arith.addi"(%arg45, %96) : (i32, i32) -> i32
          %98 = "arith.muli"(%arg42, %95) : (i32, i32) -> i32
          %99 = "arith.constant"() {value = 0 : index} : () -> index
          %100 = "memref.load"(%39, %99) : (memref<1xi32>, index) -> i32
          %101 = "arith.muli"(%98, %100) : (i32, i32) -> i32
          %102 = "arith.addi"(%97, %101) : (i32, i32) -> i32
          %103 = "arith.index_cast"(%102) : (i32) -> index
          %104 = "arith.addi"(%103, %38) : (index, index) -> index
          %105 = "memref.load"(%arg21, %104) : (memref<?xf32>, index) -> f32
          %106 = "math.absf"(%105) : (f32) -> f32
          %107 = "math.sqrt"(%106) : (f32) -> f32
          %108 = "memref.load"(%arg38, %104) : (memref<?xf32>, index) -> f32
          %109 = "arith.mulf"(%107, %108) : (f32, f32) -> f32
          %110 = "memref.load"(%arg23, %104) : (memref<?xf32>, index) -> f32
          %111 = "arith.mulf"(%110, %35) : (f32, f32) -> f32
          %112 = "arith.constant"() {value = 0 : index} : () -> index
          %113 = "memref.load"(%63, %112) : (memref<1xf32>, index) -> f32
          %114 = "arith.addf"(%111, %113) : (f32, f32) -> f32
          %115 = "arith.divf"(%109, %114) : (f32, f32) -> f32
          "memref.store"(%115, %arg34, %104) : (f32, memref<?xf32>, index) -> ()
          %116 = "arith.addi"(%arg45, %28) : (i32, i32) -> i32
          "scf.yield"(%116) : (i32) -> ()
        }) {arg1 = "for (int i = 0; i < im; i++) {", arg3 = "for (int i = 0; i < im; i++) {", depth = 3 : i8, induction_variable = "i", lb = 0 : i32, loop_index = 26 : i32, step = 1 : i8, ub = @im} : (i32) -> (i32, i32)
        %84 = "arith.addi"(%arg43, %28) : (i32, i32) -> i32
        "scf.yield"(%84) : (i32) -> ()
      }) {arg1 = "for (int j = 0; j < jm; j++) {", depth = 2 : i8, induction_variable = "j", lb = 0 : i32, loop_index = 27 : i32, step = 1 : i8, ub = @jm} : (i32) -> i32
      %82 = "arith.addi"(%arg42, %28) : (i32, i32) -> i32
      "scf.yield"(%82) : (i32) -> ()
    }) {arg1 = "for (int k = 0; k < kb; k++) {", depth = 1 : i8, induction_variable = "k", lb = 0 : i32, loop_index = 28 : i32, step = 1 : i8, ub = @kb} : (i32) -> i32
    %65 = "scf.while"(%28) ({
    ^bb0(%arg42: i32):
      %81 = "arith.constant"() {value = 0 : index} : () -> index
      %82 = "memref.load"(%42, %81) : (memref<1xi32>, index) -> i32
      %83 = "arith.cmpi"(%arg42, %82) {predicate = 2 : i64} : (i32, i32) -> i1
      "scf.condition"(%83, %arg42) : (i1, i32) -> ()
    }, {
    ^bb0(%arg42: i32):
      %81 = "arith.addi"(%arg42, %0) : (i32, i32) -> i32
      %82 = "scf.while"(%29) ({
      ^bb0(%arg43: i32):
        %84 = "arith.constant"() {value = 0 : index} : () -> index
        %85 = "memref.load"(%39, %84) : (memref<1xi32>, index) -> i32
        %86 = "arith.cmpi"(%arg43, %85) {predicate = 2 : i64} : (i32, i32) -> i1
        "scf.condition"(%86, %arg43) : (i1, i32) -> ()
      }, {
      ^bb0(%arg43: i32):
        %84:2 = "scf.while"(%29) ({
        ^bb0(%arg44: i32):
          %86 = "arith.constant"() {value = 0 : index} : () -> index
          %87 = "memref.load"(%40, %86) : (memref<1xi32>, index) -> i32
          %88 = "arith.cmpi"(%arg44, %87) {predicate = 2 : i64} : (i32, i32) -> i1
          "scf.condition"(%88, %87, %arg44) : (i1, i32, i32) -> ()
        }, {
        ^bb0(%arg44: i32, %arg45: i32):
          %86 = "arith.muli"(%arg43, %arg44) : (i32, i32) -> i32
          %87 = "arith.addi"(%arg45, %86) : (i32, i32) -> i32
          %88 = "arith.muli"(%arg42, %arg44) : (i32, i32) -> i32
          %89 = "arith.constant"() {value = 0 : index} : () -> index
          %90 = "memref.load"(%39, %89) : (memref<1xi32>, index) -> i32
          %91 = "arith.muli"(%88, %90) : (i32, i32) -> i32
          %92 = "arith.addi"(%87, %91) : (i32, i32) -> i32
          %93 = "arith.index_cast"(%92) : (i32) -> index
          %94 = "arith.addi"(%93, %38) : (index, index) -> index
          %95 = "memref.load"(%arg6, %94) : (memref<?xf32>, index) -> f32
          %96 = "memref.load"(%arg7, %94) : (memref<?xf32>, index) -> f32
          %97 = "arith.muli"(%81, %arg44) : (i32, i32) -> i32
          %98 = "arith.muli"(%97, %90) : (i32, i32) -> i32
          %99 = "arith.addi"(%87, %98) : (i32, i32) -> i32
          %100 = "arith.index_cast"(%99) : (i32) -> index
          %101 = "arith.addi"(%100, %38) : (index, index) -> index
          %102 = "memref.load"(%arg11, %101) : (memref<?xf32>, index) -> f32
          %103 = "arith.subf"(%32, %102) : (f32, f32) -> f32
          %104 = "arith.mulf"(%96, %103) : (f32, f32) -> f32
          %105 = "arith.addf"(%95, %104) : (f32, f32) -> f32
          %106 = "arith.constant"() {value = 0 : index} : () -> index
          %107 = "memref.load"(%43, %106) : (memref<1xf32>, index) -> f32
          %108 = "arith.mulf"(%107, %27) : (f32, f32) -> f32
          %109 = "memref.load"(%arg34, %94) : (memref<?xf32>, index) -> f32
          %110 = "arith.mulf"(%108, %109) : (f32, f32) -> f32
          %111 = "arith.addf"(%110, %32) : (f32, f32) -> f32
          %112 = "arith.subf"(%105, %111) : (f32, f32) -> f32
          %113 = "arith.divf"(%32, %112) : (f32, f32) -> f32
          "memref.store"(%113, %arg12, %94) : (f32, memref<?xf32>, index) -> ()
          %114 = "arith.constant"() {value = 0 : index} : () -> index
          %115 = "memref.load"(%40, %114) : (memref<1xi32>, index) -> i32
          %116 = "arith.muli"(%arg43, %115) : (i32, i32) -> i32
          %117 = "arith.addi"(%arg45, %116) : (i32, i32) -> i32
          %118 = "arith.muli"(%arg42, %115) : (i32, i32) -> i32
          %119 = "arith.constant"() {value = 0 : index} : () -> index
          %120 = "memref.load"(%39, %119) : (memref<1xi32>, index) -> i32
          %121 = "arith.muli"(%118, %120) : (i32, i32) -> i32
          %122 = "arith.addi"(%117, %121) : (i32, i32) -> i32
          %123 = "arith.index_cast"(%122) : (i32) -> index
          %124 = "arith.addi"(%123, %38) : (index, index) -> index
          %125 = "memref.load"(%arg6, %124) : (memref<?xf32>, index) -> f32
          %126 = "memref.load"(%arg12, %124) : (memref<?xf32>, index) -> f32
          %127 = "arith.mulf"(%125, %126) : (f32, f32) -> f32
          "memref.store"(%127, %arg11, %124) : (f32, memref<?xf32>, index) -> ()
          %128 = "arith.constant"() {value = 0 : index} : () -> index
          %129 = "memref.load"(%40, %128) : (memref<1xi32>, index) -> i32
          %130 = "arith.muli"(%arg43, %129) : (i32, i32) -> i32
          %131 = "arith.addi"(%arg45, %130) : (i32, i32) -> i32
          %132 = "arith.muli"(%arg42, %129) : (i32, i32) -> i32
          %133 = "arith.constant"() {value = 0 : index} : () -> index
          %134 = "memref.load"(%39, %133) : (memref<1xi32>, index) -> i32
          %135 = "arith.muli"(%132, %134) : (i32, i32) -> i32
          %136 = "arith.addi"(%131, %135) : (i32, i32) -> i32
          %137 = "arith.index_cast"(%136) : (i32) -> index
          %138 = "arith.constant"() {value = 0 : index} : () -> index
          %139 = "memref.load"(%43, %138) : (memref<1xf32>, index) -> f32
          %140 = "arith.mulf"(%139, %13) : (f32, f32) -> f32
          %141 = "arith.addi"(%137, %38) : (index, index) -> index
          %142 = "memref.load"(%arg39, %141) : (memref<?xf32>, index) -> f32
          %143 = "arith.mulf"(%140, %142) : (f32, f32) -> f32
          %144 = "memref.load"(%arg7, %141) : (memref<?xf32>, index) -> f32
          %145 = "arith.muli"(%81, %129) : (i32, i32) -> i32
          %146 = "arith.muli"(%145, %134) : (i32, i32) -> i32
          %147 = "arith.addi"(%131, %146) : (i32, i32) -> i32
          %148 = "arith.index_cast"(%147) : (i32) -> index
          %149 = "arith.addi"(%148, %38) : (index, index) -> index
          %150 = "memref.load"(%arg12, %149) : (memref<?xf32>, index) -> f32
          %151 = "arith.mulf"(%144, %150) : (f32, f32) -> f32
          %152 = "arith.addf"(%143, %151) : (f32, f32) -> f32
          %153 = "memref.load"(%arg15, %141) : (memref<?xf32>, index) -> f32
          %154 = "arith.subf"(%152, %153) : (f32, f32) -> f32
          %155 = "memref.load"(%arg12, %141) : (memref<?xf32>, index) -> f32
          %156 = "arith.mulf"(%154, %155) : (f32, f32) -> f32
          "memref.store"(%156, %arg12, %141) : (f32, memref<?xf32>, index) -> ()
          %157 = "arith.addi"(%arg45, %28) : (i32, i32) -> i32
          "scf.yield"(%157) : (i32) -> ()
        }) {arg1 = "for (int i = 0; i < im; i++) {", arg3 = "for (int i = 0; i < im; i++) {", depth = 3 : i8, induction_variable = "i", lb = 0 : i32, loop_index = 29 : i32, step = 1 : i8, ub = @im} : (i32) -> (i32, i32)
        %85 = "arith.addi"(%arg43, %28) : (i32, i32) -> i32
        "scf.yield"(%85) : (i32) -> ()
      }) {arg1 = "for (int j = 0; j < jm; j++) {", depth = 2 : i8, induction_variable = "j", lb = 0 : i32, loop_index = 30 : i32, step = 1 : i8, ub = @jm} : (i32) -> i32
      %83 = "arith.addi"(%arg42, %28) : (i32, i32) -> i32
      "scf.yield"(%83) : (i32) -> ()
    }) {arg1 = "for (int k = 1; k < kbm1; k++) {", depth = 1 : i8, induction_variable = "k", lb = 1 : i32, loop_index = 31 : i32, step = 1 : i8, ub = @kbm1} : (i32) -> i32
    %66 = "arith.constant"() {value = 0 : index} : () -> index
    %67 = "memref.load"(%52, %66) : (memref<1xi32>, index) -> i32
    %68 = "arith.addi"(%67, %0) : (i32, i32) -> i32
    %69 = "scf.while"(%68) ({
    ^bb0(%arg42: i32):
      %81 = "arith.cmpi"(%arg42, %29) {predicate = 5 : i64} : (i32, i32) -> i1
      "scf.condition"(%81, %arg42) : (i1, i32) -> ()
    }, {
    ^bb0(%arg42: i32):
      %81 = "arith.addi"(%arg42, %28) : (i32, i32) -> i32
      %82 = "scf.while"(%29) ({
      ^bb0(%arg43: i32):
        %84 = "arith.constant"() {value = 0 : index} : () -> index
        %85 = "memref.load"(%39, %84) : (memref<1xi32>, index) -> i32
        %86 = "arith.cmpi"(%arg43, %85) {predicate = 2 : i64} : (i32, i32) -> i1
        "scf.condition"(%86, %arg43) : (i1, i32) -> ()
      }, {
      ^bb0(%arg43: i32):
        %84:2 = "scf.while"(%29) ({
        ^bb0(%arg44: i32):
          %86 = "arith.constant"() {value = 0 : index} : () -> index
          %87 = "memref.load"(%40, %86) : (memref<1xi32>, index) -> i32
          %88 = "arith.cmpi"(%arg44, %87) {predicate = 2 : i64} : (i32, i32) -> i1
          "scf.condition"(%88, %87, %arg44) : (i1, i32, i32) -> ()
        }, {
        ^bb0(%arg44: i32, %arg45: i32):
          %86 = "arith.muli"(%arg43, %arg44) : (i32, i32) -> i32
          %87 = "arith.addi"(%arg45, %86) : (i32, i32) -> i32
          %88 = "arith.muli"(%arg42, %arg44) : (i32, i32) -> i32
          %89 = "arith.constant"() {value = 0 : index} : () -> index
          %90 = "memref.load"(%39, %89) : (memref<1xi32>, index) -> i32
          %91 = "arith.muli"(%88, %90) : (i32, i32) -> i32
          %92 = "arith.addi"(%87, %91) : (i32, i32) -> i32
          %93 = "arith.index_cast"(%92) : (i32) -> index
          %94 = "arith.addi"(%93, %38) : (index, index) -> index
          %95 = "memref.load"(%arg11, %94) : (memref<?xf32>, index) -> f32
          %96 = "arith.muli"(%81, %arg44) : (i32, i32) -> i32
          %97 = "arith.muli"(%96, %90) : (i32, i32) -> i32
          %98 = "arith.addi"(%87, %97) : (i32, i32) -> i32
          %99 = "arith.index_cast"(%98) : (i32) -> index
          %100 = "arith.addi"(%99, %38) : (index, index) -> index
          %101 = "memref.load"(%arg15, %100) : (memref<?xf32>, index) -> f32
          %102 = "arith.mulf"(%95, %101) : (f32, f32) -> f32
          %103 = "memref.load"(%arg12, %94) : (memref<?xf32>, index) -> f32
          %104 = "arith.addf"(%102, %103) : (f32, f32) -> f32
          "memref.store"(%104, %arg15, %94) : (f32, memref<?xf32>, index) -> ()
          %105 = "arith.addi"(%arg45, %28) : (i32, i32) -> i32
          "scf.yield"(%105) : (i32) -> ()
        }) {arg1 = "for (int i = 0; i < im; i++) {", arg3 = "for (int i = 0; i < im; i++) {", depth = 3 : i8, induction_variable = "i", lb = 0 : i32, loop_index = 32 : i32, step = 1 : i8, ub = @im} : (i32) -> (i32, i32)
        %85 = "arith.addi"(%arg43, %28) : (i32, i32) -> i32
        "scf.yield"(%85) : (i32) -> ()
      }) {arg1 = "for (int j = 0; j < jm; j++) {", depth = 2 : i8, induction_variable = "j", lb = 0 : i32, loop_index = 33 : i32, step = 1 : i8, ub = @jm} : (i32) -> i32
      %83 = "arith.addi"(%arg42, %0) : (i32, i32) -> i32
      "scf.yield"(%83) : (i32) -> ()
    }) {arg1 = "for (int k = kb - 1; k >= 0; k--) {", depth = 1 : i8, induction_variable = "k", lb = "kb-1", loop_index = 34 : i32, step = 1 : i8, ub = 0 : i32} : (i32) -> i32
    %70 = "scf.while"(%29) ({
    ^bb0(%arg42: i32):
      %81 = "arith.constant"() {value = 0 : index} : () -> index
      %82 = "memref.load"(%39, %81) : (memref<1xi32>, index) -> i32
      %83 = "arith.cmpi"(%arg42, %82) {predicate = 2 : i64} : (i32, i32) -> i1
      "scf.condition"(%83, %arg42) : (i1, i32) -> ()
    }, {
    ^bb0(%arg42: i32):
      %81:2 = "scf.while"(%29) ({
      ^bb0(%arg43: i32):
        %83 = "arith.constant"() {value = 0 : index} : () -> index
        %84 = "memref.load"(%40, %83) : (memref<1xi32>, index) -> i32
        %85 = "arith.cmpi"(%arg43, %84) {predicate = 2 : i64} : (i32, i32) -> i1
        "scf.condition"(%85, %84, %arg43) : (i1, i32, i32) -> ()
      }, {
      ^bb0(%arg43: i32, %arg44: i32):
        %83 = "arith.muli"(%arg42, %arg43) : (i32, i32) -> i32
        %84 = "arith.addi"(%arg44, %83) : (i32, i32) -> i32
        %85 = "arith.muli"(%28, %arg43) : (i32, i32) -> i32
        %86 = "arith.constant"() {value = 0 : index} : () -> index
        %87 = "memref.load"(%39, %86) : (memref<1xi32>, index) -> i32
        %88 = "arith.muli"(%85, %87) : (i32, i32) -> i32
        %89 = "arith.addi"(%84, %88) : (i32, i32) -> i32
        %90 = "arith.index_cast"(%89) : (i32) -> index
        %91 = "arith.addi"(%90, %38) : (index, index) -> index
        "memref.store"(%30, %arg11, %91) : (f32, memref<?xf32>, index) -> ()
        %92 = "arith.constant"() {value = 0 : index} : () -> index
        %93 = "memref.load"(%40, %92) : (memref<1xi32>, index) -> i32
        %94 = "arith.muli"(%arg42, %93) : (i32, i32) -> i32
        %95 = "arith.addi"(%arg44, %94) : (i32, i32) -> i32
        %96 = "arith.muli"(%28, %93) : (i32, i32) -> i32
        %97 = "arith.constant"() {value = 0 : index} : () -> index
        %98 = "memref.load"(%39, %97) : (memref<1xi32>, index) -> i32
        %99 = "arith.muli"(%96, %98) : (i32, i32) -> i32
        %100 = "arith.addi"(%95, %99) : (i32, i32) -> i32
        %101 = "arith.index_cast"(%100) : (i32) -> index
        %102 = "arith.addi"(%101, %38) : (index, index) -> index
        "memref.store"(%30, %arg12, %102) : (f32, memref<?xf32>, index) -> ()
        %103 = "arith.constant"() {value = 0 : index} : () -> index
        %104 = "memref.load"(%40, %103) : (memref<1xi32>, index) -> i32
        %105 = "arith.muli"(%arg42, %104) : (i32, i32) -> i32
        %106 = "arith.addi"(%arg44, %105) : (i32, i32) -> i32
        %107 = "arith.constant"() {value = 0 : index} : () -> index
        %108 = "memref.load"(%52, %107) : (memref<1xi32>, index) -> i32
        %109 = "arith.addi"(%108, %0) : (i32, i32) -> i32
        %110 = "arith.muli"(%109, %104) : (i32, i32) -> i32
        %111 = "arith.constant"() {value = 0 : index} : () -> index
        %112 = "memref.load"(%39, %111) : (memref<1xi32>, index) -> i32
        %113 = "arith.muli"(%110, %112) : (i32, i32) -> i32
        %114 = "arith.addi"(%106, %113) : (i32, i32) -> i32
        %115 = "arith.index_cast"(%114) : (i32) -> index
        %116 = "arith.addi"(%115, %38) : (index, index) -> index
        "memref.store"(%30, %arg29, %116) : (f32, memref<?xf32>, index) -> ()
        %117 = "arith.addi"(%arg44, %28) : (i32, i32) -> i32
        "scf.yield"(%117) : (i32) -> ()
      }) {arg1 = "for (int i = 0; i < im; i++) {", arg3 = "for (int i = 0; i < im; i++) {", depth = 2 : i8, induction_variable = "i", lb = 0 : i32, loop_index = 35 : i32, step = 1 : i8, ub = @im} : (i32) -> (i32, i32)
      %82 = "arith.addi"(%arg42, %28) : (i32, i32) -> i32
      "scf.yield"(%82) : (i32) -> ()
    }) {arg1 = "for (int j = 0; j < jm; j++) {", depth = 1 : i8, induction_variable = "j", lb = 0 : i32, loop_index = 36 : i32, step = 1 : i8, ub = @jm} : (i32) -> i32
    %71 = "scf.while"(%28) ({
    ^bb0(%arg42: i32):
      %81 = "arith.constant"() {value = 0 : index} : () -> index
      %82 = "memref.load"(%42, %81) : (memref<1xi32>, index) -> i32
      %83 = "arith.cmpi"(%arg42, %82) {predicate = 2 : i64} : (i32, i32) -> i1
      "scf.condition"(%83, %arg42) : (i1, i32) -> ()
    }, {
    ^bb0(%arg42: i32):
      %81 = "arith.index_cast"(%arg42) : (i32) -> index
      %82 = "arith.addi"(%81, %38) : (index, index) -> index
      %83 = "arith.addi"(%arg42, %0) : (i32, i32) -> i32
      %84 = "scf.while"(%29) ({
      ^bb0(%arg43: i32):
        %86 = "arith.constant"() {value = 0 : index} : () -> index
        %87 = "memref.load"(%39, %86) : (memref<1xi32>, index) -> i32
        %88 = "arith.cmpi"(%arg43, %87) {predicate = 2 : i64} : (i32, i32) -> i1
        "scf.condition"(%88, %arg43) : (i1, i32) -> ()
      }, {
      ^bb0(%arg43: i32):
        %86:2 = "scf.while"(%29) ({
        ^bb0(%arg44: i32):
          %88 = "arith.constant"() {value = 0 : index} : () -> index
          %89 = "memref.load"(%40, %88) : (memref<1xi32>, index) -> i32
          %90 = "arith.cmpi"(%arg44, %89) {predicate = 2 : i64} : (i32, i32) -> i1
          "scf.condition"(%90, %89, %arg44) : (i1, i32, i32) -> ()
        }, {
        ^bb0(%arg44: i32, %arg45: i32):
          %88 = "arith.muli"(%arg43, %arg44) : (i32, i32) -> i32
          %89 = "arith.addi"(%arg45, %88) : (i32, i32) -> i32
          %90 = "arith.muli"(%arg42, %arg44) : (i32, i32) -> i32
          %91 = "arith.constant"() {value = 0 : index} : () -> index
          %92 = "memref.load"(%39, %91) : (memref<1xi32>, index) -> i32
          %93 = "arith.muli"(%90, %92) : (i32, i32) -> i32
          %94 = "arith.addi"(%89, %93) : (i32, i32) -> i32
          %95 = "arith.index_cast"(%94) : (i32) -> index
          %96 = "arith.addi"(%95, %38) : (index, index) -> index
          %97 = "memref.load"(%arg34, %96) : (memref<?xf32>, index) -> f32
          %98 = "memref.load"(%arg24, %82) : (memref<?xf32>, index) -> f32
          %99 = "arith.constant"() {value = 0 : index} : () -> index
          %100 = "memref.load"(%arg40, %99) : (memref<?xf32>, index) -> f32
          %101 = "arith.subf"(%98, %100) : (f32, f32) -> f32
          %102 = "math.absf"(%101) : (f32) -> f32
          %103 = "arith.divf"(%32, %102) : (f32, f32) -> f32
          %104 = "arith.constant"() {value = 0 : index} : () -> index
          %105 = "memref.load"(%arg41, %104) : (memref<?xf32>, index) -> f32
          %106 = "arith.subf"(%98, %105) : (f32, f32) -> f32
          %107 = "math.absf"(%106) : (f32) -> f32
          %108 = "arith.divf"(%32, %107) : (f32, f32) -> f32
          %109 = "arith.addf"(%103, %108) : (f32, f32) -> f32
          %110 = "memref.load"(%arg23, %96) : (memref<?xf32>, index) -> f32
          %111 = "arith.mulf"(%109, %110) : (f32, f32) -> f32
          %112 = "arith.index_cast"(%89) : (i32) -> index
          %113 = "arith.addi"(%112, %38) : (index, index) -> index
          %114 = "memref.load"(%arg2, %113) : (memref<?xf32>, index) -> f32
          %115 = "arith.constant"() {value = 0 : index} : () -> index
          %116 = "memref.load"(%60, %115) : (memref<1xf32>, index) -> f32
          %117 = "arith.mulf"(%114, %116) : (f32, f32) -> f32
          %118 = "arith.divf"(%111, %117) : (f32, f32) -> f32
          %119 = "arith.mulf"(%118, %33) : (f32, f32) -> f32
          %120 = "arith.mulf"(%119, %118) : (f32, f32) -> f32
          %121 = "arith.addf"(%120, %32) : (f32, f32) -> f32
          %122 = "arith.mulf"(%97, %121) : (f32, f32) -> f32
          "memref.store"(%122, %arg34, %96) : (f32, memref<?xf32>, index) -> ()
          %123 = "arith.constant"() {value = 0 : index} : () -> index
          %124 = "memref.load"(%40, %123) : (memref<1xi32>, index) -> i32
          %125 = "arith.muli"(%arg43, %124) : (i32, i32) -> i32
          %126 = "arith.addi"(%arg45, %125) : (i32, i32) -> i32
          %127 = "arith.muli"(%arg42, %124) : (i32, i32) -> i32
          %128 = "arith.constant"() {value = 0 : index} : () -> index
          %129 = "memref.load"(%39, %128) : (memref<1xi32>, index) -> i32
          %130 = "arith.muli"(%127, %129) : (i32, i32) -> i32
          %131 = "arith.addi"(%126, %130) : (i32, i32) -> i32
          %132 = "arith.index_cast"(%131) : (i32) -> index
          %133 = "arith.addi"(%132, %38) : (index, index) -> index
          %134 = "memref.load"(%arg6, %133) : (memref<?xf32>, index) -> f32
          %135 = "memref.load"(%arg7, %133) : (memref<?xf32>, index) -> f32
          %136 = "arith.muli"(%83, %124) : (i32, i32) -> i32
          %137 = "arith.muli"(%136, %129) : (i32, i32) -> i32
          %138 = "arith.addi"(%126, %137) : (i32, i32) -> i32
          %139 = "arith.index_cast"(%138) : (i32) -> index
          %140 = "arith.addi"(%139, %38) : (index, index) -> index
          %141 = "memref.load"(%arg11, %140) : (memref<?xf32>, index) -> f32
          %142 = "arith.subf"(%32, %141) : (f32, f32) -> f32
          %143 = "arith.mulf"(%135, %142) : (f32, f32) -> f32
          %144 = "arith.addf"(%134, %143) : (f32, f32) -> f32
          %145 = "arith.constant"() {value = 0 : index} : () -> index
          %146 = "memref.load"(%43, %145) : (memref<1xf32>, index) -> f32
          %147 = "memref.load"(%arg34, %133) : (memref<?xf32>, index) -> f32
          %148 = "arith.mulf"(%146, %147) : (f32, f32) -> f32
          %149 = "arith.addf"(%148, %32) : (f32, f32) -> f32
          %150 = "arith.subf"(%144, %149) : (f32, f32) -> f32
          %151 = "arith.divf"(%32, %150) : (f32, f32) -> f32
          "memref.store"(%151, %arg12, %133) : (f32, memref<?xf32>, index) -> ()
          %152 = "arith.constant"() {value = 0 : index} : () -> index
          %153 = "memref.load"(%40, %152) : (memref<1xi32>, index) -> i32
          %154 = "arith.muli"(%arg43, %153) : (i32, i32) -> i32
          %155 = "arith.addi"(%arg45, %154) : (i32, i32) -> i32
          %156 = "arith.muli"(%arg42, %153) : (i32, i32) -> i32
          %157 = "arith.constant"() {value = 0 : index} : () -> index
          %158 = "memref.load"(%39, %157) : (memref<1xi32>, index) -> i32
          %159 = "arith.muli"(%156, %158) : (i32, i32) -> i32
          %160 = "arith.addi"(%155, %159) : (i32, i32) -> i32
          %161 = "arith.index_cast"(%160) : (i32) -> index
          %162 = "arith.addi"(%161, %38) : (index, index) -> index
          %163 = "memref.load"(%arg6, %162) : (memref<?xf32>, index) -> f32
          %164 = "memref.load"(%arg12, %162) : (memref<?xf32>, index) -> f32
          %165 = "arith.mulf"(%163, %164) : (f32, f32) -> f32
          "memref.store"(%165, %arg11, %162) : (f32, memref<?xf32>, index) -> ()
          %166 = "arith.constant"() {value = 0 : index} : () -> index
          %167 = "memref.load"(%40, %166) : (memref<1xi32>, index) -> i32
          %168 = "arith.muli"(%arg43, %167) : (i32, i32) -> i32
          %169 = "arith.addi"(%arg45, %168) : (i32, i32) -> i32
          %170 = "arith.muli"(%arg42, %167) : (i32, i32) -> i32
          %171 = "arith.constant"() {value = 0 : index} : () -> index
          %172 = "memref.load"(%39, %171) : (memref<1xi32>, index) -> i32
          %173 = "arith.muli"(%170, %172) : (i32, i32) -> i32
          %174 = "arith.addi"(%169, %173) : (i32, i32) -> i32
          %175 = "arith.index_cast"(%174) : (i32) -> index
          %176 = "arith.constant"() {value = 0 : index} : () -> index
          %177 = "memref.load"(%43, %176) : (memref<1xf32>, index) -> f32
          %178 = "arith.addi"(%175, %38) : (index, index) -> index
          %179 = "memref.load"(%arg39, %178) : (memref<?xf32>, index) -> f32
          %180 = "arith.negf"(%179) : (f32) -> f32
          %181 = "memref.load"(%arg23, %178) : (memref<?xf32>, index) -> f32
          %182 = "arith.mulf"(%180, %181) : (f32, f32) -> f32
          %183 = "arith.mulf"(%182, %34) : (f32, f32) -> f32
          %184 = "arith.mulf"(%177, %183) : (f32, f32) -> f32
          %185 = "memref.load"(%arg7, %178) : (memref<?xf32>, index) -> f32
          %186 = "arith.muli"(%83, %167) : (i32, i32) -> i32
          %187 = "arith.muli"(%186, %172) : (i32, i32) -> i32
          %188 = "arith.addi"(%169, %187) : (i32, i32) -> i32
          %189 = "arith.index_cast"(%188) : (i32) -> index
          %190 = "arith.addi"(%189, %38) : (index, index) -> index
          %191 = "memref.load"(%arg12, %190) : (memref<?xf32>, index) -> f32
          %192 = "arith.mulf"(%185, %191) : (f32, f32) -> f32
          %193 = "arith.addf"(%184, %192) : (f32, f32) -> f32
          %194 = "memref.load"(%arg29, %178) : (memref<?xf32>, index) -> f32
          %195 = "arith.subf"(%193, %194) : (f32, f32) -> f32
          %196 = "memref.load"(%arg12, %178) : (memref<?xf32>, index) -> f32
          %197 = "arith.mulf"(%195, %196) : (f32, f32) -> f32
          "memref.store"(%197, %arg12, %178) : (f32, memref<?xf32>, index) -> ()
          %198 = "arith.addi"(%arg45, %28) : (i32, i32) -> i32
          "scf.yield"(%198) : (i32) -> ()
        }) {arg1 = "for (int i = 0; i < im; i++) {", arg3 = "for (int i = 0; i < im; i++) {", depth = 3 : i8, induction_variable = "i", lb = 0 : i32, loop_index = 37 : i32, step = 1 : i8, ub = @im} : (i32) -> (i32, i32)
        %87 = "arith.addi"(%arg43, %28) : (i32, i32) -> i32
        "scf.yield"(%87) : (i32) -> ()
      }) {arg1 = "for (int j = 0; j < jm; j++) {", depth = 2 : i8, induction_variable = "j", lb = 0 : i32, loop_index = 38 : i32, step = 1 : i8, ub = @jm} : (i32) -> i32
      %85 = "arith.addi"(%arg42, %28) : (i32, i32) -> i32
      "scf.yield"(%85) : (i32) -> ()
    }) {arg1 = "for (int k = 1; k < kbm1; k++) {", depth = 1 : i8, induction_variable = "k", lb = 1 : i32, loop_index = 39 : i32, step = 1 : i8, ub = @kbm1} : (i32) -> i32
    %72 = "arith.constant"() {value = 0 : index} : () -> index
    %73 = "memref.load"(%52, %72) : (memref<1xi32>, index) -> i32
    %74 = "arith.addi"(%73, %1) : (i32, i32) -> i32
    %75 = "scf.while"(%74) ({
    ^bb0(%arg42: i32):
      %81 = "arith.cmpi"(%arg42, %29) {predicate = 5 : i64} : (i32, i32) -> i1
      "scf.condition"(%81, %arg42) : (i1, i32) -> ()
    }, {
    ^bb0(%arg42: i32):
      %81 = "arith.addi"(%arg42, %28) : (i32, i32) -> i32
      %82 = "scf.while"(%29) ({
      ^bb0(%arg43: i32):
        %84 = "arith.constant"() {value = 0 : index} : () -> index
        %85 = "memref.load"(%39, %84) : (memref<1xi32>, index) -> i32
        %86 = "arith.cmpi"(%arg43, %85) {predicate = 2 : i64} : (i32, i32) -> i1
        "scf.condition"(%86, %arg43) : (i1, i32) -> ()
      }, {
      ^bb0(%arg43: i32):
        %84:2 = "scf.while"(%29) ({
        ^bb0(%arg44: i32):
          %86 = "arith.constant"() {value = 0 : index} : () -> index
          %87 = "memref.load"(%40, %86) : (memref<1xi32>, index) -> i32
          %88 = "arith.cmpi"(%arg44, %87) {predicate = 2 : i64} : (i32, i32) -> i1
          "scf.condition"(%88, %87, %arg44) : (i1, i32, i32) -> ()
        }, {
        ^bb0(%arg44: i32, %arg45: i32):
          %86 = "arith.muli"(%arg43, %arg44) : (i32, i32) -> i32
          %87 = "arith.addi"(%arg45, %86) : (i32, i32) -> i32
          %88 = "arith.muli"(%arg42, %arg44) : (i32, i32) -> i32
          %89 = "arith.constant"() {value = 0 : index} : () -> index
          %90 = "memref.load"(%39, %89) : (memref<1xi32>, index) -> i32
          %91 = "arith.muli"(%88, %90) : (i32, i32) -> i32
          %92 = "arith.addi"(%87, %91) : (i32, i32) -> i32
          %93 = "arith.index_cast"(%92) : (i32) -> index
          %94 = "arith.addi"(%93, %38) : (index, index) -> index
          %95 = "memref.load"(%arg11, %94) : (memref<?xf32>, index) -> f32
          %96 = "arith.muli"(%81, %arg44) : (i32, i32) -> i32
          %97 = "arith.muli"(%96, %90) : (i32, i32) -> i32
          %98 = "arith.addi"(%87, %97) : (i32, i32) -> i32
          %99 = "arith.index_cast"(%98) : (i32) -> index
          %100 = "arith.addi"(%99, %38) : (index, index) -> index
          %101 = "memref.load"(%arg29, %100) : (memref<?xf32>, index) -> f32
          %102 = "arith.mulf"(%95, %101) : (f32, f32) -> f32
          %103 = "memref.load"(%arg12, %94) : (memref<?xf32>, index) -> f32
          %104 = "arith.addf"(%102, %103) : (f32, f32) -> f32
          "memref.store"(%104, %arg29, %94) : (f32, memref<?xf32>, index) -> ()
          %105 = "arith.addi"(%arg45, %28) : (i32, i32) -> i32
          "scf.yield"(%105) : (i32) -> ()
        }) {arg1 = "for (int i = 0; i < im; i++) {", arg3 = "for (int i = 0; i < im; i++) {", depth = 3 : i8, induction_variable = "i", lb = 0 : i32, loop_index = 40 : i32, step = 1 : i8, ub = @im} : (i32) -> (i32, i32)
        %85 = "arith.addi"(%arg43, %28) : (i32, i32) -> i32
        "scf.yield"(%85) : (i32) -> ()
      }) {arg1 = "for (int j = 0; j < jm; j++) {", depth = 2 : i8, induction_variable = "j", lb = 0 : i32, loop_index = 41 : i32, step = 1 : i8, ub = @jm} : (i32) -> i32
      %83 = "arith.addi"(%arg42, %0) : (i32, i32) -> i32
      "scf.yield"(%83) : (i32) -> ()
    }) {arg1 = "for (int k = kb - 2; k >= 0; k--) {", depth = 1 : i8, induction_variable = "k", lb = "kb-2", loop_index = 42 : i32, step = 1 : i8, ub = 0 : i32} : (i32) -> i32
    %76 = "scf.while"(%28) ({
    ^bb0(%arg42: i32):
      %81 = "arith.constant"() {value = 0 : index} : () -> index
      %82 = "memref.load"(%42, %81) : (memref<1xi32>, index) -> i32
      %83 = "arith.cmpi"(%arg42, %82) {predicate = 2 : i64} : (i32, i32) -> i1
      "scf.condition"(%83, %arg42) : (i1, i32) -> ()
    }, {
    ^bb0(%arg42: i32):
      %81 = "scf.while"(%29) ({
      ^bb0(%arg43: i32):
        %83 = "arith.constant"() {value = 0 : index} : () -> index
        %84 = "memref.load"(%39, %83) : (memref<1xi32>, index) -> i32
        %85 = "arith.cmpi"(%arg43, %84) {predicate = 2 : i64} : (i32, i32) -> i1
        "scf.condition"(%85, %arg43) : (i1, i32) -> ()
      }, {
      ^bb0(%arg43: i32):
        %83:2 = "scf.while"(%29) ({
        ^bb0(%arg44: i32):
          %85 = "arith.constant"() {value = 0 : index} : () -> index
          %86 = "memref.load"(%40, %85) : (memref<1xi32>, index) -> i32
          %87 = "arith.cmpi"(%arg44, %86) {predicate = 2 : i64} : (i32, i32) -> i1
          "scf.condition"(%87, %86, %arg44) : (i1, i32, i32) -> ()
        }, {
        ^bb0(%arg44: i32, %arg45: i32):
          %85 = "arith.muli"(%arg43, %arg44) : (i32, i32) -> i32
          %86 = "arith.addi"(%arg45, %85) : (i32, i32) -> i32
          %87 = "arith.muli"(%arg42, %arg44) : (i32, i32) -> i32
          %88 = "arith.constant"() {value = 0 : index} : () -> index
          %89 = "memref.load"(%39, %88) : (memref<1xi32>, index) -> i32
          %90 = "arith.muli"(%87, %89) : (i32, i32) -> i32
          %91 = "arith.addi"(%86, %90) : (i32, i32) -> i32
          %92 = "arith.index_cast"(%91) : (i32) -> index
          %93 = "arith.addi"(%92, %38) : (index, index) -> index
          %94 = "memref.load"(%arg15, %93) : (memref<?xf32>, index) -> f32
          %95 = "arith.constant"() {value = 0 : index} : () -> index
          %96 = "memref.load"(%63, %95) : (memref<1xf32>, index) -> f32
          %97 = "arith.cmpf"(%94, %96) {predicate = 5 : i64} : (f32, f32) -> i1
          %98 = "scf.if"(%97) ({
            "scf.yield"(%9) : (i1) -> ()
          }, {
            %100 = "memref.load"(%arg29, %93) : (memref<?xf32>, index) -> f32
            %101 = "arith.cmpf"(%100, %96) {predicate = 5 : i64} : (f32, f32) -> i1
            "scf.yield"(%101) : (i1) -> ()
          }) : (i1) -> i1
          "scf.if"(%98) ({
            "memref.store"(%96, %arg15, %93) : (f32, memref<?xf32>, index) -> ()
            %100 = "arith.constant"() {value = 0 : index} : () -> index
            %101 = "memref.load"(%40, %100) : (memref<1xi32>, index) -> i32
            %102 = "arith.muli"(%arg43, %101) : (i32, i32) -> i32
            %103 = "arith.addi"(%arg45, %102) : (i32, i32) -> i32
            %104 = "arith.muli"(%arg42, %101) : (i32, i32) -> i32
            %105 = "arith.constant"() {value = 0 : index} : () -> index
            %106 = "memref.load"(%39, %105) : (memref<1xi32>, index) -> i32
            %107 = "arith.muli"(%104, %106) : (i32, i32) -> i32
            %108 = "arith.addi"(%103, %107) : (i32, i32) -> i32
            %109 = "arith.index_cast"(%108) : (i32) -> index
            %110 = "arith.index_cast"(%103) : (i32) -> index
            %111 = "arith.addi"(%110, %38) : (index, index) -> index
            %112 = "memref.load"(%arg32, %111) : (memref<?xf32>, index) -> f32
            %113 = "arith.mulf"(%112, %12) : (f32, f32) -> f32
            %114 = "arith.constant"() {value = 0 : index} : () -> index
            %115 = "memref.load"(%63, %114) : (memref<1xf32>, index) -> f32
            %116 = "arith.mulf"(%113, %115) : (f32, f32) -> f32
            %117 = "arith.addi"(%109, %38) : (index, index) -> index
            "memref.store"(%116, %arg29, %117) : (f32, memref<?xf32>, index) -> ()
            "scf.yield"() : () -> ()
          }, {
          }) : (i1) -> ()
          %99 = "arith.addi"(%arg45, %28) : (i32, i32) -> i32
          "scf.yield"(%99) : (i32) -> ()
        }) {arg1 = "for (int i = 0; i < im; i++) {", arg3 = "for (int i = 0; i < im; i++) {", depth = 3 : i8, induction_variable = "i", lb = 0 : i32, loop_index = 43 : i32, step = 1 : i8, ub = @im} : (i32) -> (i32, i32)
        %84 = "arith.addi"(%arg43, %28) : (i32, i32) -> i32
        "scf.yield"(%84) : (i32) -> ()
      }) {arg1 = "for (int j = 0; j < jm; j++) {", depth = 2 : i8, induction_variable = "j", lb = 0 : i32, loop_index = 44 : i32, step = 1 : i8, ub = @jm} : (i32) -> i32
      %82 = "arith.addi"(%arg42, %28) : (i32, i32) -> i32
      "scf.yield"(%82) : (i32) -> ()
    }) {arg1 = "for (int k = 1; k < kbm1; k++) {", depth = 1 : i8, induction_variable = "k", lb = 1 : i32, loop_index = 45 : i32, step = 1 : i8, ub = @kbm1} : (i32) -> i32
    %77 = "scf.while"(%29) ({
    ^bb0(%arg42: i32):
      %81 = "arith.constant"() {value = 0 : index} : () -> index
      %82 = "memref.load"(%52, %81) : (memref<1xi32>, index) -> i32
      %83 = "arith.cmpi"(%arg42, %82) {predicate = 2 : i64} : (i32, i32) -> i1
      "scf.condition"(%83, %arg42) : (i1, i32) -> ()
    }, {
    ^bb0(%arg42: i32):
      %81 = "scf.while"(%29) ({
      ^bb0(%arg43: i32):
        %83 = "arith.constant"() {value = 0 : index} : () -> index
        %84 = "memref.load"(%39, %83) : (memref<1xi32>, index) -> i32
        %85 = "arith.cmpi"(%arg43, %84) {predicate = 2 : i64} : (i32, i32) -> i1
        "scf.condition"(%85, %arg43) : (i1, i32) -> ()
      }, {
      ^bb0(%arg43: i32):
        %83:2 = "scf.while"(%29) ({
        ^bb0(%arg44: i32):
          %85 = "arith.constant"() {value = 0 : index} : () -> index
          %86 = "memref.load"(%40, %85) : (memref<1xi32>, index) -> i32
          %87 = "arith.cmpi"(%arg44, %86) {predicate = 2 : i64} : (i32, i32) -> i1
          "scf.condition"(%87, %86, %arg44) : (i1, i32, i32) -> ()
        }, {
        ^bb0(%arg44: i32, %arg45: i32):
          %85 = "arith.muli"(%arg43, %arg44) : (i32, i32) -> i32
          %86 = "arith.addi"(%arg45, %85) : (i32, i32) -> i32
          %87 = "arith.muli"(%arg42, %arg44) : (i32, i32) -> i32
          %88 = "arith.constant"() {value = 0 : index} : () -> index
          %89 = "memref.load"(%39, %88) : (memref<1xi32>, index) -> i32
          %90 = "arith.muli"(%87, %89) : (i32, i32) -> i32
          %91 = "arith.addi"(%86, %90) : (i32, i32) -> i32
          %92 = "arith.index_cast"(%91) : (i32) -> index
          %93 = "arith.addi"(%92, %38) : (index, index) -> index
          %94 = "memref.load"(%arg38, %93) : (memref<?xf32>, index) -> f32
          %95 = "arith.mulf"(%94, %3) : (f32, f32) -> f32
          %96 = "arith.subf"(%32, %95) : (f32, f32) -> f32
          %97 = "arith.mulf"(%96, %36) : (f32, f32) -> f32
          %98 = "arith.divf"(%6, %94) : (f32, f32) -> f32
          %99 = "arith.addf"(%98, %2) : (f32, f32) -> f32
          %100 = "arith.subf"(%7, %95) : (f32, f32) -> f32
          %101 = "arith.mulf"(%100, %37) : (f32, f32) -> f32
          %102 = "memref.load"(%arg36, %93) : (memref<?xf32>, index) -> f32
          %103 = "arith.mulf"(%99, %102) : (f32, f32) -> f32
          %104 = "arith.subf"(%32, %103) : (f32, f32) -> f32
          %105 = "arith.divf"(%97, %104) : (f32, f32) -> f32
          "memref.store"(%105, %arg1, %93) : (f32, memref<?xf32>, index) -> ()
          %106 = "arith.constant"() {value = 0 : index} : () -> index
          %107 = "memref.load"(%40, %106) : (memref<1xi32>, index) -> i32
          %108 = "arith.muli"(%arg43, %107) : (i32, i32) -> i32
          %109 = "arith.addi"(%arg45, %108) : (i32, i32) -> i32
          %110 = "arith.muli"(%arg42, %107) : (i32, i32) -> i32
          %111 = "arith.constant"() {value = 0 : index} : () -> index
          %112 = "memref.load"(%39, %111) : (memref<1xi32>, index) -> i32
          %113 = "arith.muli"(%110, %112) : (i32, i32) -> i32
          %114 = "arith.addi"(%109, %113) : (i32, i32) -> i32
          %115 = "arith.index_cast"(%114) : (i32) -> index
          %116 = "arith.addi"(%115, %38) : (index, index) -> index
          %117 = "memref.load"(%arg1, %116) : (memref<?xf32>, index) -> f32
          %118 = "arith.mulf"(%117, %5) : (f32, f32) -> f32
          %119 = "memref.load"(%arg36, %116) : (memref<?xf32>, index) -> f32
          %120 = "arith.mulf"(%118, %119) : (f32, f32) -> f32
          %121 = "arith.addf"(%101, %120) : (f32, f32) -> f32
          "memref.store"(%121, %arg0, %116) : (f32, memref<?xf32>, index) -> ()
          %122 = "arith.constant"() {value = 0 : index} : () -> index
          %123 = "memref.load"(%40, %122) : (memref<1xi32>, index) -> i32
          %124 = "arith.muli"(%arg43, %123) : (i32, i32) -> i32
          %125 = "arith.addi"(%arg45, %124) : (i32, i32) -> i32
          %126 = "arith.muli"(%arg42, %123) : (i32, i32) -> i32
          %127 = "arith.constant"() {value = 0 : index} : () -> index
          %128 = "memref.load"(%39, %127) : (memref<1xi32>, index) -> i32
          %129 = "arith.muli"(%126, %128) : (i32, i32) -> i32
          %130 = "arith.addi"(%125, %129) : (i32, i32) -> i32
          %131 = "arith.index_cast"(%130) : (i32) -> index
          %132 = "arith.addi"(%131, %38) : (index, index) -> index
          %133 = "memref.load"(%arg0, %132) : (memref<?xf32>, index) -> f32
          %134 = "memref.load"(%arg36, %132) : (memref<?xf32>, index) -> f32
          %135 = "arith.mulf"(%134, %4) : (f32, f32) -> f32
          %136 = "arith.subf"(%32, %135) : (f32, f32) -> f32
          %137 = "arith.divf"(%133, %136) : (f32, f32) -> f32
          "memref.store"(%137, %arg0, %132) : (f32, memref<?xf32>, index) -> ()
          %138 = "arith.addi"(%arg45, %28) : (i32, i32) -> i32
          "scf.yield"(%138) : (i32) -> ()
        }) {arg1 = "for (int i = 0; i < im; i++) {", arg3 = "for (int i = 0; i < im; i++) {", depth = 3 : i8, induction_variable = "i", lb = 0 : i32, loop_index = 46 : i32, step = 1 : i8, ub = @im} : (i32) -> (i32, i32)
        %84 = "arith.addi"(%arg43, %28) : (i32, i32) -> i32
        "scf.yield"(%84) : (i32) -> ()
      }) {arg1 = "for (int j = 0; j < jm; j++) {", depth = 2 : i8, induction_variable = "j", lb = 0 : i32, loop_index = 47 : i32, step = 1 : i8, ub = @jm} : (i32) -> i32
      %82 = "arith.addi"(%arg42, %28) : (i32, i32) -> i32
      "scf.yield"(%82) : (i32) -> ()
    }) {arg1 = "for (int k = 0; k < kb; k++) {", depth = 1 : i8, induction_variable = "k", lb = 0 : i32, loop_index = 48 : i32, step = 1 : i8, ub = @kb} : (i32) -> i32
    %78 = "scf.while"(%29) ({
    ^bb0(%arg42: i32):
      %81 = "arith.constant"() {value = 0 : index} : () -> index
      %82 = "memref.load"(%52, %81) : (memref<1xi32>, index) -> i32
      %83 = "arith.cmpi"(%arg42, %82) {predicate = 2 : i64} : (i32, i32) -> i1
      "scf.condition"(%83, %arg42) : (i1, i32) -> ()
    }, {
    ^bb0(%arg42: i32):
      %81 = "scf.while"(%29) ({
      ^bb0(%arg43: i32):
        %83 = "arith.constant"() {value = 0 : index} : () -> index
        %84 = "memref.load"(%39, %83) : (memref<1xi32>, index) -> i32
        %85 = "arith.cmpi"(%arg43, %84) {predicate = 2 : i64} : (i32, i32) -> i1
        "scf.condition"(%85, %arg43) : (i1, i32) -> ()
      }, {
      ^bb0(%arg43: i32):
        %83:2 = "scf.while"(%29) ({
        ^bb0(%arg44: i32):
          %85 = "arith.constant"() {value = 0 : index} : () -> index
          %86 = "memref.load"(%40, %85) : (memref<1xi32>, index) -> i32
          %87 = "arith.cmpi"(%arg44, %86) {predicate = 2 : i64} : (i32, i32) -> i1
          "scf.condition"(%87, %86, %arg44) : (i1, i32, i32) -> ()
        }, {
        ^bb0(%arg44: i32, %arg45: i32):
          %85 = "arith.muli"(%arg43, %arg44) : (i32, i32) -> i32
          %86 = "arith.addi"(%arg45, %85) : (i32, i32) -> i32
          %87 = "arith.muli"(%arg42, %arg44) : (i32, i32) -> i32
          %88 = "arith.constant"() {value = 0 : index} : () -> index
          %89 = "memref.load"(%39, %88) : (memref<1xi32>, index) -> i32
          %90 = "arith.muli"(%87, %89) : (i32, i32) -> i32
          %91 = "arith.addi"(%86, %90) : (i32, i32) -> i32
          %92 = "arith.index_cast"(%91) : (i32) -> index
          %93 = "arith.addi"(%92, %38) : (index, index) -> index
          %94 = "memref.load"(%arg23, %93) : (memref<?xf32>, index) -> f32
          %95 = "memref.load"(%arg31, %93) : (memref<?xf32>, index) -> f32
          %96 = "math.absf"(%95) : (f32) -> f32
          %97 = "math.sqrt"(%96) : (f32) -> f32
          %98 = "arith.mulf"(%94, %97) : (f32, f32) -> f32
          "memref.store"(%98, %arg39, %93) : (f32, memref<?xf32>, index) -> ()
          %99 = "arith.constant"() {value = 0 : index} : () -> index
          %100 = "memref.load"(%40, %99) : (memref<1xi32>, index) -> i32
          %101 = "arith.muli"(%arg43, %100) : (i32, i32) -> i32
          %102 = "arith.addi"(%arg45, %101) : (i32, i32) -> i32
          %103 = "arith.muli"(%arg42, %100) : (i32, i32) -> i32
          %104 = "arith.constant"() {value = 0 : index} : () -> index
          %105 = "memref.load"(%39, %104) : (memref<1xi32>, index) -> i32
          %106 = "arith.muli"(%103, %105) : (i32, i32) -> i32
          %107 = "arith.addi"(%102, %106) : (i32, i32) -> i32
          %108 = "arith.index_cast"(%107) : (i32) -> index
          %109 = "arith.addi"(%108, %38) : (index, index) -> index
          %110 = "memref.load"(%arg39, %109) : (memref<?xf32>, index) -> f32
          %111 = "arith.mulf"(%110, %11) : (f32, f32) -> f32
          %112 = "memref.load"(%arg1, %109) : (memref<?xf32>, index) -> f32
          %113 = "arith.mulf"(%111, %112) : (f32, f32) -> f32
          %114 = "memref.load"(%arg8, %109) : (memref<?xf32>, index) -> f32
          %115 = "arith.addf"(%113, %114) : (f32, f32) -> f32
          %116 = "arith.mulf"(%115, %26) : (f32, f32) -> f32
          "memref.store"(%116, %arg8, %109) : (f32, memref<?xf32>, index) -> ()
          %117 = "arith.constant"() {value = 0 : index} : () -> index
          %118 = "memref.load"(%40, %117) : (memref<1xi32>, index) -> i32
          %119 = "arith.muli"(%arg43, %118) : (i32, i32) -> i32
          %120 = "arith.addi"(%arg45, %119) : (i32, i32) -> i32
          %121 = "arith.muli"(%arg42, %118) : (i32, i32) -> i32
          %122 = "arith.constant"() {value = 0 : index} : () -> index
          %123 = "memref.load"(%39, %122) : (memref<1xi32>, index) -> i32
          %124 = "arith.muli"(%121, %123) : (i32, i32) -> i32
          %125 = "arith.addi"(%120, %124) : (i32, i32) -> i32
          %126 = "arith.index_cast"(%125) : (i32) -> index
          %127 = "arith.addi"(%126, %38) : (index, index) -> index
          %128 = "memref.load"(%arg39, %127) : (memref<?xf32>, index) -> f32
          %129 = "memref.load"(%arg0, %127) : (memref<?xf32>, index) -> f32
          %130 = "arith.mulf"(%128, %129) : (f32, f32) -> f32
          %131 = "memref.load"(%arg25, %127) : (memref<?xf32>, index) -> f32
          %132 = "arith.addf"(%130, %131) : (f32, f32) -> f32
          %133 = "arith.mulf"(%132, %26) : (f32, f32) -> f32
          "memref.store"(%133, %arg25, %127) : (f32, memref<?xf32>, index) -> ()
          %134 = "arith.constant"() {value = 0 : index} : () -> index
          %135 = "memref.load"(%40, %134) : (memref<1xi32>, index) -> i32
          %136 = "arith.muli"(%arg43, %135) : (i32, i32) -> i32
          %137 = "arith.addi"(%arg45, %136) : (i32, i32) -> i32
          %138 = "arith.muli"(%arg42, %135) : (i32, i32) -> i32
          %139 = "arith.constant"() {value = 0 : index} : () -> index
          %140 = "memref.load"(%39, %139) : (memref<1xi32>, index) -> i32
          %141 = "arith.muli"(%138, %140) : (i32, i32) -> i32
          %142 = "arith.addi"(%137, %141) : (i32, i32) -> i32
          %143 = "arith.index_cast"(%142) : (i32) -> index
          %144 = "arith.addi"(%143, %38) : (index, index) -> index
          %145 = "memref.load"(%arg39, %144) : (memref<?xf32>, index) -> f32
          %146 = "memref.load"(%arg1, %144) : (memref<?xf32>, index) -> f32
          %147 = "arith.mulf"(%145, %146) : (f32, f32) -> f32
          %148 = "memref.load"(%arg28, %144) : (memref<?xf32>, index) -> f32
          %149 = "arith.addf"(%147, %148) : (f32, f32) -> f32
          %150 = "arith.mulf"(%149, %26) : (f32, f32) -> f32
          "memref.store"(%150, %arg28, %144) : (f32, memref<?xf32>, index) -> ()
          %151 = "arith.addi"(%arg45, %28) : (i32, i32) -> i32
          "scf.yield"(%151) : (i32) -> ()
        }) {arg1 = "for (int i = 0; i < im; i++) {", arg3 = "for (int i = 0; i < im; i++) {", depth = 3 : i8, induction_variable = "i", lb = 0 : i32, loop_index = 49 : i32, step = 1 : i8, ub = @im} : (i32) -> (i32, i32)
        %84 = "arith.addi"(%arg43, %28) : (i32, i32) -> i32
        "scf.yield"(%84) : (i32) -> ()
      }) {arg1 = "for (int j = 0; j < jm; j++) {", depth = 2 : i8, induction_variable = "j", lb = 0 : i32, loop_index = 50 : i32, step = 1 : i8, ub = @jm} : (i32) -> i32
      %82 = "arith.addi"(%arg42, %28) : (i32, i32) -> i32
      "scf.yield"(%82) : (i32) -> ()
    }) {arg1 = "for (int k = 0; k < kb; k++) {", depth = 1 : i8, induction_variable = "k", lb = 0 : i32, loop_index = 51 : i32, step = 1 : i8, ub = @kb} : (i32) -> i32
    %79 = "scf.while"(%29) ({
    ^bb0(%arg42: i32):
      %81 = "arith.constant"() {value = 0 : index} : () -> index
      %82 = "memref.load"(%52, %81) : (memref<1xi32>, index) -> i32
      %83 = "arith.cmpi"(%arg42, %82) {predicate = 2 : i64} : (i32, i32) -> i1
      "scf.condition"(%83, %arg42) : (i1, i32) -> ()
    }, {
    ^bb0(%arg42: i32):
      %81:2 = "scf.while"(%29) ({
      ^bb0(%arg43: i32):
        %83 = "arith.constant"() {value = 0 : index} : () -> index
        %84 = "memref.load"(%40, %83) : (memref<1xi32>, index) -> i32
        %85 = "arith.cmpi"(%arg43, %84) {predicate = 2 : i64} : (i32, i32) -> i1
        "scf.condition"(%85, %84, %arg43) : (i1, i32, i32) -> ()
      }, {
      ^bb0(%arg43: i32, %arg44: i32):
        %83 = "arith.constant"() {value = 0 : index} : () -> index
        %84 = "memref.load"(%39, %83) : (memref<1xi32>, index) -> i32
        %85 = "arith.addi"(%84, %0) : (i32, i32) -> i32
        %86 = "arith.muli"(%85, %arg43) : (i32, i32) -> i32
        %87 = "arith.addi"(%arg44, %86) : (i32, i32) -> i32
        %88 = "arith.muli"(%arg42, %arg43) : (i32, i32) -> i32
        %89 = "arith.muli"(%88, %84) : (i32, i32) -> i32
        %90 = "arith.addi"(%87, %89) : (i32, i32) -> i32
        %91 = "arith.index_cast"(%90) : (i32) -> index
        %92 = "arith.constant"() {value = 0 : index} : () -> index
        %93 = "memref.load"(%49, %92) : (memref<1xi32>, index) -> i32
        %94 = "arith.addi"(%93, %0) : (i32, i32) -> i32
        %95 = "arith.muli"(%94, %arg43) : (i32, i32) -> i32
        %96 = "arith.addi"(%arg44, %95) : (i32, i32) -> i32
        %97 = "arith.addi"(%96, %89) : (i32, i32) -> i32
        %98 = "arith.index_cast"(%97) : (i32) -> index
        %99 = "arith.addi"(%98, %38) : (index, index) -> index
        %100 = "memref.load"(%arg25, %99) : (memref<?xf32>, index) -> f32
        %101 = "arith.index_cast"(%87) : (i32) -> index
        %102 = "arith.addi"(%101, %38) : (index, index) -> index
        %103 = "memref.load"(%arg30, %102) : (memref<?xf32>, index) -> f32
        %104 = "arith.mulf"(%100, %103) : (f32, f32) -> f32
        %105 = "arith.addi"(%91, %38) : (index, index) -> index
        "memref.store"(%104, %arg25, %105) : (f32, memref<?xf32>, index) -> ()
        %106 = "arith.constant"() {value = 0 : index} : () -> index
        %107 = "memref.load"(%39, %106) : (memref<1xi32>, index) -> i32
        %108 = "arith.addi"(%107, %0) : (i32, i32) -> i32
        %109 = "arith.constant"() {value = 0 : index} : () -> index
        %110 = "memref.load"(%40, %109) : (memref<1xi32>, index) -> i32
        %111 = "arith.muli"(%108, %110) : (i32, i32) -> i32
        %112 = "arith.addi"(%arg44, %111) : (i32, i32) -> i32
        %113 = "arith.muli"(%arg42, %110) : (i32, i32) -> i32
        %114 = "arith.muli"(%113, %107) : (i32, i32) -> i32
        %115 = "arith.addi"(%112, %114) : (i32, i32) -> i32
        %116 = "arith.index_cast"(%115) : (i32) -> index
        %117 = "arith.constant"() {value = 0 : index} : () -> index
        %118 = "memref.load"(%49, %117) : (memref<1xi32>, index) -> i32
        %119 = "arith.addi"(%118, %0) : (i32, i32) -> i32
        %120 = "arith.muli"(%119, %110) : (i32, i32) -> i32
        %121 = "arith.addi"(%arg44, %120) : (i32, i32) -> i32
        %122 = "arith.addi"(%121, %114) : (i32, i32) -> i32
        %123 = "arith.index_cast"(%122) : (i32) -> index
        %124 = "arith.addi"(%123, %38) : (index, index) -> index
        %125 = "memref.load"(%arg28, %124) : (memref<?xf32>, index) -> f32
        %126 = "arith.index_cast"(%112) : (i32) -> index
        %127 = "arith.addi"(%126, %38) : (index, index) -> index
        %128 = "memref.load"(%arg30, %127) : (memref<?xf32>, index) -> f32
        %129 = "arith.mulf"(%125, %128) : (f32, f32) -> f32
        %130 = "arith.addi"(%116, %38) : (index, index) -> index
        "memref.store"(%129, %arg28, %130) : (f32, memref<?xf32>, index) -> ()
        %131 = "arith.constant"() {value = 0 : index} : () -> index
        %132 = "memref.load"(%40, %131) : (memref<1xi32>, index) -> i32
        %133 = "arith.muli"(%29, %132) : (i32, i32) -> i32
        %134 = "arith.addi"(%arg44, %133) : (i32, i32) -> i32
        %135 = "arith.muli"(%arg42, %132) : (i32, i32) -> i32
        %136 = "arith.constant"() {value = 0 : index} : () -> index
        %137 = "memref.load"(%39, %136) : (memref<1xi32>, index) -> i32
        %138 = "arith.muli"(%135, %137) : (i32, i32) -> i32
        %139 = "arith.addi"(%134, %138) : (i32, i32) -> i32
        %140 = "arith.index_cast"(%139) : (i32) -> index
        %141 = "arith.muli"(%28, %132) : (i32, i32) -> i32
        %142 = "arith.addi"(%arg44, %141) : (i32, i32) -> i32
        %143 = "arith.addi"(%142, %138) : (i32, i32) -> i32
        %144 = "arith.index_cast"(%143) : (i32) -> index
        %145 = "arith.addi"(%144, %38) : (index, index) -> index
        %146 = "memref.load"(%arg25, %145) : (memref<?xf32>, index) -> f32
        %147 = "arith.index_cast"(%134) : (i32) -> index
        %148 = "arith.addi"(%147, %38) : (index, index) -> index
        %149 = "memref.load"(%arg30, %148) : (memref<?xf32>, index) -> f32
        %150 = "arith.mulf"(%146, %149) : (f32, f32) -> f32
        %151 = "arith.addi"(%140, %38) : (index, index) -> index
        "memref.store"(%150, %arg25, %151) : (f32, memref<?xf32>, index) -> ()
        %152 = "arith.constant"() {value = 0 : index} : () -> index
        %153 = "memref.load"(%40, %152) : (memref<1xi32>, index) -> i32
        %154 = "arith.muli"(%29, %153) : (i32, i32) -> i32
        %155 = "arith.addi"(%arg44, %154) : (i32, i32) -> i32
        %156 = "arith.muli"(%arg42, %153) : (i32, i32) -> i32
        %157 = "arith.constant"() {value = 0 : index} : () -> index
        %158 = "memref.load"(%39, %157) : (memref<1xi32>, index) -> i32
        %159 = "arith.muli"(%156, %158) : (i32, i32) -> i32
        %160 = "arith.addi"(%155, %159) : (i32, i32) -> i32
        %161 = "arith.index_cast"(%160) : (i32) -> index
        %162 = "arith.muli"(%28, %153) : (i32, i32) -> i32
        %163 = "arith.addi"(%arg44, %162) : (i32, i32) -> i32
        %164 = "arith.addi"(%163, %159) : (i32, i32) -> i32
        %165 = "arith.index_cast"(%164) : (i32) -> index
        %166 = "arith.addi"(%165, %38) : (index, index) -> index
        %167 = "memref.load"(%arg28, %166) : (memref<?xf32>, index) -> f32
        %168 = "arith.index_cast"(%155) : (i32) -> index
        %169 = "arith.addi"(%168, %38) : (index, index) -> index
        %170 = "memref.load"(%arg30, %169) : (memref<?xf32>, index) -> f32
        %171 = "arith.mulf"(%167, %170) : (f32, f32) -> f32
        %172 = "arith.addi"(%161, %38) : (index, index) -> index
        "memref.store"(%171, %arg28, %172) : (f32, memref<?xf32>, index) -> ()
        %173 = "arith.addi"(%arg44, %28) : (i32, i32) -> i32
        "scf.yield"(%173) : (i32) -> ()
      }) {arg1 = "for (int i = 0; i < im; i++) {", arg3 = "for (int i = 0; i < im; i++) {", depth = 2 : i8, induction_variable = "i", lb = 0 : i32, loop_index = 52 : i32, step = 1 : i8, ub = @im} : (i32) -> (i32, i32)
      %82 = "arith.addi"(%arg42, %28) : (i32, i32) -> i32
      "scf.yield"(%82) : (i32) -> ()
    }) {arg1 = "for (int k = 0; k < kb; k++) {", depth = 1 : i8, induction_variable = "k", lb = 0 : i32, loop_index = 53 : i32, step = 1 : i8, ub = @kb} : (i32) -> i32
    %80 = "scf.while"(%29) ({
    ^bb0(%arg42: i32):
      %81 = "arith.constant"() {value = 0 : index} : () -> index
      %82 = "memref.load"(%52, %81) : (memref<1xi32>, index) -> i32
      %83 = "arith.cmpi"(%arg42, %82) {predicate = 2 : i64} : (i32, i32) -> i1
      "scf.condition"(%83, %arg42) : (i1, i32) -> ()
    }, {
    ^bb0(%arg42: i32):
      %81:2 = "scf.while"(%29) ({
      ^bb0(%arg43: i32):
        %83 = "arith.constant"() {value = 0 : index} : () -> index
        %84 = "memref.load"(%39, %83) : (memref<1xi32>, index) -> i32
        %85 = "arith.cmpi"(%arg43, %84) {predicate = 2 : i64} : (i32, i32) -> i1
        "scf.condition"(%85, %84, %arg43) : (i1, i32, i32) -> ()
      }, {
      ^bb0(%arg43: i32, %arg44: i32):
        %83 = "arith.constant"() {value = 0 : index} : () -> index
        %84 = "memref.load"(%40, %83) : (memref<1xi32>, index) -> i32
        %85 = "arith.addi"(%84, %0) : (i32, i32) -> i32
        %86 = "arith.muli"(%arg44, %84) : (i32, i32) -> i32
        %87 = "arith.addi"(%85, %86) : (i32, i32) -> i32
        %88 = "arith.muli"(%arg42, %84) : (i32, i32) -> i32
        %89 = "arith.muli"(%88, %arg43) : (i32, i32) -> i32
        %90 = "arith.addi"(%87, %89) : (i32, i32) -> i32
        %91 = "arith.index_cast"(%90) : (i32) -> index
        %92 = "arith.constant"() {value = 0 : index} : () -> index
        %93 = "memref.load"(%50, %92) : (memref<1xi32>, index) -> i32
        %94 = "arith.addi"(%93, %0) : (i32, i32) -> i32
        %95 = "arith.addi"(%94, %86) : (i32, i32) -> i32
        %96 = "arith.addi"(%95, %89) : (i32, i32) -> i32
        %97 = "arith.index_cast"(%96) : (i32) -> index
        %98 = "arith.addi"(%97, %38) : (index, index) -> index
        %99 = "memref.load"(%arg25, %98) : (memref<?xf32>, index) -> f32
        %100 = "arith.index_cast"(%87) : (i32) -> index
        %101 = "arith.addi"(%100, %38) : (index, index) -> index
        %102 = "memref.load"(%arg30, %101) : (memref<?xf32>, index) -> f32
        %103 = "arith.mulf"(%99, %102) : (f32, f32) -> f32
        %104 = "arith.addi"(%91, %38) : (index, index) -> index
        "memref.store"(%103, %arg25, %104) : (f32, memref<?xf32>, index) -> ()
        %105 = "arith.constant"() {value = 0 : index} : () -> index
        %106 = "memref.load"(%40, %105) : (memref<1xi32>, index) -> i32
        %107 = "arith.addi"(%106, %0) : (i32, i32) -> i32
        %108 = "arith.muli"(%arg44, %106) : (i32, i32) -> i32
        %109 = "arith.addi"(%107, %108) : (i32, i32) -> i32
        %110 = "arith.muli"(%arg42, %106) : (i32, i32) -> i32
        %111 = "arith.constant"() {value = 0 : index} : () -> index
        %112 = "memref.load"(%39, %111) : (memref<1xi32>, index) -> i32
        %113 = "arith.muli"(%110, %112) : (i32, i32) -> i32
        %114 = "arith.addi"(%109, %113) : (i32, i32) -> i32
        %115 = "arith.index_cast"(%114) : (i32) -> index
        %116 = "arith.constant"() {value = 0 : index} : () -> index
        %117 = "memref.load"(%50, %116) : (memref<1xi32>, index) -> i32
        %118 = "arith.addi"(%117, %0) : (i32, i32) -> i32
        %119 = "arith.addi"(%118, %108) : (i32, i32) -> i32
        %120 = "arith.addi"(%119, %113) : (i32, i32) -> i32
        %121 = "arith.index_cast"(%120) : (i32) -> index
        %122 = "arith.addi"(%121, %38) : (index, index) -> index
        %123 = "memref.load"(%arg28, %122) : (memref<?xf32>, index) -> f32
        %124 = "arith.index_cast"(%109) : (i32) -> index
        %125 = "arith.addi"(%124, %38) : (index, index) -> index
        %126 = "memref.load"(%arg30, %125) : (memref<?xf32>, index) -> f32
        %127 = "arith.mulf"(%123, %126) : (f32, f32) -> f32
        %128 = "arith.addi"(%115, %38) : (index, index) -> index
        "memref.store"(%127, %arg28, %128) : (f32, memref<?xf32>, index) -> ()
        %129 = "arith.constant"() {value = 0 : index} : () -> index
        %130 = "memref.load"(%40, %129) : (memref<1xi32>, index) -> i32
        %131 = "arith.muli"(%arg44, %130) : (i32, i32) -> i32
        %132 = "arith.addi"(%29, %131) : (i32, i32) -> i32
        %133 = "arith.muli"(%arg42, %130) : (i32, i32) -> i32
        %134 = "arith.constant"() {value = 0 : index} : () -> index
        %135 = "memref.load"(%39, %134) : (memref<1xi32>, index) -> i32
        %136 = "arith.muli"(%133, %135) : (i32, i32) -> i32
        %137 = "arith.addi"(%132, %136) : (i32, i32) -> i32
        %138 = "arith.index_cast"(%137) : (i32) -> index
        %139 = "arith.addi"(%28, %131) : (i32, i32) -> i32
        %140 = "arith.addi"(%139, %136) : (i32, i32) -> i32
        %141 = "arith.index_cast"(%140) : (i32) -> index
        %142 = "arith.addi"(%141, %38) : (index, index) -> index
        %143 = "memref.load"(%arg25, %142) : (memref<?xf32>, index) -> f32
        %144 = "arith.index_cast"(%132) : (i32) -> index
        %145 = "arith.addi"(%144, %38) : (index, index) -> index
        %146 = "memref.load"(%arg30, %145) : (memref<?xf32>, index) -> f32
        %147 = "arith.mulf"(%143, %146) : (f32, f32) -> f32
        %148 = "arith.addi"(%138, %38) : (index, index) -> index
        "memref.store"(%147, %arg25, %148) : (f32, memref<?xf32>, index) -> ()
        %149 = "arith.constant"() {value = 0 : index} : () -> index
        %150 = "memref.load"(%40, %149) : (memref<1xi32>, index) -> i32
        %151 = "arith.muli"(%arg44, %150) : (i32, i32) -> i32
        %152 = "arith.addi"(%29, %151) : (i32, i32) -> i32
        %153 = "arith.muli"(%arg42, %150) : (i32, i32) -> i32
        %154 = "arith.constant"() {value = 0 : index} : () -> index
        %155 = "memref.load"(%39, %154) : (memref<1xi32>, index) -> i32
        %156 = "arith.muli"(%153, %155) : (i32, i32) -> i32
        %157 = "arith.addi"(%152, %156) : (i32, i32) -> i32
        %158 = "arith.index_cast"(%157) : (i32) -> index
        %159 = "arith.addi"(%28, %151) : (i32, i32) -> i32
        %160 = "arith.addi"(%159, %156) : (i32, i32) -> i32
        %161 = "arith.index_cast"(%160) : (i32) -> index
        %162 = "arith.addi"(%161, %38) : (index, index) -> index
        %163 = "memref.load"(%arg28, %162) : (memref<?xf32>, index) -> f32
        %164 = "arith.index_cast"(%152) : (i32) -> index
        %165 = "arith.addi"(%164, %38) : (index, index) -> index
        %166 = "memref.load"(%arg30, %165) : (memref<?xf32>, index) -> f32
        %167 = "arith.mulf"(%163, %166) : (f32, f32) -> f32
        %168 = "arith.addi"(%158, %38) : (index, index) -> index
        "memref.store"(%167, %arg28, %168) : (f32, memref<?xf32>, index) -> ()
        %169 = "arith.addi"(%arg44, %28) : (i32, i32) -> i32
        "scf.yield"(%169) : (i32) -> ()
      }) {arg1 = "for (int j = 0; j < jm; j++) {", arg3 = "for (int j = 0; j < jm; j++) {", depth = 2 : i8, induction_variable = "j", lb = 0 : i32, loop_index = 54 : i32, step = 1 : i8, ub = @jm} : (i32) -> (i32, i32)
      %82 = "arith.addi"(%arg42, %28) : (i32, i32) -> i32
      "scf.yield"(%82) : (i32) -> ()
    }) {arg1 = "for (int k = 0; k < kb; k++) {", depth = 1 : i8, induction_variable = "k", lb = 0 : i32, loop_index = 55 : i32, step = 1 : i8, ub = @kb} : (i32) -> i32
    "func.return"() : () -> ()
  }) {function_type = (memref<?xf32>, memref<?xf32>, memref<?xf32>, memref<?xf32>, memref<?xf32>, memref<?xf32>, memref<?xf32>, memref<?xf32>, memref<?xf32>, memref<?xf32>, memref<?xf32>, memref<?xf32>, memref<?xf32>, memref<?xf32>, memref<?xf32>, memref<?xf32>, memref<?xf32>, memref<?xf32>, memref<?xf32>, memref<?xf32>, memref<?xf32>, memref<?xf32>, memref<?xf32>, memref<?xf32>, memref<?xf32>, memref<?xf32>, memref<?xf32>, memref<?xf32>, memref<?xf32>, memref<?xf32>, memref<?xf32>, memref<?xf32>, memref<?xf32>, memref<?xf32>, memref<?xf32>, memref<?xf32>, memref<?xf32>, memref<?xf32>, memref<?xf32>, memref<?xf32>, memref<?xf32>, memref<?xf32>) -> (), llvm.linkage = #llvm.linkage<external>, sym_name = "ext_profq_original_"} : () -> ()
}) {dlti.dl_spec = #dlti.dl_spec<#dlti.dl_entry<"dlti.endianness", "little">, #dlti.dl_entry<i64, dense<64> : vector<2xi32>>, #dlti.dl_entry<f80, dense<128> : vector<2xi32>>, #dlti.dl_entry<i1, dense<8> : vector<2xi32>>, #dlti.dl_entry<i8, dense<8> : vector<2xi32>>, #dlti.dl_entry<i16, dense<16> : vector<2xi32>>, #dlti.dl_entry<i32, dense<32> : vector<2xi32>>, #dlti.dl_entry<f16, dense<16> : vector<2xi32>>, #dlti.dl_entry<f64, dense<64> : vector<2xi32>>, #dlti.dl_entry<f128, dense<128> : vector<2xi32>>>, llvm.data_layout = "e-m:o-p270:32:32-p271:32:32-p272:64:64-i64:64-f80:128-n8:16:32:64-S128", llvm.target_triple = "x86_64-apple-macosx13.0.0", "polygeist.target-cpu" = "penryn", "polygeist.target-features" = "+cx16,+cx8,+fxsr,+mmx,+sahf,+sse,+sse2,+sse3,+sse4.1,+ssse3,+x87", "polygeist.tune-cpu" = "generic"} : () -> ()
