#loc1 = loc("/Users/mac/Projects/mlir/cpp-to-ops-converter/script/..//in/test.c":157:6)
#loc17 = loc("/Users/mac/Projects/mlir/cpp-to-ops-converter/script/..//in/test.c":194:3)
#loc20 = loc("/Users/mac/Projects/mlir/cpp-to-ops-converter/script/..//in/test.c":195:5)
module attributes {dlti.dl_spec = #dlti.dl_spec<#dlti.dl_entry<"dlti.endianness", "little">, #dlti.dl_entry<i64, dense<64> : vector<2xi32>>, #dlti.dl_entry<f80, dense<128> : vector<2xi32>>, #dlti.dl_entry<i1, dense<8> : vector<2xi32>>, #dlti.dl_entry<i8, dense<8> : vector<2xi32>>, #dlti.dl_entry<i16, dense<16> : vector<2xi32>>, #dlti.dl_entry<i32, dense<32> : vector<2xi32>>, #dlti.dl_entry<f16, dense<16> : vector<2xi32>>, #dlti.dl_entry<f64, dense<64> : vector<2xi32>>, #dlti.dl_entry<f128, dense<128> : vector<2xi32>>>, llvm.data_layout = "e-m:o-p270:32:32-p271:32:32-p272:64:64-i64:64-f80:128-n8:16:32:64-S128", llvm.target_triple = "x86_64-apple-macosx14.0.0", "polygeist.target-cpu" = "penryn", "polygeist.target-features" = "+cx16,+cx8,+fxsr,+mmx,+sahf,+sse,+sse2,+sse3,+sse4.1,+ssse3,+x87", "polygeist.tune-cpu" = "generic"} {
  memref.global @kb : memref<1xi32> loc(#loc0)
  memref.global @grav : memref<1xf32> loc(#loc0)
  memref.global @jm : memref<1xi32> loc(#loc0)
  memref.global @im : memref<1xi32> loc(#loc0)
  memref.global @imm1 : memref<1xi32> loc(#loc0)
  memref.global @jmm1 : memref<1xi32> loc(#loc0)
  func.func @ext_profq_reduced_(%arg0: memref<?xf32> loc("/Users/mac/Projects/mlir/cpp-to-ops-converter/script/..//in/test.c":157:6), %arg1: memref<?xf32> loc("/Users/mac/Projects/mlir/cpp-to-ops-converter/script/..//in/test.c":157:6), %arg2: memref<?xf32> loc("/Users/mac/Projects/mlir/cpp-to-ops-converter/script/..//in/test.c":157:6), %arg3: memref<?xf32> loc("/Users/mac/Projects/mlir/cpp-to-ops-converter/script/..//in/test.c":157:6), %arg4: memref<?xf32> loc("/Users/mac/Projects/mlir/cpp-to-ops-converter/script/..//in/test.c":157:6), %arg5: memref<?xf32> loc("/Users/mac/Projects/mlir/cpp-to-ops-converter/script/..//in/test.c":157:6), %arg6: memref<?xf32> loc("/Users/mac/Projects/mlir/cpp-to-ops-converter/script/..//in/test.c":157:6), %arg7: memref<?xf32> loc("/Users/mac/Projects/mlir/cpp-to-ops-converter/script/..//in/test.c":157:6), %arg8: memref<?xf32> loc("/Users/mac/Projects/mlir/cpp-to-ops-converter/script/..//in/test.c":157:6), %arg9: memref<?xf32> loc("/Users/mac/Projects/mlir/cpp-to-ops-converter/script/..//in/test.c":157:6), %arg10: memref<?xf32> loc("/Users/mac/Projects/mlir/cpp-to-ops-converter/script/..//in/test.c":157:6), %arg11: memref<?xf32> loc("/Users/mac/Projects/mlir/cpp-to-ops-converter/script/..//in/test.c":157:6), %arg12: memref<?xf32> loc("/Users/mac/Projects/mlir/cpp-to-ops-converter/script/..//in/test.c":157:6), %arg13: memref<?xf32> loc("/Users/mac/Projects/mlir/cpp-to-ops-converter/script/..//in/test.c":157:6), %arg14: memref<?xf32> loc("/Users/mac/Projects/mlir/cpp-to-ops-converter/script/..//in/test.c":157:6), %arg15: memref<?xf32> loc("/Users/mac/Projects/mlir/cpp-to-ops-converter/script/..//in/test.c":157:6), %arg16: memref<?xf32> loc("/Users/mac/Projects/mlir/cpp-to-ops-converter/script/..//in/test.c":157:6), %arg17: memref<?xf32> loc("/Users/mac/Projects/mlir/cpp-to-ops-converter/script/..//in/test.c":157:6), %arg18: memref<?xf32> loc("/Users/mac/Projects/mlir/cpp-to-ops-converter/script/..//in/test.c":157:6), %arg19: memref<?xf32> loc("/Users/mac/Projects/mlir/cpp-to-ops-converter/script/..//in/test.c":157:6), %arg20: memref<?xf32> loc("/Users/mac/Projects/mlir/cpp-to-ops-converter/script/..//in/test.c":157:6), %arg21: memref<?xf32> loc("/Users/mac/Projects/mlir/cpp-to-ops-converter/script/..//in/test.c":157:6), %arg22: memref<?xf32> loc("/Users/mac/Projects/mlir/cpp-to-ops-converter/script/..//in/test.c":157:6), %arg23: memref<?xf32> loc("/Users/mac/Projects/mlir/cpp-to-ops-converter/script/..//in/test.c":157:6), %arg24: memref<?xf32> loc("/Users/mac/Projects/mlir/cpp-to-ops-converter/script/..//in/test.c":157:6), %arg25: memref<?xf32> loc("/Users/mac/Projects/mlir/cpp-to-ops-converter/script/..//in/test.c":157:6), %arg26: memref<?xf32> loc("/Users/mac/Projects/mlir/cpp-to-ops-converter/script/..//in/test.c":157:6), %arg27: memref<?xf32> loc("/Users/mac/Projects/mlir/cpp-to-ops-converter/script/..//in/test.c":157:6), %arg28: memref<?xf32> loc("/Users/mac/Projects/mlir/cpp-to-ops-converter/script/..//in/test.c":157:6), %arg29: memref<?xf32> loc("/Users/mac/Projects/mlir/cpp-to-ops-converter/script/..//in/test.c":157:6), %arg30: memref<?xf32> loc("/Users/mac/Projects/mlir/cpp-to-ops-converter/script/..//in/test.c":157:6), %arg31: memref<?xf32> loc("/Users/mac/Projects/mlir/cpp-to-ops-converter/script/..//in/test.c":157:6), %arg32: memref<?xf32> loc("/Users/mac/Projects/mlir/cpp-to-ops-converter/script/..//in/test.c":157:6), %arg33: memref<?xf32> loc("/Users/mac/Projects/mlir/cpp-to-ops-converter/script/..//in/test.c":157:6), %arg34: memref<?xf32> loc("/Users/mac/Projects/mlir/cpp-to-ops-converter/script/..//in/test.c":157:6), %arg35: memref<?xf32> loc("/Users/mac/Projects/mlir/cpp-to-ops-converter/script/..//in/test.c":157:6), %arg36: memref<?xf32> loc("/Users/mac/Projects/mlir/cpp-to-ops-converter/script/..//in/test.c":157:6), %arg37: memref<?xf32> loc("/Users/mac/Projects/mlir/cpp-to-ops-converter/script/..//in/test.c":157:6), %arg38: memref<?xf32> loc("/Users/mac/Projects/mlir/cpp-to-ops-converter/script/..//in/test.c":157:6), %arg39: memref<?xf32> loc("/Users/mac/Projects/mlir/cpp-to-ops-converter/script/..//in/test.c":157:6), %arg40: memref<?xf32> loc("/Users/mac/Projects/mlir/cpp-to-ops-converter/script/..//in/test.c":157:6), %arg41: memref<?xf32> loc("/Users/mac/Projects/mlir/cpp-to-ops-converter/script/..//in/test.c":157:6)) attributes {llvm.linkage = #llvm.linkage<external>} {
    %c-1_i32 = arith.constant -1 : i32 loc(#loc2)
    %cst = arith.constant 135.655716 : f32 loc(#loc3)
    %cst_0 = arith.constant 6.50736904 : f32 loc(#loc4)
    %c1_i32 = arith.constant 1 : i32 loc(#loc2)
    %cst_1 = arith.constant 5.000000e-01 : f32 loc(#loc5)
    %c0_i32 = arith.constant 0 : i32 loc(#loc6)
    %cst_2 = arith.constant 0.000000e+00 : f32 loc(#loc7)
    %cst_3 = arith.constant 2.000000e+05 : f32 loc(#loc8)
    %c0 = arith.constant 0 : index loc(#loc9)
    %0 = memref.get_global @jmm1 : memref<1xi32> loc(#loc10)
    %1 = memref.get_global @imm1 : memref<1xi32> loc(#loc11)
    %2 = memref.get_global @im : memref<1xi32> loc(#loc12)
    %3 = memref.get_global @jm : memref<1xi32> loc(#loc13)
    %4 = memref.get_global @grav : memref<1xf32> loc(#loc14)
    %5 = memref.get_global @kb : memref<1xi32> loc(#loc15)
    %6 = scf.while (%arg42 = %c0_i32) : (i32) -> i32 {
      %c0_4 = arith.constant 0 : index loc(#loc10)
      %7 = memref.load %0[%c0_4] : memref<1xi32> loc(#loc10)
      %8 = arith.cmpi slt, %arg42, %7 : i32 loc(#loc16)
      scf.condition(%8) %arg42 : i32 loc(#loc17)
    } do {
    ^bb0(%arg42: i32 loc("/Users/mac/Projects/mlir/cpp-to-ops-converter/script/..//in/test.c":194:3)):
      %7 = arith.addi %arg42, %c1_i32 : i32 loc(#loc18)
      %8 = scf.while (%arg43 = %c0_i32) : (i32) -> i32 {
        %c0_4 = arith.constant 0 : index loc(#loc11)
        %9 = memref.load %1[%c0_4] : memref<1xi32> loc(#loc11)
        %10 = arith.cmpi slt, %arg43, %9 : i32 loc(#loc19)
        scf.condition(%10) %arg43 : i32 loc(#loc20)
      } do {
      ^bb0(%arg43: i32 loc("/Users/mac/Projects/mlir/cpp-to-ops-converter/script/..//in/test.c":195:5)):
        %c0_4 = arith.constant 0 : index loc(#loc12)
        %9 = memref.load %2[%c0_4] : memref<1xi32> loc(#loc12)
        %10 = arith.muli %arg42, %9 : i32 loc(#loc21)
        %11 = arith.addi %arg43, %10 : i32 loc(#loc22)
        %12 = arith.index_cast %11 : i32 to index loc(#loc23)
        %13 = arith.addi %12, %c0 : index loc(#loc24)
        %14 = memref.load %arg13[%13] : memref<?xf32> loc(#loc24)
        %15 = arith.addi %arg43, %c1_i32 : i32 loc(#loc25)
        %16 = arith.addi %15, %10 : i32 loc(#loc22)
        %17 = arith.index_cast %16 : i32 to index loc(#loc26)
        %18 = arith.addi %17, %c0 : index loc(#loc27)
        %19 = memref.load %arg13[%18] : memref<?xf32> loc(#loc27)
        %20 = arith.addf %14, %19 : f32 loc(#loc28)
        %21 = arith.mulf %20, %cst_1 : f32 loc(#loc29)
        %22 = arith.mulf %21, %21 : f32 loc(#loc30)
        %23 = memref.load %arg14[%13] : memref<?xf32> loc(#loc31)
        %24 = arith.muli %7, %9 : i32 loc(#loc21)
        %25 = arith.addi %arg43, %24 : i32 loc(#loc22)
        %26 = arith.index_cast %25 : i32 to index loc(#loc32)
        %27 = arith.addi %26, %c0 : index loc(#loc33)
        %28 = memref.load %arg14[%27] : memref<?xf32> loc(#loc33)
        %29 = arith.addf %23, %28 : f32 loc(#loc34)
        %30 = arith.mulf %29, %cst_1 : f32 loc(#loc35)
        %31 = arith.mulf %30, %30 : f32 loc(#loc36)
        %32 = arith.addf %22, %31 : f32 loc(#loc37)
        %33 = math.sqrt %32 : f32 loc(#loc38)
        %34 = arith.muli %9, %c0_i32 : i32 loc(#loc39)
        %c0_5 = arith.constant 0 : index loc(#loc13)
        %35 = memref.load %3[%c0_5] : memref<1xi32> loc(#loc13)
        %36 = arith.muli %34, %35 : i32 loc(#loc40)
        %37 = arith.addi %11, %36 : i32 loc(#loc41)
        %38 = arith.index_cast %37 : i32 to index loc(#loc42)
        %39 = arith.addi %38, %c0 : index loc(#loc43)
        memref.store %cst_2, %arg11[%39] : memref<?xf32> loc(#loc44)
        %c0_6 = arith.constant 0 : index loc(#loc45)
        %40 = memref.load %2[%c0_6] : memref<1xi32> loc(#loc45)
        %41 = arith.muli %arg42, %40 : i32 loc(#loc46)
        %42 = arith.addi %arg43, %41 : i32 loc(#loc47)
        %43 = arith.muli %40, %c0_i32 : i32 loc(#loc39)
        %c0_7 = arith.constant 0 : index loc(#loc13)
        %44 = memref.load %3[%c0_7] : memref<1xi32> loc(#loc13)
        %45 = arith.muli %43, %44 : i32 loc(#loc40)
        %46 = arith.addi %42, %45 : i32 loc(#loc41)
        %47 = arith.index_cast %46 : i32 to index loc(#loc48)
        %48 = arith.mulf %33, %cst : f32 loc(#loc49)
        %49 = arith.addi %47, %c0 : index loc(#loc50)
        memref.store %48, %arg12[%49] : memref<?xf32> loc(#loc51)
        %c0_8 = arith.constant 0 : index loc(#loc12)
        %50 = memref.load %2[%c0_8] : memref<1xi32> loc(#loc12)
        %51 = arith.muli %arg42, %50 : i32 loc(#loc21)
        %52 = arith.addi %arg43, %51 : i32 loc(#loc22)
        %53 = arith.index_cast %52 : i32 to index loc(#loc52)
        %54 = arith.mulf %33, %cst_3 : f32 loc(#loc53)
        %c0_9 = arith.constant 0 : index loc(#loc14)
        %55 = memref.load %4[%c0_9] : memref<1xf32> loc(#loc14)
        %56 = arith.divf %54, %55 : f32 loc(#loc54)
        %57 = arith.addi %53, %c0 : index loc(#loc55)
        memref.store %56, %arg35[%57] : memref<?xf32> loc(#loc56)
        %c0_10 = arith.constant 0 : index loc(#loc45)
        %58 = memref.load %2[%c0_10] : memref<1xi32> loc(#loc45)
        %59 = arith.muli %arg42, %58 : i32 loc(#loc46)
        %60 = arith.addi %arg43, %59 : i32 loc(#loc47)
        %c0_11 = arith.constant 0 : index loc(#loc15)
        %61 = memref.load %5[%c0_11] : memref<1xi32> loc(#loc15)
        %62 = arith.addi %61, %c-1_i32 : i32 loc(#loc57)
        %63 = arith.muli %62, %58 : i32 loc(#loc39)
        %c0_12 = arith.constant 0 : index loc(#loc13)
        %64 = memref.load %3[%c0_12] : memref<1xi32> loc(#loc13)
        %65 = arith.muli %63, %64 : i32 loc(#loc40)
        %66 = arith.addi %60, %65 : i32 loc(#loc41)
        %67 = arith.index_cast %66 : i32 to index loc(#loc58)
        %68 = arith.index_cast %60 : i32 to index loc(#loc59)
        %69 = arith.addi %68, %c0 : index loc(#loc60)
        %70 = memref.load %arg16[%69] : memref<?xf32> loc(#loc60)
        %71 = arith.addi %15, %59 : i32 loc(#loc22)
        %72 = arith.index_cast %71 : i32 to index loc(#loc61)
        %73 = arith.addi %72, %c0 : index loc(#loc62)
        %74 = memref.load %arg16[%73] : memref<?xf32> loc(#loc62)
        %75 = arith.addf %70, %74 : f32 loc(#loc63)
        %76 = arith.mulf %75, %cst_1 : f32 loc(#loc64)
        %77 = arith.mulf %76, %76 : f32 loc(#loc65)
        %78 = memref.load %arg17[%69] : memref<?xf32> loc(#loc66)
        %79 = arith.muli %7, %58 : i32 loc(#loc21)
        %80 = arith.addi %arg43, %79 : i32 loc(#loc22)
        %81 = arith.index_cast %80 : i32 to index loc(#loc67)
        %82 = arith.addi %81, %c0 : index loc(#loc68)
        %83 = memref.load %arg17[%82] : memref<?xf32> loc(#loc68)
        %84 = arith.addf %78, %83 : f32 loc(#loc69)
        %85 = arith.mulf %84, %cst_1 : f32 loc(#loc70)
        %86 = arith.mulf %85, %85 : f32 loc(#loc71)
        %87 = arith.addf %77, %86 : f32 loc(#loc72)
        %88 = math.sqrt %87 : f32 loc(#loc73)
        %89 = arith.mulf %88, %cst_0 : f32 loc(#loc74)
        %90 = arith.addi %67, %c0 : index loc(#loc75)
        memref.store %89, %arg15[%90] : memref<?xf32> loc(#loc76)
        scf.yield %15 : i32 loc(#loc20)
      } loc(#loc11)
      scf.yield %7 : i32 loc(#loc17)
    } loc(#loc10)
    return loc(#loc77)
  } loc(#loc1)
} loc(#loc0)
#loc0 = loc(unknown)
#loc2 = loc("/Users/mac/Projects/mlir/cpp-to-ops-converter/script/..//in/test.c":198:63)
#loc3 = loc("/Users/mac/Projects/mlir/cpp-to-ops-converter/script/..//in/test.c":210:27)
#loc4 = loc("/Users/mac/Projects/mlir/cpp-to-ops-converter/script/..//in/test.c":191:13)
#loc5 = loc("/Users/mac/Projects/mlir/cpp-to-ops-converter/script/..//in/test.c":198:18)
#loc6 = loc("/Users/mac/Projects/mlir/cpp-to-ops-converter/script/..//in/test.c":194:16)
#loc7 = loc("/Users/mac/Projects/mlir/cpp-to-ops-converter/script/..//in/test.c":178:16)
#loc8 = loc("/Users/mac/Projects/mlir/cpp-to-ops-converter/script/..//in/test.c":177:17)
#loc9 = loc("/Users/mac/Projects/mlir/cpp-to-ops-converter/script/..//in/test.c":197:7)
#loc10 = loc("/Users/mac/Projects/mlir/cpp-to-ops-converter/script/..//in/test.c":194:23)
#loc11 = loc("/Users/mac/Projects/mlir/cpp-to-ops-converter/script/..//in/test.c":195:25)
#loc12 = loc("/Users/mac/Projects/mlir/cpp-to-ops-converter/script/..//in/pom2k_c_header.h":6:36)
#loc13 = loc("/Users/mac/Projects/mlir/cpp-to-ops-converter/script/..//in/pom2k_c_header.h":8:46)
#loc14 = loc("/Users/mac/Projects/mlir/cpp-to-ops-converter/script/..//in/test.c":217:40)
#loc15 = loc("/Users/mac/Projects/mlir/cpp-to-ops-converter/script/..//in/test.c":222:21)
#loc16 = loc("/Users/mac/Projects/mlir/cpp-to-ops-converter/script/..//in/test.c":194:21)
#loc18 = loc("/Users/mac/Projects/mlir/cpp-to-ops-converter/script/..//in/test.c":200:64)
#loc19 = loc("/Users/mac/Projects/mlir/cpp-to-ops-converter/script/..//in/test.c":195:23)
#loc21 = loc("/Users/mac/Projects/mlir/cpp-to-ops-converter/script/..//in/pom2k_c_header.h":5:43)
#loc22 = loc("/Users/mac/Projects/mlir/cpp-to-ops-converter/script/..//in/pom2k_c_header.h":5:38)
#loc23 = loc("/Users/mac/Projects/mlir/cpp-to-ops-converter/script/..//in/test.c":198:43)
#loc24 = loc("/Users/mac/Projects/mlir/cpp-to-ops-converter/script/..//in/test.c":198:26)
#loc25 = loc("/Users/mac/Projects/mlir/cpp-to-ops-converter/script/..//in/test.c":198:61)
#loc26 = loc("/Users/mac/Projects/mlir/cpp-to-ops-converter/script/..//in/test.c":198:68)
#loc27 = loc("/Users/mac/Projects/mlir/cpp-to-ops-converter/script/..//in/test.c":198:47)
#loc28 = loc("/Users/mac/Projects/mlir/cpp-to-ops-converter/script/..//in/test.c":198:45)
#loc29 = loc("/Users/mac/Projects/mlir/cpp-to-ops-converter/script/..//in/test.c":198:23)
#loc30 = loc("/Users/mac/Projects/mlir/cpp-to-ops-converter/script/..//in/test.c":198:72)
#loc31 = loc("/Users/mac/Projects/mlir/cpp-to-ops-converter/script/..//in/test.c":200:26)
#loc32 = loc("/Users/mac/Projects/mlir/cpp-to-ops-converter/script/..//in/test.c":200:68)
#loc33 = loc("/Users/mac/Projects/mlir/cpp-to-ops-converter/script/..//in/test.c":200:47)
#loc34 = loc("/Users/mac/Projects/mlir/cpp-to-ops-converter/script/..//in/test.c":200:45)
#loc35 = loc("/Users/mac/Projects/mlir/cpp-to-ops-converter/script/..//in/test.c":200:23)
#loc36 = loc("/Users/mac/Projects/mlir/cpp-to-ops-converter/script/..//in/test.c":200:72)
#loc37 = loc("/Users/mac/Projects/mlir/cpp-to-ops-converter/script/..//in/test.c":199:76)
#loc38 = loc("/Users/mac/Projects/mlir/cpp-to-ops-converter/script/..//in/test.c":198:11)
#loc39 = loc("/Users/mac/Projects/mlir/cpp-to-ops-converter/script/..//in/pom2k_c_header.h":7:59)
#loc40 = loc("/Users/mac/Projects/mlir/cpp-to-ops-converter/script/..//in/pom2k_c_header.h":7:63)
#loc41 = loc("/Users/mac/Projects/mlir/cpp-to-ops-converter/script/..//in/pom2k_c_header.h":7:54)
#loc42 = loc("/Users/mac/Projects/mlir/cpp-to-ops-converter/script/..//in/test.c":207:23)
#loc43 = loc("/Users/mac/Projects/mlir/cpp-to-ops-converter/script/..//in/test.c":207:7)
#loc44 = loc("/Users/mac/Projects/mlir/cpp-to-ops-converter/script/..//in/test.c":207:25)
#loc45 = loc("/Users/mac/Projects/mlir/cpp-to-ops-converter/script/..//in/pom2k_c_header.h":8:42)
#loc46 = loc("/Users/mac/Projects/mlir/cpp-to-ops-converter/script/..//in/pom2k_c_header.h":7:50)
#loc47 = loc("/Users/mac/Projects/mlir/cpp-to-ops-converter/script/..//in/pom2k_c_header.h":7:45)
#loc48 = loc("/Users/mac/Projects/mlir/cpp-to-ops-converter/script/..//in/test.c":210:23)
#loc49 = loc("/Users/mac/Projects/mlir/cpp-to-ops-converter/script/..//in/test.c":210:63)
#loc50 = loc("/Users/mac/Projects/mlir/cpp-to-ops-converter/script/..//in/test.c":210:7)
#loc51 = loc("/Users/mac/Projects/mlir/cpp-to-ops-converter/script/..//in/test.c":210:25)
#loc52 = loc("/Users/mac/Projects/mlir/cpp-to-ops-converter/script/..//in/test.c":217:20)
#loc53 = loc("/Users/mac/Projects/mlir/cpp-to-ops-converter/script/..//in/test.c":217:30)
#loc54 = loc("/Users/mac/Projects/mlir/cpp-to-ops-converter/script/..//in/test.c":217:38)
#loc55 = loc("/Users/mac/Projects/mlir/cpp-to-ops-converter/script/..//in/test.c":217:7)
#loc56 = loc("/Users/mac/Projects/mlir/cpp-to-ops-converter/script/..//in/test.c":217:22)
#loc57 = loc("/Users/mac/Projects/mlir/cpp-to-ops-converter/script/..//in/test.c":222:24)
#loc58 = loc("/Users/mac/Projects/mlir/cpp-to-ops-converter/script/..//in/test.c":222:28)
#loc59 = loc("/Users/mac/Projects/mlir/cpp-to-ops-converter/script/..//in/test.c":223:42)
#loc60 = loc("/Users/mac/Projects/mlir/cpp-to-ops-converter/script/..//in/test.c":223:26)
#loc61 = loc("/Users/mac/Projects/mlir/cpp-to-ops-converter/script/..//in/test.c":223:66)
#loc62 = loc("/Users/mac/Projects/mlir/cpp-to-ops-converter/script/..//in/test.c":223:46)
#loc63 = loc("/Users/mac/Projects/mlir/cpp-to-ops-converter/script/..//in/test.c":223:44)
#loc64 = loc("/Users/mac/Projects/mlir/cpp-to-ops-converter/script/..//in/test.c":223:23)
#loc65 = loc("/Users/mac/Projects/mlir/cpp-to-ops-converter/script/..//in/test.c":223:70)
#loc66 = loc("/Users/mac/Projects/mlir/cpp-to-ops-converter/script/..//in/test.c":225:26)
#loc67 = loc("/Users/mac/Projects/mlir/cpp-to-ops-converter/script/..//in/test.c":225:66)
#loc68 = loc("/Users/mac/Projects/mlir/cpp-to-ops-converter/script/..//in/test.c":225:46)
#loc69 = loc("/Users/mac/Projects/mlir/cpp-to-ops-converter/script/..//in/test.c":225:44)
#loc70 = loc("/Users/mac/Projects/mlir/cpp-to-ops-converter/script/..//in/test.c":225:23)
#loc71 = loc("/Users/mac/Projects/mlir/cpp-to-ops-converter/script/..//in/test.c":225:70)
#loc72 = loc("/Users/mac/Projects/mlir/cpp-to-ops-converter/script/..//in/test.c":224:74)
#loc73 = loc("/Users/mac/Projects/mlir/cpp-to-ops-converter/script/..//in/test.c":223:11)
#loc74 = loc("/Users/mac/Projects/mlir/cpp-to-ops-converter/script/..//in/test.c":226:75)
#loc75 = loc("/Users/mac/Projects/mlir/cpp-to-ops-converter/script/..//in/test.c":222:7)
#loc76 = loc("/Users/mac/Projects/mlir/cpp-to-ops-converter/script/..//in/test.c":222:30)
#loc77 = loc("/Users/mac/Projects/mlir/cpp-to-ops-converter/script/..//in/test.c":230:1)

