#loc1 = loc("/Users/mac/Projects/mlir/cpp-to-ops-converter/script/..//in/test.c":129:6)
#loc11 = loc("/Users/mac/Projects/mlir/cpp-to-ops-converter/script/..//in/test.c":143:3)
#loc13 = loc("/Users/mac/Projects/mlir/cpp-to-ops-converter/script/..//in/test.c":144:5)
#loc14 = loc("/Users/mac/Projects/mlir/cpp-to-ops-converter/script/..//in/test.c":140:3)
#loc16 = loc("/Users/mac/Projects/mlir/cpp-to-ops-converter/script/..//in/test.c":145:7)
module attributes {dlti.dl_spec = #dlti.dl_spec<#dlti.dl_entry<"dlti.endianness", "little">, #dlti.dl_entry<i64, dense<64> : vector<2xi32>>, #dlti.dl_entry<f80, dense<128> : vector<2xi32>>, #dlti.dl_entry<i1, dense<8> : vector<2xi32>>, #dlti.dl_entry<i8, dense<8> : vector<2xi32>>, #dlti.dl_entry<i16, dense<16> : vector<2xi32>>, #dlti.dl_entry<i32, dense<32> : vector<2xi32>>, #dlti.dl_entry<f16, dense<16> : vector<2xi32>>, #dlti.dl_entry<f64, dense<64> : vector<2xi32>>, #dlti.dl_entry<f128, dense<128> : vector<2xi32>>>, llvm.data_layout = "e-m:o-p270:32:32-p271:32:32-p272:64:64-i64:64-f80:128-n8:16:32:64-S128", llvm.target_triple = "x86_64-apple-macosx14.0.0", "polygeist.target-cpu" = "penryn", "polygeist.target-features" = "+cx16,+cx8,+fxsr,+mmx,+sahf,+sse,+sse2,+sse3,+sse4.1,+ssse3,+x87", "polygeist.tune-cpu" = "generic"} {
  memref.global @im : memref<1xi32> loc(#loc0)
  memref.global @jm : memref<1xi32> loc(#loc0)
  memref.global @kb : memref<1xi32> loc(#loc0)
  func.func @ext_profq_(%arg0: memref<?xf32> loc("/Users/mac/Projects/mlir/cpp-to-ops-converter/script/..//in/test.c":129:6), %arg1: memref<?xf32> loc("/Users/mac/Projects/mlir/cpp-to-ops-converter/script/..//in/test.c":129:6), %arg2: memref<?xf32> loc("/Users/mac/Projects/mlir/cpp-to-ops-converter/script/..//in/test.c":129:6), %arg3: memref<?xf32> loc("/Users/mac/Projects/mlir/cpp-to-ops-converter/script/..//in/test.c":129:6), %arg4: memref<?xf32> loc("/Users/mac/Projects/mlir/cpp-to-ops-converter/script/..//in/test.c":129:6), %arg5: memref<?xf32> loc("/Users/mac/Projects/mlir/cpp-to-ops-converter/script/..//in/test.c":129:6), %arg6: memref<?xf32> loc("/Users/mac/Projects/mlir/cpp-to-ops-converter/script/..//in/test.c":129:6), %arg7: memref<?xf32> loc("/Users/mac/Projects/mlir/cpp-to-ops-converter/script/..//in/test.c":129:6), %arg8: memref<?xf32> loc("/Users/mac/Projects/mlir/cpp-to-ops-converter/script/..//in/test.c":129:6), %arg9: memref<?xf32> loc("/Users/mac/Projects/mlir/cpp-to-ops-converter/script/..//in/test.c":129:6), %arg10: memref<?xf32> loc("/Users/mac/Projects/mlir/cpp-to-ops-converter/script/..//in/test.c":129:6), %arg11: memref<?xf32> loc("/Users/mac/Projects/mlir/cpp-to-ops-converter/script/..//in/test.c":129:6), %arg12: memref<?xf32> loc("/Users/mac/Projects/mlir/cpp-to-ops-converter/script/..//in/test.c":129:6), %arg13: memref<?xf32> loc("/Users/mac/Projects/mlir/cpp-to-ops-converter/script/..//in/test.c":129:6), %arg14: memref<?xf32> loc("/Users/mac/Projects/mlir/cpp-to-ops-converter/script/..//in/test.c":129:6), %arg15: memref<?xf32> loc("/Users/mac/Projects/mlir/cpp-to-ops-converter/script/..//in/test.c":129:6), %arg16: memref<?xf32> loc("/Users/mac/Projects/mlir/cpp-to-ops-converter/script/..//in/test.c":129:6), %arg17: memref<?xf32> loc("/Users/mac/Projects/mlir/cpp-to-ops-converter/script/..//in/test.c":129:6), %arg18: memref<?xf32> loc("/Users/mac/Projects/mlir/cpp-to-ops-converter/script/..//in/test.c":129:6), %arg19: memref<?xf32> loc("/Users/mac/Projects/mlir/cpp-to-ops-converter/script/..//in/test.c":129:6), %arg20: memref<?xf32> loc("/Users/mac/Projects/mlir/cpp-to-ops-converter/script/..//in/test.c":129:6), %arg21: memref<?xf32> loc("/Users/mac/Projects/mlir/cpp-to-ops-converter/script/..//in/test.c":129:6), %arg22: memref<?xf32> loc("/Users/mac/Projects/mlir/cpp-to-ops-converter/script/..//in/test.c":129:6), %arg23: memref<?xf32> loc("/Users/mac/Projects/mlir/cpp-to-ops-converter/script/..//in/test.c":129:6), %arg24: memref<?xf32> loc("/Users/mac/Projects/mlir/cpp-to-ops-converter/script/..//in/test.c":129:6), %arg25: memref<?xf32> loc("/Users/mac/Projects/mlir/cpp-to-ops-converter/script/..//in/test.c":129:6), %arg26: memref<?xf32> loc("/Users/mac/Projects/mlir/cpp-to-ops-converter/script/..//in/test.c":129:6), %arg27: memref<?xf32> loc("/Users/mac/Projects/mlir/cpp-to-ops-converter/script/..//in/test.c":129:6), %arg28: memref<?xf32> loc("/Users/mac/Projects/mlir/cpp-to-ops-converter/script/..//in/test.c":129:6), %arg29: memref<?xf32> loc("/Users/mac/Projects/mlir/cpp-to-ops-converter/script/..//in/test.c":129:6), %arg30: memref<?xf32> loc("/Users/mac/Projects/mlir/cpp-to-ops-converter/script/..//in/test.c":129:6), %arg31: memref<?xf32> loc("/Users/mac/Projects/mlir/cpp-to-ops-converter/script/..//in/test.c":129:6), %arg32: memref<?xf32> loc("/Users/mac/Projects/mlir/cpp-to-ops-converter/script/..//in/test.c":129:6), %arg33: memref<?xf32> loc("/Users/mac/Projects/mlir/cpp-to-ops-converter/script/..//in/test.c":129:6), %arg34: memref<?xf32> loc("/Users/mac/Projects/mlir/cpp-to-ops-converter/script/..//in/test.c":129:6), %arg35: memref<?xf32> loc("/Users/mac/Projects/mlir/cpp-to-ops-converter/script/..//in/test.c":129:6), %arg36: memref<?xf32> loc("/Users/mac/Projects/mlir/cpp-to-ops-converter/script/..//in/test.c":129:6), %arg37: memref<?xf32> loc("/Users/mac/Projects/mlir/cpp-to-ops-converter/script/..//in/test.c":129:6), %arg38: memref<?xf32> loc("/Users/mac/Projects/mlir/cpp-to-ops-converter/script/..//in/test.c":129:6), %arg39: memref<?xf32> loc("/Users/mac/Projects/mlir/cpp-to-ops-converter/script/..//in/test.c":129:6), %arg40: memref<?xf32> loc("/Users/mac/Projects/mlir/cpp-to-ops-converter/script/..//in/test.c":129:6), %arg41: memref<?xf32> loc("/Users/mac/Projects/mlir/cpp-to-ops-converter/script/..//in/test.c":129:6)) attributes {llvm.linkage = #llvm.linkage<external>} {
    %c1_i32 = arith.constant 1 : i32 loc(#loc2)
    %c0_i32 = arith.constant 0 : i32 loc(#loc3)
    %cst = arith.constant 9.900000e-01 : f32 loc(#loc4)
    %cst_0 = arith.constant 1.660000e+01 : f32 loc(#loc5)
    %c0 = arith.constant 0 : index loc(#loc6)
    %0 = memref.get_global @kb : memref<1xi32> loc(#loc7)
    %1 = memref.get_global @jm : memref<1xi32> loc(#loc8)
    %2 = memref.get_global @im : memref<1xi32> loc(#loc9)
    %3:2 = scf.while (%arg42 = %c0_i32, %arg43 = %cst) : (i32, f32) -> (i32, f32) {
      %c0_1 = arith.constant 0 : index loc(#loc7)
      %4 = memref.load %0[%c0_1] : memref<1xi32> loc(#loc7)
      %5 = arith.cmpi slt, %arg42, %4 : i32 loc(#loc10)
      scf.condition(%5) %arg42, %arg43 : i32, f32 loc(#loc11)
    } do {
    ^bb0(%arg42: i32 loc("/Users/mac/Projects/mlir/cpp-to-ops-converter/script/..//in/test.c":143:3), %arg43: f32 loc("/Users/mac/Projects/mlir/cpp-to-ops-converter/script/..//in/test.c":143:3)):
      %4:2 = scf.while (%arg44 = %c0_i32, %arg45 = %arg43) : (i32, f32) -> (f32, i32) {
        %c0_1 = arith.constant 0 : index loc(#loc8)
        %6 = memref.load %1[%c0_1] : memref<1xi32> loc(#loc8)
        %7 = arith.cmpi slt, %arg44, %6 : i32 loc(#loc12)
        scf.condition(%7) %arg45, %arg44 : f32, i32 loc(#loc13)
      } do {
      ^bb0(%arg44: f32 loc("/Users/mac/Projects/mlir/cpp-to-ops-converter/script/..//in/test.c":140:3), %arg45: i32 loc("/Users/mac/Projects/mlir/cpp-to-ops-converter/script/..//in/test.c":144:5)):
        %6:3 = scf.while (%arg46 = %c0_i32, %arg47 = %arg44) : (i32, f32) -> (f32, i32, i32) {
          %c0_1 = arith.constant 0 : index loc(#loc9)
          %8 = memref.load %2[%c0_1] : memref<1xi32> loc(#loc9)
          %9 = arith.cmpi slt, %arg46, %8 : i32 loc(#loc15)
          scf.condition(%9) %arg47, %8, %arg46 : f32, i32, i32 loc(#loc16)
        } do {
        ^bb0(%arg46: f32 loc("/Users/mac/Projects/mlir/cpp-to-ops-converter/script/..//in/test.c":140:3), %arg47: i32 loc("/Users/mac/Projects/mlir/cpp-to-ops-converter/script/..//in/test.c":145:7), %arg48: i32 loc("/Users/mac/Projects/mlir/cpp-to-ops-converter/script/..//in/test.c":145:7)):
          %8 = arith.mulf %arg46, %cst_0 : f32 loc(#loc17)
          %9 = arith.muli %arg45, %arg47 : i32 loc(#loc18)
          %10 = arith.addi %arg48, %9 : i32 loc(#loc19)
          %11 = arith.muli %arg42, %arg47 : i32 loc(#loc20)
          %c0_1 = arith.constant 0 : index loc(#loc21)
          %12 = memref.load %1[%c0_1] : memref<1xi32> loc(#loc21)
          %13 = arith.muli %11, %12 : i32 loc(#loc22)
          %14 = arith.addi %10, %13 : i32 loc(#loc23)
          %15 = arith.index_cast %14 : i32 to index loc(#loc24)
          %16 = arith.addi %15, %c0 : index loc(#loc25)
          %17 = memref.load %arg38[%16] : memref<?xf32> loc(#loc25)
          %18 = arith.mulf %8, %17 : f32 loc(#loc26)
          %19 = memref.load %arg1[%16] : memref<?xf32> loc(#loc27)
          %20 = arith.addf %18, %19 : f32 loc(#loc28)
          memref.store %20, %arg0[%16] : memref<?xf32> loc(#loc29)
          %21 = arith.addi %arg48, %c1_i32 : i32 loc(#loc2)
          scf.yield %21, %18 : i32, f32 loc(#loc16)
        } loc(#loc9)
        %7 = arith.addi %arg45, %c1_i32 : i32 loc(#loc30)
        scf.yield %7, %6#0 : i32, f32 loc(#loc13)
      } loc(#loc8)
      %5 = arith.addi %arg42, %c1_i32 : i32 loc(#loc31)
      scf.yield %5, %4#0 : i32, f32 loc(#loc11)
    } loc(#loc7)
    return loc(#loc32)
  } loc(#loc1)
} loc(#loc0)
#loc0 = loc(unknown)
#loc2 = loc("/Users/mac/Projects/mlir/cpp-to-ops-converter/script/..//in/test.c":145:32)
#loc3 = loc("/Users/mac/Projects/mlir/cpp-to-ops-converter/script/..//in/test.c":143:16)
#loc4 = loc("/Users/mac/Projects/mlir/cpp-to-ops-converter/script/..//in/test.c":140:17)
#loc5 = loc("/Users/mac/Projects/mlir/cpp-to-ops-converter/script/..//in/test.c":139:14)
#loc6 = loc("/Users/mac/Projects/mlir/cpp-to-ops-converter/script/..//in/test.c":145:12)
#loc7 = loc("/Users/mac/Projects/mlir/cpp-to-ops-converter/script/..//in/test.c":143:23)
#loc8 = loc("/Users/mac/Projects/mlir/cpp-to-ops-converter/script/..//in/test.c":144:25)
#loc9 = loc("/Users/mac/Projects/mlir/cpp-to-ops-converter/script/..//in/test.c":145:27)
#loc10 = loc("/Users/mac/Projects/mlir/cpp-to-ops-converter/script/..//in/test.c":143:21)
#loc12 = loc("/Users/mac/Projects/mlir/cpp-to-ops-converter/script/..//in/test.c":144:23)
#loc15 = loc("/Users/mac/Projects/mlir/cpp-to-ops-converter/script/..//in/test.c":145:25)
#loc17 = loc("/Users/mac/Projects/mlir/cpp-to-ops-converter/script/..//in/test.c":148:23)
#loc18 = loc("/Users/mac/Projects/mlir/cpp-to-ops-converter/script/..//in/pom2k_c_header.h":7:50)
#loc19 = loc("/Users/mac/Projects/mlir/cpp-to-ops-converter/script/..//in/pom2k_c_header.h":7:45)
#loc20 = loc("/Users/mac/Projects/mlir/cpp-to-ops-converter/script/..//in/pom2k_c_header.h":7:59)
#loc21 = loc("/Users/mac/Projects/mlir/cpp-to-ops-converter/script/..//in/pom2k_c_header.h":8:46)
#loc22 = loc("/Users/mac/Projects/mlir/cpp-to-ops-converter/script/..//in/pom2k_c_header.h":7:63)
#loc23 = loc("/Users/mac/Projects/mlir/cpp-to-ops-converter/script/..//in/pom2k_c_header.h":7:54)
#loc24 = loc("/Users/mac/Projects/mlir/cpp-to-ops-converter/script/..//in/test.c":148:47)
#loc25 = loc("/Users/mac/Projects/mlir/cpp-to-ops-converter/script/..//in/test.c":148:30)
#loc26 = loc("/Users/mac/Projects/mlir/cpp-to-ops-converter/script/..//in/test.c":148:28)
#loc27 = loc("/Users/mac/Projects/mlir/cpp-to-ops-converter/script/..//in/test.c":149:37)
#loc28 = loc("/Users/mac/Projects/mlir/cpp-to-ops-converter/script/..//in/test.c":149:35)
#loc29 = loc("/Users/mac/Projects/mlir/cpp-to-ops-converter/script/..//in/test.c":149:27)
#loc30 = loc("/Users/mac/Projects/mlir/cpp-to-ops-converter/script/..//in/test.c":144:30)
#loc31 = loc("/Users/mac/Projects/mlir/cpp-to-ops-converter/script/..//in/test.c":143:28)
#loc32 = loc("/Users/mac/Projects/mlir/cpp-to-ops-converter/script/..//in/test.c":155:1)

