#loc1 = loc("/Users/mac/Projects/mlir/cpp-to-ops-converter/script/..//in/test.c":152:6)
#loc32 = loc("/Users/mac/Projects/mlir/cpp-to-ops-converter/script/..//in/test.c":237:3)
#loc35 = loc("/Users/mac/Projects/mlir/cpp-to-ops-converter/script/..//in/test.c":238:5)
#loc97 = loc("/Users/mac/Projects/mlir/cpp-to-ops-converter/script/..//in/test.c":274:3)
#loc102 = loc("/Users/mac/Projects/mlir/cpp-to-ops-converter/script/..//in/test.c":275:5)
#loc105 = loc("/Users/mac/Projects/mlir/cpp-to-ops-converter/script/..//in/test.c":276:7)
#loc149 = loc("/Users/mac/Projects/mlir/cpp-to-ops-converter/script/..//in/test.c":293:3)
#loc155 = loc("/Users/mac/Projects/mlir/cpp-to-ops-converter/script/..//in/test.c":294:5)
#loc158 = loc("/Users/mac/Projects/mlir/cpp-to-ops-converter/script/..//in/test.c":295:7)
#loc195 = loc("/Users/mac/Projects/mlir/cpp-to-ops-converter/script/..//in/test.c":316:3)
#loc200 = loc("/Users/mac/Projects/mlir/cpp-to-ops-converter/script/..//in/test.c":317:5)
#loc203 = loc("/Users/mac/Projects/mlir/cpp-to-ops-converter/script/..//in/test.c":318:7)
#loc240 = loc("/Users/mac/Projects/mlir/cpp-to-ops-converter/script/..//in/test.c":330:3)
#loc243 = loc("/Users/mac/Projects/mlir/cpp-to-ops-converter/script/..//in/test.c":331:5)
#loc262 = loc("/Users/mac/Projects/mlir/cpp-to-ops-converter/script/..//in/test.c":343:3)
#loc268 = loc("/Users/mac/Projects/mlir/cpp-to-ops-converter/script/..//in/test.c":344:5)
#loc272 = loc("/Users/mac/Projects/mlir/cpp-to-ops-converter/script/..//in/test.c":345:7)
#loc322 = loc("/Users/mac/Projects/mlir/cpp-to-ops-converter/script/..//in/test.c":368:3)
#loc325 = loc("/Users/mac/Projects/mlir/cpp-to-ops-converter/script/..//in/test.c":369:5)
#loc328 = loc("/Users/mac/Projects/mlir/cpp-to-ops-converter/script/..//in/test.c":370:7)
module attributes {dlti.dl_spec = #dlti.dl_spec<#dlti.dl_entry<"dlti.endianness", "little">, #dlti.dl_entry<i64, dense<64> : vector<2xi32>>, #dlti.dl_entry<f80, dense<128> : vector<2xi32>>, #dlti.dl_entry<i1, dense<8> : vector<2xi32>>, #dlti.dl_entry<i8, dense<8> : vector<2xi32>>, #dlti.dl_entry<i16, dense<16> : vector<2xi32>>, #dlti.dl_entry<i32, dense<32> : vector<2xi32>>, #dlti.dl_entry<f16, dense<16> : vector<2xi32>>, #dlti.dl_entry<f64, dense<64> : vector<2xi32>>, #dlti.dl_entry<f128, dense<128> : vector<2xi32>>>, llvm.data_layout = "e-m:o-p270:32:32-p271:32:32-p272:64:64-i64:64-f80:128-n8:16:32:64-S128", llvm.target_triple = "x86_64-apple-macosx13.0.0", "polygeist.target-cpu" = "penryn", "polygeist.target-features" = "+cx16,+cx8,+fxsr,+mmx,+sahf,+sse,+sse2,+sse3,+sse4.1,+ssse3,+x87", "polygeist.tune-cpu" = "generic"} {
  memref.global @small : memref<1xf32> loc(#loc0)
  memref.global @kappa : memref<1xf32> loc(#loc0)
  memref.global @rhoref : memref<1xf32> loc(#loc0)
  memref.global @sbias : memref<1xf32> loc(#loc0)
  memref.global @tbias : memref<1xf32> loc(#loc0)
  memref.global @kbm1 : memref<1xi32> loc(#loc0)
  memref.global @kb : memref<1xi32> loc(#loc0)
  memref.global @grav : memref<1xf32> loc(#loc0)
  memref.global @jm : memref<1xi32> loc(#loc0)
  memref.global @im : memref<1xi32> loc(#loc0)
  memref.global @imm1 : memref<1xi32> loc(#loc0)
  memref.global @jmm1 : memref<1xi32> loc(#loc0)
  func.func @ext_profq_original_(%arg0: memref<?xf32> loc("/Users/mac/Projects/mlir/cpp-to-ops-converter/script/..//in/test.c":152:6), %arg1: memref<?xf32> loc("/Users/mac/Projects/mlir/cpp-to-ops-converter/script/..//in/test.c":152:6), %arg2: memref<?xf32> loc("/Users/mac/Projects/mlir/cpp-to-ops-converter/script/..//in/test.c":152:6), %arg3: memref<?xf32> loc("/Users/mac/Projects/mlir/cpp-to-ops-converter/script/..//in/test.c":152:6), %arg4: memref<?xf32> loc("/Users/mac/Projects/mlir/cpp-to-ops-converter/script/..//in/test.c":152:6), %arg5: memref<?xf32> loc("/Users/mac/Projects/mlir/cpp-to-ops-converter/script/..//in/test.c":152:6), %arg6: memref<?xf32> loc("/Users/mac/Projects/mlir/cpp-to-ops-converter/script/..//in/test.c":152:6), %arg7: memref<?xf32> loc("/Users/mac/Projects/mlir/cpp-to-ops-converter/script/..//in/test.c":152:6), %arg8: memref<?xf32> loc("/Users/mac/Projects/mlir/cpp-to-ops-converter/script/..//in/test.c":152:6), %arg9: memref<?xf32> loc("/Users/mac/Projects/mlir/cpp-to-ops-converter/script/..//in/test.c":152:6), %arg10: memref<?xf32> loc("/Users/mac/Projects/mlir/cpp-to-ops-converter/script/..//in/test.c":152:6), %arg11: memref<?xf32> loc("/Users/mac/Projects/mlir/cpp-to-ops-converter/script/..//in/test.c":152:6), %arg12: memref<?xf32> loc("/Users/mac/Projects/mlir/cpp-to-ops-converter/script/..//in/test.c":152:6), %arg13: memref<?xf32> loc("/Users/mac/Projects/mlir/cpp-to-ops-converter/script/..//in/test.c":152:6), %arg14: memref<?xf32> loc("/Users/mac/Projects/mlir/cpp-to-ops-converter/script/..//in/test.c":152:6), %arg15: memref<?xf32> loc("/Users/mac/Projects/mlir/cpp-to-ops-converter/script/..//in/test.c":152:6), %arg16: memref<?xf32> loc("/Users/mac/Projects/mlir/cpp-to-ops-converter/script/..//in/test.c":152:6), %arg17: memref<?xf32> loc("/Users/mac/Projects/mlir/cpp-to-ops-converter/script/..//in/test.c":152:6), %arg18: memref<?xf32> loc("/Users/mac/Projects/mlir/cpp-to-ops-converter/script/..//in/test.c":152:6), %arg19: memref<?xf32> loc("/Users/mac/Projects/mlir/cpp-to-ops-converter/script/..//in/test.c":152:6), %arg20: memref<?xf32> loc("/Users/mac/Projects/mlir/cpp-to-ops-converter/script/..//in/test.c":152:6), %arg21: memref<?xf32> loc("/Users/mac/Projects/mlir/cpp-to-ops-converter/script/..//in/test.c":152:6), %arg22: memref<?xf32> loc("/Users/mac/Projects/mlir/cpp-to-ops-converter/script/..//in/test.c":152:6), %arg23: memref<?xf32> loc("/Users/mac/Projects/mlir/cpp-to-ops-converter/script/..//in/test.c":152:6), %arg24: memref<?xf32> loc("/Users/mac/Projects/mlir/cpp-to-ops-converter/script/..//in/test.c":152:6), %arg25: memref<?xf32> loc("/Users/mac/Projects/mlir/cpp-to-ops-converter/script/..//in/test.c":152:6), %arg26: memref<?xf32> loc("/Users/mac/Projects/mlir/cpp-to-ops-converter/script/..//in/test.c":152:6), %arg27: memref<?xf32> loc("/Users/mac/Projects/mlir/cpp-to-ops-converter/script/..//in/test.c":152:6), %arg28: memref<?xf32> loc("/Users/mac/Projects/mlir/cpp-to-ops-converter/script/..//in/test.c":152:6), %arg29: memref<?xf32> loc("/Users/mac/Projects/mlir/cpp-to-ops-converter/script/..//in/test.c":152:6), %arg30: memref<?xf32> loc("/Users/mac/Projects/mlir/cpp-to-ops-converter/script/..//in/test.c":152:6), %arg31: memref<?xf32> loc("/Users/mac/Projects/mlir/cpp-to-ops-converter/script/..//in/test.c":152:6), %arg32: memref<?xf32> loc("/Users/mac/Projects/mlir/cpp-to-ops-converter/script/..//in/test.c":152:6), %arg33: memref<?xf32> loc("/Users/mac/Projects/mlir/cpp-to-ops-converter/script/..//in/test.c":152:6), %arg34: memref<?xf32> loc("/Users/mac/Projects/mlir/cpp-to-ops-converter/script/..//in/test.c":152:6), %arg35: memref<?xf32> loc("/Users/mac/Projects/mlir/cpp-to-ops-converter/script/..//in/test.c":152:6), %arg36: memref<?xf32> loc("/Users/mac/Projects/mlir/cpp-to-ops-converter/script/..//in/test.c":152:6), %arg37: memref<?xf32> loc("/Users/mac/Projects/mlir/cpp-to-ops-converter/script/..//in/test.c":152:6), %arg38: memref<?xf32> loc("/Users/mac/Projects/mlir/cpp-to-ops-converter/script/..//in/test.c":152:6), %arg39: memref<?xf32> loc("/Users/mac/Projects/mlir/cpp-to-ops-converter/script/..//in/test.c":152:6), %arg40: memref<?xf32> loc("/Users/mac/Projects/mlir/cpp-to-ops-converter/script/..//in/test.c":152:6), %arg41: memref<?xf32> loc("/Users/mac/Projects/mlir/cpp-to-ops-converter/script/..//in/test.c":152:6)) attributes {llvm.linkage = #llvm.linkage<external>} {
    %c-1_i32 = arith.constant -1 : i32 loc(#loc2)
    %cst = arith.constant 135.655716 : f32 loc(#loc3)
    %cst_0 = arith.constant 6.50736904 : f32 loc(#loc4)
    %cst_1 = arith.constant 2.500000e-01 : f32 loc(#loc5)
    %cst_2 = arith.constant 2.800000e-02 : f32 loc(#loc6)
    %cst_3 = arith.constant -5.000000e-01 : f32 loc(#loc7)
    %cst_4 = arith.constant 4.000000e-01 : f32 loc(#loc8)
    %cst_5 = arith.constant 1.642000e-02 : f32 loc(#loc9)
    %cst_6 = arith.constant 3.500000e+01 : f32 loc(#loc10)
    %cst_7 = arith.constant 1.340000e+00 : f32 loc(#loc11)
    %cst_8 = arith.constant 4.500000e-02 : f32 loc(#loc12)
    %cst_9 = arith.constant 4.550000e+00 : f32 loc(#loc13)
    %cst_10 = arith.constant 0.00820999965 : f32 loc(#loc14)
    %cst_11 = arith.constant 1.449100e+03 : f32 loc(#loc15)
    %cst_12 = arith.constant 9.99999974E-5 : f32 loc(#loc16)
    %c1_i32 = arith.constant 1 : i32 loc(#loc2)
    %cst_13 = arith.constant 5.000000e-01 : f32 loc(#loc17)
    %c0_i32 = arith.constant 0 : i32 loc(#loc18)
    %cst_14 = arith.constant 2.000000e+00 : f32 loc(#loc19)
    %cst_15 = arith.constant 0.000000e+00 : f32 loc(#loc20)
    %cst_16 = arith.constant 2.000000e+05 : f32 loc(#loc21)
    %cst_17 = arith.constant 1.000000e+00 : f32 loc(#loc22)
    %cst_18 = arith.constant 1.660000e+01 : f32 loc(#loc23)
    %c0 = arith.constant 0 : index loc(#loc24)
    %0 = memref.get_global @jmm1 : memref<1xi32> loc(#loc25)
    %1 = memref.get_global @imm1 : memref<1xi32> loc(#loc26)
    %2 = memref.get_global @im : memref<1xi32> loc(#loc27)
    %3 = memref.get_global @jm : memref<1xi32> loc(#loc28)
    %4 = memref.get_global @grav : memref<1xf32> loc(#loc29)
    %5 = memref.get_global @kb : memref<1xi32> loc(#loc30)
    %6 = scf.while (%arg42 = %c0_i32) : (i32) -> i32 {
      %c0_19 = arith.constant 0 : index loc(#loc25)
      %19 = memref.load %0[%c0_19] : memref<1xi32> loc(#loc25)
      %20 = arith.cmpi slt, %arg42, %19 : i32 loc(#loc31)
      scf.condition(%20) %arg42 : i32 loc(#loc32)
    } do {
    ^bb0(%arg42: i32 loc("/Users/mac/Projects/mlir/cpp-to-ops-converter/script/..//in/test.c":237:3)):
      %19 = arith.addi %arg42, %c1_i32 : i32 loc(#loc33)
      %20 = scf.while (%arg43 = %c0_i32) : (i32) -> i32 {
        %c0_19 = arith.constant 0 : index loc(#loc26)
        %21 = memref.load %1[%c0_19] : memref<1xi32> loc(#loc26)
        %22 = arith.cmpi slt, %arg43, %21 : i32 loc(#loc34)
        scf.condition(%22) %arg43 : i32 loc(#loc35)
      } do {
      ^bb0(%arg43: i32 loc("/Users/mac/Projects/mlir/cpp-to-ops-converter/script/..//in/test.c":238:5)):
        %c0_19 = arith.constant 0 : index loc(#loc27)
        %21 = memref.load %2[%c0_19] : memref<1xi32> loc(#loc27)
        %22 = arith.muli %arg42, %21 : i32 loc(#loc36)
        %23 = arith.addi %arg43, %22 : i32 loc(#loc37)
        %24 = arith.index_cast %23 : i32 to index loc(#loc38)
        %25 = arith.addi %24, %c0 : index loc(#loc39)
        %26 = memref.load %arg13[%25] : memref<?xf32> loc(#loc39)
        %27 = arith.addi %arg43, %c1_i32 : i32 loc(#loc40)
        %28 = arith.addi %27, %22 : i32 loc(#loc37)
        %29 = arith.index_cast %28 : i32 to index loc(#loc41)
        %30 = arith.addi %29, %c0 : index loc(#loc42)
        %31 = memref.load %arg13[%30] : memref<?xf32> loc(#loc42)
        %32 = arith.addf %26, %31 : f32 loc(#loc43)
        %33 = arith.mulf %32, %cst_13 : f32 loc(#loc44)
        %34 = arith.mulf %33, %33 : f32 loc(#loc45)
        %35 = memref.load %arg14[%25] : memref<?xf32> loc(#loc46)
        %36 = arith.muli %19, %21 : i32 loc(#loc36)
        %37 = arith.addi %arg43, %36 : i32 loc(#loc37)
        %38 = arith.index_cast %37 : i32 to index loc(#loc47)
        %39 = arith.addi %38, %c0 : index loc(#loc48)
        %40 = memref.load %arg14[%39] : memref<?xf32> loc(#loc48)
        %41 = arith.addf %35, %40 : f32 loc(#loc49)
        %42 = arith.mulf %41, %cst_13 : f32 loc(#loc50)
        %43 = arith.mulf %42, %42 : f32 loc(#loc51)
        %44 = arith.addf %34, %43 : f32 loc(#loc52)
        %45 = math.sqrt %44 : f32 loc(#loc53)
        %46 = arith.muli %21, %c0_i32 : i32 loc(#loc54)
        %c0_20 = arith.constant 0 : index loc(#loc28)
        %47 = memref.load %3[%c0_20] : memref<1xi32> loc(#loc28)
        %48 = arith.muli %46, %47 : i32 loc(#loc55)
        %49 = arith.addi %23, %48 : i32 loc(#loc56)
        %50 = arith.index_cast %49 : i32 to index loc(#loc57)
        %51 = arith.addi %50, %c0 : index loc(#loc58)
        memref.store %cst_15, %arg11[%51] : memref<?xf32> loc(#loc59)
        %c0_21 = arith.constant 0 : index loc(#loc60)
        %52 = memref.load %2[%c0_21] : memref<1xi32> loc(#loc60)
        %53 = arith.muli %arg42, %52 : i32 loc(#loc61)
        %54 = arith.addi %arg43, %53 : i32 loc(#loc62)
        %55 = arith.muli %52, %c0_i32 : i32 loc(#loc54)
        %c0_22 = arith.constant 0 : index loc(#loc28)
        %56 = memref.load %3[%c0_22] : memref<1xi32> loc(#loc28)
        %57 = arith.muli %55, %56 : i32 loc(#loc55)
        %58 = arith.addi %54, %57 : i32 loc(#loc56)
        %59 = arith.index_cast %58 : i32 to index loc(#loc63)
        %60 = arith.mulf %45, %cst : f32 loc(#loc64)
        %61 = arith.addi %59, %c0 : index loc(#loc65)
        memref.store %60, %arg12[%61] : memref<?xf32> loc(#loc66)
        %c0_23 = arith.constant 0 : index loc(#loc27)
        %62 = memref.load %2[%c0_23] : memref<1xi32> loc(#loc27)
        %63 = arith.muli %arg42, %62 : i32 loc(#loc36)
        %64 = arith.addi %arg43, %63 : i32 loc(#loc37)
        %65 = arith.index_cast %64 : i32 to index loc(#loc67)
        %66 = arith.mulf %45, %cst_16 : f32 loc(#loc68)
        %c0_24 = arith.constant 0 : index loc(#loc29)
        %67 = memref.load %4[%c0_24] : memref<1xf32> loc(#loc29)
        %68 = arith.divf %66, %67 : f32 loc(#loc69)
        %69 = arith.addi %65, %c0 : index loc(#loc70)
        memref.store %68, %arg35[%69] : memref<?xf32> loc(#loc71)
        %c0_25 = arith.constant 0 : index loc(#loc60)
        %70 = memref.load %2[%c0_25] : memref<1xi32> loc(#loc60)
        %71 = arith.muli %arg42, %70 : i32 loc(#loc61)
        %72 = arith.addi %arg43, %71 : i32 loc(#loc62)
        %c0_26 = arith.constant 0 : index loc(#loc30)
        %73 = memref.load %5[%c0_26] : memref<1xi32> loc(#loc30)
        %74 = arith.addi %73, %c-1_i32 : i32 loc(#loc72)
        %75 = arith.muli %74, %70 : i32 loc(#loc54)
        %c0_27 = arith.constant 0 : index loc(#loc28)
        %76 = memref.load %3[%c0_27] : memref<1xi32> loc(#loc28)
        %77 = arith.muli %75, %76 : i32 loc(#loc55)
        %78 = arith.addi %72, %77 : i32 loc(#loc56)
        %79 = arith.index_cast %78 : i32 to index loc(#loc73)
        %80 = arith.index_cast %72 : i32 to index loc(#loc74)
        %81 = arith.addi %80, %c0 : index loc(#loc75)
        %82 = memref.load %arg16[%81] : memref<?xf32> loc(#loc75)
        %83 = arith.addi %27, %71 : i32 loc(#loc37)
        %84 = arith.index_cast %83 : i32 to index loc(#loc76)
        %85 = arith.addi %84, %c0 : index loc(#loc77)
        %86 = memref.load %arg16[%85] : memref<?xf32> loc(#loc77)
        %87 = arith.addf %82, %86 : f32 loc(#loc78)
        %88 = arith.mulf %87, %cst_13 : f32 loc(#loc79)
        %89 = arith.mulf %88, %88 : f32 loc(#loc80)
        %90 = memref.load %arg17[%81] : memref<?xf32> loc(#loc81)
        %91 = arith.muli %19, %70 : i32 loc(#loc36)
        %92 = arith.addi %arg43, %91 : i32 loc(#loc37)
        %93 = arith.index_cast %92 : i32 to index loc(#loc82)
        %94 = arith.addi %93, %c0 : index loc(#loc83)
        %95 = memref.load %arg17[%94] : memref<?xf32> loc(#loc83)
        %96 = arith.addf %90, %95 : f32 loc(#loc84)
        %97 = arith.mulf %96, %cst_13 : f32 loc(#loc85)
        %98 = arith.mulf %97, %97 : f32 loc(#loc86)
        %99 = arith.addf %89, %98 : f32 loc(#loc87)
        %100 = math.sqrt %99 : f32 loc(#loc88)
        %101 = arith.mulf %100, %cst_0 : f32 loc(#loc89)
        %102 = arith.addi %79, %c0 : index loc(#loc90)
        memref.store %101, %arg15[%102] : memref<?xf32> loc(#loc91)
        scf.yield %27 : i32 loc(#loc35)
      } loc(#loc26)
      scf.yield %19 : i32 loc(#loc32)
    } loc(#loc25)
    %7 = memref.get_global @kbm1 : memref<1xi32> loc(#loc92)
    %8 = memref.get_global @tbias : memref<1xf32> loc(#loc93)
    %9 = memref.get_global @sbias : memref<1xf32> loc(#loc94)
    %10 = memref.get_global @rhoref : memref<1xf32> loc(#loc95)
    %11 = scf.while (%arg42 = %c0_i32) : (i32) -> i32 {
      %c0_19 = arith.constant 0 : index loc(#loc92)
      %19 = memref.load %7[%c0_19] : memref<1xi32> loc(#loc92)
      %20 = arith.cmpi slt, %arg42, %19 : i32 loc(#loc96)
      scf.condition(%20) %arg42 : i32 loc(#loc97)
    } do {
    ^bb0(%arg42: i32 loc("/Users/mac/Projects/mlir/cpp-to-ops-converter/script/..//in/test.c":274:3)):
      %19 = arith.index_cast %arg42 : i32 to index loc(#loc98)
      %20 = arith.addi %19, %c0 : index loc(#loc99)
      %21 = scf.while (%arg43 = %c0_i32) : (i32) -> i32 {
        %c0_19 = arith.constant 0 : index loc(#loc100)
        %23 = memref.load %3[%c0_19] : memref<1xi32> loc(#loc100)
        %24 = arith.cmpi slt, %arg43, %23 : i32 loc(#loc101)
        scf.condition(%24) %arg43 : i32 loc(#loc102)
      } do {
      ^bb0(%arg43: i32 loc("/Users/mac/Projects/mlir/cpp-to-ops-converter/script/..//in/test.c":275:5)):
        %23:2 = scf.while (%arg44 = %c0_i32) : (i32) -> (i32, i32) {
          %c0_19 = arith.constant 0 : index loc(#loc103)
          %25 = memref.load %2[%c0_19] : memref<1xi32> loc(#loc103)
          %26 = arith.cmpi slt, %arg44, %25 : i32 loc(#loc104)
          scf.condition(%26) %25, %arg44 : i32, i32 loc(#loc105)
        } do {
        ^bb0(%arg44: i32 loc("/Users/mac/Projects/mlir/cpp-to-ops-converter/script/..//in/test.c":276:7), %arg45: i32 loc("/Users/mac/Projects/mlir/cpp-to-ops-converter/script/..//in/test.c":276:7)):
          %25 = arith.muli %arg43, %arg44 : i32 loc(#loc61)
          %26 = arith.addi %arg45, %25 : i32 loc(#loc62)
          %27 = arith.muli %arg42, %arg44 : i32 loc(#loc54)
          %c0_19 = arith.constant 0 : index loc(#loc28)
          %28 = memref.load %3[%c0_19] : memref<1xi32> loc(#loc28)
          %29 = arith.muli %27, %28 : i32 loc(#loc55)
          %30 = arith.addi %26, %29 : i32 loc(#loc56)
          %31 = arith.index_cast %30 : i32 to index loc(#loc106)
          %32 = arith.addi %31, %c0 : index loc(#loc107)
          %33 = memref.load %arg18[%32] : memref<?xf32> loc(#loc107)
          %c0_20 = arith.constant 0 : index loc(#loc93)
          %34 = memref.load %8[%c0_20] : memref<1xf32> loc(#loc93)
          %35 = arith.addf %33, %34 : f32 loc(#loc108)
          %36 = memref.load %arg19[%32] : memref<?xf32> loc(#loc109)
          %c0_21 = arith.constant 0 : index loc(#loc94)
          %37 = memref.load %9[%c0_21] : memref<1xf32> loc(#loc94)
          %38 = arith.addf %36, %37 : f32 loc(#loc110)
          %c0_22 = arith.constant 0 : index loc(#loc111)
          %39 = memref.load %4[%c0_22] : memref<1xf32> loc(#loc111)
          %c0_23 = arith.constant 0 : index loc(#loc95)
          %40 = memref.load %10[%c0_23] : memref<1xf32> loc(#loc95)
          %41 = arith.mulf %39, %40 : f32 loc(#loc112)
          %42 = memref.load %arg20[%20] : memref<?xf32> loc(#loc99)
          %43 = arith.negf %42 : f32 loc(#loc113)
          %44 = arith.index_cast %26 : i32 to index loc(#loc114)
          %45 = arith.addi %44, %c0 : index loc(#loc115)
          %46 = memref.load %arg4[%45] : memref<?xf32> loc(#loc115)
          %47 = arith.mulf %43, %46 : f32 loc(#loc116)
          %48 = arith.mulf %41, %47 : f32 loc(#loc117)
          %49 = arith.mulf %48, %cst_12 : f32 loc(#loc118)
          %50 = arith.mulf %49, %cst_10 : f32 loc(#loc119)
          %51 = arith.addf %50, %cst_11 : f32 loc(#loc120)
          %52 = arith.mulf %35, %cst_9 : f32 loc(#loc121)
          %53 = arith.addf %51, %52 : f32 loc(#loc122)
          %54 = arith.mulf %35, %cst_8 : f32 loc(#loc123)
          %55 = arith.mulf %54, %35 : f32 loc(#loc124)
          %56 = arith.subf %53, %55 : f32 loc(#loc125)
          %57 = arith.subf %38, %cst_6 : f32 loc(#loc126)
          %58 = arith.mulf %57, %cst_7 : f32 loc(#loc127)
          %59 = arith.addf %56, %58 : f32 loc(#loc128)
          memref.store %59, %arg3[%32] : memref<?xf32> loc(#loc129)
          %c0_24 = arith.constant 0 : index loc(#loc60)
          %60 = memref.load %2[%c0_24] : memref<1xi32> loc(#loc60)
          %61 = arith.muli %arg43, %60 : i32 loc(#loc61)
          %62 = arith.addi %arg45, %61 : i32 loc(#loc62)
          %63 = arith.muli %arg42, %60 : i32 loc(#loc54)
          %c0_25 = arith.constant 0 : index loc(#loc28)
          %64 = memref.load %3[%c0_25] : memref<1xi32> loc(#loc28)
          %65 = arith.muli %63, %64 : i32 loc(#loc55)
          %66 = arith.addi %62, %65 : i32 loc(#loc56)
          %67 = arith.index_cast %66 : i32 to index loc(#loc130)
          %68 = arith.addi %67, %c0 : index loc(#loc131)
          %69 = memref.load %arg3[%68] : memref<?xf32> loc(#loc132)
          %70 = arith.mulf %49, %cst_5 : f32 loc(#loc133)
          %71 = arith.divf %70, %69 : f32 loc(#loc134)
          %72 = arith.subf %cst_17, %71 : f32 loc(#loc135)
          %73 = arith.mulf %49, %cst_4 : f32 loc(#loc136)
          %74 = arith.mulf %69, %69 : f32 loc(#loc137)
          %75 = arith.divf %73, %74 : f32 loc(#loc138)
          %76 = arith.subf %cst_17, %75 : f32 loc(#loc139)
          %77 = arith.mulf %72, %76 : f32 loc(#loc140)
          %78 = math.sqrt %77 : f32 loc(#loc141)
          %79 = arith.divf %69, %78 : f32 loc(#loc142)
          memref.store %79, %arg3[%68] : memref<?xf32> loc(#loc143)
          %80 = arith.addi %arg45, %c1_i32 : i32 loc(#loc144)
          scf.yield %80 : i32 loc(#loc105)
        } loc(#loc103)
        %24 = arith.addi %arg43, %c1_i32 : i32 loc(#loc145)
        scf.yield %24 : i32 loc(#loc102)
      } loc(#loc100)
      %22 = arith.addi %arg42, %c1_i32 : i32 loc(#loc146)
      scf.yield %22 : i32 loc(#loc97)
    } loc(#loc92)
    %12 = scf.while (%arg42 = %c1_i32) : (i32) -> i32 {
      %c0_19 = arith.constant 0 : index loc(#loc147)
      %19 = memref.load %7[%c0_19] : memref<1xi32> loc(#loc147)
      %20 = arith.cmpi slt, %arg42, %19 : i32 loc(#loc148)
      scf.condition(%20) %arg42 : i32 loc(#loc149)
    } do {
    ^bb0(%arg42: i32 loc("/Users/mac/Projects/mlir/cpp-to-ops-converter/script/..//in/test.c":293:3)):
      %19 = arith.addi %arg42, %c-1_i32 : i32 loc(#loc150)
      %20 = arith.index_cast %19 : i32 to index loc(#loc151)
      %21 = arith.addi %20, %c0 : index loc(#loc152)
      %22 = scf.while (%arg43 = %c0_i32) : (i32) -> i32 {
        %c0_19 = arith.constant 0 : index loc(#loc153)
        %24 = memref.load %3[%c0_19] : memref<1xi32> loc(#loc153)
        %25 = arith.cmpi slt, %arg43, %24 : i32 loc(#loc154)
        scf.condition(%25) %arg43 : i32 loc(#loc155)
      } do {
      ^bb0(%arg43: i32 loc("/Users/mac/Projects/mlir/cpp-to-ops-converter/script/..//in/test.c":294:5)):
        %24:2 = scf.while (%arg44 = %c0_i32) : (i32) -> (i32, i32) {
          %c0_19 = arith.constant 0 : index loc(#loc156)
          %26 = memref.load %2[%c0_19] : memref<1xi32> loc(#loc156)
          %27 = arith.cmpi slt, %arg44, %26 : i32 loc(#loc157)
          scf.condition(%27) %26, %arg44 : i32, i32 loc(#loc158)
        } do {
        ^bb0(%arg44: i32 loc("/Users/mac/Projects/mlir/cpp-to-ops-converter/script/..//in/test.c":295:7), %arg45: i32 loc("/Users/mac/Projects/mlir/cpp-to-ops-converter/script/..//in/test.c":295:7)):
          %26 = arith.muli %arg43, %arg44 : i32 loc(#loc61)
          %27 = arith.addi %arg45, %26 : i32 loc(#loc62)
          %28 = arith.muli %arg42, %arg44 : i32 loc(#loc54)
          %c0_19 = arith.constant 0 : index loc(#loc28)
          %29 = memref.load %3[%c0_19] : memref<1xi32> loc(#loc28)
          %30 = arith.muli %28, %29 : i32 loc(#loc55)
          %31 = arith.addi %27, %30 : i32 loc(#loc56)
          %32 = arith.index_cast %31 : i32 to index loc(#loc159)
          %33 = arith.addi %32, %c0 : index loc(#loc160)
          %34 = memref.load %arg21[%33] : memref<?xf32> loc(#loc161)
          %35 = math.absf %34 : f32 loc(#loc162)
          memref.store %35, %arg21[%33] : memref<?xf32> loc(#loc163)
          %c0_20 = arith.constant 0 : index loc(#loc60)
          %36 = memref.load %2[%c0_20] : memref<1xi32> loc(#loc60)
          %37 = arith.muli %arg43, %36 : i32 loc(#loc61)
          %38 = arith.addi %arg45, %37 : i32 loc(#loc62)
          %39 = arith.muli %arg42, %36 : i32 loc(#loc54)
          %c0_21 = arith.constant 0 : index loc(#loc28)
          %40 = memref.load %3[%c0_21] : memref<1xi32> loc(#loc28)
          %41 = arith.muli %39, %40 : i32 loc(#loc55)
          %42 = arith.addi %38, %41 : i32 loc(#loc56)
          %43 = arith.index_cast %42 : i32 to index loc(#loc164)
          %44 = arith.addi %43, %c0 : index loc(#loc165)
          %45 = memref.load %arg22[%44] : memref<?xf32> loc(#loc166)
          %46 = math.absf %45 : f32 loc(#loc167)
          memref.store %46, %arg22[%44] : memref<?xf32> loc(#loc168)
          %c0_22 = arith.constant 0 : index loc(#loc60)
          %47 = memref.load %2[%c0_22] : memref<1xi32> loc(#loc60)
          %48 = arith.muli %arg43, %47 : i32 loc(#loc61)
          %49 = arith.addi %arg45, %48 : i32 loc(#loc62)
          %50 = arith.muli %arg42, %47 : i32 loc(#loc54)
          %c0_23 = arith.constant 0 : index loc(#loc28)
          %51 = memref.load %3[%c0_23] : memref<1xi32> loc(#loc28)
          %52 = arith.muli %50, %51 : i32 loc(#loc55)
          %53 = arith.addi %49, %52 : i32 loc(#loc56)
          %54 = arith.index_cast %53 : i32 to index loc(#loc169)
          %c0_24 = arith.constant 0 : index loc(#loc170)
          %55 = memref.load %4[%c0_24] : memref<1xf32> loc(#loc170)
          %56 = arith.muli %19, %47 : i32 loc(#loc54)
          %57 = arith.muli %56, %51 : i32 loc(#loc55)
          %58 = arith.addi %49, %57 : i32 loc(#loc56)
          %59 = arith.index_cast %58 : i32 to index loc(#loc171)
          %60 = arith.addi %59, %c0 : index loc(#loc172)
          %61 = memref.load %arg33[%60] : memref<?xf32> loc(#loc172)
          %62 = arith.addi %54, %c0 : index loc(#loc173)
          %63 = memref.load %arg33[%62] : memref<?xf32> loc(#loc173)
          %64 = arith.subf %61, %63 : f32 loc(#loc174)
          %65 = arith.mulf %55, %64 : f32 loc(#loc175)
          %66 = memref.load %arg10[%21] : memref<?xf32> loc(#loc152)
          %67 = arith.index_cast %49 : i32 to index loc(#loc176)
          %68 = arith.addi %67, %c0 : index loc(#loc177)
          %69 = memref.load %arg4[%68] : memref<?xf32> loc(#loc177)
          %70 = arith.mulf %66, %69 : f32 loc(#loc178)
          %71 = arith.divf %65, %70 : f32 loc(#loc179)
          %72 = arith.mulf %55, %55 : f32 loc(#loc180)
          %73 = arith.mulf %72, %cst_14 : f32 loc(#loc181)
          %74 = memref.load %arg3[%60] : memref<?xf32> loc(#loc182)
          %75 = arith.mulf %74, %74 : f32 loc(#loc183)
          %76 = memref.load %arg3[%62] : memref<?xf32> loc(#loc184)
          %77 = arith.mulf %76, %76 : f32 loc(#loc185)
          %78 = arith.addf %75, %77 : f32 loc(#loc186)
          %79 = arith.divf %73, %78 : f32 loc(#loc187)
          %80 = arith.addf %71, %79 : f32 loc(#loc188)
          memref.store %80, %arg37[%62] : memref<?xf32> loc(#loc189)
          %81 = arith.addi %arg45, %c1_i32 : i32 loc(#loc190)
          scf.yield %81 : i32 loc(#loc158)
        } loc(#loc156)
        %25 = arith.addi %arg43, %c1_i32 : i32 loc(#loc191)
        scf.yield %25 : i32 loc(#loc155)
      } loc(#loc153)
      %23 = arith.addi %arg42, %c1_i32 : i32 loc(#loc192)
      scf.yield %23 : i32 loc(#loc149)
    } loc(#loc147)
    %13 = scf.while (%arg42 = %c1_i32) : (i32) -> i32 {
      %c0_19 = arith.constant 0 : index loc(#loc193)
      %19 = memref.load %7[%c0_19] : memref<1xi32> loc(#loc193)
      %20 = arith.cmpi slt, %arg42, %19 : i32 loc(#loc194)
      scf.condition(%20) %arg42 : i32 loc(#loc195)
    } do {
    ^bb0(%arg42: i32 loc("/Users/mac/Projects/mlir/cpp-to-ops-converter/script/..//in/test.c":316:3)):
      %19 = arith.index_cast %arg42 : i32 to index loc(#loc196)
      %20 = arith.addi %19, %c0 : index loc(#loc197)
      %21 = scf.while (%arg43 = %c0_i32) : (i32) -> i32 {
        %c0_19 = arith.constant 0 : index loc(#loc198)
        %23 = memref.load %3[%c0_19] : memref<1xi32> loc(#loc198)
        %24 = arith.cmpi slt, %arg43, %23 : i32 loc(#loc199)
        scf.condition(%24) %arg43 : i32 loc(#loc200)
      } do {
      ^bb0(%arg43: i32 loc("/Users/mac/Projects/mlir/cpp-to-ops-converter/script/..//in/test.c":317:5)):
        %23:2 = scf.while (%arg44 = %c0_i32) : (i32) -> (i32, i32) {
          %c0_19 = arith.constant 0 : index loc(#loc201)
          %25 = memref.load %2[%c0_19] : memref<1xi32> loc(#loc201)
          %26 = arith.cmpi slt, %arg44, %25 : i32 loc(#loc202)
          scf.condition(%26) %25, %arg44 : i32, i32 loc(#loc203)
        } do {
        ^bb0(%arg44: i32 loc("/Users/mac/Projects/mlir/cpp-to-ops-converter/script/..//in/test.c":318:7), %arg45: i32 loc("/Users/mac/Projects/mlir/cpp-to-ops-converter/script/..//in/test.c":318:7)):
          %25 = arith.muli %arg43, %arg44 : i32 loc(#loc61)
          %26 = arith.addi %arg45, %25 : i32 loc(#loc62)
          %27 = arith.muli %arg42, %arg44 : i32 loc(#loc54)
          %c0_19 = arith.constant 0 : index loc(#loc28)
          %28 = memref.load %3[%c0_19] : memref<1xi32> loc(#loc28)
          %29 = arith.muli %27, %28 : i32 loc(#loc55)
          %30 = arith.addi %26, %29 : i32 loc(#loc56)
          %31 = arith.index_cast %30 : i32 to index loc(#loc204)
          %32 = arith.addi %31, %c0 : index loc(#loc205)
          %33 = memref.load %arg22[%32] : memref<?xf32> loc(#loc205)
          %34 = memref.load %arg21[%32] : memref<?xf32> loc(#loc206)
          %35 = arith.divf %33, %34 : f32 loc(#loc207)
          %36 = math.absf %35 : f32 loc(#loc208)
          memref.store %36, %arg23[%32] : memref<?xf32> loc(#loc209)
          %37 = memref.load %arg24[%20] : memref<?xf32> loc(#loc197)
          %38 = arith.cmpf ogt, %37, %cst_3 : f32 loc(#loc210)
          scf.if %38 {
            %c0_24 = arith.constant 0 : index loc(#loc60)
            %66 = memref.load %2[%c0_24] : memref<1xi32> loc(#loc60)
            %67 = arith.muli %arg43, %66 : i32 loc(#loc61)
            %68 = arith.addi %arg45, %67 : i32 loc(#loc62)
            %69 = arith.muli %arg42, %66 : i32 loc(#loc54)
            %c0_25 = arith.constant 0 : index loc(#loc28)
            %70 = memref.load %3[%c0_25] : memref<1xi32> loc(#loc28)
            %71 = arith.muli %69, %70 : i32 loc(#loc55)
            %72 = arith.addi %68, %71 : i32 loc(#loc56)
            %73 = arith.index_cast %72 : i32 to index loc(#loc212)
            %74 = arith.addi %73, %c0 : index loc(#loc213)
            %75 = memref.load %arg23[%74] : memref<?xf32> loc(#loc214)
            %76 = memref.get_global @kappa : memref<1xf32> loc(#loc215)
            %c0_26 = arith.constant 0 : index loc(#loc215)
            %77 = memref.load %76[%c0_26] : memref<1xf32> loc(#loc215)
            %78 = arith.index_cast %68 : i32 to index loc(#loc216)
            %79 = arith.addi %78, %c0 : index loc(#loc217)
            %80 = memref.load %arg35[%79] : memref<?xf32> loc(#loc217)
            %81 = arith.mulf %77, %80 : f32 loc(#loc218)
            %82 = func.call @fmaxf(%75, %81) : (f32, f32) -> f32 loc(#loc219)
            memref.store %82, %arg23[%74] : memref<?xf32> loc(#loc220)
          } loc(#loc211)
          %c0_20 = arith.constant 0 : index loc(#loc60)
          %39 = memref.load %2[%c0_20] : memref<1xi32> loc(#loc60)
          %40 = arith.muli %arg43, %39 : i32 loc(#loc61)
          %41 = arith.addi %arg45, %40 : i32 loc(#loc62)
          %42 = arith.muli %arg42, %39 : i32 loc(#loc54)
          %c0_21 = arith.constant 0 : index loc(#loc28)
          %43 = memref.load %3[%c0_21] : memref<1xi32> loc(#loc28)
          %44 = arith.muli %42, %43 : i32 loc(#loc55)
          %45 = arith.addi %41, %44 : i32 loc(#loc56)
          %46 = arith.index_cast %45 : i32 to index loc(#loc221)
          %47 = arith.addi %46, %c0 : index loc(#loc222)
          %48 = memref.load %arg23[%47] : memref<?xf32> loc(#loc222)
          %49 = arith.mulf %48, %48 : f32 loc(#loc223)
          %50 = memref.load %arg37[%47] : memref<?xf32> loc(#loc224)
          %51 = arith.mulf %49, %50 : f32 loc(#loc225)
          %52 = memref.load %arg21[%47] : memref<?xf32> loc(#loc226)
          %53 = arith.divf %51, %52 : f32 loc(#loc227)
          memref.store %53, %arg36[%47] : memref<?xf32> loc(#loc228)
          %c0_22 = arith.constant 0 : index loc(#loc60)
          %54 = memref.load %2[%c0_22] : memref<1xi32> loc(#loc60)
          %55 = arith.muli %arg43, %54 : i32 loc(#loc61)
          %56 = arith.addi %arg45, %55 : i32 loc(#loc62)
          %57 = arith.muli %arg42, %54 : i32 loc(#loc54)
          %c0_23 = arith.constant 0 : index loc(#loc28)
          %58 = memref.load %3[%c0_23] : memref<1xi32> loc(#loc28)
          %59 = arith.muli %57, %58 : i32 loc(#loc55)
          %60 = arith.addi %56, %59 : i32 loc(#loc56)
          %61 = arith.index_cast %60 : i32 to index loc(#loc229)
          %62 = arith.addi %61, %c0 : index loc(#loc230)
          %63 = memref.load %arg36[%62] : memref<?xf32> loc(#loc231)
          %64 = func.call @fminf(%63, %cst_2) : (f32, f32) -> f32 loc(#loc232)
          memref.store %64, %arg36[%62] : memref<?xf32> loc(#loc233)
          %65 = arith.addi %arg45, %c1_i32 : i32 loc(#loc234)
          scf.yield %65 : i32 loc(#loc203)
        } loc(#loc201)
        %24 = arith.addi %arg43, %c1_i32 : i32 loc(#loc235)
        scf.yield %24 : i32 loc(#loc200)
      } loc(#loc198)
      %22 = arith.addi %arg42, %c1_i32 : i32 loc(#loc236)
      scf.yield %22 : i32 loc(#loc195)
    } loc(#loc193)
    %14 = memref.get_global @kappa : memref<1xf32> loc(#loc237)
    %15 = scf.while (%arg42 = %c0_i32) : (i32) -> i32 {
      %c0_19 = arith.constant 0 : index loc(#loc238)
      %19 = memref.load %3[%c0_19] : memref<1xi32> loc(#loc238)
      %20 = arith.cmpi slt, %arg42, %19 : i32 loc(#loc239)
      scf.condition(%20) %arg42 : i32 loc(#loc240)
    } do {
    ^bb0(%arg42: i32 loc("/Users/mac/Projects/mlir/cpp-to-ops-converter/script/..//in/test.c":330:3)):
      %19:2 = scf.while (%arg43 = %c0_i32) : (i32) -> (i32, i32) {
        %c0_19 = arith.constant 0 : index loc(#loc241)
        %21 = memref.load %2[%c0_19] : memref<1xi32> loc(#loc241)
        %22 = arith.cmpi slt, %arg43, %21 : i32 loc(#loc242)
        scf.condition(%22) %21, %arg43 : i32, i32 loc(#loc243)
      } do {
      ^bb0(%arg43: i32 loc("/Users/mac/Projects/mlir/cpp-to-ops-converter/script/..//in/test.c":331:5), %arg44: i32 loc("/Users/mac/Projects/mlir/cpp-to-ops-converter/script/..//in/test.c":331:5)):
        %21 = arith.muli %arg42, %arg43 : i32 loc(#loc61)
        %22 = arith.addi %arg44, %21 : i32 loc(#loc62)
        %23 = arith.muli %arg43, %c0_i32 : i32 loc(#loc54)
        %c0_19 = arith.constant 0 : index loc(#loc28)
        %24 = memref.load %3[%c0_19] : memref<1xi32> loc(#loc28)
        %25 = arith.muli %23, %24 : i32 loc(#loc55)
        %26 = arith.addi %22, %25 : i32 loc(#loc56)
        %27 = arith.index_cast %26 : i32 to index loc(#loc244)
        %c0_20 = arith.constant 0 : index loc(#loc237)
        %28 = memref.load %14[%c0_20] : memref<1xf32> loc(#loc237)
        %29 = arith.index_cast %22 : i32 to index loc(#loc245)
        %30 = arith.addi %29, %c0 : index loc(#loc246)
        %31 = memref.load %arg35[%30] : memref<?xf32> loc(#loc246)
        %32 = arith.mulf %28, %31 : f32 loc(#loc247)
        %33 = arith.addi %27, %c0 : index loc(#loc248)
        memref.store %32, %arg23[%33] : memref<?xf32> loc(#loc249)
        %c0_21 = arith.constant 0 : index loc(#loc60)
        %34 = memref.load %2[%c0_21] : memref<1xi32> loc(#loc60)
        %35 = arith.muli %arg42, %34 : i32 loc(#loc61)
        %36 = arith.addi %arg44, %35 : i32 loc(#loc62)
        %c0_22 = arith.constant 0 : index loc(#loc250)
        %37 = memref.load %5[%c0_22] : memref<1xi32> loc(#loc250)
        %38 = arith.addi %37, %c-1_i32 : i32 loc(#loc251)
        %39 = arith.muli %38, %34 : i32 loc(#loc54)
        %c0_23 = arith.constant 0 : index loc(#loc28)
        %40 = memref.load %3[%c0_23] : memref<1xi32> loc(#loc28)
        %41 = arith.muli %39, %40 : i32 loc(#loc55)
        %42 = arith.addi %36, %41 : i32 loc(#loc56)
        %43 = arith.index_cast %42 : i32 to index loc(#loc252)
        %44 = arith.addi %43, %c0 : index loc(#loc253)
        memref.store %cst_15, %arg23[%44] : memref<?xf32> loc(#loc254)
        %c0_24 = arith.constant 0 : index loc(#loc60)
        %45 = memref.load %2[%c0_24] : memref<1xi32> loc(#loc60)
        %46 = arith.muli %arg42, %45 : i32 loc(#loc61)
        %47 = arith.addi %arg44, %46 : i32 loc(#loc62)
        %48 = arith.muli %45, %c0_i32 : i32 loc(#loc54)
        %c0_25 = arith.constant 0 : index loc(#loc28)
        %49 = memref.load %3[%c0_25] : memref<1xi32> loc(#loc28)
        %50 = arith.muli %48, %49 : i32 loc(#loc55)
        %51 = arith.addi %47, %50 : i32 loc(#loc56)
        %52 = arith.index_cast %51 : i32 to index loc(#loc255)
        %53 = arith.addi %52, %c0 : index loc(#loc256)
        memref.store %cst_15, %arg36[%53] : memref<?xf32> loc(#loc257)
        %54 = arith.addi %arg44, %c1_i32 : i32 loc(#loc258)
        scf.yield %54 : i32 loc(#loc243)
      } loc(#loc241)
      %20 = arith.addi %arg42, %c1_i32 : i32 loc(#loc259)
      scf.yield %20 : i32 loc(#loc240)
    } loc(#loc238)
    %16 = scf.while (%arg42 = %c1_i32) : (i32) -> i32 {
      %c0_19 = arith.constant 0 : index loc(#loc260)
      %19 = memref.load %7[%c0_19] : memref<1xi32> loc(#loc260)
      %20 = arith.cmpi slt, %arg42, %19 : i32 loc(#loc261)
      scf.condition(%20) %arg42 : i32 loc(#loc262)
    } do {
    ^bb0(%arg42: i32 loc("/Users/mac/Projects/mlir/cpp-to-ops-converter/script/..//in/test.c":343:3)):
      %19 = arith.addi %arg42, %c-1_i32 : i32 loc(#loc263)
      %20 = arith.index_cast %19 : i32 to index loc(#loc264)
      %21 = arith.addi %20, %c0 : index loc(#loc265)
      %22 = scf.while (%arg43 = %c1_i32) : (i32) -> i32 {
        %c0_19 = arith.constant 0 : index loc(#loc266)
        %24 = memref.load %0[%c0_19] : memref<1xi32> loc(#loc266)
        %25 = arith.cmpi slt, %arg43, %24 : i32 loc(#loc267)
        scf.condition(%25) %arg43 : i32 loc(#loc268)
      } do {
      ^bb0(%arg43: i32 loc("/Users/mac/Projects/mlir/cpp-to-ops-converter/script/..//in/test.c":344:5)):
        %24 = arith.addi %arg43, %c1_i32 : i32 loc(#loc269)
        %25 = scf.while (%arg44 = %c1_i32) : (i32) -> i32 {
          %c0_19 = arith.constant 0 : index loc(#loc270)
          %26 = memref.load %1[%c0_19] : memref<1xi32> loc(#loc270)
          %27 = arith.cmpi slt, %arg44, %26 : i32 loc(#loc271)
          scf.condition(%27) %arg44 : i32 loc(#loc272)
        } do {
        ^bb0(%arg44: i32 loc("/Users/mac/Projects/mlir/cpp-to-ops-converter/script/..//in/test.c":345:7)):
          %c0_19 = arith.constant 0 : index loc(#loc60)
          %26 = memref.load %2[%c0_19] : memref<1xi32> loc(#loc60)
          %27 = arith.muli %arg43, %26 : i32 loc(#loc61)
          %28 = arith.addi %arg44, %27 : i32 loc(#loc62)
          %29 = arith.muli %arg42, %26 : i32 loc(#loc54)
          %c0_20 = arith.constant 0 : index loc(#loc28)
          %30 = memref.load %3[%c0_20] : memref<1xi32> loc(#loc28)
          %31 = arith.muli %29, %30 : i32 loc(#loc55)
          %32 = arith.addi %28, %31 : i32 loc(#loc56)
          %33 = arith.index_cast %32 : i32 to index loc(#loc273)
          %34 = arith.addi %33, %c0 : index loc(#loc274)
          %35 = memref.load %arg25[%34] : memref<?xf32> loc(#loc274)
          %36 = arith.mulf %35, %cst_1 : f32 loc(#loc275)
          %37 = memref.load %arg26[%34] : memref<?xf32> loc(#loc276)
          %38 = arith.muli %19, %26 : i32 loc(#loc54)
          %39 = arith.muli %38, %30 : i32 loc(#loc55)
          %40 = arith.addi %28, %39 : i32 loc(#loc56)
          %41 = arith.index_cast %40 : i32 to index loc(#loc277)
          %42 = arith.addi %41, %c0 : index loc(#loc278)
          %43 = memref.load %arg26[%42] : memref<?xf32> loc(#loc278)
          %44 = arith.subf %37, %43 : f32 loc(#loc279)
          %45 = arith.addi %arg44, %c1_i32 : i32 loc(#loc280)
          %46 = arith.addi %45, %27 : i32 loc(#loc62)
          %47 = arith.addi %46, %31 : i32 loc(#loc56)
          %48 = arith.index_cast %47 : i32 to index loc(#loc281)
          %49 = arith.addi %48, %c0 : index loc(#loc282)
          %50 = memref.load %arg26[%49] : memref<?xf32> loc(#loc282)
          %51 = arith.addf %44, %50 : f32 loc(#loc283)
          %52 = arith.addi %46, %39 : i32 loc(#loc56)
          %53 = arith.index_cast %52 : i32 to index loc(#loc284)
          %54 = arith.addi %53, %c0 : index loc(#loc285)
          %55 = memref.load %arg26[%54] : memref<?xf32> loc(#loc285)
          %56 = arith.subf %51, %55 : f32 loc(#loc286)
          %57 = arith.mulf %56, %56 : f32 loc(#loc287)
          %58 = memref.load %arg27[%34] : memref<?xf32> loc(#loc288)
          %59 = memref.load %arg27[%42] : memref<?xf32> loc(#loc289)
          %60 = arith.subf %58, %59 : f32 loc(#loc290)
          %61 = arith.muli %24, %26 : i32 loc(#loc61)
          %62 = arith.addi %arg44, %61 : i32 loc(#loc62)
          %63 = arith.addi %62, %31 : i32 loc(#loc56)
          %64 = arith.index_cast %63 : i32 to index loc(#loc291)
          %65 = arith.addi %64, %c0 : index loc(#loc292)
          %66 = memref.load %arg27[%65] : memref<?xf32> loc(#loc292)
          %67 = arith.addf %60, %66 : f32 loc(#loc293)
          %68 = arith.addi %62, %39 : i32 loc(#loc56)
          %69 = arith.index_cast %68 : i32 to index loc(#loc294)
          %70 = arith.addi %69, %c0 : index loc(#loc295)
          %71 = memref.load %arg27[%70] : memref<?xf32> loc(#loc295)
          %72 = arith.subf %67, %71 : f32 loc(#loc296)
          %73 = arith.mulf %72, %72 : f32 loc(#loc297)
          %74 = arith.addf %57, %73 : f32 loc(#loc298)
          %75 = arith.mulf %36, %74 : f32 loc(#loc299)
          %76 = memref.load %arg10[%21] : memref<?xf32> loc(#loc265)
          %77 = arith.index_cast %28 : i32 to index loc(#loc300)
          %78 = arith.addi %77, %c0 : index loc(#loc301)
          %79 = memref.load %arg2[%78] : memref<?xf32> loc(#loc301)
          %80 = arith.mulf %76, %79 : f32 loc(#loc302)
          %81 = arith.mulf %80, %80 : f32 loc(#loc303)
          %82 = arith.divf %75, %81 : f32 loc(#loc304)
          %83 = arith.mulf %35, %cst_15 : f32 loc(#loc305)
          %84 = memref.load %arg37[%34] : memref<?xf32> loc(#loc306)
          %85 = arith.mulf %83, %84 : f32 loc(#loc307)
          %86 = arith.subf %82, %85 : f32 loc(#loc308)
          memref.store %86, %arg39[%34] : memref<?xf32> loc(#loc309)
          %c0_21 = arith.constant 0 : index loc(#loc60)
          %87 = memref.load %2[%c0_21] : memref<1xi32> loc(#loc60)
          %88 = arith.muli %arg43, %87 : i32 loc(#loc61)
          %89 = arith.addi %arg44, %88 : i32 loc(#loc62)
          %90 = arith.muli %arg42, %87 : i32 loc(#loc54)
          %c0_22 = arith.constant 0 : index loc(#loc28)
          %91 = memref.load %3[%c0_22] : memref<1xi32> loc(#loc28)
          %92 = arith.muli %90, %91 : i32 loc(#loc55)
          %93 = arith.addi %89, %92 : i32 loc(#loc56)
          %94 = arith.index_cast %93 : i32 to index loc(#loc310)
          %95 = arith.addi %94, %c0 : index loc(#loc311)
          %96 = memref.load %arg39[%95] : memref<?xf32> loc(#loc312)
          %97 = memref.load %arg28[%95] : memref<?xf32> loc(#loc313)
          %98 = memref.load %arg37[%95] : memref<?xf32> loc(#loc314)
          %99 = arith.mulf %97, %98 : f32 loc(#loc315)
          %100 = arith.addf %96, %99 : f32 loc(#loc316)
          memref.store %100, %arg39[%95] : memref<?xf32> loc(#loc317)
          scf.yield %45 : i32 loc(#loc272)
        } loc(#loc270)
        scf.yield %24 : i32 loc(#loc268)
      } loc(#loc266)
      %23 = arith.addi %arg42, %c1_i32 : i32 loc(#loc318)
      scf.yield %23 : i32 loc(#loc262)
    } loc(#loc260)
    %17 = memref.get_global @small : memref<1xf32> loc(#loc319)
    %18 = scf.while (%arg42 = %c0_i32) : (i32) -> i32 {
      %c0_19 = arith.constant 0 : index loc(#loc320)
      %19 = memref.load %5[%c0_19] : memref<1xi32> loc(#loc320)
      %20 = arith.cmpi slt, %arg42, %19 : i32 loc(#loc321)
      scf.condition(%20) %arg42 : i32 loc(#loc322)
    } do {
    ^bb0(%arg42: i32 loc("/Users/mac/Projects/mlir/cpp-to-ops-converter/script/..//in/test.c":368:3)):
      %19 = scf.while (%arg43 = %c0_i32) : (i32) -> i32 {
        %c0_19 = arith.constant 0 : index loc(#loc323)
        %21 = memref.load %3[%c0_19] : memref<1xi32> loc(#loc323)
        %22 = arith.cmpi slt, %arg43, %21 : i32 loc(#loc324)
        scf.condition(%22) %arg43 : i32 loc(#loc325)
      } do {
      ^bb0(%arg43: i32 loc("/Users/mac/Projects/mlir/cpp-to-ops-converter/script/..//in/test.c":369:5)):
        %21:2 = scf.while (%arg44 = %c0_i32) : (i32) -> (i32, i32) {
          %c0_19 = arith.constant 0 : index loc(#loc326)
          %23 = memref.load %2[%c0_19] : memref<1xi32> loc(#loc326)
          %24 = arith.cmpi slt, %arg44, %23 : i32 loc(#loc327)
          scf.condition(%24) %23, %arg44 : i32, i32 loc(#loc328)
        } do {
        ^bb0(%arg44: i32 loc("/Users/mac/Projects/mlir/cpp-to-ops-converter/script/..//in/test.c":370:7), %arg45: i32 loc("/Users/mac/Projects/mlir/cpp-to-ops-converter/script/..//in/test.c":370:7)):
          %23 = arith.muli %arg43, %arg44 : i32 loc(#loc61)
          %24 = arith.addi %arg45, %23 : i32 loc(#loc62)
          %25 = arith.muli %arg42, %arg44 : i32 loc(#loc54)
          %c0_19 = arith.constant 0 : index loc(#loc28)
          %26 = memref.load %3[%c0_19] : memref<1xi32> loc(#loc28)
          %27 = arith.muli %25, %26 : i32 loc(#loc55)
          %28 = arith.addi %24, %27 : i32 loc(#loc56)
          %29 = arith.index_cast %28 : i32 to index loc(#loc329)
          %30 = arith.addi %29, %c0 : index loc(#loc330)
          memref.store %cst_17, %arg38[%30] : memref<?xf32> loc(#loc331)
          %c0_20 = arith.constant 0 : index loc(#loc60)
          %31 = memref.load %2[%c0_20] : memref<1xi32> loc(#loc60)
          %32 = arith.muli %arg43, %31 : i32 loc(#loc61)
          %33 = arith.addi %arg45, %32 : i32 loc(#loc62)
          %34 = arith.muli %arg42, %31 : i32 loc(#loc54)
          %c0_21 = arith.constant 0 : index loc(#loc28)
          %35 = memref.load %3[%c0_21] : memref<1xi32> loc(#loc28)
          %36 = arith.muli %34, %35 : i32 loc(#loc55)
          %37 = arith.addi %33, %36 : i32 loc(#loc56)
          %38 = arith.index_cast %37 : i32 to index loc(#loc332)
          %39 = arith.addi %38, %c0 : index loc(#loc333)
          %40 = memref.load %arg21[%39] : memref<?xf32> loc(#loc333)
          %41 = math.absf %40 : f32 loc(#loc334)
          %42 = math.sqrt %41 : f32 loc(#loc335)
          %43 = memref.load %arg38[%39] : memref<?xf32> loc(#loc336)
          %44 = arith.mulf %42, %43 : f32 loc(#loc337)
          %45 = memref.load %arg23[%39] : memref<?xf32> loc(#loc338)
          %46 = arith.mulf %45, %cst_18 : f32 loc(#loc339)
          %c0_22 = arith.constant 0 : index loc(#loc319)
          %47 = memref.load %17[%c0_22] : memref<1xf32> loc(#loc319)
          %48 = arith.addf %46, %47 : f32 loc(#loc340)
          %49 = arith.divf %44, %48 : f32 loc(#loc341)
          memref.store %49, %arg34[%39] : memref<?xf32> loc(#loc342)
          %50 = arith.addi %arg45, %c1_i32 : i32 loc(#loc343)
          scf.yield %50 : i32 loc(#loc328)
        } loc(#loc326)
        %22 = arith.addi %arg43, %c1_i32 : i32 loc(#loc344)
        scf.yield %22 : i32 loc(#loc325)
      } loc(#loc323)
      %20 = arith.addi %arg42, %c1_i32 : i32 loc(#loc345)
      scf.yield %20 : i32 loc(#loc322)
    } loc(#loc320)
    return loc(#loc346)
  } loc(#loc1)
  func.func private @fmaxf(f32, f32) -> f32 attributes {llvm.linkage = #llvm.linkage<external>} loc(#loc219)
  func.func private @fminf(f32, f32) -> f32 attributes {llvm.linkage = #llvm.linkage<external>} loc(#loc232)
} loc(#loc0)
#loc0 = loc(unknown)
#loc2 = loc("/Users/mac/Projects/mlir/cpp-to-ops-converter/script/..//in/test.c":239:67)
#loc3 = loc("/Users/mac/Projects/mlir/cpp-to-ops-converter/script/..//in/test.c":251:27)
#loc4 = loc("/Users/mac/Projects/mlir/cpp-to-ops-converter/script/..//in/test.c":207:13)
#loc5 = loc("/Users/mac/Projects/mlir/cpp-to-ops-converter/script/..//in/test.c":347:33)
#loc6 = loc("/Users/mac/Projects/mlir/cpp-to-ops-converter/script/..//in/test.c":324:54)
#loc7 = loc("/Users/mac/Projects/mlir/cpp-to-ops-converter/script/..//in/test.c":320:20)
#loc8 = loc("/Users/mac/Projects/mlir/cpp-to-ops-converter/script/..//in/test.c":287:20)
#loc9 = loc("/Users/mac/Projects/mlir/cpp-to-ops-converter/script/..//in/test.c":285:27)
#loc10 = loc("/Users/mac/Projects/mlir/cpp-to-ops-converter/script/..//in/test.c":282:62)
#loc11 = loc("/Users/mac/Projects/mlir/cpp-to-ops-converter/script/..//in/test.c":282:48)
#loc12 = loc("/Users/mac/Projects/mlir/cpp-to-ops-converter/script/..//in/test.c":282:29)
#loc13 = loc("/Users/mac/Projects/mlir/cpp-to-ops-converter/script/..//in/test.c":281:54)
#loc14 = loc("/Users/mac/Projects/mlir/cpp-to-ops-converter/script/..//in/test.c":281:39)
#loc15 = loc("/Users/mac/Projects/mlir/cpp-to-ops-converter/script/..//in/test.c":281:29)
#loc16 = loc("/Users/mac/Projects/mlir/cpp-to-ops-converter/script/..//in/test.c":279:63)
#loc17 = loc("/Users/mac/Projects/mlir/cpp-to-ops-converter/script/..//in/test.c":239:22)
#loc18 = loc("/Users/mac/Projects/mlir/cpp-to-ops-converter/script/..//in/test.c":237:16)
#loc19 = loc("/Users/mac/Projects/mlir/cpp-to-ops-converter/script/..//in/test.c":207:26)
#loc20 = loc("/Users/mac/Projects/mlir/cpp-to-ops-converter/script/..//in/test.c":173:16)
#loc21 = loc("/Users/mac/Projects/mlir/cpp-to-ops-converter/script/..//in/test.c":172:17)
#loc22 = loc("/Users/mac/Projects/mlir/cpp-to-ops-converter/script/..//in/test.c":170:15)
#loc23 = loc("/Users/mac/Projects/mlir/cpp-to-ops-converter/script/..//in/test.c":165:14)
#loc24 = loc("/Users/mac/Projects/mlir/cpp-to-ops-converter/script/..//in/test.c":370:12)
#loc25 = loc("/Users/mac/Projects/mlir/cpp-to-ops-converter/script/..//in/test.c":237:23)
#loc26 = loc("/Users/mac/Projects/mlir/cpp-to-ops-converter/script/..//in/test.c":238:25)
#loc27 = loc("/Users/mac/Projects/mlir/cpp-to-ops-converter/script/..//in/pom2k_c_header.h":6:36)
#loc28 = loc("/Users/mac/Projects/mlir/cpp-to-ops-converter/script/..//in/pom2k_c_header.h":8:46)
#loc29 = loc("/Users/mac/Projects/mlir/cpp-to-ops-converter/script/..//in/test.c":258:40)
#loc30 = loc("/Users/mac/Projects/mlir/cpp-to-ops-converter/script/..//in/test.c":263:21)
#loc31 = loc("/Users/mac/Projects/mlir/cpp-to-ops-converter/script/..//in/test.c":237:21)
#loc33 = loc("/Users/mac/Projects/mlir/cpp-to-ops-converter/script/..//in/test.c":241:68)
#loc34 = loc("/Users/mac/Projects/mlir/cpp-to-ops-converter/script/..//in/test.c":238:23)
#loc36 = loc("/Users/mac/Projects/mlir/cpp-to-ops-converter/script/..//in/pom2k_c_header.h":5:43)
#loc37 = loc("/Users/mac/Projects/mlir/cpp-to-ops-converter/script/..//in/pom2k_c_header.h":5:38)
#loc38 = loc("/Users/mac/Projects/mlir/cpp-to-ops-converter/script/..//in/test.c":239:47)
#loc39 = loc("/Users/mac/Projects/mlir/cpp-to-ops-converter/script/..//in/test.c":239:30)
#loc40 = loc("/Users/mac/Projects/mlir/cpp-to-ops-converter/script/..//in/test.c":239:65)
#loc41 = loc("/Users/mac/Projects/mlir/cpp-to-ops-converter/script/..//in/test.c":239:72)
#loc42 = loc("/Users/mac/Projects/mlir/cpp-to-ops-converter/script/..//in/test.c":239:51)
#loc43 = loc("/Users/mac/Projects/mlir/cpp-to-ops-converter/script/..//in/test.c":239:49)
#loc44 = loc("/Users/mac/Projects/mlir/cpp-to-ops-converter/script/..//in/test.c":239:27)
#loc45 = loc("/Users/mac/Projects/mlir/cpp-to-ops-converter/script/..//in/test.c":239:76)
#loc46 = loc("/Users/mac/Projects/mlir/cpp-to-ops-converter/script/..//in/test.c":241:30)
#loc47 = loc("/Users/mac/Projects/mlir/cpp-to-ops-converter/script/..//in/test.c":241:72)
#loc48 = loc("/Users/mac/Projects/mlir/cpp-to-ops-converter/script/..//in/test.c":241:51)
#loc49 = loc("/Users/mac/Projects/mlir/cpp-to-ops-converter/script/..//in/test.c":241:49)
#loc50 = loc("/Users/mac/Projects/mlir/cpp-to-ops-converter/script/..//in/test.c":241:27)
#loc51 = loc("/Users/mac/Projects/mlir/cpp-to-ops-converter/script/..//in/test.c":241:76)
#loc52 = loc("/Users/mac/Projects/mlir/cpp-to-ops-converter/script/..//in/test.c":240:80)
#loc53 = loc("/Users/mac/Projects/mlir/cpp-to-ops-converter/script/..//in/test.c":239:15)
#loc54 = loc("/Users/mac/Projects/mlir/cpp-to-ops-converter/script/..//in/pom2k_c_header.h":7:59)
#loc55 = loc("/Users/mac/Projects/mlir/cpp-to-ops-converter/script/..//in/pom2k_c_header.h":7:63)
#loc56 = loc("/Users/mac/Projects/mlir/cpp-to-ops-converter/script/..//in/pom2k_c_header.h":7:54)
#loc57 = loc("/Users/mac/Projects/mlir/cpp-to-ops-converter/script/..//in/test.c":248:23)
#loc58 = loc("/Users/mac/Projects/mlir/cpp-to-ops-converter/script/..//in/test.c":248:7)
#loc59 = loc("/Users/mac/Projects/mlir/cpp-to-ops-converter/script/..//in/test.c":248:25)
#loc60 = loc("/Users/mac/Projects/mlir/cpp-to-ops-converter/script/..//in/pom2k_c_header.h":8:42)
#loc61 = loc("/Users/mac/Projects/mlir/cpp-to-ops-converter/script/..//in/pom2k_c_header.h":7:50)
#loc62 = loc("/Users/mac/Projects/mlir/cpp-to-ops-converter/script/..//in/pom2k_c_header.h":7:45)
#loc63 = loc("/Users/mac/Projects/mlir/cpp-to-ops-converter/script/..//in/test.c":251:23)
#loc64 = loc("/Users/mac/Projects/mlir/cpp-to-ops-converter/script/..//in/test.c":251:63)
#loc65 = loc("/Users/mac/Projects/mlir/cpp-to-ops-converter/script/..//in/test.c":251:7)
#loc66 = loc("/Users/mac/Projects/mlir/cpp-to-ops-converter/script/..//in/test.c":251:25)
#loc67 = loc("/Users/mac/Projects/mlir/cpp-to-ops-converter/script/..//in/test.c":258:20)
#loc68 = loc("/Users/mac/Projects/mlir/cpp-to-ops-converter/script/..//in/test.c":258:30)
#loc69 = loc("/Users/mac/Projects/mlir/cpp-to-ops-converter/script/..//in/test.c":258:38)
#loc70 = loc("/Users/mac/Projects/mlir/cpp-to-ops-converter/script/..//in/test.c":258:7)
#loc71 = loc("/Users/mac/Projects/mlir/cpp-to-ops-converter/script/..//in/test.c":258:22)
#loc72 = loc("/Users/mac/Projects/mlir/cpp-to-ops-converter/script/..//in/test.c":263:24)
#loc73 = loc("/Users/mac/Projects/mlir/cpp-to-ops-converter/script/..//in/test.c":263:28)
#loc74 = loc("/Users/mac/Projects/mlir/cpp-to-ops-converter/script/..//in/test.c":264:42)
#loc75 = loc("/Users/mac/Projects/mlir/cpp-to-ops-converter/script/..//in/test.c":264:26)
#loc76 = loc("/Users/mac/Projects/mlir/cpp-to-ops-converter/script/..//in/test.c":264:66)
#loc77 = loc("/Users/mac/Projects/mlir/cpp-to-ops-converter/script/..//in/test.c":264:46)
#loc78 = loc("/Users/mac/Projects/mlir/cpp-to-ops-converter/script/..//in/test.c":264:44)
#loc79 = loc("/Users/mac/Projects/mlir/cpp-to-ops-converter/script/..//in/test.c":264:23)
#loc80 = loc("/Users/mac/Projects/mlir/cpp-to-ops-converter/script/..//in/test.c":264:70)
#loc81 = loc("/Users/mac/Projects/mlir/cpp-to-ops-converter/script/..//in/test.c":266:26)
#loc82 = loc("/Users/mac/Projects/mlir/cpp-to-ops-converter/script/..//in/test.c":266:66)
#loc83 = loc("/Users/mac/Projects/mlir/cpp-to-ops-converter/script/..//in/test.c":266:46)
#loc84 = loc("/Users/mac/Projects/mlir/cpp-to-ops-converter/script/..//in/test.c":266:44)
#loc85 = loc("/Users/mac/Projects/mlir/cpp-to-ops-converter/script/..//in/test.c":266:23)
#loc86 = loc("/Users/mac/Projects/mlir/cpp-to-ops-converter/script/..//in/test.c":266:70)
#loc87 = loc("/Users/mac/Projects/mlir/cpp-to-ops-converter/script/..//in/test.c":265:74)
#loc88 = loc("/Users/mac/Projects/mlir/cpp-to-ops-converter/script/..//in/test.c":264:11)
#loc89 = loc("/Users/mac/Projects/mlir/cpp-to-ops-converter/script/..//in/test.c":267:75)
#loc90 = loc("/Users/mac/Projects/mlir/cpp-to-ops-converter/script/..//in/test.c":263:7)
#loc91 = loc("/Users/mac/Projects/mlir/cpp-to-ops-converter/script/..//in/test.c":263:30)
#loc92 = loc("/Users/mac/Projects/mlir/cpp-to-ops-converter/script/..//in/test.c":274:23)
#loc93 = loc("/Users/mac/Projects/mlir/cpp-to-ops-converter/script/..//in/test.c":277:39)
#loc94 = loc("/Users/mac/Projects/mlir/cpp-to-ops-converter/script/..//in/test.c":278:39)
#loc95 = loc("/Users/mac/Projects/mlir/cpp-to-ops-converter/script/..//in/test.c":279:26)
#loc96 = loc("/Users/mac/Projects/mlir/cpp-to-ops-converter/script/..//in/test.c":274:21)
#loc98 = loc("/Users/mac/Projects/mlir/cpp-to-ops-converter/script/..//in/test.c":279:41)
#loc99 = loc("/Users/mac/Projects/mlir/cpp-to-ops-converter/script/..//in/test.c":279:37)
#loc100 = loc("/Users/mac/Projects/mlir/cpp-to-ops-converter/script/..//in/test.c":275:25)
#loc101 = loc("/Users/mac/Projects/mlir/cpp-to-ops-converter/script/..//in/test.c":275:23)
#loc103 = loc("/Users/mac/Projects/mlir/cpp-to-ops-converter/script/..//in/test.c":276:27)
#loc104 = loc("/Users/mac/Projects/mlir/cpp-to-ops-converter/script/..//in/test.c":276:25)
#loc106 = loc("/Users/mac/Projects/mlir/cpp-to-ops-converter/script/..//in/test.c":277:35)
#loc107 = loc("/Users/mac/Projects/mlir/cpp-to-ops-converter/script/..//in/test.c":277:20)
#loc108 = loc("/Users/mac/Projects/mlir/cpp-to-ops-converter/script/..//in/test.c":277:37)
#loc109 = loc("/Users/mac/Projects/mlir/cpp-to-ops-converter/script/..//in/test.c":278:20)
#loc110 = loc("/Users/mac/Projects/mlir/cpp-to-ops-converter/script/..//in/test.c":278:37)
#loc111 = loc("/Users/mac/Projects/mlir/cpp-to-ops-converter/script/..//in/test.c":279:19)
#loc112 = loc("/Users/mac/Projects/mlir/cpp-to-ops-converter/script/..//in/test.c":279:24)
#loc113 = loc("/Users/mac/Projects/mlir/cpp-to-ops-converter/script/..//in/test.c":279:36)
#loc114 = loc("/Users/mac/Projects/mlir/cpp-to-ops-converter/script/..//in/test.c":279:57)
#loc115 = loc("/Users/mac/Projects/mlir/cpp-to-ops-converter/script/..//in/test.c":279:45)
#loc116 = loc("/Users/mac/Projects/mlir/cpp-to-ops-converter/script/..//in/test.c":279:43)
#loc117 = loc("/Users/mac/Projects/mlir/cpp-to-ops-converter/script/..//in/test.c":279:33)
#loc118 = loc("/Users/mac/Projects/mlir/cpp-to-ops-converter/script/..//in/test.c":279:60)
#loc119 = loc("/Users/mac/Projects/mlir/cpp-to-ops-converter/script/..//in/test.c":281:48)
#loc120 = loc("/Users/mac/Projects/mlir/cpp-to-ops-converter/script/..//in/test.c":281:37)
#loc121 = loc("/Users/mac/Projects/mlir/cpp-to-ops-converter/script/..//in/test.c":281:60)
#loc122 = loc("/Users/mac/Projects/mlir/cpp-to-ops-converter/script/..//in/test.c":281:52)
#loc123 = loc("/Users/mac/Projects/mlir/cpp-to-ops-converter/script/..//in/test.c":282:36)
#loc124 = loc("/Users/mac/Projects/mlir/cpp-to-ops-converter/script/..//in/test.c":282:41)
#loc125 = loc("/Users/mac/Projects/mlir/cpp-to-ops-converter/script/..//in/test.c":281:65)
#loc126 = loc("/Users/mac/Projects/mlir/cpp-to-ops-converter/script/..//in/test.c":282:60)
#loc127 = loc("/Users/mac/Projects/mlir/cpp-to-ops-converter/script/..//in/test.c":282:54)
#loc128 = loc("/Users/mac/Projects/mlir/cpp-to-ops-converter/script/..//in/test.c":282:46)
#loc129 = loc("/Users/mac/Projects/mlir/cpp-to-ops-converter/script/..//in/test.c":281:27)
#loc130 = loc("/Users/mac/Projects/mlir/cpp-to-ops-converter/script/..//in/test.c":283:25)
#loc131 = loc("/Users/mac/Projects/mlir/cpp-to-ops-converter/script/..//in/test.c":283:9)
#loc132 = loc("/Users/mac/Projects/mlir/cpp-to-ops-converter/script/..//in/test.c":284:13)
#loc133 = loc("/Users/mac/Projects/mlir/cpp-to-ops-converter/script/..//in/test.c":285:36)
#loc134 = loc("/Users/mac/Projects/mlir/cpp-to-ops-converter/script/..//in/test.c":285:40)
#loc135 = loc("/Users/mac/Projects/mlir/cpp-to-ops-converter/script/..//in/test.c":285:25)
#loc136 = loc("/Users/mac/Projects/mlir/cpp-to-ops-converter/script/..//in/test.c":287:25)
#loc137 = loc("/Users/mac/Projects/mlir/cpp-to-ops-converter/script/..//in/test.c":287:52)
#loc138 = loc("/Users/mac/Projects/mlir/cpp-to-ops-converter/script/..//in/test.c":287:29)
#loc139 = loc("/Users/mac/Projects/mlir/cpp-to-ops-converter/script/..//in/test.c":286:25)
#loc140 = loc("/Users/mac/Projects/mlir/cpp-to-ops-converter/script/..//in/test.c":285:61)
#loc141 = loc("/Users/mac/Projects/mlir/cpp-to-ops-converter/script/..//in/test.c":285:13)
#loc142 = loc("/Users/mac/Projects/mlir/cpp-to-ops-converter/script/..//in/test.c":284:31)
#loc143 = loc("/Users/mac/Projects/mlir/cpp-to-ops-converter/script/..//in/test.c":283:27)
#loc144 = loc("/Users/mac/Projects/mlir/cpp-to-ops-converter/script/..//in/test.c":276:32)
#loc145 = loc("/Users/mac/Projects/mlir/cpp-to-ops-converter/script/..//in/test.c":275:30)
#loc146 = loc("/Users/mac/Projects/mlir/cpp-to-ops-converter/script/..//in/test.c":274:30)
#loc147 = loc("/Users/mac/Projects/mlir/cpp-to-ops-converter/script/..//in/test.c":293:23)
#loc148 = loc("/Users/mac/Projects/mlir/cpp-to-ops-converter/script/..//in/test.c":293:21)
#loc150 = loc("/Users/mac/Projects/mlir/cpp-to-ops-converter/script/..//in/test.c":299:38)
#loc151 = loc("/Users/mac/Projects/mlir/cpp-to-ops-converter/script/..//in/test.c":300:27)
#loc152 = loc("/Users/mac/Projects/mlir/cpp-to-ops-converter/script/..//in/test.c":300:18)
#loc153 = loc("/Users/mac/Projects/mlir/cpp-to-ops-converter/script/..//in/test.c":294:25)
#loc154 = loc("/Users/mac/Projects/mlir/cpp-to-ops-converter/script/..//in/test.c":294:23)
#loc156 = loc("/Users/mac/Projects/mlir/cpp-to-ops-converter/script/..//in/test.c":295:27)
#loc157 = loc("/Users/mac/Projects/mlir/cpp-to-ops-converter/script/..//in/test.c":295:25)
#loc159 = loc("/Users/mac/Projects/mlir/cpp-to-ops-converter/script/..//in/test.c":296:26)
#loc160 = loc("/Users/mac/Projects/mlir/cpp-to-ops-converter/script/..//in/test.c":296:9)
#loc161 = loc("/Users/mac/Projects/mlir/cpp-to-ops-converter/script/..//in/test.c":296:36)
#loc162 = loc("/Users/mac/Projects/mlir/cpp-to-ops-converter/script/..//in/test.c":296:30)
#loc163 = loc("/Users/mac/Projects/mlir/cpp-to-ops-converter/script/..//in/test.c":296:28)
#loc164 = loc("/Users/mac/Projects/mlir/cpp-to-ops-converter/script/..//in/test.c":297:27)
#loc165 = loc("/Users/mac/Projects/mlir/cpp-to-ops-converter/script/..//in/test.c":297:9)
#loc166 = loc("/Users/mac/Projects/mlir/cpp-to-ops-converter/script/..//in/test.c":297:37)
#loc167 = loc("/Users/mac/Projects/mlir/cpp-to-ops-converter/script/..//in/test.c":297:31)
#loc168 = loc("/Users/mac/Projects/mlir/cpp-to-ops-converter/script/..//in/test.c":297:29)
#loc169 = loc("/Users/mac/Projects/mlir/cpp-to-ops-converter/script/..//in/test.c":298:28)
#loc170 = loc("/Users/mac/Projects/mlir/cpp-to-ops-converter/script/..//in/test.c":299:13)
#loc171 = loc("/Users/mac/Projects/mlir/cpp-to-ops-converter/script/..//in/test.c":299:42)
#loc172 = loc("/Users/mac/Projects/mlir/cpp-to-ops-converter/script/..//in/test.c":299:21)
#loc173 = loc("/Users/mac/Projects/mlir/cpp-to-ops-converter/script/..//in/test.c":299:46)
#loc174 = loc("/Users/mac/Projects/mlir/cpp-to-ops-converter/script/..//in/test.c":299:44)
#loc175 = loc("/Users/mac/Projects/mlir/cpp-to-ops-converter/script/..//in/test.c":299:18)
#loc176 = loc("/Users/mac/Projects/mlir/cpp-to-ops-converter/script/..//in/test.c":300:43)
#loc177 = loc("/Users/mac/Projects/mlir/cpp-to-ops-converter/script/..//in/test.c":300:31)
#loc178 = loc("/Users/mac/Projects/mlir/cpp-to-ops-converter/script/..//in/test.c":300:29)
#loc179 = loc("/Users/mac/Projects/mlir/cpp-to-ops-converter/script/..//in/test.c":299:66)
#loc180 = loc("/Users/mac/Projects/mlir/cpp-to-ops-converter/script/..//in/test.c":308:21)
#loc181 = loc("/Users/mac/Projects/mlir/cpp-to-ops-converter/script/..//in/test.c":308:29)
#loc182 = loc("/Users/mac/Projects/mlir/cpp-to-ops-converter/script/..//in/test.c":309:21)
#loc183 = loc("/Users/mac/Projects/mlir/cpp-to-ops-converter/script/..//in/test.c":309:43)
#loc184 = loc("/Users/mac/Projects/mlir/cpp-to-ops-converter/script/..//in/test.c":310:20)
#loc185 = loc("/Users/mac/Projects/mlir/cpp-to-ops-converter/script/..//in/test.c":310:38)
#loc186 = loc("/Users/mac/Projects/mlir/cpp-to-ops-converter/script/..//in/test.c":309:68)
#loc187 = loc("/Users/mac/Projects/mlir/cpp-to-ops-converter/script/..//in/test.c":308:36)
#loc188 = loc("/Users/mac/Projects/mlir/cpp-to-ops-converter/script/..//in/test.c":308:13)
#loc189 = loc("/Users/mac/Projects/mlir/cpp-to-ops-converter/script/..//in/test.c":298:30)
#loc190 = loc("/Users/mac/Projects/mlir/cpp-to-ops-converter/script/..//in/test.c":295:32)
#loc191 = loc("/Users/mac/Projects/mlir/cpp-to-ops-converter/script/..//in/test.c":294:30)
#loc192 = loc("/Users/mac/Projects/mlir/cpp-to-ops-converter/script/..//in/test.c":293:30)
#loc193 = loc("/Users/mac/Projects/mlir/cpp-to-ops-converter/script/..//in/test.c":316:23)
#loc194 = loc("/Users/mac/Projects/mlir/cpp-to-ops-converter/script/..//in/test.c":316:21)
#loc196 = loc("/Users/mac/Projects/mlir/cpp-to-ops-converter/script/..//in/test.c":320:16)
#loc197 = loc("/Users/mac/Projects/mlir/cpp-to-ops-converter/script/..//in/test.c":320:13)
#loc198 = loc("/Users/mac/Projects/mlir/cpp-to-ops-converter/script/..//in/test.c":317:25)
#loc199 = loc("/Users/mac/Projects/mlir/cpp-to-ops-converter/script/..//in/test.c":317:23)
#loc201 = loc("/Users/mac/Projects/mlir/cpp-to-ops-converter/script/..//in/test.c":318:27)
#loc202 = loc("/Users/mac/Projects/mlir/cpp-to-ops-converter/script/..//in/test.c":318:25)
#loc204 = loc("/Users/mac/Projects/mlir/cpp-to-ops-converter/script/..//in/test.c":319:24)
#loc205 = loc("/Users/mac/Projects/mlir/cpp-to-ops-converter/script/..//in/test.c":319:34)
#loc206 = loc("/Users/mac/Projects/mlir/cpp-to-ops-converter/script/..//in/test.c":319:56)
#loc207 = loc("/Users/mac/Projects/mlir/cpp-to-ops-converter/script/..//in/test.c":319:54)
#loc208 = loc("/Users/mac/Projects/mlir/cpp-to-ops-converter/script/..//in/test.c":319:28)
#loc209 = loc("/Users/mac/Projects/mlir/cpp-to-ops-converter/script/..//in/test.c":319:26)
#loc210 = loc("/Users/mac/Projects/mlir/cpp-to-ops-converter/script/..//in/test.c":320:18)
#loc211 = loc("/Users/mac/Projects/mlir/cpp-to-ops-converter/script/..//in/test.c":320:9)
#loc212 = loc("/Users/mac/Projects/mlir/cpp-to-ops-converter/script/..//in/test.c":321:26)
#loc213 = loc("/Users/mac/Projects/mlir/cpp-to-ops-converter/script/..//in/test.c":321:11)
#loc214 = loc("/Users/mac/Projects/mlir/cpp-to-ops-converter/script/..//in/test.c":321:36)
#loc215 = loc("/Users/mac/Projects/mlir/cpp-to-ops-converter/script/..//in/test.c":321:54)
#loc216 = loc("/Users/mac/Projects/mlir/cpp-to-ops-converter/script/..//in/test.c":321:75)
#loc217 = loc("/Users/mac/Projects/mlir/cpp-to-ops-converter/script/..//in/test.c":321:62)
#loc218 = loc("/Users/mac/Projects/mlir/cpp-to-ops-converter/script/..//in/test.c":321:60)
#loc219 = loc("/Users/mac/Projects/mlir/cpp-to-ops-converter/script/..//in/test.c":321:30)
#loc220 = loc("/Users/mac/Projects/mlir/cpp-to-ops-converter/script/..//in/test.c":321:28)
#loc221 = loc("/Users/mac/Projects/mlir/cpp-to-ops-converter/script/..//in/test.c":322:25)
#loc222 = loc("/Users/mac/Projects/mlir/cpp-to-ops-converter/script/..//in/test.c":322:30)
#loc223 = loc("/Users/mac/Projects/mlir/cpp-to-ops-converter/script/..//in/test.c":322:47)
#loc224 = loc("/Users/mac/Projects/mlir/cpp-to-ops-converter/script/..//in/test.c":323:29)
#loc225 = loc("/Users/mac/Projects/mlir/cpp-to-ops-converter/script/..//in/test.c":322:67)
#loc226 = loc("/Users/mac/Projects/mlir/cpp-to-ops-converter/script/..//in/test.c":323:52)
#loc227 = loc("/Users/mac/Projects/mlir/cpp-to-ops-converter/script/..//in/test.c":323:50)
#loc228 = loc("/Users/mac/Projects/mlir/cpp-to-ops-converter/script/..//in/test.c":322:27)
#loc229 = loc("/Users/mac/Projects/mlir/cpp-to-ops-converter/script/..//in/test.c":324:25)
#loc230 = loc("/Users/mac/Projects/mlir/cpp-to-ops-converter/script/..//in/test.c":324:9)
#loc231 = loc("/Users/mac/Projects/mlir/cpp-to-ops-converter/script/..//in/test.c":324:35)
#loc232 = loc("/Users/mac/Projects/mlir/cpp-to-ops-converter/script/..//in/test.c":324:29)
#loc233 = loc("/Users/mac/Projects/mlir/cpp-to-ops-converter/script/..//in/test.c":324:27)
#loc234 = loc("/Users/mac/Projects/mlir/cpp-to-ops-converter/script/..//in/test.c":318:32)
#loc235 = loc("/Users/mac/Projects/mlir/cpp-to-ops-converter/script/..//in/test.c":317:30)
#loc236 = loc("/Users/mac/Projects/mlir/cpp-to-ops-converter/script/..//in/test.c":316:30)
#loc237 = loc("/Users/mac/Projects/mlir/cpp-to-ops-converter/script/..//in/test.c":333:11)
#loc238 = loc("/Users/mac/Projects/mlir/cpp-to-ops-converter/script/..//in/test.c":330:23)
#loc239 = loc("/Users/mac/Projects/mlir/cpp-to-ops-converter/script/..//in/test.c":330:21)
#loc241 = loc("/Users/mac/Projects/mlir/cpp-to-ops-converter/script/..//in/test.c":331:25)
#loc242 = loc("/Users/mac/Projects/mlir/cpp-to-ops-converter/script/..//in/test.c":331:23)
#loc244 = loc("/Users/mac/Projects/mlir/cpp-to-ops-converter/script/..//in/test.c":332:22)
#loc245 = loc("/Users/mac/Projects/mlir/cpp-to-ops-converter/script/..//in/test.c":333:32)
#loc246 = loc("/Users/mac/Projects/mlir/cpp-to-ops-converter/script/..//in/test.c":333:19)
#loc247 = loc("/Users/mac/Projects/mlir/cpp-to-ops-converter/script/..//in/test.c":333:17)
#loc248 = loc("/Users/mac/Projects/mlir/cpp-to-ops-converter/script/..//in/test.c":332:7)
#loc249 = loc("/Users/mac/Projects/mlir/cpp-to-ops-converter/script/..//in/test.c":332:24)
#loc250 = loc("/Users/mac/Projects/mlir/cpp-to-ops-converter/script/..//in/test.c":335:20)
#loc251 = loc("/Users/mac/Projects/mlir/cpp-to-ops-converter/script/..//in/test.c":335:23)
#loc252 = loc("/Users/mac/Projects/mlir/cpp-to-ops-converter/script/..//in/test.c":335:27)
#loc253 = loc("/Users/mac/Projects/mlir/cpp-to-ops-converter/script/..//in/test.c":335:7)
#loc254 = loc("/Users/mac/Projects/mlir/cpp-to-ops-converter/script/..//in/test.c":335:29)
#loc255 = loc("/Users/mac/Projects/mlir/cpp-to-ops-converter/script/..//in/test.c":336:23)
#loc256 = loc("/Users/mac/Projects/mlir/cpp-to-ops-converter/script/..//in/test.c":336:7)
#loc257 = loc("/Users/mac/Projects/mlir/cpp-to-ops-converter/script/..//in/test.c":336:25)
#loc258 = loc("/Users/mac/Projects/mlir/cpp-to-ops-converter/script/..//in/test.c":331:30)
#loc259 = loc("/Users/mac/Projects/mlir/cpp-to-ops-converter/script/..//in/test.c":330:28)
#loc260 = loc("/Users/mac/Projects/mlir/cpp-to-ops-converter/script/..//in/test.c":343:23)
#loc261 = loc("/Users/mac/Projects/mlir/cpp-to-ops-converter/script/..//in/test.c":343:21)
#loc263 = loc("/Users/mac/Projects/mlir/cpp-to-ops-converter/script/..//in/test.c":348:53)
#loc264 = loc("/Users/mac/Projects/mlir/cpp-to-ops-converter/script/..//in/test.c":356:28)
#loc265 = loc("/Users/mac/Projects/mlir/cpp-to-ops-converter/script/..//in/test.c":356:19)
#loc266 = loc("/Users/mac/Projects/mlir/cpp-to-ops-converter/script/..//in/test.c":344:25)
#loc267 = loc("/Users/mac/Projects/mlir/cpp-to-ops-converter/script/..//in/test.c":344:23)
#loc269 = loc("/Users/mac/Projects/mlir/cpp-to-ops-converter/script/..//in/test.c":353:31)
#loc270 = loc("/Users/mac/Projects/mlir/cpp-to-ops-converter/script/..//in/test.c":345:27)
#loc271 = loc("/Users/mac/Projects/mlir/cpp-to-ops-converter/script/..//in/test.c":345:25)
#loc273 = loc("/Users/mac/Projects/mlir/cpp-to-ops-converter/script/..//in/test.c":346:27)
#loc274 = loc("/Users/mac/Projects/mlir/cpp-to-ops-converter/script/..//in/test.c":347:13)
#loc275 = loc("/Users/mac/Projects/mlir/cpp-to-ops-converter/script/..//in/test.c":347:31)
#loc276 = loc("/Users/mac/Projects/mlir/cpp-to-ops-converter/script/..//in/test.c":348:19)
#loc277 = loc("/Users/mac/Projects/mlir/cpp-to-ops-converter/script/..//in/test.c":348:57)
#loc278 = loc("/Users/mac/Projects/mlir/cpp-to-ops-converter/script/..//in/test.c":348:38)
#loc279 = loc("/Users/mac/Projects/mlir/cpp-to-ops-converter/script/..//in/test.c":348:36)
#loc280 = loc("/Users/mac/Projects/mlir/cpp-to-ops-converter/script/..//in/test.c":349:28)
#loc281 = loc("/Users/mac/Projects/mlir/cpp-to-ops-converter/script/..//in/test.c":349:38)
#loc282 = loc("/Users/mac/Projects/mlir/cpp-to-ops-converter/script/..//in/test.c":349:19)
#loc283 = loc("/Users/mac/Projects/mlir/cpp-to-ops-converter/script/..//in/test.c":348:59)
#loc284 = loc("/Users/mac/Projects/mlir/cpp-to-ops-converter/script/..//in/test.c":349:65)
#loc285 = loc("/Users/mac/Projects/mlir/cpp-to-ops-converter/script/..//in/test.c":349:42)
#loc286 = loc("/Users/mac/Projects/mlir/cpp-to-ops-converter/script/..//in/test.c":349:40)
#loc287 = loc("/Users/mac/Projects/mlir/cpp-to-ops-converter/script/..//in/test.c":349:68)
#loc288 = loc("/Users/mac/Projects/mlir/cpp-to-ops-converter/script/..//in/test.c":352:19)
#loc289 = loc("/Users/mac/Projects/mlir/cpp-to-ops-converter/script/..//in/test.c":352:38)
#loc290 = loc("/Users/mac/Projects/mlir/cpp-to-ops-converter/script/..//in/test.c":352:36)
#loc291 = loc("/Users/mac/Projects/mlir/cpp-to-ops-converter/script/..//in/test.c":353:38)
#loc292 = loc("/Users/mac/Projects/mlir/cpp-to-ops-converter/script/..//in/test.c":353:19)
#loc293 = loc("/Users/mac/Projects/mlir/cpp-to-ops-converter/script/..//in/test.c":352:59)
#loc294 = loc("/Users/mac/Projects/mlir/cpp-to-ops-converter/script/..//in/test.c":353:65)
#loc295 = loc("/Users/mac/Projects/mlir/cpp-to-ops-converter/script/..//in/test.c":353:42)
#loc296 = loc("/Users/mac/Projects/mlir/cpp-to-ops-converter/script/..//in/test.c":353:40)
#loc297 = loc("/Users/mac/Projects/mlir/cpp-to-ops-converter/script/..//in/test.c":353:68)
#loc298 = loc("/Users/mac/Projects/mlir/cpp-to-ops-converter/script/..//in/test.c":351:72)
#loc299 = loc("/Users/mac/Projects/mlir/cpp-to-ops-converter/script/..//in/test.c":347:45)
#loc300 = loc("/Users/mac/Projects/mlir/cpp-to-ops-converter/script/..//in/test.c":356:45)
#loc301 = loc("/Users/mac/Projects/mlir/cpp-to-ops-converter/script/..//in/test.c":356:32)
#loc302 = loc("/Users/mac/Projects/mlir/cpp-to-ops-converter/script/..//in/test.c":356:30)
#loc303 = loc("/Users/mac/Projects/mlir/cpp-to-ops-converter/script/..//in/test.c":356:48)
#loc304 = loc("/Users/mac/Projects/mlir/cpp-to-ops-converter/script/..//in/test.c":355:73)
#loc305 = loc("/Users/mac/Projects/mlir/cpp-to-ops-converter/script/..//in/test.c":358:18)
#loc306 = loc("/Users/mac/Projects/mlir/cpp-to-ops-converter/script/..//in/test.c":358:40)
#loc307 = loc("/Users/mac/Projects/mlir/cpp-to-ops-converter/script/..//in/test.c":358:38)
#loc308 = loc("/Users/mac/Projects/mlir/cpp-to-ops-converter/script/..//in/test.c":357:49)
#loc309 = loc("/Users/mac/Projects/mlir/cpp-to-ops-converter/script/..//in/test.c":346:29)
#loc310 = loc("/Users/mac/Projects/mlir/cpp-to-ops-converter/script/..//in/test.c":359:27)
#loc311 = loc("/Users/mac/Projects/mlir/cpp-to-ops-converter/script/..//in/test.c":359:9)
#loc312 = loc("/Users/mac/Projects/mlir/cpp-to-ops-converter/script/..//in/test.c":360:13)
#loc313 = loc("/Users/mac/Projects/mlir/cpp-to-ops-converter/script/..//in/test.c":360:35)
#loc314 = loc("/Users/mac/Projects/mlir/cpp-to-ops-converter/script/..//in/test.c":360:55)
#loc315 = loc("/Users/mac/Projects/mlir/cpp-to-ops-converter/script/..//in/test.c":360:53)
#loc316 = loc("/Users/mac/Projects/mlir/cpp-to-ops-converter/script/..//in/test.c":360:33)
#loc317 = loc("/Users/mac/Projects/mlir/cpp-to-ops-converter/script/..//in/test.c":359:29)
#loc318 = loc("/Users/mac/Projects/mlir/cpp-to-ops-converter/script/..//in/test.c":343:30)
#loc319 = loc("/Users/mac/Projects/mlir/cpp-to-ops-converter/script/..//in/test.c":375:56)
#loc320 = loc("/Users/mac/Projects/mlir/cpp-to-ops-converter/script/..//in/test.c":368:23)
#loc321 = loc("/Users/mac/Projects/mlir/cpp-to-ops-converter/script/..//in/test.c":368:21)
#loc323 = loc("/Users/mac/Projects/mlir/cpp-to-ops-converter/script/..//in/test.c":369:25)
#loc324 = loc("/Users/mac/Projects/mlir/cpp-to-ops-converter/script/..//in/test.c":369:23)
#loc326 = loc("/Users/mac/Projects/mlir/cpp-to-ops-converter/script/..//in/test.c":370:27)
#loc327 = loc("/Users/mac/Projects/mlir/cpp-to-ops-converter/script/..//in/test.c":370:25)
#loc329 = loc("/Users/mac/Projects/mlir/cpp-to-ops-converter/script/..//in/test.c":371:26)
#loc330 = loc("/Users/mac/Projects/mlir/cpp-to-ops-converter/script/..//in/test.c":371:9)
#loc331 = loc("/Users/mac/Projects/mlir/cpp-to-ops-converter/script/..//in/test.c":371:28)
#loc332 = loc("/Users/mac/Projects/mlir/cpp-to-ops-converter/script/..//in/test.c":373:27)
#loc333 = loc("/Users/mac/Projects/mlir/cpp-to-ops-converter/script/..//in/test.c":373:43)
#loc334 = loc("/Users/mac/Projects/mlir/cpp-to-ops-converter/script/..//in/test.c":373:37)
#loc335 = loc("/Users/mac/Projects/mlir/cpp-to-ops-converter/script/..//in/test.c":373:31)
#loc336 = loc("/Users/mac/Projects/mlir/cpp-to-ops-converter/script/..//in/test.c":374:31)
#loc337 = loc("/Users/mac/Projects/mlir/cpp-to-ops-converter/script/..//in/test.c":373:64)
#loc338 = loc("/Users/mac/Projects/mlir/cpp-to-ops-converter/script/..//in/test.c":375:37)
#loc339 = loc("/Users/mac/Projects/mlir/cpp-to-ops-converter/script/..//in/test.c":375:35)
#loc340 = loc("/Users/mac/Projects/mlir/cpp-to-ops-converter/script/..//in/test.c":375:54)
#loc341 = loc("/Users/mac/Projects/mlir/cpp-to-ops-converter/script/..//in/test.c":374:50)
#loc342 = loc("/Users/mac/Projects/mlir/cpp-to-ops-converter/script/..//in/test.c":373:29)
#loc343 = loc("/Users/mac/Projects/mlir/cpp-to-ops-converter/script/..//in/test.c":370:32)
#loc344 = loc("/Users/mac/Projects/mlir/cpp-to-ops-converter/script/..//in/test.c":369:30)
#loc345 = loc("/Users/mac/Projects/mlir/cpp-to-ops-converter/script/..//in/test.c":368:28)
#loc346 = loc("/Users/mac/Projects/mlir/cpp-to-ops-converter/script/..//in/test.c":540:1)

