#loc1 = loc("/Users/mac/Projects/mlir/cpp-to-ops-converter/script/..//in/test.c":95:6)
#loc10 = loc("/Users/mac/Projects/mlir/cpp-to-ops-converter/script/..//in/test.c":101:3)
#loc12 = loc("/Users/mac/Projects/mlir/cpp-to-ops-converter/script/..//in/test.c":102:5)
#loc14 = loc("/Users/mac/Projects/mlir/cpp-to-ops-converter/script/..//in/test.c":103:7)
module attributes {dlti.dl_spec = #dlti.dl_spec<#dlti.dl_entry<"dlti.endianness", "little">, #dlti.dl_entry<i64, dense<64> : vector<2xi32>>, #dlti.dl_entry<f80, dense<128> : vector<2xi32>>, #dlti.dl_entry<i1, dense<8> : vector<2xi32>>, #dlti.dl_entry<i8, dense<8> : vector<2xi32>>, #dlti.dl_entry<i16, dense<16> : vector<2xi32>>, #dlti.dl_entry<i32, dense<32> : vector<2xi32>>, #dlti.dl_entry<f16, dense<16> : vector<2xi32>>, #dlti.dl_entry<f64, dense<64> : vector<2xi32>>, #dlti.dl_entry<f128, dense<128> : vector<2xi32>>>, llvm.data_layout = "e-m:o-p270:32:32-p271:32:32-p272:64:64-i64:64-f80:128-n8:16:32:64-S128", llvm.target_triple = "x86_64-apple-macosx14.0.0", "polygeist.target-cpu" = "penryn", "polygeist.target-features" = "+cx16,+cx8,+fxsr,+mmx,+sahf,+sse,+sse2,+sse3,+sse4.1,+ssse3,+x87", "polygeist.tune-cpu" = "generic"} {
  memref.global @im : memref<1xi32> loc(#loc0)
  memref.global @jm : memref<1xi32> loc(#loc0)
  memref.global @kb : memref<1xi32> loc(#loc0)
  func.func @red3(%arg0: memref<?xf32> loc("/Users/mac/Projects/mlir/cpp-to-ops-converter/script/..//in/test.c":95:6), %arg1: memref<?xf32> loc("/Users/mac/Projects/mlir/cpp-to-ops-converter/script/..//in/test.c":95:6)) attributes {llvm.linkage = #llvm.linkage<external>} {
    %c1_i32 = arith.constant 1 : i32 loc(#loc2)
    %c0_i32 = arith.constant 0 : i32 loc(#loc3)
    %cst = arith.constant 1.100000e+01 : f32 loc(#loc4)
    %c0 = arith.constant 0 : index loc(#loc5)
    %0 = memref.get_global @kb : memref<1xi32> loc(#loc6)
    %1 = memref.get_global @jm : memref<1xi32> loc(#loc7)
    %2 = memref.get_global @im : memref<1xi32> loc(#loc8)
    %3 = scf.while (%arg2 = %c0_i32) : (i32) -> i32 {
      %c0_0 = arith.constant 0 : index loc(#loc6)
      %4 = memref.load %0[%c0_0] : memref<1xi32> loc(#loc6)
      %5 = arith.cmpi slt, %arg2, %4 : i32 loc(#loc9)
      scf.condition(%5) %arg2 : i32 loc(#loc10)
    } do {
    ^bb0(%arg2: i32 loc("/Users/mac/Projects/mlir/cpp-to-ops-converter/script/..//in/test.c":101:3)):
      %4 = scf.while (%arg3 = %c0_i32) : (i32) -> i32 {
        %c0_0 = arith.constant 0 : index loc(#loc7)
        %6 = memref.load %1[%c0_0] : memref<1xi32> loc(#loc7)
        %7 = arith.cmpi slt, %arg3, %6 : i32 loc(#loc11)
        scf.condition(%7) %arg3 : i32 loc(#loc12)
      } do {
      ^bb0(%arg3: i32 loc("/Users/mac/Projects/mlir/cpp-to-ops-converter/script/..//in/test.c":102:5)):
        %6:2 = scf.while (%arg4 = %c0_i32) : (i32) -> (i32, i32) {
          %c0_0 = arith.constant 0 : index loc(#loc8)
          %8 = memref.load %2[%c0_0] : memref<1xi32> loc(#loc8)
          %9 = arith.cmpi slt, %arg4, %8 : i32 loc(#loc13)
          scf.condition(%9) %8, %arg4 : i32, i32 loc(#loc14)
        } do {
        ^bb0(%arg4: i32 loc("/Users/mac/Projects/mlir/cpp-to-ops-converter/script/..//in/test.c":103:7), %arg5: i32 loc("/Users/mac/Projects/mlir/cpp-to-ops-converter/script/..//in/test.c":103:7)):
          %8 = arith.muli %arg3, %arg4 : i32 loc(#loc15)
          %9 = arith.addi %arg5, %8 : i32 loc(#loc16)
          %10 = arith.muli %arg2, %arg4 : i32 loc(#loc17)
          %c0_0 = arith.constant 0 : index loc(#loc18)
          %11 = memref.load %1[%c0_0] : memref<1xi32> loc(#loc18)
          %12 = arith.muli %10, %11 : i32 loc(#loc19)
          %13 = arith.addi %9, %12 : i32 loc(#loc20)
          %14 = arith.index_cast %13 : i32 to index loc(#loc21)
          %15 = arith.addi %14, %c0 : index loc(#loc22)
          %16 = memref.load %arg1[%15] : memref<?xf32> loc(#loc22)
          %17 = arith.subf %cst, %16 : f32 loc(#loc23)
          %18 = arith.fptosi %17 : f32 to i32 loc(#loc24)
          %19 = func.call @abs(%18) : (i32) -> i32 loc(#loc25)
          %20 = arith.sitofp %19 : i32 to f32 loc(#loc25)
          %c0_1 = arith.constant 0 : index loc(#loc26)
          %21 = memref.load %2[%c0_1] : memref<1xi32> loc(#loc26)
          %22 = arith.muli %arg3, %21 : i32 loc(#loc15)
          %23 = arith.addi %arg5, %22 : i32 loc(#loc16)
          %24 = arith.muli %arg2, %21 : i32 loc(#loc17)
          %c0_2 = arith.constant 0 : index loc(#loc18)
          %25 = memref.load %1[%c0_2] : memref<1xi32> loc(#loc18)
          %26 = arith.muli %24, %25 : i32 loc(#loc19)
          %27 = arith.addi %23, %26 : i32 loc(#loc20)
          %28 = arith.index_cast %27 : i32 to index loc(#loc27)
          %29 = arith.addi %28, %c0 : index loc(#loc28)
          %30 = memref.load %arg0[%29] : memref<?xf32> loc(#loc28)
          %31 = arith.addf %30, %20 : f32 loc(#loc29)
          memref.store %31, %arg1[%29] : memref<?xf32> loc(#loc30)
          %c0_3 = arith.constant 0 : index loc(#loc26)
          %32 = memref.load %2[%c0_3] : memref<1xi32> loc(#loc26)
          %33 = arith.muli %arg3, %32 : i32 loc(#loc15)
          %34 = arith.addi %arg5, %33 : i32 loc(#loc16)
          %35 = arith.muli %arg2, %32 : i32 loc(#loc17)
          %c0_4 = arith.constant 0 : index loc(#loc18)
          %36 = memref.load %1[%c0_4] : memref<1xi32> loc(#loc18)
          %37 = arith.muli %35, %36 : i32 loc(#loc19)
          %38 = arith.addi %34, %37 : i32 loc(#loc20)
          %39 = arith.index_cast %38 : i32 to index loc(#loc31)
          %40 = arith.addi %39, %c0 : index loc(#loc32)
          %41 = memref.load %arg1[%40] : memref<?xf32> loc(#loc32)
          %42 = arith.subf %cst, %41 : f32 loc(#loc33)
          %43 = arith.fptosi %42 : f32 to i32 loc(#loc34)
          %44 = func.call @abs(%43) : (i32) -> i32 loc(#loc35)
          %45 = arith.addi %arg5, %c1_i32 : i32 loc(#loc2)
          scf.yield %45 : i32 loc(#loc14)
        } loc(#loc8)
        %7 = arith.addi %arg3, %c1_i32 : i32 loc(#loc36)
        scf.yield %7 : i32 loc(#loc12)
      } loc(#loc7)
      %5 = arith.addi %arg2, %c1_i32 : i32 loc(#loc37)
      scf.yield %5 : i32 loc(#loc10)
    } loc(#loc6)
    return loc(#loc38)
  } loc(#loc1)
  func.func private @abs(i32) -> i32 attributes {llvm.linkage = #llvm.linkage<external>} loc(#loc25)
} loc(#loc0)
#loc0 = loc(unknown)
#loc2 = loc("/Users/mac/Projects/mlir/cpp-to-ops-converter/script/..//in/test.c":103:32)
#loc3 = loc("/Users/mac/Projects/mlir/cpp-to-ops-converter/script/..//in/test.c":101:16)
#loc4 = loc("/Users/mac/Projects/mlir/cpp-to-ops-converter/script/..//in/test.c":96:16)
#loc5 = loc("/Users/mac/Projects/mlir/cpp-to-ops-converter/script/..//in/test.c":103:12)
#loc6 = loc("/Users/mac/Projects/mlir/cpp-to-ops-converter/script/..//in/test.c":101:23)
#loc7 = loc("/Users/mac/Projects/mlir/cpp-to-ops-converter/script/..//in/test.c":102:25)
#loc8 = loc("/Users/mac/Projects/mlir/cpp-to-ops-converter/script/..//in/test.c":103:27)
#loc9 = loc("/Users/mac/Projects/mlir/cpp-to-ops-converter/script/..//in/test.c":101:21)
#loc11 = loc("/Users/mac/Projects/mlir/cpp-to-ops-converter/script/..//in/test.c":102:23)
#loc13 = loc("/Users/mac/Projects/mlir/cpp-to-ops-converter/script/..//in/test.c":103:25)
#loc15 = loc("/Users/mac/Projects/mlir/cpp-to-ops-converter/script/..//in/pom2k_c_header.h":7:50)
#loc16 = loc("/Users/mac/Projects/mlir/cpp-to-ops-converter/script/..//in/pom2k_c_header.h":7:45)
#loc17 = loc("/Users/mac/Projects/mlir/cpp-to-ops-converter/script/..//in/pom2k_c_header.h":7:59)
#loc18 = loc("/Users/mac/Projects/mlir/cpp-to-ops-converter/script/..//in/pom2k_c_header.h":8:46)
#loc19 = loc("/Users/mac/Projects/mlir/cpp-to-ops-converter/script/..//in/pom2k_c_header.h":7:63)
#loc20 = loc("/Users/mac/Projects/mlir/cpp-to-ops-converter/script/..//in/pom2k_c_header.h":7:54)
#loc21 = loc("/Users/mac/Projects/mlir/cpp-to-ops-converter/script/..//in/test.c":105:41)
#loc22 = loc("/Users/mac/Projects/mlir/cpp-to-ops-converter/script/..//in/test.c":105:23)
#loc23 = loc("/Users/mac/Projects/mlir/cpp-to-ops-converter/script/..//in/test.c":105:21)
#loc24 = loc("/Users/mac/Projects/mlir/cpp-to-ops-converter/script/..//in/test.c":105:17)
#loc25 = loc("/Users/mac/Projects/mlir/cpp-to-ops-converter/script/..//in/test.c":105:13)
#loc26 = loc("/Users/mac/Projects/mlir/cpp-to-ops-converter/script/..//in/pom2k_c_header.h":8:42)
#loc27 = loc("/Users/mac/Projects/mlir/cpp-to-ops-converter/script/..//in/test.c":106:27)
#loc28 = loc("/Users/mac/Projects/mlir/cpp-to-ops-converter/script/..//in/test.c":106:31)
#loc29 = loc("/Users/mac/Projects/mlir/cpp-to-ops-converter/script/..//in/test.c":106:50)
#loc30 = loc("/Users/mac/Projects/mlir/cpp-to-ops-converter/script/..//in/test.c":106:29)
#loc31 = loc("/Users/mac/Projects/mlir/cpp-to-ops-converter/script/..//in/test.c":107:41)
#loc32 = loc("/Users/mac/Projects/mlir/cpp-to-ops-converter/script/..//in/test.c":107:23)
#loc33 = loc("/Users/mac/Projects/mlir/cpp-to-ops-converter/script/..//in/test.c":107:21)
#loc34 = loc("/Users/mac/Projects/mlir/cpp-to-ops-converter/script/..//in/test.c":107:17)
#loc35 = loc("/Users/mac/Projects/mlir/cpp-to-ops-converter/script/..//in/test.c":107:13)
#loc36 = loc("/Users/mac/Projects/mlir/cpp-to-ops-converter/script/..//in/test.c":102:30)
#loc37 = loc("/Users/mac/Projects/mlir/cpp-to-ops-converter/script/..//in/test.c":101:28)
#loc38 = loc("/Users/mac/Projects/mlir/cpp-to-ops-converter/script/..//in/test.c":111:1)

