#loc1 = loc("/Users/mac/Projects/mlir/cpp-to-ops-converter/script/..//ITK_POM2K/pom2k_fun.c":3292:6)
#loc13 = loc("/Users/mac/Projects/mlir/cpp-to-ops-converter/script/..//ITK_POM2K/pom2k_fun.c":3302:3)
#loc15 = loc("/Users/mac/Projects/mlir/cpp-to-ops-converter/script/..//ITK_POM2K/pom2k_fun.c":3303:5)
#loc17 = loc("/Users/mac/Projects/mlir/cpp-to-ops-converter/script/..//ITK_POM2K/pom2k_fun.c":3304:7)
#loc36 = loc("/Users/mac/Projects/mlir/cpp-to-ops-converter/script/..//ITK_POM2K/pom2k_fun.c":3312:3)
#loc38 = loc("/Users/mac/Projects/mlir/cpp-to-ops-converter/script/..//ITK_POM2K/pom2k_fun.c":3313:5)
#loc41 = loc("/Users/mac/Projects/mlir/cpp-to-ops-converter/script/..//ITK_POM2K/pom2k_fun.c":3314:7)
#loc64 = loc("/Users/mac/Projects/mlir/cpp-to-ops-converter/script/..//ITK_POM2K/pom2k_fun.c":3322:3)
#loc67 = loc("/Users/mac/Projects/mlir/cpp-to-ops-converter/script/..//ITK_POM2K/pom2k_fun.c":3323:5)
#loc70 = loc("/Users/mac/Projects/mlir/cpp-to-ops-converter/script/..//ITK_POM2K/pom2k_fun.c":3324:7)
#loc92 = loc("/Users/mac/Projects/mlir/cpp-to-ops-converter/script/..//ITK_POM2K/pom2k_fun.c":3332:3)
#loc95 = loc("/Users/mac/Projects/mlir/cpp-to-ops-converter/script/..//ITK_POM2K/pom2k_fun.c":3333:5)
#loc109 = loc("/Users/mac/Projects/mlir/cpp-to-ops-converter/script/..//ITK_POM2K/pom2k_fun.c":3339:3)
#loc112 = loc("/Users/mac/Projects/mlir/cpp-to-ops-converter/script/..//ITK_POM2K/pom2k_fun.c":3340:5)
#loc115 = loc("/Users/mac/Projects/mlir/cpp-to-ops-converter/script/..//ITK_POM2K/pom2k_fun.c":3341:7)
#loc127 = loc("/Users/mac/Projects/mlir/cpp-to-ops-converter/script/..//ITK_POM2K/pom2k_fun.c":3352:3)
#loc130 = loc("/Users/mac/Projects/mlir/cpp-to-ops-converter/script/..//ITK_POM2K/pom2k_fun.c":3353:5)
#loc134 = loc("/Users/mac/Projects/mlir/cpp-to-ops-converter/script/..//ITK_POM2K/pom2k_fun.c":3354:7)
#loc168 = loc("/Users/mac/Projects/mlir/cpp-to-ops-converter/script/..//ITK_POM2K/pom2k_fun.c":3372:3)
#loc171 = loc("/Users/mac/Projects/mlir/cpp-to-ops-converter/script/..//ITK_POM2K/pom2k_fun.c":3373:5)
#loc182 = loc("/Users/mac/Projects/mlir/cpp-to-ops-converter/script/..//ITK_POM2K/pom2k_fun.c":3379:3)
#loc185 = loc("/Users/mac/Projects/mlir/cpp-to-ops-converter/script/..//ITK_POM2K/pom2k_fun.c":3380:5)
#loc198 = loc("/Users/mac/Projects/mlir/cpp-to-ops-converter/script/..//ITK_POM2K/pom2k_fun.c":3388:3)
#loc202 = loc("/Users/mac/Projects/mlir/cpp-to-ops-converter/script/..//ITK_POM2K/pom2k_fun.c":3389:5)
#loc205 = loc("/Users/mac/Projects/mlir/cpp-to-ops-converter/script/..//ITK_POM2K/pom2k_fun.c":3390:7)
#loc231 = loc("/Users/mac/Projects/mlir/cpp-to-ops-converter/script/..//ITK_POM2K/pom2k_fun.c":3402:3)
#loc237 = loc("/Users/mac/Projects/mlir/cpp-to-ops-converter/script/..//ITK_POM2K/pom2k_fun.c":3403:5)
#loc241 = loc("/Users/mac/Projects/mlir/cpp-to-ops-converter/script/..//ITK_POM2K/pom2k_fun.c":3404:7)
#loc280 = loc("/Users/mac/Projects/mlir/cpp-to-ops-converter/script/..//ITK_POM2K/pom2k_fun.c":3421:3)
#loc283 = loc("/Users/mac/Projects/mlir/cpp-to-ops-converter/script/..//ITK_POM2K/pom2k_fun.c":3422:5)
#loc291 = loc("/Users/mac/Projects/mlir/cpp-to-ops-converter/script/..//ITK_POM2K/pom2k_fun.c":3427:3)
#loc294 = loc("/Users/mac/Projects/mlir/cpp-to-ops-converter/script/..//ITK_POM2K/pom2k_fun.c":3428:5)
#loc297 = loc("/Users/mac/Projects/mlir/cpp-to-ops-converter/script/..//ITK_POM2K/pom2k_fun.c":3429:7)
#loc306 = loc("/Users/mac/Projects/mlir/cpp-to-ops-converter/script/..//ITK_POM2K/pom2k_fun.c":3441:3)
#loc309 = loc("/Users/mac/Projects/mlir/cpp-to-ops-converter/script/..//ITK_POM2K/pom2k_fun.c":3442:5)
#loc312 = loc("/Users/mac/Projects/mlir/cpp-to-ops-converter/script/..//ITK_POM2K/pom2k_fun.c":3443:7)
#loc321 = loc("/Users/mac/Projects/mlir/cpp-to-ops-converter/script/..//ITK_POM2K/pom2k_fun.c":3449:3)
#loc324 = loc("/Users/mac/Projects/mlir/cpp-to-ops-converter/script/..//ITK_POM2K/pom2k_fun.c":3450:5)
#loc328 = loc("/Users/mac/Projects/mlir/cpp-to-ops-converter/script/..//ITK_POM2K/pom2k_fun.c":3451:7)
#loc350 = loc("/Users/mac/Projects/mlir/cpp-to-ops-converter/script/..//ITK_POM2K/pom2k_fun.c":3460:3)
#loc353 = loc("/Users/mac/Projects/mlir/cpp-to-ops-converter/script/..//ITK_POM2K/pom2k_fun.c":3461:5)
#loc357 = loc("/Users/mac/Projects/mlir/cpp-to-ops-converter/script/..//ITK_POM2K/pom2k_fun.c":3462:7)
#loc419 = loc("/Users/mac/Projects/mlir/cpp-to-ops-converter/script/..//ITK_POM2K/pom2k_fun.c":3477:3)
#loc422 = loc("/Users/mac/Projects/mlir/cpp-to-ops-converter/script/..//ITK_POM2K/pom2k_fun.c":3478:5)
#loc425 = loc("/Users/mac/Projects/mlir/cpp-to-ops-converter/script/..//ITK_POM2K/pom2k_fun.c":3479:7)
#loc434 = loc("/Users/mac/Projects/mlir/cpp-to-ops-converter/script/..//ITK_POM2K/pom2k_fun.c":3486:3)
#loc437 = loc("/Users/mac/Projects/mlir/cpp-to-ops-converter/script/..//ITK_POM2K/pom2k_fun.c":3487:5)
#loc441 = loc("/Users/mac/Projects/mlir/cpp-to-ops-converter/script/..//ITK_POM2K/pom2k_fun.c":3488:7)
#loc468 = loc("/Users/mac/Projects/mlir/cpp-to-ops-converter/script/..//ITK_POM2K/pom2k_fun.c":3100:6)
#loc474 = loc("/Users/mac/Projects/mlir/cpp-to-ops-converter/script/..//ITK_POM2K/pom2k_c_header.h":4:16)
#loc479 = loc("/Users/mac/Projects/mlir/cpp-to-ops-converter/script/..//ITK_POM2K/pom2k_fun.c":3105:3)
#loc481 = loc("/Users/mac/Projects/mlir/cpp-to-ops-converter/script/..//ITK_POM2K/pom2k_fun.c":3106:5)
#loc483 = loc("/Users/mac/Projects/mlir/cpp-to-ops-converter/script/..//ITK_POM2K/pom2k_fun.c":3107:7)
#loc495 = loc("/Users/mac/Projects/mlir/cpp-to-ops-converter/script/..//ITK_POM2K/pom2k_fun.c":3114:3)
#loc497 = loc("/Users/mac/Projects/mlir/cpp-to-ops-converter/script/..//ITK_POM2K/pom2k_fun.c":3115:5)
#loc500 = loc("/Users/mac/Projects/mlir/cpp-to-ops-converter/script/..//ITK_POM2K/pom2k_fun.c":3116:7)
#loc553 = loc("/Users/mac/Projects/mlir/cpp-to-ops-converter/script/..//ITK_POM2K/pom2k_fun.c":3140:3)
#loc556 = loc("/Users/mac/Projects/mlir/cpp-to-ops-converter/script/..//ITK_POM2K/pom2k_fun.c":3141:5)
#loc558 = loc("/Users/mac/Projects/mlir/cpp-to-ops-converter/script/..//ITK_POM2K/pom2k_fun.c":3142:7)
#loc611 = loc("/Users/mac/Projects/mlir/cpp-to-ops-converter/script/..//ITK_POM2K/pom2k_fun.c":3166:3)
#loc614 = loc("/Users/mac/Projects/mlir/cpp-to-ops-converter/script/..//ITK_POM2K/pom2k_fun.c":3167:5)
#loc617 = loc("/Users/mac/Projects/mlir/cpp-to-ops-converter/script/..//ITK_POM2K/pom2k_fun.c":3168:7)
module attributes {dlti.dl_spec = #dlti.dl_spec<#dlti.dl_entry<"dlti.endianness", "little">, #dlti.dl_entry<i64, dense<64> : vector<2xi32>>, #dlti.dl_entry<f80, dense<128> : vector<2xi32>>, #dlti.dl_entry<i1, dense<8> : vector<2xi32>>, #dlti.dl_entry<i8, dense<8> : vector<2xi32>>, #dlti.dl_entry<i16, dense<16> : vector<2xi32>>, #dlti.dl_entry<i32, dense<32> : vector<2xi32>>, #dlti.dl_entry<f16, dense<16> : vector<2xi32>>, #dlti.dl_entry<f64, dense<64> : vector<2xi32>>, #dlti.dl_entry<f128, dense<128> : vector<2xi32>>>, llvm.data_layout = "e-m:o-p270:32:32-p271:32:32-p272:64:64-i64:64-f80:128-n8:16:32:64-S128", llvm.target_triple = "x86_64-apple-macosx13.0.0", "polygeist.target-cpu" = "penryn", "polygeist.target-features" = "+cx16,+cx8,+fxsr,+mmx,+sahf,+sse,+sse2,+sse3,+sse4.1,+ssse3,+x87", "polygeist.tune-cpu" = "generic"} {
  memref.global @epsilon : memref<1xf32> = dense<9.99999982E-15> loc(#loc0)
  memref.global @value_min : memref<1xf32> = dense<9.99999971E-10> loc(#loc0)
  memref.global @tprni : memref<1xf32> loc(#loc0)
  memref.global @dti2 : memref<1xf32> loc(#loc0)
  memref.global @kbm2 : memref<1xi32> loc(#loc0)
  memref.global @imm1 : memref<1xi32> loc(#loc0)
  memref.global @jmm1 : memref<1xi32> loc(#loc0)
  memref.global @kbm1 : memref<1xi32> loc(#loc0)
  memref.global @im : memref<1xi32> loc(#loc0)
  memref.global @jm : memref<1xi32> loc(#loc0)
  memref.global @kb : memref<1xi32> loc(#loc0)
  func.func @ext_advt2_(%arg0: memref<?xf32> loc("/Users/mac/Projects/mlir/cpp-to-ops-converter/script/..//ITK_POM2K/pom2k_fun.c":3292:6), %arg1: memref<?xf32> loc("/Users/mac/Projects/mlir/cpp-to-ops-converter/script/..//ITK_POM2K/pom2k_fun.c":3292:6), %arg2: memref<?xf32> loc("/Users/mac/Projects/mlir/cpp-to-ops-converter/script/..//ITK_POM2K/pom2k_fun.c":3292:6), %arg3: memref<?xf32> loc("/Users/mac/Projects/mlir/cpp-to-ops-converter/script/..//ITK_POM2K/pom2k_fun.c":3292:6), %arg4: memref<?xf32> loc("/Users/mac/Projects/mlir/cpp-to-ops-converter/script/..//ITK_POM2K/pom2k_fun.c":3292:6), %arg5: memref<?xf32> loc("/Users/mac/Projects/mlir/cpp-to-ops-converter/script/..//ITK_POM2K/pom2k_fun.c":3292:6), %arg6: memref<?xf32> loc("/Users/mac/Projects/mlir/cpp-to-ops-converter/script/..//ITK_POM2K/pom2k_fun.c":3292:6), %arg7: memref<?xi32> loc("/Users/mac/Projects/mlir/cpp-to-ops-converter/script/..//ITK_POM2K/pom2k_fun.c":3292:6), %arg8: memref<?xf32> loc("/Users/mac/Projects/mlir/cpp-to-ops-converter/script/..//ITK_POM2K/pom2k_fun.c":3292:6), %arg9: memref<?xf32> loc("/Users/mac/Projects/mlir/cpp-to-ops-converter/script/..//ITK_POM2K/pom2k_fun.c":3292:6), %arg10: memref<?xf32> loc("/Users/mac/Projects/mlir/cpp-to-ops-converter/script/..//ITK_POM2K/pom2k_fun.c":3292:6), %arg11: memref<?xf32> loc("/Users/mac/Projects/mlir/cpp-to-ops-converter/script/..//ITK_POM2K/pom2k_fun.c":3292:6), %arg12: memref<?xf32> loc("/Users/mac/Projects/mlir/cpp-to-ops-converter/script/..//ITK_POM2K/pom2k_fun.c":3292:6), %arg13: memref<?xf32> loc("/Users/mac/Projects/mlir/cpp-to-ops-converter/script/..//ITK_POM2K/pom2k_fun.c":3292:6), %arg14: memref<?xf32> loc("/Users/mac/Projects/mlir/cpp-to-ops-converter/script/..//ITK_POM2K/pom2k_fun.c":3292:6), %arg15: memref<?xf32> loc("/Users/mac/Projects/mlir/cpp-to-ops-converter/script/..//ITK_POM2K/pom2k_fun.c":3292:6), %arg16: memref<?xf32> loc("/Users/mac/Projects/mlir/cpp-to-ops-converter/script/..//ITK_POM2K/pom2k_fun.c":3292:6), %arg17: memref<?xf32> loc("/Users/mac/Projects/mlir/cpp-to-ops-converter/script/..//ITK_POM2K/pom2k_fun.c":3292:6), %arg18: memref<?xf32> loc("/Users/mac/Projects/mlir/cpp-to-ops-converter/script/..//ITK_POM2K/pom2k_fun.c":3292:6), %arg19: memref<?xf32> loc("/Users/mac/Projects/mlir/cpp-to-ops-converter/script/..//ITK_POM2K/pom2k_fun.c":3292:6), %arg20: memref<?xf32> loc("/Users/mac/Projects/mlir/cpp-to-ops-converter/script/..//ITK_POM2K/pom2k_fun.c":3292:6), %arg21: memref<?xf32> loc("/Users/mac/Projects/mlir/cpp-to-ops-converter/script/..//ITK_POM2K/pom2k_fun.c":3292:6), %arg22: memref<?xf32> loc("/Users/mac/Projects/mlir/cpp-to-ops-converter/script/..//ITK_POM2K/pom2k_fun.c":3292:6), %arg23: memref<?xf32> loc("/Users/mac/Projects/mlir/cpp-to-ops-converter/script/..//ITK_POM2K/pom2k_fun.c":3292:6), %arg24: memref<?xf32> loc("/Users/mac/Projects/mlir/cpp-to-ops-converter/script/..//ITK_POM2K/pom2k_fun.c":3292:6), %arg25: memref<?xf32> loc("/Users/mac/Projects/mlir/cpp-to-ops-converter/script/..//ITK_POM2K/pom2k_fun.c":3292:6), %arg26: memref<?xf32> loc("/Users/mac/Projects/mlir/cpp-to-ops-converter/script/..//ITK_POM2K/pom2k_fun.c":3292:6), %arg27: memref<?xf32> loc("/Users/mac/Projects/mlir/cpp-to-ops-converter/script/..//ITK_POM2K/pom2k_fun.c":3292:6), %arg28: memref<?xf32> loc("/Users/mac/Projects/mlir/cpp-to-ops-converter/script/..//ITK_POM2K/pom2k_fun.c":3292:6), %arg29: memref<?xf32> loc("/Users/mac/Projects/mlir/cpp-to-ops-converter/script/..//ITK_POM2K/pom2k_fun.c":3292:6), %arg30: memref<?xf32> loc("/Users/mac/Projects/mlir/cpp-to-ops-converter/script/..//ITK_POM2K/pom2k_fun.c":3292:6), %arg31: memref<?xf32> loc("/Users/mac/Projects/mlir/cpp-to-ops-converter/script/..//ITK_POM2K/pom2k_fun.c":3292:6)) attributes {llvm.linkage = #llvm.linkage<external>} {
    %c-1_i32 = arith.constant -1 : i32 loc(#loc2)
    %cst = arith.constant 5.000000e-01 : f32 loc(#loc3)
    %cst_0 = arith.constant 5.000000e-01 : f64 loc(#loc4)
    %cst_1 = arith.constant 2.500000e-01 : f32 loc(#loc5)
    %c1_i32 = arith.constant 1 : i32 loc(#loc2)
    %cst_2 = arith.constant 0.000000e+00 : f32 loc(#loc6)
    %c0_i32 = arith.constant 0 : i32 loc(#loc7)
    %c0 = arith.constant 0 : index loc(#loc8)
    %0 = memref.get_global @kb : memref<1xi32> loc(#loc9)
    %1 = memref.get_global @jm : memref<1xi32> loc(#loc10)
    %2 = memref.get_global @im : memref<1xi32> loc(#loc11)
    %3 = scf.while (%arg32 = %c0_i32) : (i32) -> i32 {
      %c0_3 = arith.constant 0 : index loc(#loc9)
      %26 = memref.load %0[%c0_3] : memref<1xi32> loc(#loc9)
      %27 = arith.cmpi slt, %arg32, %26 : i32 loc(#loc12)
      scf.condition(%27) %arg32 : i32 loc(#loc13)
    } do {
    ^bb0(%arg32: i32 loc("/Users/mac/Projects/mlir/cpp-to-ops-converter/script/..//ITK_POM2K/pom2k_fun.c":3302:3)):
      %26 = scf.while (%arg33 = %c0_i32) : (i32) -> i32 {
        %c0_3 = arith.constant 0 : index loc(#loc10)
        %28 = memref.load %1[%c0_3] : memref<1xi32> loc(#loc10)
        %29 = arith.cmpi slt, %arg33, %28 : i32 loc(#loc14)
        scf.condition(%29) %arg33 : i32 loc(#loc15)
      } do {
      ^bb0(%arg33: i32 loc("/Users/mac/Projects/mlir/cpp-to-ops-converter/script/..//ITK_POM2K/pom2k_fun.c":3303:5)):
        %28:2 = scf.while (%arg34 = %c0_i32) : (i32) -> (i32, i32) {
          %c0_3 = arith.constant 0 : index loc(#loc11)
          %30 = memref.load %2[%c0_3] : memref<1xi32> loc(#loc11)
          %31 = arith.cmpi slt, %arg34, %30 : i32 loc(#loc16)
          scf.condition(%31) %30, %arg34 : i32, i32 loc(#loc17)
        } do {
        ^bb0(%arg34: i32 loc("/Users/mac/Projects/mlir/cpp-to-ops-converter/script/..//ITK_POM2K/pom2k_fun.c":3304:7), %arg35: i32 loc("/Users/mac/Projects/mlir/cpp-to-ops-converter/script/..//ITK_POM2K/pom2k_fun.c":3304:7)):
          %30 = arith.muli %arg33, %arg34 : i32 loc(#loc18)
          %31 = arith.addi %arg35, %30 : i32 loc(#loc19)
          %32 = arith.muli %arg32, %arg34 : i32 loc(#loc20)
          %c0_3 = arith.constant 0 : index loc(#loc21)
          %33 = memref.load %1[%c0_3] : memref<1xi32> loc(#loc21)
          %34 = arith.muli %32, %33 : i32 loc(#loc22)
          %35 = arith.addi %31, %34 : i32 loc(#loc23)
          %36 = arith.index_cast %35 : i32 to index loc(#loc24)
          %37 = arith.addi %36, %c0 : index loc(#loc25)
          memref.store %cst_2, %arg29[%37] : memref<?xf32> loc(#loc26)
          %c0_4 = arith.constant 0 : index loc(#loc27)
          %38 = memref.load %2[%c0_4] : memref<1xi32> loc(#loc27)
          %39 = arith.muli %arg33, %38 : i32 loc(#loc18)
          %40 = arith.addi %arg35, %39 : i32 loc(#loc19)
          %41 = arith.muli %arg32, %38 : i32 loc(#loc20)
          %c0_5 = arith.constant 0 : index loc(#loc21)
          %42 = memref.load %1[%c0_5] : memref<1xi32> loc(#loc21)
          %43 = arith.muli %41, %42 : i32 loc(#loc22)
          %44 = arith.addi %40, %43 : i32 loc(#loc23)
          %45 = arith.index_cast %44 : i32 to index loc(#loc28)
          %46 = arith.addi %45, %c0 : index loc(#loc29)
          memref.store %cst_2, %arg30[%46] : memref<?xf32> loc(#loc30)
          %47 = arith.addi %arg35, %c1_i32 : i32 loc(#loc2)
          scf.yield %47 : i32 loc(#loc17)
        } loc(#loc11)
        %29 = arith.addi %arg33, %c1_i32 : i32 loc(#loc31)
        scf.yield %29 : i32 loc(#loc15)
      } loc(#loc10)
      %27 = arith.addi %arg32, %c1_i32 : i32 loc(#loc32)
      scf.yield %27 : i32 loc(#loc13)
    } loc(#loc9)
    %4 = memref.get_global @kbm1 : memref<1xi32> loc(#loc33)
    %5 = memref.get_global @jmm1 : memref<1xi32> loc(#loc34)
    %6 = scf.while (%arg32 = %c0_i32) : (i32) -> i32 {
      %c0_3 = arith.constant 0 : index loc(#loc33)
      %26 = memref.load %4[%c0_3] : memref<1xi32> loc(#loc33)
      %27 = arith.cmpi slt, %arg32, %26 : i32 loc(#loc35)
      scf.condition(%27) %arg32 : i32 loc(#loc36)
    } do {
    ^bb0(%arg32: i32 loc("/Users/mac/Projects/mlir/cpp-to-ops-converter/script/..//ITK_POM2K/pom2k_fun.c":3312:3)):
      %26 = scf.while (%arg33 = %c1_i32) : (i32) -> i32 {
        %c0_3 = arith.constant 0 : index loc(#loc34)
        %28 = memref.load %5[%c0_3] : memref<1xi32> loc(#loc34)
        %29 = arith.cmpi slt, %arg33, %28 : i32 loc(#loc37)
        scf.condition(%29) %arg33 : i32 loc(#loc38)
      } do {
      ^bb0(%arg33: i32 loc("/Users/mac/Projects/mlir/cpp-to-ops-converter/script/..//ITK_POM2K/pom2k_fun.c":3313:5)):
        %28:2 = scf.while (%arg34 = %c1_i32) : (i32) -> (i32, i32) {
          %c0_3 = arith.constant 0 : index loc(#loc39)
          %30 = memref.load %2[%c0_3] : memref<1xi32> loc(#loc39)
          %31 = arith.cmpi slt, %arg34, %30 : i32 loc(#loc40)
          scf.condition(%31) %30, %arg34 : i32, i32 loc(#loc41)
        } do {
        ^bb0(%arg34: i32 loc("/Users/mac/Projects/mlir/cpp-to-ops-converter/script/..//ITK_POM2K/pom2k_fun.c":3314:7), %arg35: i32 loc("/Users/mac/Projects/mlir/cpp-to-ops-converter/script/..//ITK_POM2K/pom2k_fun.c":3314:7)):
          %30 = arith.muli %arg33, %arg34 : i32 loc(#loc18)
          %31 = arith.addi %arg35, %30 : i32 loc(#loc19)
          %32 = arith.muli %arg32, %arg34 : i32 loc(#loc20)
          %c0_3 = arith.constant 0 : index loc(#loc21)
          %33 = memref.load %1[%c0_3] : memref<1xi32> loc(#loc21)
          %34 = arith.muli %32, %33 : i32 loc(#loc22)
          %35 = arith.addi %31, %34 : i32 loc(#loc23)
          %36 = arith.index_cast %35 : i32 to index loc(#loc42)
          %37 = arith.addi %arg35, %c-1_i32 : i32 loc(#loc43)
          %38 = arith.addi %37, %30 : i32 loc(#loc44)
          %39 = arith.index_cast %38 : i32 to index loc(#loc45)
          %40 = arith.addi %39, %c0 : index loc(#loc46)
          %41 = memref.load %arg16[%40] : memref<?xf32> loc(#loc46)
          %42 = arith.index_cast %31 : i32 to index loc(#loc47)
          %43 = arith.addi %42, %c0 : index loc(#loc48)
          %44 = memref.load %arg16[%43] : memref<?xf32> loc(#loc48)
          %45 = arith.addf %41, %44 : f32 loc(#loc49)
          %46 = arith.mulf %45, %cst_1 : f32 loc(#loc50)
          %47 = memref.load %arg11[%40] : memref<?xf32> loc(#loc51)
          %48 = memref.load %arg11[%43] : memref<?xf32> loc(#loc52)
          %49 = arith.addf %47, %48 : f32 loc(#loc53)
          %50 = arith.mulf %46, %49 : f32 loc(#loc54)
          %51 = arith.addi %36, %c0 : index loc(#loc55)
          %52 = memref.load %arg9[%51] : memref<?xf32> loc(#loc55)
          %53 = arith.mulf %50, %52 : f32 loc(#loc56)
          memref.store %53, %arg29[%51] : memref<?xf32> loc(#loc57)
          %54 = arith.addi %arg35, %c1_i32 : i32 loc(#loc58)
          scf.yield %54 : i32 loc(#loc41)
        } loc(#loc39)
        %29 = arith.addi %arg33, %c1_i32 : i32 loc(#loc59)
        scf.yield %29 : i32 loc(#loc38)
      } loc(#loc34)
      %27 = arith.addi %arg32, %c1_i32 : i32 loc(#loc60)
      scf.yield %27 : i32 loc(#loc36)
    } loc(#loc33)
    %7 = memref.get_global @imm1 : memref<1xi32> loc(#loc61)
    %8 = scf.while (%arg32 = %c0_i32) : (i32) -> i32 {
      %c0_3 = arith.constant 0 : index loc(#loc62)
      %26 = memref.load %4[%c0_3] : memref<1xi32> loc(#loc62)
      %27 = arith.cmpi slt, %arg32, %26 : i32 loc(#loc63)
      scf.condition(%27) %arg32 : i32 loc(#loc64)
    } do {
    ^bb0(%arg32: i32 loc("/Users/mac/Projects/mlir/cpp-to-ops-converter/script/..//ITK_POM2K/pom2k_fun.c":3322:3)):
      %26 = scf.while (%arg33 = %c1_i32) : (i32) -> i32 {
        %c0_3 = arith.constant 0 : index loc(#loc65)
        %28 = memref.load %1[%c0_3] : memref<1xi32> loc(#loc65)
        %29 = arith.cmpi slt, %arg33, %28 : i32 loc(#loc66)
        scf.condition(%29) %arg33 : i32 loc(#loc67)
      } do {
      ^bb0(%arg33: i32 loc("/Users/mac/Projects/mlir/cpp-to-ops-converter/script/..//ITK_POM2K/pom2k_fun.c":3323:5)):
        %28 = arith.addi %arg33, %c-1_i32 : i32 loc(#loc68)
        %29 = scf.while (%arg34 = %c1_i32) : (i32) -> i32 {
          %c0_3 = arith.constant 0 : index loc(#loc61)
          %31 = memref.load %7[%c0_3] : memref<1xi32> loc(#loc61)
          %32 = arith.cmpi slt, %arg34, %31 : i32 loc(#loc69)
          scf.condition(%32) %arg34 : i32 loc(#loc70)
        } do {
        ^bb0(%arg34: i32 loc("/Users/mac/Projects/mlir/cpp-to-ops-converter/script/..//ITK_POM2K/pom2k_fun.c":3324:7)):
          %c0_3 = arith.constant 0 : index loc(#loc27)
          %31 = memref.load %2[%c0_3] : memref<1xi32> loc(#loc27)
          %32 = arith.muli %arg33, %31 : i32 loc(#loc18)
          %33 = arith.addi %arg34, %32 : i32 loc(#loc19)
          %34 = arith.muli %arg32, %31 : i32 loc(#loc20)
          %c0_4 = arith.constant 0 : index loc(#loc21)
          %35 = memref.load %1[%c0_4] : memref<1xi32> loc(#loc21)
          %36 = arith.muli %34, %35 : i32 loc(#loc22)
          %37 = arith.addi %33, %36 : i32 loc(#loc23)
          %38 = arith.index_cast %37 : i32 to index loc(#loc71)
          %39 = arith.muli %28, %31 : i32 loc(#loc72)
          %40 = arith.addi %arg34, %39 : i32 loc(#loc44)
          %41 = arith.index_cast %40 : i32 to index loc(#loc73)
          %42 = arith.addi %41, %c0 : index loc(#loc74)
          %43 = memref.load %arg15[%42] : memref<?xf32> loc(#loc74)
          %44 = arith.index_cast %33 : i32 to index loc(#loc75)
          %45 = arith.addi %44, %c0 : index loc(#loc76)
          %46 = memref.load %arg15[%45] : memref<?xf32> loc(#loc76)
          %47 = arith.addf %43, %46 : f32 loc(#loc77)
          %48 = arith.mulf %47, %cst_1 : f32 loc(#loc78)
          %49 = memref.load %arg11[%42] : memref<?xf32> loc(#loc79)
          %50 = memref.load %arg11[%45] : memref<?xf32> loc(#loc80)
          %51 = arith.addf %49, %50 : f32 loc(#loc81)
          %52 = arith.mulf %48, %51 : f32 loc(#loc82)
          %53 = arith.addi %38, %c0 : index loc(#loc83)
          %54 = memref.load %arg10[%53] : memref<?xf32> loc(#loc83)
          %55 = arith.mulf %52, %54 : f32 loc(#loc84)
          memref.store %55, %arg30[%53] : memref<?xf32> loc(#loc85)
          %56 = arith.addi %arg34, %c1_i32 : i32 loc(#loc86)
          scf.yield %56 : i32 loc(#loc70)
        } loc(#loc61)
        %30 = arith.addi %arg33, %c1_i32 : i32 loc(#loc87)
        scf.yield %30 : i32 loc(#loc67)
      } loc(#loc65)
      %27 = arith.addi %arg32, %c1_i32 : i32 loc(#loc88)
      scf.yield %27 : i32 loc(#loc64)
    } loc(#loc62)
    %9 = memref.get_global @kbm2 : memref<1xi32> loc(#loc89)
    %10 = scf.while (%arg32 = %c0_i32) : (i32) -> i32 {
      %c0_3 = arith.constant 0 : index loc(#loc90)
      %26 = memref.load %1[%c0_3] : memref<1xi32> loc(#loc90)
      %27 = arith.cmpi slt, %arg32, %26 : i32 loc(#loc91)
      scf.condition(%27) %arg32 : i32 loc(#loc92)
    } do {
    ^bb0(%arg32: i32 loc("/Users/mac/Projects/mlir/cpp-to-ops-converter/script/..//ITK_POM2K/pom2k_fun.c":3332:3)):
      %26:2 = scf.while (%arg33 = %c0_i32) : (i32) -> (i32, i32) {
        %c0_3 = arith.constant 0 : index loc(#loc93)
        %28 = memref.load %2[%c0_3] : memref<1xi32> loc(#loc93)
        %29 = arith.cmpi slt, %arg33, %28 : i32 loc(#loc94)
        scf.condition(%29) %28, %arg33 : i32, i32 loc(#loc95)
      } do {
      ^bb0(%arg33: i32 loc("/Users/mac/Projects/mlir/cpp-to-ops-converter/script/..//ITK_POM2K/pom2k_fun.c":3333:5), %arg34: i32 loc("/Users/mac/Projects/mlir/cpp-to-ops-converter/script/..//ITK_POM2K/pom2k_fun.c":3333:5)):
        %28 = arith.muli %arg32, %arg33 : i32 loc(#loc72)
        %29 = arith.addi %arg34, %28 : i32 loc(#loc44)
        %30 = arith.index_cast %29 : i32 to index loc(#loc96)
        %31 = arith.addi %30, %c0 : index loc(#loc97)
        %32 = memref.load %arg21[%31] : memref<?xf32> loc(#loc97)
        memref.store %32, %arg28[%31] : memref<?xf32> loc(#loc98)
        %c0_3 = arith.constant 0 : index loc(#loc27)
        %33 = memref.load %2[%c0_3] : memref<1xi32> loc(#loc27)
        %34 = arith.muli %arg32, %33 : i32 loc(#loc18)
        %35 = arith.addi %arg34, %34 : i32 loc(#loc19)
        %c0_4 = arith.constant 0 : index loc(#loc99)
        %36 = memref.load %4[%c0_4] : memref<1xi32> loc(#loc99)
        %37 = arith.muli %36, %33 : i32 loc(#loc20)
        %c0_5 = arith.constant 0 : index loc(#loc21)
        %38 = memref.load %1[%c0_5] : memref<1xi32> loc(#loc21)
        %39 = arith.muli %37, %38 : i32 loc(#loc22)
        %40 = arith.addi %35, %39 : i32 loc(#loc23)
        %41 = arith.index_cast %40 : i32 to index loc(#loc100)
        %c0_6 = arith.constant 0 : index loc(#loc99)
        %42 = memref.load %9[%c0_6] : memref<1xi32> loc(#loc99)
        %43 = arith.muli %42, %33 : i32 loc(#loc20)
        %44 = arith.muli %43, %38 : i32 loc(#loc22)
        %45 = arith.addi %35, %44 : i32 loc(#loc23)
        %46 = arith.index_cast %45 : i32 to index loc(#loc101)
        %47 = arith.addi %46, %c0 : index loc(#loc102)
        %48 = memref.load %arg0[%47] : memref<?xf32> loc(#loc102)
        %49 = arith.addi %41, %c0 : index loc(#loc103)
        memref.store %48, %arg0[%49] : memref<?xf32> loc(#loc104)
        %50 = arith.addi %arg34, %c1_i32 : i32 loc(#loc105)
        scf.yield %50 : i32 loc(#loc95)
      } loc(#loc93)
      %27 = arith.addi %arg32, %c1_i32 : i32 loc(#loc106)
      scf.yield %27 : i32 loc(#loc92)
    } loc(#loc90)
    %11 = scf.while (%arg32 = %c0_i32) : (i32) -> i32 {
      %c0_3 = arith.constant 0 : index loc(#loc107)
      %26 = memref.load %0[%c0_3] : memref<1xi32> loc(#loc107)
      %27 = arith.cmpi slt, %arg32, %26 : i32 loc(#loc108)
      scf.condition(%27) %arg32 : i32 loc(#loc109)
    } do {
    ^bb0(%arg32: i32 loc("/Users/mac/Projects/mlir/cpp-to-ops-converter/script/..//ITK_POM2K/pom2k_fun.c":3339:3)):
      %26 = scf.while (%arg33 = %c0_i32) : (i32) -> i32 {
        %c0_3 = arith.constant 0 : index loc(#loc110)
        %28 = memref.load %1[%c0_3] : memref<1xi32> loc(#loc110)
        %29 = arith.cmpi slt, %arg33, %28 : i32 loc(#loc111)
        scf.condition(%29) %arg33 : i32 loc(#loc112)
      } do {
      ^bb0(%arg33: i32 loc("/Users/mac/Projects/mlir/cpp-to-ops-converter/script/..//ITK_POM2K/pom2k_fun.c":3340:5)):
        %28:2 = scf.while (%arg34 = %c0_i32) : (i32) -> (i32, i32) {
          %c0_3 = arith.constant 0 : index loc(#loc113)
          %30 = memref.load %2[%c0_3] : memref<1xi32> loc(#loc113)
          %31 = arith.cmpi slt, %arg34, %30 : i32 loc(#loc114)
          scf.condition(%31) %30, %arg34 : i32, i32 loc(#loc115)
        } do {
        ^bb0(%arg34: i32 loc("/Users/mac/Projects/mlir/cpp-to-ops-converter/script/..//ITK_POM2K/pom2k_fun.c":3341:7), %arg35: i32 loc("/Users/mac/Projects/mlir/cpp-to-ops-converter/script/..//ITK_POM2K/pom2k_fun.c":3341:7)):
          %30 = arith.muli %arg33, %arg34 : i32 loc(#loc18)
          %31 = arith.addi %arg35, %30 : i32 loc(#loc19)
          %32 = arith.muli %arg32, %arg34 : i32 loc(#loc20)
          %c0_3 = arith.constant 0 : index loc(#loc21)
          %33 = memref.load %1[%c0_3] : memref<1xi32> loc(#loc21)
          %34 = arith.muli %32, %33 : i32 loc(#loc22)
          %35 = arith.addi %31, %34 : i32 loc(#loc23)
          %36 = arith.index_cast %35 : i32 to index loc(#loc116)
          %37 = arith.addi %36, %c0 : index loc(#loc117)
          %38 = memref.load %arg19[%37] : memref<?xf32> loc(#loc117)
          memref.store %38, %arg31[%37] : memref<?xf32> loc(#loc118)
          %c0_4 = arith.constant 0 : index loc(#loc27)
          %39 = memref.load %2[%c0_4] : memref<1xi32> loc(#loc27)
          %40 = arith.muli %arg33, %39 : i32 loc(#loc18)
          %41 = arith.addi %arg35, %40 : i32 loc(#loc19)
          %42 = arith.muli %arg32, %39 : i32 loc(#loc20)
          %c0_5 = arith.constant 0 : index loc(#loc21)
          %43 = memref.load %1[%c0_5] : memref<1xi32> loc(#loc21)
          %44 = arith.muli %42, %43 : i32 loc(#loc22)
          %45 = arith.addi %41, %44 : i32 loc(#loc23)
          %46 = arith.index_cast %45 : i32 to index loc(#loc119)
          %47 = arith.addi %46, %c0 : index loc(#loc120)
          %48 = memref.load %arg0[%47] : memref<?xf32> loc(#loc120)
          memref.store %48, %arg27[%47] : memref<?xf32> loc(#loc121)
          %49 = arith.addi %arg35, %c1_i32 : i32 loc(#loc122)
          scf.yield %49 : i32 loc(#loc115)
        } loc(#loc113)
        %29 = arith.addi %arg33, %c1_i32 : i32 loc(#loc123)
        scf.yield %29 : i32 loc(#loc112)
      } loc(#loc110)
      %27 = arith.addi %arg32, %c1_i32 : i32 loc(#loc124)
      scf.yield %27 : i32 loc(#loc109)
    } loc(#loc107)
    %12 = scf.while (%arg32 = %c0_i32) : (i32) -> i32 {
      %c0_3 = arith.constant 0 : index loc(#loc125)
      %26 = memref.load %4[%c0_3] : memref<1xi32> loc(#loc125)
      %27 = arith.cmpi slt, %arg32, %26 : i32 loc(#loc126)
      scf.condition(%27) %arg32 : i32 loc(#loc127)
    } do {
    ^bb0(%arg32: i32 loc("/Users/mac/Projects/mlir/cpp-to-ops-converter/script/..//ITK_POM2K/pom2k_fun.c":3352:3)):
      %26 = scf.while (%arg33 = %c1_i32) : (i32) -> i32 {
        %c0_3 = arith.constant 0 : index loc(#loc128)
        %28 = memref.load %1[%c0_3] : memref<1xi32> loc(#loc128)
        %29 = arith.cmpi slt, %arg33, %28 : i32 loc(#loc129)
        scf.condition(%29) %arg33 : i32 loc(#loc130)
      } do {
      ^bb0(%arg33: i32 loc("/Users/mac/Projects/mlir/cpp-to-ops-converter/script/..//ITK_POM2K/pom2k_fun.c":3353:5)):
        %28 = arith.addi %arg33, %c-1_i32 : i32 loc(#loc131)
        %29:2 = scf.while (%arg34 = %c1_i32) : (i32) -> (i32, i32) {
          %c0_3 = arith.constant 0 : index loc(#loc132)
          %31 = memref.load %2[%c0_3] : memref<1xi32> loc(#loc132)
          %32 = arith.cmpi slt, %arg34, %31 : i32 loc(#loc133)
          scf.condition(%32) %31, %arg34 : i32, i32 loc(#loc134)
        } do {
        ^bb0(%arg34: i32 loc("/Users/mac/Projects/mlir/cpp-to-ops-converter/script/..//ITK_POM2K/pom2k_fun.c":3354:7), %arg35: i32 loc("/Users/mac/Projects/mlir/cpp-to-ops-converter/script/..//ITK_POM2K/pom2k_fun.c":3354:7)):
          %31 = arith.muli %arg33, %arg34 : i32 loc(#loc18)
          %32 = arith.addi %arg35, %31 : i32 loc(#loc19)
          %33 = arith.muli %arg32, %arg34 : i32 loc(#loc20)
          %c0_3 = arith.constant 0 : index loc(#loc21)
          %34 = memref.load %1[%c0_3] : memref<1xi32> loc(#loc21)
          %35 = arith.muli %33, %34 : i32 loc(#loc22)
          %36 = arith.addi %32, %35 : i32 loc(#loc23)
          %37 = arith.index_cast %36 : i32 to index loc(#loc135)
          %38 = arith.addi %37, %c0 : index loc(#loc136)
          %39 = memref.load %arg29[%38] : memref<?xf32> loc(#loc136)
          %40 = arith.extf %39 : f32 to f64 loc(#loc136)
          %41 = math.absf %40 : f64 loc(#loc137)
          %42 = arith.addf %40, %41 : f64 loc(#loc138)
          %43 = arith.addi %arg35, %c-1_i32 : i32 loc(#loc139)
          %44 = arith.addi %43, %31 : i32 loc(#loc19)
          %45 = arith.addi %44, %35 : i32 loc(#loc23)
          %46 = arith.index_cast %45 : i32 to index loc(#loc140)
          %47 = arith.addi %46, %c0 : index loc(#loc141)
          %48 = memref.load %arg27[%47] : memref<?xf32> loc(#loc141)
          %49 = arith.extf %48 : f32 to f64 loc(#loc141)
          %50 = arith.mulf %42, %49 : f64 loc(#loc142)
          %51 = arith.subf %40, %41 : f64 loc(#loc143)
          %52 = memref.load %arg27[%38] : memref<?xf32> loc(#loc144)
          %53 = arith.extf %52 : f32 to f64 loc(#loc144)
          %54 = arith.mulf %51, %53 : f64 loc(#loc145)
          %55 = arith.addf %50, %54 : f64 loc(#loc146)
          %56 = arith.mulf %55, %cst_0 : f64 loc(#loc147)
          %57 = arith.truncf %56 : f64 to f32 loc(#loc4)
          memref.store %57, %arg4[%38] : memref<?xf32> loc(#loc148)
          %c0_4 = arith.constant 0 : index loc(#loc27)
          %58 = memref.load %2[%c0_4] : memref<1xi32> loc(#loc27)
          %59 = arith.muli %arg33, %58 : i32 loc(#loc18)
          %60 = arith.addi %arg35, %59 : i32 loc(#loc19)
          %61 = arith.muli %arg32, %58 : i32 loc(#loc20)
          %c0_5 = arith.constant 0 : index loc(#loc21)
          %62 = memref.load %1[%c0_5] : memref<1xi32> loc(#loc21)
          %63 = arith.muli %61, %62 : i32 loc(#loc22)
          %64 = arith.addi %60, %63 : i32 loc(#loc23)
          %65 = arith.index_cast %64 : i32 to index loc(#loc149)
          %66 = arith.addi %65, %c0 : index loc(#loc150)
          %67 = memref.load %arg30[%66] : memref<?xf32> loc(#loc150)
          %68 = arith.extf %67 : f32 to f64 loc(#loc150)
          %69 = math.absf %68 : f64 loc(#loc151)
          %70 = arith.addf %68, %69 : f64 loc(#loc152)
          %71 = arith.muli %28, %58 : i32 loc(#loc18)
          %72 = arith.addi %arg35, %71 : i32 loc(#loc19)
          %73 = arith.addi %72, %63 : i32 loc(#loc23)
          %74 = arith.index_cast %73 : i32 to index loc(#loc153)
          %75 = arith.addi %74, %c0 : index loc(#loc154)
          %76 = memref.load %arg27[%75] : memref<?xf32> loc(#loc154)
          %77 = arith.extf %76 : f32 to f64 loc(#loc154)
          %78 = arith.mulf %70, %77 : f64 loc(#loc155)
          %79 = arith.subf %68, %69 : f64 loc(#loc156)
          %80 = memref.load %arg27[%66] : memref<?xf32> loc(#loc157)
          %81 = arith.extf %80 : f32 to f64 loc(#loc157)
          %82 = arith.mulf %79, %81 : f64 loc(#loc158)
          %83 = arith.addf %78, %82 : f64 loc(#loc159)
          %84 = arith.mulf %83, %cst_0 : f64 loc(#loc160)
          %85 = arith.truncf %84 : f64 to f32 loc(#loc161)
          memref.store %85, %arg5[%66] : memref<?xf32> loc(#loc162)
          %86 = arith.addi %arg35, %c1_i32 : i32 loc(#loc163)
          scf.yield %86 : i32 loc(#loc134)
        } loc(#loc132)
        %30 = arith.addi %arg33, %c1_i32 : i32 loc(#loc164)
        scf.yield %30 : i32 loc(#loc130)
      } loc(#loc128)
      %27 = arith.addi %arg32, %c1_i32 : i32 loc(#loc165)
      scf.yield %27 : i32 loc(#loc127)
    } loc(#loc125)
    %13 = scf.while (%arg32 = %c1_i32) : (i32) -> i32 {
      %c0_3 = arith.constant 0 : index loc(#loc166)
      %26 = memref.load %5[%c0_3] : memref<1xi32> loc(#loc166)
      %27 = arith.cmpi slt, %arg32, %26 : i32 loc(#loc167)
      scf.condition(%27) %arg32 : i32 loc(#loc168)
    } do {
    ^bb0(%arg32: i32 loc("/Users/mac/Projects/mlir/cpp-to-ops-converter/script/..//ITK_POM2K/pom2k_fun.c":3372:3)):
      %26 = scf.while (%arg33 = %c1_i32) : (i32) -> i32 {
        %c0_3 = arith.constant 0 : index loc(#loc169)
        %28 = memref.load %7[%c0_3] : memref<1xi32> loc(#loc169)
        %29 = arith.cmpi slt, %arg33, %28 : i32 loc(#loc170)
        scf.condition(%29) %arg33 : i32 loc(#loc171)
      } do {
      ^bb0(%arg33: i32 loc("/Users/mac/Projects/mlir/cpp-to-ops-converter/script/..//ITK_POM2K/pom2k_fun.c":3373:5)):
        %c0_3 = arith.constant 0 : index loc(#loc27)
        %28 = memref.load %2[%c0_3] : memref<1xi32> loc(#loc27)
        %29 = arith.muli %arg32, %28 : i32 loc(#loc18)
        %30 = arith.addi %arg33, %29 : i32 loc(#loc19)
        %31 = arith.muli %28, %c0_i32 : i32 loc(#loc20)
        %c0_4 = arith.constant 0 : index loc(#loc21)
        %32 = memref.load %1[%c0_4] : memref<1xi32> loc(#loc21)
        %33 = arith.muli %31, %32 : i32 loc(#loc22)
        %34 = arith.addi %30, %33 : i32 loc(#loc23)
        %35 = arith.index_cast %34 : i32 to index loc(#loc172)
        %36 = arith.addi %35, %c0 : index loc(#loc173)
        memref.store %cst_2, %arg6[%36] : memref<?xf32> loc(#loc174)
        %c0_5 = arith.constant 0 : index loc(#loc27)
        %37 = memref.load %2[%c0_5] : memref<1xi32> loc(#loc27)
        %38 = arith.muli %arg32, %37 : i32 loc(#loc18)
        %39 = arith.addi %arg33, %38 : i32 loc(#loc19)
        %c0_6 = arith.constant 0 : index loc(#loc99)
        %40 = memref.load %4[%c0_6] : memref<1xi32> loc(#loc99)
        %41 = arith.muli %40, %37 : i32 loc(#loc20)
        %c0_7 = arith.constant 0 : index loc(#loc21)
        %42 = memref.load %1[%c0_7] : memref<1xi32> loc(#loc21)
        %43 = arith.muli %41, %42 : i32 loc(#loc22)
        %44 = arith.addi %39, %43 : i32 loc(#loc23)
        %45 = arith.index_cast %44 : i32 to index loc(#loc175)
        %46 = arith.addi %45, %c0 : index loc(#loc176)
        memref.store %cst_2, %arg6[%46] : memref<?xf32> loc(#loc177)
        %47 = arith.addi %arg33, %c1_i32 : i32 loc(#loc178)
        scf.yield %47 : i32 loc(#loc171)
      } loc(#loc169)
      %27 = arith.addi %arg32, %c1_i32 : i32 loc(#loc179)
      scf.yield %27 : i32 loc(#loc168)
    } loc(#loc166)
    %14 = scf.while (%arg32 = %c1_i32) : (i32) -> i32 {
      %c0_3 = arith.constant 0 : index loc(#loc180)
      %26 = memref.load %5[%c0_3] : memref<1xi32> loc(#loc180)
      %27 = arith.cmpi slt, %arg32, %26 : i32 loc(#loc181)
      scf.condition(%27) %arg32 : i32 loc(#loc182)
    } do {
    ^bb0(%arg32: i32 loc("/Users/mac/Projects/mlir/cpp-to-ops-converter/script/..//ITK_POM2K/pom2k_fun.c":3379:3)):
      %26 = scf.while (%arg33 = %c1_i32) : (i32) -> i32 {
        %c0_3 = arith.constant 0 : index loc(#loc183)
        %28 = memref.load %7[%c0_3] : memref<1xi32> loc(#loc183)
        %29 = arith.cmpi slt, %arg33, %28 : i32 loc(#loc184)
        scf.condition(%29) %arg33 : i32 loc(#loc185)
      } do {
      ^bb0(%arg33: i32 loc("/Users/mac/Projects/mlir/cpp-to-ops-converter/script/..//ITK_POM2K/pom2k_fun.c":3380:5)):
        %c0_3 = arith.constant 0 : index loc(#loc27)
        %28 = memref.load %2[%c0_3] : memref<1xi32> loc(#loc27)
        %29 = arith.muli %arg32, %28 : i32 loc(#loc18)
        %30 = arith.addi %arg33, %29 : i32 loc(#loc19)
        %31 = arith.muli %28, %c0_i32 : i32 loc(#loc20)
        %c0_4 = arith.constant 0 : index loc(#loc21)
        %32 = memref.load %1[%c0_4] : memref<1xi32> loc(#loc21)
        %33 = arith.muli %31, %32 : i32 loc(#loc22)
        %34 = arith.addi %30, %33 : i32 loc(#loc23)
        %35 = arith.index_cast %34 : i32 to index loc(#loc186)
        %36 = arith.addi %35, %c0 : index loc(#loc187)
        %37 = memref.load %arg19[%36] : memref<?xf32> loc(#loc187)
        %38 = memref.load %arg1[%36] : memref<?xf32> loc(#loc188)
        %39 = arith.mulf %37, %38 : f32 loc(#loc189)
        %40 = arith.index_cast %30 : i32 to index loc(#loc190)
        %41 = arith.addi %40, %c0 : index loc(#loc191)
        %42 = memref.load %arg20[%41] : memref<?xf32> loc(#loc191)
        %43 = arith.mulf %39, %42 : f32 loc(#loc192)
        memref.store %43, %arg6[%36] : memref<?xf32> loc(#loc193)
        %44 = arith.addi %arg33, %c1_i32 : i32 loc(#loc194)
        scf.yield %44 : i32 loc(#loc185)
      } loc(#loc183)
      %27 = arith.addi %arg32, %c1_i32 : i32 loc(#loc195)
      scf.yield %27 : i32 loc(#loc182)
    } loc(#loc180)
    %15 = scf.while (%arg32 = %c1_i32) : (i32) -> i32 {
      %c0_3 = arith.constant 0 : index loc(#loc196)
      %26 = memref.load %4[%c0_3] : memref<1xi32> loc(#loc196)
      %27 = arith.cmpi slt, %arg32, %26 : i32 loc(#loc197)
      scf.condition(%27) %arg32 : i32 loc(#loc198)
    } do {
    ^bb0(%arg32: i32 loc("/Users/mac/Projects/mlir/cpp-to-ops-converter/script/..//ITK_POM2K/pom2k_fun.c":3388:3)):
      %26 = arith.addi %arg32, %c-1_i32 : i32 loc(#loc199)
      %27 = scf.while (%arg33 = %c1_i32) : (i32) -> i32 {
        %c0_3 = arith.constant 0 : index loc(#loc200)
        %29 = memref.load %5[%c0_3] : memref<1xi32> loc(#loc200)
        %30 = arith.cmpi slt, %arg33, %29 : i32 loc(#loc201)
        scf.condition(%30) %arg33 : i32 loc(#loc202)
      } do {
      ^bb0(%arg33: i32 loc("/Users/mac/Projects/mlir/cpp-to-ops-converter/script/..//ITK_POM2K/pom2k_fun.c":3389:5)):
        %29 = scf.while (%arg34 = %c1_i32) : (i32) -> i32 {
          %c0_3 = arith.constant 0 : index loc(#loc203)
          %31 = memref.load %7[%c0_3] : memref<1xi32> loc(#loc203)
          %32 = arith.cmpi slt, %arg34, %31 : i32 loc(#loc204)
          scf.condition(%32) %arg34 : i32 loc(#loc205)
        } do {
        ^bb0(%arg34: i32 loc("/Users/mac/Projects/mlir/cpp-to-ops-converter/script/..//ITK_POM2K/pom2k_fun.c":3390:7)):
          %c0_3 = arith.constant 0 : index loc(#loc27)
          %31 = memref.load %2[%c0_3] : memref<1xi32> loc(#loc27)
          %32 = arith.muli %arg33, %31 : i32 loc(#loc18)
          %33 = arith.addi %arg34, %32 : i32 loc(#loc19)
          %34 = arith.muli %arg32, %31 : i32 loc(#loc20)
          %c0_4 = arith.constant 0 : index loc(#loc21)
          %35 = memref.load %1[%c0_4] : memref<1xi32> loc(#loc21)
          %36 = arith.muli %34, %35 : i32 loc(#loc22)
          %37 = arith.addi %33, %36 : i32 loc(#loc23)
          %38 = arith.index_cast %37 : i32 to index loc(#loc206)
          %39 = arith.addi %38, %c0 : index loc(#loc207)
          %40 = memref.load %arg31[%39] : memref<?xf32> loc(#loc207)
          %41 = arith.extf %40 : f32 to f64 loc(#loc207)
          %42 = math.absf %41 : f64 loc(#loc208)
          %43 = arith.addf %41, %42 : f64 loc(#loc209)
          %44 = memref.load %arg27[%39] : memref<?xf32> loc(#loc210)
          %45 = arith.extf %44 : f32 to f64 loc(#loc210)
          %46 = arith.mulf %43, %45 : f64 loc(#loc211)
          %47 = arith.subf %41, %42 : f64 loc(#loc212)
          %48 = arith.muli %26, %31 : i32 loc(#loc20)
          %49 = arith.muli %48, %35 : i32 loc(#loc22)
          %50 = arith.addi %33, %49 : i32 loc(#loc23)
          %51 = arith.index_cast %50 : i32 to index loc(#loc213)
          %52 = arith.addi %51, %c0 : index loc(#loc214)
          %53 = memref.load %arg27[%52] : memref<?xf32> loc(#loc214)
          %54 = arith.extf %53 : f32 to f64 loc(#loc214)
          %55 = arith.mulf %47, %54 : f64 loc(#loc215)
          %56 = arith.addf %46, %55 : f64 loc(#loc216)
          %57 = arith.mulf %56, %cst_0 : f64 loc(#loc217)
          %58 = arith.truncf %57 : f64 to f32 loc(#loc218)
          memref.store %58, %arg6[%39] : memref<?xf32> loc(#loc219)
          %c0_5 = arith.constant 0 : index loc(#loc27)
          %59 = memref.load %2[%c0_5] : memref<1xi32> loc(#loc27)
          %60 = arith.muli %arg33, %59 : i32 loc(#loc18)
          %61 = arith.addi %arg34, %60 : i32 loc(#loc19)
          %62 = arith.muli %arg32, %59 : i32 loc(#loc20)
          %c0_6 = arith.constant 0 : index loc(#loc21)
          %63 = memref.load %1[%c0_6] : memref<1xi32> loc(#loc21)
          %64 = arith.muli %62, %63 : i32 loc(#loc22)
          %65 = arith.addi %61, %64 : i32 loc(#loc23)
          %66 = arith.index_cast %65 : i32 to index loc(#loc220)
          %67 = arith.index_cast %61 : i32 to index loc(#loc221)
          %68 = arith.addi %67, %c0 : index loc(#loc222)
          %69 = memref.load %arg20[%68] : memref<?xf32> loc(#loc222)
          %70 = arith.addi %66, %c0 : index loc(#loc223)
          %71 = memref.load %arg6[%70] : memref<?xf32> loc(#loc224)
          %72 = arith.mulf %71, %69 : f32 loc(#loc224)
          memref.store %72, %arg6[%70] : memref<?xf32> loc(#loc224)
          %73 = arith.addi %arg34, %c1_i32 : i32 loc(#loc225)
          scf.yield %73 : i32 loc(#loc205)
        } loc(#loc203)
        %30 = arith.addi %arg33, %c1_i32 : i32 loc(#loc226)
        scf.yield %30 : i32 loc(#loc202)
      } loc(#loc200)
      %28 = arith.addi %arg32, %c1_i32 : i32 loc(#loc227)
      scf.yield %28 : i32 loc(#loc198)
    } loc(#loc196)
    %16 = memref.get_global @dti2 : memref<1xf32> loc(#loc228)
    %17 = scf.while (%arg32 = %c0_i32) : (i32) -> i32 {
      %c0_3 = arith.constant 0 : index loc(#loc229)
      %26 = memref.load %4[%c0_3] : memref<1xi32> loc(#loc229)
      %27 = arith.cmpi slt, %arg32, %26 : i32 loc(#loc230)
      scf.condition(%27) %arg32 : i32 loc(#loc231)
    } do {
    ^bb0(%arg32: i32 loc("/Users/mac/Projects/mlir/cpp-to-ops-converter/script/..//ITK_POM2K/pom2k_fun.c":3402:3)):
      %26 = arith.addi %arg32, %c1_i32 : i32 loc(#loc232)
      %27 = arith.index_cast %arg32 : i32 to index loc(#loc233)
      %28 = arith.addi %27, %c0 : index loc(#loc234)
      %29 = scf.while (%arg33 = %c1_i32) : (i32) -> i32 {
        %c0_3 = arith.constant 0 : index loc(#loc235)
        %30 = memref.load %5[%c0_3] : memref<1xi32> loc(#loc235)
        %31 = arith.cmpi slt, %arg33, %30 : i32 loc(#loc236)
        scf.condition(%31) %arg33 : i32 loc(#loc237)
      } do {
      ^bb0(%arg33: i32 loc("/Users/mac/Projects/mlir/cpp-to-ops-converter/script/..//ITK_POM2K/pom2k_fun.c":3403:5)):
        %30 = arith.addi %arg33, %c1_i32 : i32 loc(#loc238)
        %31 = scf.while (%arg34 = %c1_i32) : (i32) -> i32 {
          %c0_3 = arith.constant 0 : index loc(#loc239)
          %32 = memref.load %7[%c0_3] : memref<1xi32> loc(#loc239)
          %33 = arith.cmpi slt, %arg34, %32 : i32 loc(#loc240)
          scf.condition(%33) %arg34 : i32 loc(#loc241)
        } do {
        ^bb0(%arg34: i32 loc("/Users/mac/Projects/mlir/cpp-to-ops-converter/script/..//ITK_POM2K/pom2k_fun.c":3404:7)):
          %c0_3 = arith.constant 0 : index loc(#loc27)
          %32 = memref.load %2[%c0_3] : memref<1xi32> loc(#loc27)
          %33 = arith.muli %arg33, %32 : i32 loc(#loc18)
          %34 = arith.addi %arg34, %33 : i32 loc(#loc19)
          %35 = arith.muli %arg32, %32 : i32 loc(#loc20)
          %c0_4 = arith.constant 0 : index loc(#loc21)
          %36 = memref.load %1[%c0_4] : memref<1xi32> loc(#loc21)
          %37 = arith.muli %35, %36 : i32 loc(#loc22)
          %38 = arith.addi %34, %37 : i32 loc(#loc23)
          %39 = arith.index_cast %38 : i32 to index loc(#loc242)
          %40 = arith.addi %arg34, %c1_i32 : i32 loc(#loc243)
          %41 = arith.addi %40, %33 : i32 loc(#loc19)
          %42 = arith.addi %41, %37 : i32 loc(#loc23)
          %43 = arith.index_cast %42 : i32 to index loc(#loc244)
          %44 = arith.addi %43, %c0 : index loc(#loc245)
          %45 = memref.load %arg4[%44] : memref<?xf32> loc(#loc245)
          %46 = arith.addi %39, %c0 : index loc(#loc246)
          %47 = memref.load %arg4[%46] : memref<?xf32> loc(#loc246)
          %48 = arith.subf %45, %47 : f32 loc(#loc247)
          %49 = arith.muli %30, %32 : i32 loc(#loc18)
          %50 = arith.addi %arg34, %49 : i32 loc(#loc19)
          %51 = arith.addi %50, %37 : i32 loc(#loc23)
          %52 = arith.index_cast %51 : i32 to index loc(#loc248)
          %53 = arith.addi %52, %c0 : index loc(#loc249)
          %54 = memref.load %arg5[%53] : memref<?xf32> loc(#loc249)
          %55 = arith.addf %48, %54 : f32 loc(#loc250)
          %56 = memref.load %arg5[%46] : memref<?xf32> loc(#loc251)
          %57 = arith.subf %55, %56 : f32 loc(#loc252)
          %58 = memref.load %arg6[%46] : memref<?xf32> loc(#loc253)
          %59 = arith.muli %26, %32 : i32 loc(#loc20)
          %60 = arith.muli %59, %36 : i32 loc(#loc22)
          %61 = arith.addi %34, %60 : i32 loc(#loc23)
          %62 = arith.index_cast %61 : i32 to index loc(#loc254)
          %63 = arith.addi %62, %c0 : index loc(#loc255)
          %64 = memref.load %arg6[%63] : memref<?xf32> loc(#loc255)
          %65 = arith.subf %58, %64 : f32 loc(#loc256)
          %66 = memref.load %arg17[%28] : memref<?xf32> loc(#loc234)
          %67 = arith.divf %65, %66 : f32 loc(#loc257)
          %68 = arith.addf %57, %67 : f32 loc(#loc258)
          memref.store %68, %arg3[%46] : memref<?xf32> loc(#loc259)
          %c0_5 = arith.constant 0 : index loc(#loc27)
          %69 = memref.load %2[%c0_5] : memref<1xi32> loc(#loc27)
          %70 = arith.muli %arg33, %69 : i32 loc(#loc18)
          %71 = arith.addi %arg34, %70 : i32 loc(#loc19)
          %72 = arith.muli %arg32, %69 : i32 loc(#loc20)
          %c0_6 = arith.constant 0 : index loc(#loc21)
          %73 = memref.load %1[%c0_6] : memref<1xi32> loc(#loc21)
          %74 = arith.muli %72, %73 : i32 loc(#loc22)
          %75 = arith.addi %71, %74 : i32 loc(#loc23)
          %76 = arith.index_cast %75 : i32 to index loc(#loc260)
          %77 = arith.addi %76, %c0 : index loc(#loc261)
          %78 = memref.load %arg27[%77] : memref<?xf32> loc(#loc261)
          %79 = arith.index_cast %71 : i32 to index loc(#loc262)
          %80 = arith.addi %79, %c0 : index loc(#loc263)
          %81 = memref.load %arg18[%80] : memref<?xf32> loc(#loc263)
          %82 = memref.load %arg28[%80] : memref<?xf32> loc(#loc264)
          %83 = arith.addf %81, %82 : f32 loc(#loc265)
          %84 = arith.mulf %78, %83 : f32 loc(#loc266)
          %85 = memref.load %arg20[%80] : memref<?xf32> loc(#loc267)
          %86 = arith.mulf %84, %85 : f32 loc(#loc268)
          %c0_7 = arith.constant 0 : index loc(#loc228)
          %87 = memref.load %16[%c0_7] : memref<1xf32> loc(#loc228)
          %88 = memref.load %arg3[%77] : memref<?xf32> loc(#loc269)
          %89 = arith.mulf %87, %88 : f32 loc(#loc270)
          %90 = arith.subf %86, %89 : f32 loc(#loc271)
          %91 = memref.load %arg22[%80] : memref<?xf32> loc(#loc272)
          %92 = arith.addf %81, %91 : f32 loc(#loc273)
          %93 = arith.mulf %92, %85 : f32 loc(#loc274)
          %94 = arith.divf %90, %93 : f32 loc(#loc275)
          memref.store %94, %arg3[%77] : memref<?xf32> loc(#loc276)
          scf.yield %40 : i32 loc(#loc241)
        } loc(#loc239)
        scf.yield %30 : i32 loc(#loc237)
      } loc(#loc235)
      scf.yield %26 : i32 loc(#loc231)
    } loc(#loc229)
    call @ext_smol_adif_(%arg29, %arg30, %arg31, %arg3, %arg8, %arg23, %arg24, %arg25, %arg11, %arg26) : (memref<?xf32>, memref<?xf32>, memref<?xf32>, memref<?xf32>, memref<?xf32>, memref<?xf32>, memref<?xf32>, memref<?xf32>, memref<?xf32>, memref<?xf32>) -> () loc(#loc277)
    %18 = scf.while (%arg32 = %c0_i32) : (i32) -> i32 {
      %c0_3 = arith.constant 0 : index loc(#loc278)
      %26 = memref.load %1[%c0_3] : memref<1xi32> loc(#loc278)
      %27 = arith.cmpi slt, %arg32, %26 : i32 loc(#loc279)
      scf.condition(%27) %arg32 : i32 loc(#loc280)
    } do {
    ^bb0(%arg32: i32 loc("/Users/mac/Projects/mlir/cpp-to-ops-converter/script/..//ITK_POM2K/pom2k_fun.c":3421:3)):
      %26:2 = scf.while (%arg33 = %c0_i32) : (i32) -> (i32, i32) {
        %c0_3 = arith.constant 0 : index loc(#loc281)
        %28 = memref.load %2[%c0_3] : memref<1xi32> loc(#loc281)
        %29 = arith.cmpi slt, %arg33, %28 : i32 loc(#loc282)
        scf.condition(%29) %28, %arg33 : i32, i32 loc(#loc283)
      } do {
      ^bb0(%arg33: i32 loc("/Users/mac/Projects/mlir/cpp-to-ops-converter/script/..//ITK_POM2K/pom2k_fun.c":3422:5), %arg34: i32 loc("/Users/mac/Projects/mlir/cpp-to-ops-converter/script/..//ITK_POM2K/pom2k_fun.c":3422:5)):
        %28 = arith.muli %arg32, %arg33 : i32 loc(#loc72)
        %29 = arith.addi %arg34, %28 : i32 loc(#loc44)
        %30 = arith.index_cast %29 : i32 to index loc(#loc284)
        %31 = arith.addi %30, %c0 : index loc(#loc285)
        %32 = memref.load %arg22[%31] : memref<?xf32> loc(#loc285)
        memref.store %32, %arg28[%31] : memref<?xf32> loc(#loc286)
        %33 = arith.addi %arg34, %c1_i32 : i32 loc(#loc287)
        scf.yield %33 : i32 loc(#loc283)
      } loc(#loc281)
      %27 = arith.addi %arg32, %c1_i32 : i32 loc(#loc288)
      scf.yield %27 : i32 loc(#loc280)
    } loc(#loc278)
    %19 = scf.while (%arg32 = %c0_i32) : (i32) -> i32 {
      %c0_3 = arith.constant 0 : index loc(#loc289)
      %26 = memref.load %1[%c0_3] : memref<1xi32> loc(#loc289)
      %27 = arith.cmpi slt, %arg32, %26 : i32 loc(#loc290)
      scf.condition(%27) %arg32 : i32 loc(#loc291)
    } do {
    ^bb0(%arg32: i32 loc("/Users/mac/Projects/mlir/cpp-to-ops-converter/script/..//ITK_POM2K/pom2k_fun.c":3427:3)):
      %26 = scf.while (%arg33 = %c0_i32) : (i32) -> i32 {
        %c0_3 = arith.constant 0 : index loc(#loc292)
        %28 = memref.load %2[%c0_3] : memref<1xi32> loc(#loc292)
        %29 = arith.cmpi slt, %arg33, %28 : i32 loc(#loc293)
        scf.condition(%29) %arg33 : i32 loc(#loc294)
      } do {
      ^bb0(%arg33: i32 loc("/Users/mac/Projects/mlir/cpp-to-ops-converter/script/..//ITK_POM2K/pom2k_fun.c":3428:5)):
        %28 = scf.while (%arg34 = %c0_i32) : (i32) -> i32 {
          %c0_3 = arith.constant 0 : index loc(#loc295)
          %30 = memref.load %0[%c0_3] : memref<1xi32> loc(#loc295)
          %31 = arith.cmpi slt, %arg34, %30 : i32 loc(#loc296)
          scf.condition(%31) %arg34 : i32 loc(#loc297)
        } do {
        ^bb0(%arg34: i32 loc("/Users/mac/Projects/mlir/cpp-to-ops-converter/script/..//ITK_POM2K/pom2k_fun.c":3429:7)):
          %c0_3 = arith.constant 0 : index loc(#loc27)
          %30 = memref.load %2[%c0_3] : memref<1xi32> loc(#loc27)
          %31 = arith.muli %arg32, %30 : i32 loc(#loc18)
          %32 = arith.addi %arg33, %31 : i32 loc(#loc19)
          %33 = arith.muli %arg34, %30 : i32 loc(#loc20)
          %c0_4 = arith.constant 0 : index loc(#loc21)
          %34 = memref.load %1[%c0_4] : memref<1xi32> loc(#loc21)
          %35 = arith.muli %33, %34 : i32 loc(#loc22)
          %36 = arith.addi %32, %35 : i32 loc(#loc23)
          %37 = arith.index_cast %36 : i32 to index loc(#loc298)
          %38 = arith.addi %37, %c0 : index loc(#loc299)
          %39 = memref.load %arg3[%38] : memref<?xf32> loc(#loc299)
          memref.store %39, %arg27[%38] : memref<?xf32> loc(#loc300)
          %40 = arith.addi %arg34, %c1_i32 : i32 loc(#loc301)
          scf.yield %40 : i32 loc(#loc297)
        } loc(#loc295)
        %29 = arith.addi %arg33, %c1_i32 : i32 loc(#loc302)
        scf.yield %29 : i32 loc(#loc294)
      } loc(#loc292)
      %27 = arith.addi %arg32, %c1_i32 : i32 loc(#loc303)
      scf.yield %27 : i32 loc(#loc291)
    } loc(#loc289)
    %20 = scf.while (%arg32 = %c0_i32) : (i32) -> i32 {
      %c0_3 = arith.constant 0 : index loc(#loc304)
      %26 = memref.load %0[%c0_3] : memref<1xi32> loc(#loc304)
      %27 = arith.cmpi slt, %arg32, %26 : i32 loc(#loc305)
      scf.condition(%27) %arg32 : i32 loc(#loc306)
    } do {
    ^bb0(%arg32: i32 loc("/Users/mac/Projects/mlir/cpp-to-ops-converter/script/..//ITK_POM2K/pom2k_fun.c":3441:3)):
      %26 = scf.while (%arg33 = %c0_i32) : (i32) -> i32 {
        %c0_3 = arith.constant 0 : index loc(#loc307)
        %28 = memref.load %1[%c0_3] : memref<1xi32> loc(#loc307)
        %29 = arith.cmpi slt, %arg33, %28 : i32 loc(#loc308)
        scf.condition(%29) %arg33 : i32 loc(#loc309)
      } do {
      ^bb0(%arg33: i32 loc("/Users/mac/Projects/mlir/cpp-to-ops-converter/script/..//ITK_POM2K/pom2k_fun.c":3442:5)):
        %28:2 = scf.while (%arg34 = %c0_i32) : (i32) -> (i32, i32) {
          %c0_3 = arith.constant 0 : index loc(#loc310)
          %30 = memref.load %2[%c0_3] : memref<1xi32> loc(#loc310)
          %31 = arith.cmpi slt, %arg34, %30 : i32 loc(#loc311)
          scf.condition(%31) %30, %arg34 : i32, i32 loc(#loc312)
        } do {
        ^bb0(%arg34: i32 loc("/Users/mac/Projects/mlir/cpp-to-ops-converter/script/..//ITK_POM2K/pom2k_fun.c":3443:7), %arg35: i32 loc("/Users/mac/Projects/mlir/cpp-to-ops-converter/script/..//ITK_POM2K/pom2k_fun.c":3443:7)):
          %30 = arith.muli %arg33, %arg34 : i32 loc(#loc18)
          %31 = arith.addi %arg35, %30 : i32 loc(#loc19)
          %32 = arith.muli %arg32, %arg34 : i32 loc(#loc20)
          %c0_3 = arith.constant 0 : index loc(#loc21)
          %33 = memref.load %1[%c0_3] : memref<1xi32> loc(#loc21)
          %34 = arith.muli %32, %33 : i32 loc(#loc22)
          %35 = arith.addi %31, %34 : i32 loc(#loc23)
          %36 = arith.index_cast %35 : i32 to index loc(#loc313)
          %37 = arith.addi %36, %c0 : index loc(#loc314)
          %38 = memref.load %arg2[%37] : memref<?xf32> loc(#loc314)
          %39 = memref.load %arg0[%37] : memref<?xf32> loc(#loc315)
          %40 = arith.subf %39, %38 : f32 loc(#loc315)
          memref.store %40, %arg0[%37] : memref<?xf32> loc(#loc315)
          %41 = arith.addi %arg35, %c1_i32 : i32 loc(#loc316)
          scf.yield %41 : i32 loc(#loc312)
        } loc(#loc310)
        %29 = arith.addi %arg33, %c1_i32 : i32 loc(#loc317)
        scf.yield %29 : i32 loc(#loc309)
      } loc(#loc307)
      %27 = arith.addi %arg32, %c1_i32 : i32 loc(#loc318)
      scf.yield %27 : i32 loc(#loc306)
    } loc(#loc304)
    %21 = scf.while (%arg32 = %c0_i32) : (i32) -> i32 {
      %c0_3 = arith.constant 0 : index loc(#loc319)
      %26 = memref.load %4[%c0_3] : memref<1xi32> loc(#loc319)
      %27 = arith.cmpi slt, %arg32, %26 : i32 loc(#loc320)
      scf.condition(%27) %arg32 : i32 loc(#loc321)
    } do {
    ^bb0(%arg32: i32 loc("/Users/mac/Projects/mlir/cpp-to-ops-converter/script/..//ITK_POM2K/pom2k_fun.c":3449:3)):
      %26 = scf.while (%arg33 = %c1_i32) : (i32) -> i32 {
        %c0_3 = arith.constant 0 : index loc(#loc322)
        %28 = memref.load %1[%c0_3] : memref<1xi32> loc(#loc322)
        %29 = arith.cmpi slt, %arg33, %28 : i32 loc(#loc323)
        scf.condition(%29) %arg33 : i32 loc(#loc324)
      } do {
      ^bb0(%arg33: i32 loc("/Users/mac/Projects/mlir/cpp-to-ops-converter/script/..//ITK_POM2K/pom2k_fun.c":3450:5)):
        %28 = arith.addi %arg33, %c-1_i32 : i32 loc(#loc325)
        %29:2 = scf.while (%arg34 = %c1_i32) : (i32) -> (i32, i32) {
          %c0_3 = arith.constant 0 : index loc(#loc326)
          %31 = memref.load %2[%c0_3] : memref<1xi32> loc(#loc326)
          %32 = arith.cmpi slt, %arg34, %31 : i32 loc(#loc327)
          scf.condition(%32) %31, %arg34 : i32, i32 loc(#loc328)
        } do {
        ^bb0(%arg34: i32 loc("/Users/mac/Projects/mlir/cpp-to-ops-converter/script/..//ITK_POM2K/pom2k_fun.c":3451:7), %arg35: i32 loc("/Users/mac/Projects/mlir/cpp-to-ops-converter/script/..//ITK_POM2K/pom2k_fun.c":3451:7)):
          %31 = arith.muli %arg33, %arg34 : i32 loc(#loc18)
          %32 = arith.addi %arg35, %31 : i32 loc(#loc19)
          %33 = arith.muli %arg32, %arg34 : i32 loc(#loc20)
          %c0_3 = arith.constant 0 : index loc(#loc21)
          %34 = memref.load %1[%c0_3] : memref<1xi32> loc(#loc21)
          %35 = arith.muli %33, %34 : i32 loc(#loc22)
          %36 = arith.addi %32, %35 : i32 loc(#loc23)
          %37 = arith.index_cast %36 : i32 to index loc(#loc329)
          %38 = arith.addi %37, %c0 : index loc(#loc330)
          %39 = memref.load %arg12[%38] : memref<?xf32> loc(#loc330)
          %40 = arith.addi %arg35, %c-1_i32 : i32 loc(#loc331)
          %41 = arith.addi %40, %31 : i32 loc(#loc19)
          %42 = arith.addi %41, %35 : i32 loc(#loc23)
          %43 = arith.index_cast %42 : i32 to index loc(#loc332)
          %44 = arith.addi %43, %c0 : index loc(#loc333)
          %45 = memref.load %arg12[%44] : memref<?xf32> loc(#loc333)
          %46 = arith.addf %39, %45 : f32 loc(#loc334)
          %47 = arith.mulf %46, %cst : f32 loc(#loc335)
          memref.store %47, %arg29[%38] : memref<?xf32> loc(#loc336)
          %c0_4 = arith.constant 0 : index loc(#loc27)
          %48 = memref.load %2[%c0_4] : memref<1xi32> loc(#loc27)
          %49 = arith.muli %arg33, %48 : i32 loc(#loc18)
          %50 = arith.addi %arg35, %49 : i32 loc(#loc19)
          %51 = arith.muli %arg32, %48 : i32 loc(#loc20)
          %c0_5 = arith.constant 0 : index loc(#loc21)
          %52 = memref.load %1[%c0_5] : memref<1xi32> loc(#loc21)
          %53 = arith.muli %51, %52 : i32 loc(#loc22)
          %54 = arith.addi %50, %53 : i32 loc(#loc23)
          %55 = arith.index_cast %54 : i32 to index loc(#loc337)
          %56 = arith.addi %55, %c0 : index loc(#loc338)
          %57 = memref.load %arg12[%56] : memref<?xf32> loc(#loc338)
          %58 = arith.muli %28, %48 : i32 loc(#loc18)
          %59 = arith.addi %arg35, %58 : i32 loc(#loc19)
          %60 = arith.addi %59, %53 : i32 loc(#loc23)
          %61 = arith.index_cast %60 : i32 to index loc(#loc339)
          %62 = arith.addi %61, %c0 : index loc(#loc340)
          %63 = memref.load %arg12[%62] : memref<?xf32> loc(#loc340)
          %64 = arith.addf %57, %63 : f32 loc(#loc341)
          %65 = arith.mulf %64, %cst : f32 loc(#loc342)
          memref.store %65, %arg30[%56] : memref<?xf32> loc(#loc343)
          %66 = arith.addi %arg35, %c1_i32 : i32 loc(#loc344)
          scf.yield %66 : i32 loc(#loc328)
        } loc(#loc326)
        %30 = arith.addi %arg33, %c1_i32 : i32 loc(#loc345)
        scf.yield %30 : i32 loc(#loc324)
      } loc(#loc322)
      %27 = arith.addi %arg32, %c1_i32 : i32 loc(#loc346)
      scf.yield %27 : i32 loc(#loc321)
    } loc(#loc319)
    %22 = memref.get_global @tprni : memref<1xf32> loc(#loc347)
    %23 = scf.while (%arg32 = %c0_i32) : (i32) -> i32 {
      %c0_3 = arith.constant 0 : index loc(#loc348)
      %26 = memref.load %4[%c0_3] : memref<1xi32> loc(#loc348)
      %27 = arith.cmpi slt, %arg32, %26 : i32 loc(#loc349)
      scf.condition(%27) %arg32 : i32 loc(#loc350)
    } do {
    ^bb0(%arg32: i32 loc("/Users/mac/Projects/mlir/cpp-to-ops-converter/script/..//ITK_POM2K/pom2k_fun.c":3460:3)):
      %26 = scf.while (%arg33 = %c1_i32) : (i32) -> i32 {
        %c0_3 = arith.constant 0 : index loc(#loc351)
        %28 = memref.load %1[%c0_3] : memref<1xi32> loc(#loc351)
        %29 = arith.cmpi slt, %arg33, %28 : i32 loc(#loc352)
        scf.condition(%29) %arg33 : i32 loc(#loc353)
      } do {
      ^bb0(%arg33: i32 loc("/Users/mac/Projects/mlir/cpp-to-ops-converter/script/..//ITK_POM2K/pom2k_fun.c":3461:5)):
        %28 = arith.addi %arg33, %c-1_i32 : i32 loc(#loc354)
        %29:2 = scf.while (%arg34 = %c1_i32) : (i32) -> (i32, i32) {
          %c0_3 = arith.constant 0 : index loc(#loc355)
          %31 = memref.load %2[%c0_3] : memref<1xi32> loc(#loc355)
          %32 = arith.cmpi slt, %arg34, %31 : i32 loc(#loc356)
          scf.condition(%32) %31, %arg34 : i32, i32 loc(#loc357)
        } do {
        ^bb0(%arg34: i32 loc("/Users/mac/Projects/mlir/cpp-to-ops-converter/script/..//ITK_POM2K/pom2k_fun.c":3462:7), %arg35: i32 loc("/Users/mac/Projects/mlir/cpp-to-ops-converter/script/..//ITK_POM2K/pom2k_fun.c":3462:7)):
          %31 = arith.muli %arg33, %arg34 : i32 loc(#loc18)
          %32 = arith.addi %arg35, %31 : i32 loc(#loc19)
          %33 = arith.muli %arg32, %arg34 : i32 loc(#loc20)
          %c0_3 = arith.constant 0 : index loc(#loc21)
          %34 = memref.load %1[%c0_3] : memref<1xi32> loc(#loc21)
          %35 = arith.muli %33, %34 : i32 loc(#loc22)
          %36 = arith.addi %32, %35 : i32 loc(#loc23)
          %37 = arith.index_cast %36 : i32 to index loc(#loc358)
          %38 = arith.addi %37, %c0 : index loc(#loc359)
          %39 = memref.load %arg29[%38] : memref<?xf32> loc(#loc359)
          %40 = arith.negf %39 : f32 loc(#loc360)
          %41 = arith.index_cast %32 : i32 to index loc(#loc361)
          %42 = arith.addi %41, %c0 : index loc(#loc362)
          %43 = memref.load %arg18[%42] : memref<?xf32> loc(#loc362)
          %44 = arith.addi %arg35, %c-1_i32 : i32 loc(#loc363)
          %45 = arith.addi %44, %31 : i32 loc(#loc44)
          %46 = arith.index_cast %45 : i32 to index loc(#loc364)
          %47 = arith.addi %46, %c0 : index loc(#loc365)
          %48 = memref.load %arg18[%47] : memref<?xf32> loc(#loc365)
          %49 = arith.addf %43, %48 : f32 loc(#loc366)
          %50 = arith.mulf %40, %49 : f32 loc(#loc367)
          %c0_4 = arith.constant 0 : index loc(#loc347)
          %51 = memref.load %22[%c0_4] : memref<1xf32> loc(#loc347)
          %52 = arith.mulf %50, %51 : f32 loc(#loc368)
          %53 = memref.load %arg0[%38] : memref<?xf32> loc(#loc369)
          %54 = arith.addi %45, %35 : i32 loc(#loc23)
          %55 = arith.index_cast %54 : i32 to index loc(#loc370)
          %56 = arith.addi %55, %c0 : index loc(#loc371)
          %57 = memref.load %arg0[%56] : memref<?xf32> loc(#loc371)
          %58 = arith.subf %53, %57 : f32 loc(#loc372)
          %59 = arith.mulf %52, %58 : f32 loc(#loc373)
          %60 = memref.load %arg13[%42] : memref<?xf32> loc(#loc374)
          %61 = arith.mulf %59, %60 : f32 loc(#loc375)
          %62 = memref.load %arg16[%42] : memref<?xf32> loc(#loc376)
          %63 = memref.load %arg16[%47] : memref<?xf32> loc(#loc377)
          %64 = arith.addf %62, %63 : f32 loc(#loc378)
          %65 = arith.mulf %61, %64 : f32 loc(#loc379)
          %66 = arith.mulf %65, %cst : f32 loc(#loc380)
          %67 = memref.load %arg15[%42] : memref<?xf32> loc(#loc381)
          %68 = memref.load %arg15[%47] : memref<?xf32> loc(#loc382)
          %69 = arith.addf %67, %68 : f32 loc(#loc383)
          %70 = arith.divf %66, %69 : f32 loc(#loc384)
          memref.store %70, %arg4[%38] : memref<?xf32> loc(#loc385)
          %c0_5 = arith.constant 0 : index loc(#loc27)
          %71 = memref.load %2[%c0_5] : memref<1xi32> loc(#loc27)
          %72 = arith.muli %arg33, %71 : i32 loc(#loc18)
          %73 = arith.addi %arg35, %72 : i32 loc(#loc19)
          %74 = arith.muli %arg32, %71 : i32 loc(#loc20)
          %c0_6 = arith.constant 0 : index loc(#loc21)
          %75 = memref.load %1[%c0_6] : memref<1xi32> loc(#loc21)
          %76 = arith.muli %74, %75 : i32 loc(#loc22)
          %77 = arith.addi %73, %76 : i32 loc(#loc23)
          %78 = arith.index_cast %77 : i32 to index loc(#loc386)
          %79 = arith.addi %78, %c0 : index loc(#loc387)
          %80 = memref.load %arg30[%79] : memref<?xf32> loc(#loc387)
          %81 = arith.negf %80 : f32 loc(#loc388)
          %82 = arith.index_cast %73 : i32 to index loc(#loc389)
          %83 = arith.addi %82, %c0 : index loc(#loc390)
          %84 = memref.load %arg18[%83] : memref<?xf32> loc(#loc390)
          %85 = arith.muli %28, %71 : i32 loc(#loc72)
          %86 = arith.addi %arg35, %85 : i32 loc(#loc44)
          %87 = arith.index_cast %86 : i32 to index loc(#loc391)
          %88 = arith.addi %87, %c0 : index loc(#loc392)
          %89 = memref.load %arg18[%88] : memref<?xf32> loc(#loc392)
          %90 = arith.addf %84, %89 : f32 loc(#loc393)
          %91 = arith.mulf %81, %90 : f32 loc(#loc394)
          %c0_7 = arith.constant 0 : index loc(#loc395)
          %92 = memref.load %22[%c0_7] : memref<1xf32> loc(#loc395)
          %93 = arith.mulf %91, %92 : f32 loc(#loc396)
          %94 = memref.load %arg0[%79] : memref<?xf32> loc(#loc397)
          %95 = arith.addi %86, %76 : i32 loc(#loc23)
          %96 = arith.index_cast %95 : i32 to index loc(#loc398)
          %97 = arith.addi %96, %c0 : index loc(#loc399)
          %98 = memref.load %arg0[%97] : memref<?xf32> loc(#loc399)
          %99 = arith.subf %94, %98 : f32 loc(#loc400)
          %100 = arith.mulf %93, %99 : f32 loc(#loc401)
          %101 = memref.load %arg14[%83] : memref<?xf32> loc(#loc402)
          %102 = arith.mulf %100, %101 : f32 loc(#loc403)
          %103 = memref.load %arg15[%83] : memref<?xf32> loc(#loc404)
          %104 = memref.load %arg15[%88] : memref<?xf32> loc(#loc405)
          %105 = arith.addf %103, %104 : f32 loc(#loc406)
          %106 = arith.mulf %102, %105 : f32 loc(#loc407)
          %107 = arith.mulf %106, %cst : f32 loc(#loc408)
          %108 = memref.load %arg16[%83] : memref<?xf32> loc(#loc409)
          %109 = memref.load %arg16[%88] : memref<?xf32> loc(#loc410)
          %110 = arith.addf %108, %109 : f32 loc(#loc411)
          %111 = arith.divf %107, %110 : f32 loc(#loc412)
          memref.store %111, %arg5[%79] : memref<?xf32> loc(#loc413)
          %112 = arith.addi %arg35, %c1_i32 : i32 loc(#loc414)
          scf.yield %112 : i32 loc(#loc357)
        } loc(#loc355)
        %30 = arith.addi %arg33, %c1_i32 : i32 loc(#loc415)
        scf.yield %30 : i32 loc(#loc353)
      } loc(#loc351)
      %27 = arith.addi %arg32, %c1_i32 : i32 loc(#loc416)
      scf.yield %27 : i32 loc(#loc350)
    } loc(#loc348)
    %24 = scf.while (%arg32 = %c0_i32) : (i32) -> i32 {
      %c0_3 = arith.constant 0 : index loc(#loc417)
      %26 = memref.load %0[%c0_3] : memref<1xi32> loc(#loc417)
      %27 = arith.cmpi slt, %arg32, %26 : i32 loc(#loc418)
      scf.condition(%27) %arg32 : i32 loc(#loc419)
    } do {
    ^bb0(%arg32: i32 loc("/Users/mac/Projects/mlir/cpp-to-ops-converter/script/..//ITK_POM2K/pom2k_fun.c":3477:3)):
      %26 = scf.while (%arg33 = %c0_i32) : (i32) -> i32 {
        %c0_3 = arith.constant 0 : index loc(#loc420)
        %28 = memref.load %1[%c0_3] : memref<1xi32> loc(#loc420)
        %29 = arith.cmpi slt, %arg33, %28 : i32 loc(#loc421)
        scf.condition(%29) %arg33 : i32 loc(#loc422)
      } do {
      ^bb0(%arg33: i32 loc("/Users/mac/Projects/mlir/cpp-to-ops-converter/script/..//ITK_POM2K/pom2k_fun.c":3478:5)):
        %28:2 = scf.while (%arg34 = %c0_i32) : (i32) -> (i32, i32) {
          %c0_3 = arith.constant 0 : index loc(#loc423)
          %30 = memref.load %2[%c0_3] : memref<1xi32> loc(#loc423)
          %31 = arith.cmpi slt, %arg34, %30 : i32 loc(#loc424)
          scf.condition(%31) %30, %arg34 : i32, i32 loc(#loc425)
        } do {
        ^bb0(%arg34: i32 loc("/Users/mac/Projects/mlir/cpp-to-ops-converter/script/..//ITK_POM2K/pom2k_fun.c":3479:7), %arg35: i32 loc("/Users/mac/Projects/mlir/cpp-to-ops-converter/script/..//ITK_POM2K/pom2k_fun.c":3479:7)):
          %30 = arith.muli %arg33, %arg34 : i32 loc(#loc18)
          %31 = arith.addi %arg35, %30 : i32 loc(#loc19)
          %32 = arith.muli %arg32, %arg34 : i32 loc(#loc20)
          %c0_3 = arith.constant 0 : index loc(#loc21)
          %33 = memref.load %1[%c0_3] : memref<1xi32> loc(#loc21)
          %34 = arith.muli %32, %33 : i32 loc(#loc22)
          %35 = arith.addi %31, %34 : i32 loc(#loc23)
          %36 = arith.index_cast %35 : i32 to index loc(#loc426)
          %37 = arith.addi %36, %c0 : index loc(#loc427)
          %38 = memref.load %arg2[%37] : memref<?xf32> loc(#loc427)
          %39 = memref.load %arg0[%37] : memref<?xf32> loc(#loc428)
          %40 = arith.addf %39, %38 : f32 loc(#loc428)
          memref.store %40, %arg0[%37] : memref<?xf32> loc(#loc428)
          %41 = arith.addi %arg35, %c1_i32 : i32 loc(#loc429)
          scf.yield %41 : i32 loc(#loc425)
        } loc(#loc423)
        %29 = arith.addi %arg33, %c1_i32 : i32 loc(#loc430)
        scf.yield %29 : i32 loc(#loc422)
      } loc(#loc420)
      %27 = arith.addi %arg32, %c1_i32 : i32 loc(#loc431)
      scf.yield %27 : i32 loc(#loc419)
    } loc(#loc417)
    %25 = scf.while (%arg32 = %c0_i32) : (i32) -> i32 {
      %c0_3 = arith.constant 0 : index loc(#loc432)
      %26 = memref.load %4[%c0_3] : memref<1xi32> loc(#loc432)
      %27 = arith.cmpi slt, %arg32, %26 : i32 loc(#loc433)
      scf.condition(%27) %arg32 : i32 loc(#loc434)
    } do {
    ^bb0(%arg32: i32 loc("/Users/mac/Projects/mlir/cpp-to-ops-converter/script/..//ITK_POM2K/pom2k_fun.c":3486:3)):
      %26 = scf.while (%arg33 = %c1_i32) : (i32) -> i32 {
        %c0_3 = arith.constant 0 : index loc(#loc435)
        %28 = memref.load %5[%c0_3] : memref<1xi32> loc(#loc435)
        %29 = arith.cmpi slt, %arg33, %28 : i32 loc(#loc436)
        scf.condition(%29) %arg33 : i32 loc(#loc437)
      } do {
      ^bb0(%arg33: i32 loc("/Users/mac/Projects/mlir/cpp-to-ops-converter/script/..//ITK_POM2K/pom2k_fun.c":3487:5)):
        %28 = arith.addi %arg33, %c1_i32 : i32 loc(#loc438)
        %29 = scf.while (%arg34 = %c1_i32) : (i32) -> i32 {
          %c0_3 = arith.constant 0 : index loc(#loc439)
          %30 = memref.load %7[%c0_3] : memref<1xi32> loc(#loc439)
          %31 = arith.cmpi slt, %arg34, %30 : i32 loc(#loc440)
          scf.condition(%31) %arg34 : i32 loc(#loc441)
        } do {
        ^bb0(%arg34: i32 loc("/Users/mac/Projects/mlir/cpp-to-ops-converter/script/..//ITK_POM2K/pom2k_fun.c":3488:7)):
          %c0_3 = arith.constant 0 : index loc(#loc27)
          %30 = memref.load %2[%c0_3] : memref<1xi32> loc(#loc27)
          %31 = arith.muli %arg33, %30 : i32 loc(#loc18)
          %32 = arith.addi %arg34, %31 : i32 loc(#loc19)
          %33 = arith.muli %arg32, %30 : i32 loc(#loc20)
          %c0_4 = arith.constant 0 : index loc(#loc21)
          %34 = memref.load %1[%c0_4] : memref<1xi32> loc(#loc21)
          %35 = arith.muli %33, %34 : i32 loc(#loc22)
          %36 = arith.addi %32, %35 : i32 loc(#loc23)
          %37 = arith.index_cast %36 : i32 to index loc(#loc442)
          %38 = arith.addi %37, %c0 : index loc(#loc443)
          %39 = memref.load %arg3[%38] : memref<?xf32> loc(#loc444)
          %c0_5 = arith.constant 0 : index loc(#loc445)
          %40 = memref.load %16[%c0_5] : memref<1xf32> loc(#loc445)
          %41 = arith.addi %arg34, %c1_i32 : i32 loc(#loc446)
          %42 = arith.addi %41, %31 : i32 loc(#loc19)
          %43 = arith.addi %42, %35 : i32 loc(#loc23)
          %44 = arith.index_cast %43 : i32 to index loc(#loc447)
          %45 = arith.addi %44, %c0 : index loc(#loc448)
          %46 = memref.load %arg4[%45] : memref<?xf32> loc(#loc448)
          %47 = memref.load %arg4[%38] : memref<?xf32> loc(#loc449)
          %48 = arith.subf %46, %47 : f32 loc(#loc450)
          %49 = arith.muli %28, %30 : i32 loc(#loc18)
          %50 = arith.addi %arg34, %49 : i32 loc(#loc19)
          %51 = arith.addi %50, %35 : i32 loc(#loc23)
          %52 = arith.index_cast %51 : i32 to index loc(#loc451)
          %53 = arith.addi %52, %c0 : index loc(#loc452)
          %54 = memref.load %arg5[%53] : memref<?xf32> loc(#loc452)
          %55 = arith.addf %48, %54 : f32 loc(#loc453)
          %56 = memref.load %arg5[%38] : memref<?xf32> loc(#loc454)
          %57 = arith.subf %55, %56 : f32 loc(#loc455)
          %58 = arith.mulf %40, %57 : f32 loc(#loc456)
          %59 = arith.index_cast %32 : i32 to index loc(#loc457)
          %60 = arith.addi %59, %c0 : index loc(#loc458)
          %61 = memref.load %arg18[%60] : memref<?xf32> loc(#loc458)
          %62 = memref.load %arg22[%60] : memref<?xf32> loc(#loc459)
          %63 = arith.addf %61, %62 : f32 loc(#loc460)
          %64 = memref.load %arg20[%60] : memref<?xf32> loc(#loc461)
          %65 = arith.mulf %63, %64 : f32 loc(#loc462)
          %66 = arith.divf %58, %65 : f32 loc(#loc463)
          %67 = arith.subf %39, %66 : f32 loc(#loc464)
          memref.store %67, %arg3[%38] : memref<?xf32> loc(#loc465)
          scf.yield %41 : i32 loc(#loc441)
        } loc(#loc439)
        scf.yield %28 : i32 loc(#loc437)
      } loc(#loc435)
      %27 = arith.addi %arg32, %c1_i32 : i32 loc(#loc466)
      scf.yield %27 : i32 loc(#loc434)
    } loc(#loc432)
    return loc(#loc467)
  } loc(#loc1)
  func.func @ext_smol_adif_(%arg0: memref<?xf32> loc("/Users/mac/Projects/mlir/cpp-to-ops-converter/script/..//ITK_POM2K/pom2k_fun.c":3100:6), %arg1: memref<?xf32> loc("/Users/mac/Projects/mlir/cpp-to-ops-converter/script/..//ITK_POM2K/pom2k_fun.c":3100:6), %arg2: memref<?xf32> loc("/Users/mac/Projects/mlir/cpp-to-ops-converter/script/..//ITK_POM2K/pom2k_fun.c":3100:6), %arg3: memref<?xf32> loc("/Users/mac/Projects/mlir/cpp-to-ops-converter/script/..//ITK_POM2K/pom2k_fun.c":3100:6), %arg4: memref<?xf32> loc("/Users/mac/Projects/mlir/cpp-to-ops-converter/script/..//ITK_POM2K/pom2k_fun.c":3100:6), %arg5: memref<?xf32> loc("/Users/mac/Projects/mlir/cpp-to-ops-converter/script/..//ITK_POM2K/pom2k_fun.c":3100:6), %arg6: memref<?xf32> loc("/Users/mac/Projects/mlir/cpp-to-ops-converter/script/..//ITK_POM2K/pom2k_fun.c":3100:6), %arg7: memref<?xf32> loc("/Users/mac/Projects/mlir/cpp-to-ops-converter/script/..//ITK_POM2K/pom2k_fun.c":3100:6), %arg8: memref<?xf32> loc("/Users/mac/Projects/mlir/cpp-to-ops-converter/script/..//ITK_POM2K/pom2k_fun.c":3100:6), %arg9: memref<?xf32> loc("/Users/mac/Projects/mlir/cpp-to-ops-converter/script/..//ITK_POM2K/pom2k_fun.c":3100:6)) attributes {llvm.linkage = #llvm.linkage<external>} {
    %c-1_i32 = arith.constant -1 : i32 loc(#loc469)
    %true = arith.constant true loc(#loc470)
    %cst = arith.constant 2.000000e+00 : f32 loc(#loc471)
    %cst_0 = arith.constant 0.000000e+00 : f32 loc(#loc472)
    %c1_i32 = arith.constant 1 : i32 loc(#loc469)
    %c0_i32 = arith.constant 0 : i32 loc(#loc473)
    %c0 = arith.constant 0 : index loc(#loc474)
    %0 = llvm.mlir.undef : f32 loc(#loc474)
    %1 = memref.get_global @kb : memref<1xi32> loc(#loc475)
    %2 = memref.get_global @im : memref<1xi32> loc(#loc476)
    %3 = memref.get_global @jm : memref<1xi32> loc(#loc477)
    %4 = scf.while (%arg10 = %c0_i32) : (i32) -> i32 {
      %c0_1 = arith.constant 0 : index loc(#loc475)
      %12 = memref.load %1[%c0_1] : memref<1xi32> loc(#loc475)
      %13 = arith.cmpi slt, %arg10, %12 : i32 loc(#loc478)
      scf.condition(%13) %arg10 : i32 loc(#loc479)
    } do {
    ^bb0(%arg10: i32 loc("/Users/mac/Projects/mlir/cpp-to-ops-converter/script/..//ITK_POM2K/pom2k_fun.c":3105:3)):
      %12 = scf.while (%arg11 = %c0_i32) : (i32) -> i32 {
        %c0_1 = arith.constant 0 : index loc(#loc476)
        %14 = memref.load %2[%c0_1] : memref<1xi32> loc(#loc476)
        %15 = arith.cmpi slt, %arg11, %14 : i32 loc(#loc480)
        scf.condition(%15) %arg11 : i32 loc(#loc481)
      } do {
      ^bb0(%arg11: i32 loc("/Users/mac/Projects/mlir/cpp-to-ops-converter/script/..//ITK_POM2K/pom2k_fun.c":3106:5)):
        %14:2 = scf.while (%arg12 = %c0_i32) : (i32) -> (i32, i32) {
          %c0_1 = arith.constant 0 : index loc(#loc477)
          %16 = memref.load %3[%c0_1] : memref<1xi32> loc(#loc477)
          %17 = arith.cmpi slt, %arg12, %16 : i32 loc(#loc482)
          scf.condition(%17) %16, %arg12 : i32, i32 loc(#loc483)
        } do {
        ^bb0(%arg12: i32 loc("/Users/mac/Projects/mlir/cpp-to-ops-converter/script/..//ITK_POM2K/pom2k_fun.c":3107:7), %arg13: i32 loc("/Users/mac/Projects/mlir/cpp-to-ops-converter/script/..//ITK_POM2K/pom2k_fun.c":3107:7)):
          %c0_1 = arith.constant 0 : index loc(#loc27)
          %16 = memref.load %2[%c0_1] : memref<1xi32> loc(#loc27)
          %17 = arith.muli %arg13, %16 : i32 loc(#loc18)
          %18 = arith.addi %arg11, %17 : i32 loc(#loc19)
          %19 = arith.muli %arg10, %16 : i32 loc(#loc20)
          %20 = arith.muli %19, %arg12 : i32 loc(#loc22)
          %21 = arith.addi %18, %20 : i32 loc(#loc23)
          %22 = arith.index_cast %21 : i32 to index loc(#loc484)
          %23 = arith.index_cast %18 : i32 to index loc(#loc485)
          %24 = arith.addi %23, %c0 : index loc(#loc486)
          %25 = memref.load %arg5[%24] : memref<?xf32> loc(#loc486)
          %26 = arith.addi %22, %c0 : index loc(#loc487)
          %27 = memref.load %arg3[%26] : memref<?xf32> loc(#loc488)
          %28 = arith.mulf %27, %25 : f32 loc(#loc488)
          memref.store %28, %arg3[%26] : memref<?xf32> loc(#loc488)
          %29 = arith.addi %arg13, %c1_i32 : i32 loc(#loc469)
          scf.yield %29 : i32 loc(#loc483)
        } loc(#loc477)
        %15 = arith.addi %arg11, %c1_i32 : i32 loc(#loc489)
        scf.yield %15 : i32 loc(#loc481)
      } loc(#loc476)
      %13 = arith.addi %arg10, %c1_i32 : i32 loc(#loc490)
      scf.yield %13 : i32 loc(#loc479)
    } loc(#loc475)
    %5 = memref.get_global @kbm1 : memref<1xi32> loc(#loc491)
    %6 = memref.get_global @jmm1 : memref<1xi32> loc(#loc492)
    %7 = memref.get_global @value_min : memref<1xf32> loc(#loc493)
    %8:4 = scf.while (%arg10 = %0, %arg11 = %0, %arg12 = %0, %arg13 = %c0_i32) : (f32, f32, f32, i32) -> (f32, f32, f32, i32) {
      %c0_1 = arith.constant 0 : index loc(#loc491)
      %12 = memref.load %5[%c0_1] : memref<1xi32> loc(#loc491)
      %13 = arith.cmpi slt, %arg13, %12 : i32 loc(#loc494)
      scf.condition(%13) %arg10, %arg11, %arg12, %arg13 : f32, f32, f32, i32 loc(#loc495)
    } do {
    ^bb0(%arg10: f32 loc("/Users/mac/Projects/mlir/cpp-to-ops-converter/script/..//ITK_POM2K/pom2k_fun.c":3114:3), %arg11: f32 loc("/Users/mac/Projects/mlir/cpp-to-ops-converter/script/..//ITK_POM2K/pom2k_fun.c":3114:3), %arg12: f32 loc("/Users/mac/Projects/mlir/cpp-to-ops-converter/script/..//ITK_POM2K/pom2k_fun.c":3114:3), %arg13: i32 loc("/Users/mac/Projects/mlir/cpp-to-ops-converter/script/..//ITK_POM2K/pom2k_fun.c":3114:3)):
      %12:4 = scf.while (%arg14 = %arg10, %arg15 = %arg11, %arg16 = %arg12, %arg17 = %c1_i32) : (f32, f32, f32, i32) -> (f32, f32, f32, i32) {
        %c0_1 = arith.constant 0 : index loc(#loc492)
        %14 = memref.load %6[%c0_1] : memref<1xi32> loc(#loc492)
        %15 = arith.cmpi slt, %arg17, %14 : i32 loc(#loc496)
        scf.condition(%15) %arg14, %arg15, %arg16, %arg17 : f32, f32, f32, i32 loc(#loc497)
      } do {
      ^bb0(%arg14: f32 loc("/Users/mac/Projects/mlir/cpp-to-ops-converter/script/..//ITK_POM2K/pom2k_c_header.h":4:16), %arg15: f32 loc("/Users/mac/Projects/mlir/cpp-to-ops-converter/script/..//ITK_POM2K/pom2k_c_header.h":4:16), %arg16: f32 loc("/Users/mac/Projects/mlir/cpp-to-ops-converter/script/..//ITK_POM2K/pom2k_c_header.h":4:16), %arg17: i32 loc("/Users/mac/Projects/mlir/cpp-to-ops-converter/script/..//ITK_POM2K/pom2k_fun.c":3115:5)):
        %14:5 = scf.while (%arg18 = %arg14, %arg19 = %arg15, %arg20 = %arg16, %arg21 = %c1_i32) : (f32, f32, f32, i32) -> (f32, f32, f32, i32, i32) {
          %c0_1 = arith.constant 0 : index loc(#loc498)
          %16 = memref.load %2[%c0_1] : memref<1xi32> loc(#loc498)
          %17 = arith.cmpi slt, %arg21, %16 : i32 loc(#loc499)
          scf.condition(%17) %arg18, %arg19, %arg20, %16, %arg21 : f32, f32, f32, i32, i32 loc(#loc500)
        } do {
        ^bb0(%arg18: f32 loc("/Users/mac/Projects/mlir/cpp-to-ops-converter/script/..//ITK_POM2K/pom2k_c_header.h":4:16), %arg19: f32 loc("/Users/mac/Projects/mlir/cpp-to-ops-converter/script/..//ITK_POM2K/pom2k_c_header.h":4:16), %arg20: f32 loc("/Users/mac/Projects/mlir/cpp-to-ops-converter/script/..//ITK_POM2K/pom2k_c_header.h":4:16), %arg21: i32 loc("/Users/mac/Projects/mlir/cpp-to-ops-converter/script/..//ITK_POM2K/pom2k_fun.c":3116:7), %arg22: i32 loc("/Users/mac/Projects/mlir/cpp-to-ops-converter/script/..//ITK_POM2K/pom2k_fun.c":3116:7)):
          %16 = arith.muli %arg17, %arg21 : i32 loc(#loc18)
          %17 = arith.addi %arg22, %16 : i32 loc(#loc19)
          %18 = arith.muli %arg13, %arg21 : i32 loc(#loc20)
          %c0_1 = arith.constant 0 : index loc(#loc21)
          %19 = memref.load %3[%c0_1] : memref<1xi32> loc(#loc21)
          %20 = arith.muli %18, %19 : i32 loc(#loc22)
          %21 = arith.addi %17, %20 : i32 loc(#loc23)
          %22 = arith.index_cast %21 : i32 to index loc(#loc501)
          %23 = arith.addi %22, %c0 : index loc(#loc502)
          %24 = memref.load %arg3[%23] : memref<?xf32> loc(#loc502)
          %c0_2 = arith.constant 0 : index loc(#loc493)
          %25 = memref.load %7[%c0_2] : memref<1xf32> loc(#loc493)
          %26 = arith.cmpf olt, %24, %25 : f32 loc(#loc503)
          %27 = scf.if %26 -> (i1) {
            scf.yield %true : i1 loc(#loc504)
          } else {
            %30 = arith.addi %arg22, %c-1_i32 : i32 loc(#loc505)
            %31 = arith.addi %30, %16 : i32 loc(#loc19)
            %32 = arith.addi %31, %20 : i32 loc(#loc23)
            %33 = arith.index_cast %32 : i32 to index loc(#loc506)
            %34 = arith.addi %33, %c0 : index loc(#loc507)
            %35 = memref.load %arg3[%34] : memref<?xf32> loc(#loc507)
            %36 = arith.cmpf olt, %35, %25 : f32 loc(#loc508)
            scf.yield %36 : i1 loc(#loc504)
          } loc(#loc504)
          %28:3 = scf.if %27 -> (f32, f32, f32) {
            memref.store %cst_0, %arg0[%23] : memref<?xf32> loc(#loc510)
            scf.yield %arg18, %arg19, %arg20 : f32, f32, f32 loc(#loc509)
          } else {
            %30 = memref.load %arg0[%23] : memref<?xf32> loc(#loc511)
            %31 = arith.extf %30 : f32 to f64 loc(#loc511)
            %32 = math.absf %31 : f64 loc(#loc512)
            %33 = arith.truncf %32 : f64 to f32 loc(#loc512)
            %34 = memref.get_global @dti2 : memref<1xf32> loc(#loc513)
            %c0_3 = arith.constant 0 : index loc(#loc513)
            %35 = memref.load %34[%c0_3] : memref<1xf32> loc(#loc513)
            %36 = arith.mulf %35, %30 : f32 loc(#loc514)
            %37 = arith.mulf %36, %30 : f32 loc(#loc515)
            %38 = arith.mulf %37, %cst : f32 loc(#loc516)
            %39 = arith.index_cast %17 : i32 to index loc(#loc517)
            %40 = arith.addi %39, %c0 : index loc(#loc518)
            %41 = memref.load %arg6[%40] : memref<?xf32> loc(#loc518)
            %42 = arith.addi %arg22, %c-1_i32 : i32 loc(#loc519)
            %43 = arith.addi %42, %16 : i32 loc(#loc44)
            %44 = arith.index_cast %43 : i32 to index loc(#loc520)
            %45 = arith.addi %44, %c0 : index loc(#loc521)
            %46 = memref.load %arg8[%45] : memref<?xf32> loc(#loc521)
            %47 = memref.load %arg8[%40] : memref<?xf32> loc(#loc522)
            %48 = arith.addf %46, %47 : f32 loc(#loc523)
            %49 = arith.mulf %41, %48 : f32 loc(#loc524)
            %50 = arith.divf %38, %49 : f32 loc(#loc525)
            %51 = memref.load %arg3[%23] : memref<?xf32> loc(#loc526)
            %52 = arith.addi %43, %20 : i32 loc(#loc23)
            %53 = arith.index_cast %52 : i32 to index loc(#loc527)
            %54 = arith.addi %53, %c0 : index loc(#loc528)
            %55 = memref.load %arg3[%54] : memref<?xf32> loc(#loc528)
            %56 = arith.subf %51, %55 : f32 loc(#loc529)
            %57 = arith.addf %55, %51 : f32 loc(#loc530)
            %58 = memref.get_global @epsilon : memref<1xf32> loc(#loc531)
            %c0_4 = arith.constant 0 : index loc(#loc531)
            %59 = memref.load %58[%c0_4] : memref<1xf32> loc(#loc531)
            %60 = arith.addf %57, %59 : f32 loc(#loc532)
            %61 = arith.divf %56, %60 : f32 loc(#loc533)
            %62 = arith.subf %33, %50 : f32 loc(#loc534)
            %63 = arith.mulf %62, %61 : f32 loc(#loc535)
            %c0_5 = arith.constant 0 : index loc(#loc536)
            %64 = memref.load %arg4[%c0_5] : memref<?xf32> loc(#loc536)
            %65 = arith.mulf %63, %64 : f32 loc(#loc537)
            memref.store %65, %arg0[%23] : memref<?xf32> loc(#loc538)
            %66 = arith.extf %33 : f32 to f64 loc(#loc539)
            %67 = math.absf %66 : f64 loc(#loc540)
            %68 = arith.extf %50 : f32 to f64 loc(#loc541)
            %69 = math.absf %68 : f64 loc(#loc542)
            %70 = arith.cmpf olt, %67, %69 : f64 loc(#loc543)
            scf.if %70 {
              %c0_6 = arith.constant 0 : index loc(#loc27)
              %71 = memref.load %2[%c0_6] : memref<1xi32> loc(#loc27)
              %72 = arith.muli %arg17, %71 : i32 loc(#loc18)
              %73 = arith.addi %arg22, %72 : i32 loc(#loc19)
              %74 = arith.muli %arg13, %71 : i32 loc(#loc20)
              %c0_7 = arith.constant 0 : index loc(#loc21)
              %75 = memref.load %3[%c0_7] : memref<1xi32> loc(#loc21)
              %76 = arith.muli %74, %75 : i32 loc(#loc22)
              %77 = arith.addi %73, %76 : i32 loc(#loc23)
              %78 = arith.index_cast %77 : i32 to index loc(#loc544)
              %79 = arith.addi %78, %c0 : index loc(#loc545)
              memref.store %cst_0, %arg0[%79] : memref<?xf32> loc(#loc546)
            } loc(#loc0)
            scf.yield %61, %50, %33 : f32, f32, f32 loc(#loc509)
          } loc(#loc509)
          %29 = arith.addi %arg22, %c1_i32 : i32 loc(#loc547)
          scf.yield %28#0, %28#1, %28#2, %29 : f32, f32, f32, i32 loc(#loc500)
        } loc(#loc498)
        %15 = arith.addi %arg17, %c1_i32 : i32 loc(#loc548)
        scf.yield %14#0, %14#1, %14#2, %15 : f32, f32, f32, i32 loc(#loc497)
      } loc(#loc492)
      %13 = arith.addi %arg13, %c1_i32 : i32 loc(#loc549)
      scf.yield %12#0, %12#1, %12#2, %13 : f32, f32, f32, i32 loc(#loc495)
    } loc(#loc491)
    %9 = memref.get_global @imm1 : memref<1xi32> loc(#loc550)
    %10:4 = scf.while (%arg10 = %0, %arg11 = %0, %arg12 = %0, %arg13 = %c0_i32) : (f32, f32, f32, i32) -> (f32, f32, f32, i32) {
      %c0_1 = arith.constant 0 : index loc(#loc551)
      %12 = memref.load %5[%c0_1] : memref<1xi32> loc(#loc551)
      %13 = arith.cmpi slt, %arg13, %12 : i32 loc(#loc552)
      scf.condition(%13) %arg10, %arg11, %arg12, %arg13 : f32, f32, f32, i32 loc(#loc553)
    } do {
    ^bb0(%arg10: f32 loc("/Users/mac/Projects/mlir/cpp-to-ops-converter/script/..//ITK_POM2K/pom2k_fun.c":3140:3), %arg11: f32 loc("/Users/mac/Projects/mlir/cpp-to-ops-converter/script/..//ITK_POM2K/pom2k_fun.c":3140:3), %arg12: f32 loc("/Users/mac/Projects/mlir/cpp-to-ops-converter/script/..//ITK_POM2K/pom2k_fun.c":3140:3), %arg13: i32 loc("/Users/mac/Projects/mlir/cpp-to-ops-converter/script/..//ITK_POM2K/pom2k_fun.c":3140:3)):
      %12:4 = scf.while (%arg14 = %arg10, %arg15 = %arg11, %arg16 = %arg12, %arg17 = %c1_i32) : (f32, f32, f32, i32) -> (f32, f32, f32, i32) {
        %c0_1 = arith.constant 0 : index loc(#loc554)
        %14 = memref.load %3[%c0_1] : memref<1xi32> loc(#loc554)
        %15 = arith.cmpi slt, %arg17, %14 : i32 loc(#loc555)
        scf.condition(%15) %arg14, %arg15, %arg16, %arg17 : f32, f32, f32, i32 loc(#loc556)
      } do {
      ^bb0(%arg14: f32 loc("/Users/mac/Projects/mlir/cpp-to-ops-converter/script/..//ITK_POM2K/pom2k_c_header.h":4:16), %arg15: f32 loc("/Users/mac/Projects/mlir/cpp-to-ops-converter/script/..//ITK_POM2K/pom2k_c_header.h":4:16), %arg16: f32 loc("/Users/mac/Projects/mlir/cpp-to-ops-converter/script/..//ITK_POM2K/pom2k_c_header.h":4:16), %arg17: i32 loc("/Users/mac/Projects/mlir/cpp-to-ops-converter/script/..//ITK_POM2K/pom2k_fun.c":3141:5)):
        %14:4 = scf.while (%arg18 = %arg14, %arg19 = %arg15, %arg20 = %arg16, %arg21 = %c1_i32) : (f32, f32, f32, i32) -> (f32, f32, f32, i32) {
          %c0_1 = arith.constant 0 : index loc(#loc550)
          %16 = memref.load %9[%c0_1] : memref<1xi32> loc(#loc550)
          %17 = arith.cmpi slt, %arg21, %16 : i32 loc(#loc557)
          scf.condition(%17) %arg18, %arg19, %arg20, %arg21 : f32, f32, f32, i32 loc(#loc558)
        } do {
        ^bb0(%arg18: f32 loc("/Users/mac/Projects/mlir/cpp-to-ops-converter/script/..//ITK_POM2K/pom2k_c_header.h":4:16), %arg19: f32 loc("/Users/mac/Projects/mlir/cpp-to-ops-converter/script/..//ITK_POM2K/pom2k_c_header.h":4:16), %arg20: f32 loc("/Users/mac/Projects/mlir/cpp-to-ops-converter/script/..//ITK_POM2K/pom2k_c_header.h":4:16), %arg21: i32 loc("/Users/mac/Projects/mlir/cpp-to-ops-converter/script/..//ITK_POM2K/pom2k_fun.c":3142:7)):
          %c0_1 = arith.constant 0 : index loc(#loc27)
          %16 = memref.load %2[%c0_1] : memref<1xi32> loc(#loc27)
          %17 = arith.muli %arg17, %16 : i32 loc(#loc18)
          %18 = arith.addi %arg21, %17 : i32 loc(#loc19)
          %19 = arith.muli %arg13, %16 : i32 loc(#loc20)
          %c0_2 = arith.constant 0 : index loc(#loc21)
          %20 = memref.load %3[%c0_2] : memref<1xi32> loc(#loc21)
          %21 = arith.muli %19, %20 : i32 loc(#loc22)
          %22 = arith.addi %18, %21 : i32 loc(#loc23)
          %23 = arith.index_cast %22 : i32 to index loc(#loc559)
          %24 = arith.addi %23, %c0 : index loc(#loc560)
          %25 = memref.load %arg3[%24] : memref<?xf32> loc(#loc560)
          %c0_3 = arith.constant 0 : index loc(#loc561)
          %26 = memref.load %7[%c0_3] : memref<1xf32> loc(#loc561)
          %27 = arith.cmpf olt, %25, %26 : f32 loc(#loc562)
          %28 = scf.if %27 -> (i1) {
            scf.yield %true : i1 loc(#loc563)
          } else {
            %31 = arith.addi %arg17, %c-1_i32 : i32 loc(#loc564)
            %32 = arith.muli %31, %16 : i32 loc(#loc18)
            %33 = arith.addi %arg21, %32 : i32 loc(#loc19)
            %34 = arith.addi %33, %21 : i32 loc(#loc23)
            %35 = arith.index_cast %34 : i32 to index loc(#loc565)
            %36 = arith.addi %35, %c0 : index loc(#loc566)
            %37 = memref.load %arg3[%36] : memref<?xf32> loc(#loc566)
            %38 = arith.cmpf olt, %37, %26 : f32 loc(#loc567)
            scf.yield %38 : i1 loc(#loc563)
          } loc(#loc563)
          %29:3 = scf.if %28 -> (f32, f32, f32) {
            memref.store %cst_0, %arg1[%24] : memref<?xf32> loc(#loc569)
            scf.yield %arg18, %arg19, %arg20 : f32, f32, f32 loc(#loc568)
          } else {
            %31 = memref.load %arg1[%24] : memref<?xf32> loc(#loc570)
            %32 = arith.extf %31 : f32 to f64 loc(#loc570)
            %33 = math.absf %32 : f64 loc(#loc571)
            %34 = arith.truncf %33 : f64 to f32 loc(#loc571)
            %35 = memref.get_global @dti2 : memref<1xf32> loc(#loc572)
            %c0_4 = arith.constant 0 : index loc(#loc572)
            %36 = memref.load %35[%c0_4] : memref<1xf32> loc(#loc572)
            %37 = arith.mulf %36, %31 : f32 loc(#loc573)
            %38 = arith.mulf %37, %31 : f32 loc(#loc574)
            %39 = arith.mulf %38, %cst : f32 loc(#loc575)
            %40 = arith.index_cast %18 : i32 to index loc(#loc576)
            %41 = arith.addi %40, %c0 : index loc(#loc577)
            %42 = memref.load %arg7[%41] : memref<?xf32> loc(#loc577)
            %43 = arith.addi %arg17, %c-1_i32 : i32 loc(#loc578)
            %44 = arith.muli %43, %16 : i32 loc(#loc72)
            %45 = arith.addi %arg21, %44 : i32 loc(#loc44)
            %46 = arith.index_cast %45 : i32 to index loc(#loc579)
            %47 = arith.addi %46, %c0 : index loc(#loc580)
            %48 = memref.load %arg8[%47] : memref<?xf32> loc(#loc580)
            %49 = memref.load %arg8[%41] : memref<?xf32> loc(#loc581)
            %50 = arith.addf %48, %49 : f32 loc(#loc582)
            %51 = arith.mulf %42, %50 : f32 loc(#loc583)
            %52 = arith.divf %39, %51 : f32 loc(#loc584)
            %53 = memref.load %arg3[%24] : memref<?xf32> loc(#loc585)
            %54 = arith.addi %45, %21 : i32 loc(#loc23)
            %55 = arith.index_cast %54 : i32 to index loc(#loc586)
            %56 = arith.addi %55, %c0 : index loc(#loc587)
            %57 = memref.load %arg3[%56] : memref<?xf32> loc(#loc587)
            %58 = arith.subf %53, %57 : f32 loc(#loc588)
            %59 = arith.addf %57, %53 : f32 loc(#loc589)
            %60 = memref.get_global @epsilon : memref<1xf32> loc(#loc590)
            %c0_5 = arith.constant 0 : index loc(#loc590)
            %61 = memref.load %60[%c0_5] : memref<1xf32> loc(#loc590)
            %62 = arith.addf %59, %61 : f32 loc(#loc591)
            %63 = arith.divf %58, %62 : f32 loc(#loc592)
            %64 = arith.subf %34, %52 : f32 loc(#loc593)
            %65 = arith.mulf %64, %63 : f32 loc(#loc594)
            %c0_6 = arith.constant 0 : index loc(#loc595)
            %66 = memref.load %arg4[%c0_6] : memref<?xf32> loc(#loc595)
            %67 = arith.mulf %65, %66 : f32 loc(#loc596)
            memref.store %67, %arg1[%24] : memref<?xf32> loc(#loc597)
            %68 = arith.extf %34 : f32 to f64 loc(#loc598)
            %69 = math.absf %68 : f64 loc(#loc599)
            %70 = arith.extf %52 : f32 to f64 loc(#loc600)
            %71 = math.absf %70 : f64 loc(#loc601)
            %72 = arith.cmpf olt, %69, %71 : f64 loc(#loc602)
            scf.if %72 {
              %c0_7 = arith.constant 0 : index loc(#loc27)
              %73 = memref.load %2[%c0_7] : memref<1xi32> loc(#loc27)
              %74 = arith.muli %arg17, %73 : i32 loc(#loc18)
              %75 = arith.addi %arg21, %74 : i32 loc(#loc19)
              %76 = arith.muli %arg13, %73 : i32 loc(#loc20)
              %c0_8 = arith.constant 0 : index loc(#loc21)
              %77 = memref.load %3[%c0_8] : memref<1xi32> loc(#loc21)
              %78 = arith.muli %76, %77 : i32 loc(#loc22)
              %79 = arith.addi %75, %78 : i32 loc(#loc23)
              %80 = arith.index_cast %79 : i32 to index loc(#loc603)
              %81 = arith.addi %80, %c0 : index loc(#loc604)
              memref.store %cst_0, %arg1[%81] : memref<?xf32> loc(#loc605)
            } loc(#loc0)
            scf.yield %63, %52, %34 : f32, f32, f32 loc(#loc568)
          } loc(#loc568)
          %30 = arith.addi %arg21, %c1_i32 : i32 loc(#loc606)
          scf.yield %29#0, %29#1, %29#2, %30 : f32, f32, f32, i32 loc(#loc558)
        } loc(#loc550)
        %15 = arith.addi %arg17, %c1_i32 : i32 loc(#loc607)
        scf.yield %14#0, %14#1, %14#2, %15 : f32, f32, f32, i32 loc(#loc556)
      } loc(#loc554)
      %13 = arith.addi %arg13, %c1_i32 : i32 loc(#loc608)
      scf.yield %12#0, %12#1, %12#2, %13 : f32, f32, f32, i32 loc(#loc553)
    } loc(#loc551)
    %11:4 = scf.while (%arg10 = %0, %arg11 = %0, %arg12 = %0, %arg13 = %c1_i32) : (f32, f32, f32, i32) -> (f32, f32, f32, i32) {
      %c0_1 = arith.constant 0 : index loc(#loc609)
      %12 = memref.load %5[%c0_1] : memref<1xi32> loc(#loc609)
      %13 = arith.cmpi slt, %arg13, %12 : i32 loc(#loc610)
      scf.condition(%13) %arg10, %arg11, %arg12, %arg13 : f32, f32, f32, i32 loc(#loc611)
    } do {
    ^bb0(%arg10: f32 loc("/Users/mac/Projects/mlir/cpp-to-ops-converter/script/..//ITK_POM2K/pom2k_fun.c":3166:3), %arg11: f32 loc("/Users/mac/Projects/mlir/cpp-to-ops-converter/script/..//ITK_POM2K/pom2k_fun.c":3166:3), %arg12: f32 loc("/Users/mac/Projects/mlir/cpp-to-ops-converter/script/..//ITK_POM2K/pom2k_fun.c":3166:3), %arg13: i32 loc("/Users/mac/Projects/mlir/cpp-to-ops-converter/script/..//ITK_POM2K/pom2k_fun.c":3166:3)):
      %12:4 = scf.while (%arg14 = %arg10, %arg15 = %arg11, %arg16 = %arg12, %arg17 = %c1_i32) : (f32, f32, f32, i32) -> (f32, f32, f32, i32) {
        %c0_1 = arith.constant 0 : index loc(#loc612)
        %14 = memref.load %6[%c0_1] : memref<1xi32> loc(#loc612)
        %15 = arith.cmpi slt, %arg17, %14 : i32 loc(#loc613)
        scf.condition(%15) %arg14, %arg15, %arg16, %arg17 : f32, f32, f32, i32 loc(#loc614)
      } do {
      ^bb0(%arg14: f32 loc("/Users/mac/Projects/mlir/cpp-to-ops-converter/script/..//ITK_POM2K/pom2k_c_header.h":4:16), %arg15: f32 loc("/Users/mac/Projects/mlir/cpp-to-ops-converter/script/..//ITK_POM2K/pom2k_c_header.h":4:16), %arg16: f32 loc("/Users/mac/Projects/mlir/cpp-to-ops-converter/script/..//ITK_POM2K/pom2k_c_header.h":4:16), %arg17: i32 loc("/Users/mac/Projects/mlir/cpp-to-ops-converter/script/..//ITK_POM2K/pom2k_fun.c":3167:5)):
        %14:4 = scf.while (%arg18 = %arg14, %arg19 = %arg15, %arg20 = %arg16, %arg21 = %c1_i32) : (f32, f32, f32, i32) -> (f32, f32, f32, i32) {
          %c0_1 = arith.constant 0 : index loc(#loc615)
          %16 = memref.load %9[%c0_1] : memref<1xi32> loc(#loc615)
          %17 = arith.cmpi slt, %arg21, %16 : i32 loc(#loc616)
          scf.condition(%17) %arg18, %arg19, %arg20, %arg21 : f32, f32, f32, i32 loc(#loc617)
        } do {
        ^bb0(%arg18: f32 loc("/Users/mac/Projects/mlir/cpp-to-ops-converter/script/..//ITK_POM2K/pom2k_c_header.h":4:16), %arg19: f32 loc("/Users/mac/Projects/mlir/cpp-to-ops-converter/script/..//ITK_POM2K/pom2k_c_header.h":4:16), %arg20: f32 loc("/Users/mac/Projects/mlir/cpp-to-ops-converter/script/..//ITK_POM2K/pom2k_c_header.h":4:16), %arg21: i32 loc("/Users/mac/Projects/mlir/cpp-to-ops-converter/script/..//ITK_POM2K/pom2k_fun.c":3168:7)):
          %c0_1 = arith.constant 0 : index loc(#loc27)
          %16 = memref.load %2[%c0_1] : memref<1xi32> loc(#loc27)
          %17 = arith.muli %arg17, %16 : i32 loc(#loc18)
          %18 = arith.addi %arg21, %17 : i32 loc(#loc19)
          %19 = arith.muli %arg13, %16 : i32 loc(#loc20)
          %c0_2 = arith.constant 0 : index loc(#loc21)
          %20 = memref.load %3[%c0_2] : memref<1xi32> loc(#loc21)
          %21 = arith.muli %19, %20 : i32 loc(#loc22)
          %22 = arith.addi %18, %21 : i32 loc(#loc23)
          %23 = arith.index_cast %22 : i32 to index loc(#loc618)
          %24 = arith.addi %23, %c0 : index loc(#loc619)
          %25 = memref.load %arg3[%24] : memref<?xf32> loc(#loc619)
          %c0_3 = arith.constant 0 : index loc(#loc620)
          %26 = memref.load %7[%c0_3] : memref<1xf32> loc(#loc620)
          %27 = arith.cmpf olt, %25, %26 : f32 loc(#loc621)
          %28 = scf.if %27 -> (i1) {
            scf.yield %true : i1 loc(#loc622)
          } else {
            %31 = arith.addi %arg13, %c-1_i32 : i32 loc(#loc623)
            %32 = arith.muli %31, %16 : i32 loc(#loc20)
            %33 = arith.muli %32, %20 : i32 loc(#loc22)
            %34 = arith.addi %18, %33 : i32 loc(#loc23)
            %35 = arith.index_cast %34 : i32 to index loc(#loc624)
            %36 = arith.addi %35, %c0 : index loc(#loc625)
            %37 = memref.load %arg3[%36] : memref<?xf32> loc(#loc625)
            %38 = arith.cmpf olt, %37, %26 : f32 loc(#loc626)
            scf.yield %38 : i1 loc(#loc622)
          } loc(#loc622)
          %29:3 = scf.if %28 -> (f32, f32, f32) {
            memref.store %cst_0, %arg2[%24] : memref<?xf32> loc(#loc628)
            scf.yield %arg18, %arg19, %arg20 : f32, f32, f32 loc(#loc627)
          } else {
            %31 = memref.load %arg2[%24] : memref<?xf32> loc(#loc629)
            %32 = arith.extf %31 : f32 to f64 loc(#loc629)
            %33 = math.absf %32 : f64 loc(#loc630)
            %34 = arith.truncf %33 : f64 to f32 loc(#loc630)
            %35 = memref.get_global @dti2 : memref<1xf32> loc(#loc631)
            %c0_4 = arith.constant 0 : index loc(#loc631)
            %36 = memref.load %35[%c0_4] : memref<1xf32> loc(#loc631)
            %37 = arith.mulf %36, %31 : f32 loc(#loc632)
            %38 = arith.mulf %37, %31 : f32 loc(#loc633)
            %39 = arith.addi %arg13, %c-1_i32 : i32 loc(#loc634)
            %40 = arith.index_cast %39 : i32 to index loc(#loc635)
            %41 = arith.addi %40, %c0 : index loc(#loc636)
            %42 = memref.load %arg9[%41] : memref<?xf32> loc(#loc636)
            %43 = arith.index_cast %18 : i32 to index loc(#loc637)
            %44 = arith.addi %43, %c0 : index loc(#loc638)
            %45 = memref.load %arg8[%44] : memref<?xf32> loc(#loc638)
            %46 = arith.mulf %42, %45 : f32 loc(#loc639)
            %47 = arith.divf %38, %46 : f32 loc(#loc640)
            %48 = arith.muli %39, %16 : i32 loc(#loc20)
            %49 = arith.muli %48, %20 : i32 loc(#loc22)
            %50 = arith.addi %18, %49 : i32 loc(#loc23)
            %51 = arith.index_cast %50 : i32 to index loc(#loc641)
            %52 = arith.addi %51, %c0 : index loc(#loc642)
            %53 = memref.load %arg3[%52] : memref<?xf32> loc(#loc642)
            %54 = memref.load %arg3[%24] : memref<?xf32> loc(#loc643)
            %55 = arith.subf %53, %54 : f32 loc(#loc644)
            %56 = arith.addf %54, %53 : f32 loc(#loc645)
            %57 = memref.get_global @epsilon : memref<1xf32> loc(#loc646)
            %c0_5 = arith.constant 0 : index loc(#loc646)
            %58 = memref.load %57[%c0_5] : memref<1xf32> loc(#loc646)
            %59 = arith.addf %56, %58 : f32 loc(#loc647)
            %60 = arith.divf %55, %59 : f32 loc(#loc648)
            %61 = arith.subf %34, %47 : f32 loc(#loc649)
            %62 = arith.mulf %61, %60 : f32 loc(#loc650)
            %c0_6 = arith.constant 0 : index loc(#loc651)
            %63 = memref.load %arg4[%c0_6] : memref<?xf32> loc(#loc651)
            %64 = arith.mulf %62, %63 : f32 loc(#loc652)
            memref.store %64, %arg2[%24] : memref<?xf32> loc(#loc653)
            %65 = arith.extf %34 : f32 to f64 loc(#loc654)
            %66 = math.absf %65 : f64 loc(#loc655)
            %67 = arith.extf %47 : f32 to f64 loc(#loc656)
            %68 = math.absf %67 : f64 loc(#loc657)
            %69 = arith.cmpf olt, %66, %68 : f64 loc(#loc658)
            scf.if %69 {
              %c0_7 = arith.constant 0 : index loc(#loc27)
              %70 = memref.load %2[%c0_7] : memref<1xi32> loc(#loc27)
              %71 = arith.muli %arg17, %70 : i32 loc(#loc18)
              %72 = arith.addi %arg21, %71 : i32 loc(#loc19)
              %73 = arith.muli %arg13, %70 : i32 loc(#loc20)
              %c0_8 = arith.constant 0 : index loc(#loc21)
              %74 = memref.load %3[%c0_8] : memref<1xi32> loc(#loc21)
              %75 = arith.muli %73, %74 : i32 loc(#loc22)
              %76 = arith.addi %72, %75 : i32 loc(#loc23)
              %77 = arith.index_cast %76 : i32 to index loc(#loc659)
              %78 = arith.addi %77, %c0 : index loc(#loc660)
              memref.store %cst_0, %arg2[%78] : memref<?xf32> loc(#loc661)
            } loc(#loc0)
            scf.yield %60, %47, %34 : f32, f32, f32 loc(#loc627)
          } loc(#loc627)
          %30 = arith.addi %arg21, %c1_i32 : i32 loc(#loc662)
          scf.yield %29#0, %29#1, %29#2, %30 : f32, f32, f32, i32 loc(#loc617)
        } loc(#loc615)
        %15 = arith.addi %arg17, %c1_i32 : i32 loc(#loc663)
        scf.yield %14#0, %14#1, %14#2, %15 : f32, f32, f32, i32 loc(#loc614)
      } loc(#loc612)
      %13 = arith.addi %arg13, %c1_i32 : i32 loc(#loc664)
      scf.yield %12#0, %12#1, %12#2, %13 : f32, f32, f32, i32 loc(#loc611)
    } loc(#loc609)
    return loc(#loc665)
  } loc(#loc468)
} loc(#loc0)
#loc0 = loc(unknown)
#loc2 = loc("/Users/mac/Projects/mlir/cpp-to-ops-converter/script/..//ITK_POM2K/pom2k_fun.c":3304:32)
#loc3 = loc("/Users/mac/Projects/mlir/cpp-to-ops-converter/script/..//ITK_POM2K/pom2k_fun.c":3453:13)
#loc4 = loc("/Users/mac/Projects/mlir/cpp-to-ops-converter/script/..//ITK_POM2K/pom2k_fun.c":3356:13)
#loc5 = loc("/Users/mac/Projects/mlir/cpp-to-ops-converter/script/..//ITK_POM2K/pom2k_fun.c":3316:13)
#loc6 = loc("/Users/mac/Projects/mlir/cpp-to-ops-converter/script/..//ITK_POM2K/pom2k_fun.c":3305:36)
#loc7 = loc("/Users/mac/Projects/mlir/cpp-to-ops-converter/script/..//ITK_POM2K/pom2k_fun.c":3302:16)
#loc8 = loc("/Users/mac/Projects/mlir/cpp-to-ops-converter/script/..//ITK_POM2K/pom2k_fun.c":3488:12)
#loc9 = loc("/Users/mac/Projects/mlir/cpp-to-ops-converter/script/..//ITK_POM2K/pom2k_fun.c":3302:23)
#loc10 = loc("/Users/mac/Projects/mlir/cpp-to-ops-converter/script/..//ITK_POM2K/pom2k_fun.c":3303:25)
#loc11 = loc("/Users/mac/Projects/mlir/cpp-to-ops-converter/script/..//ITK_POM2K/pom2k_fun.c":3304:27)
#loc12 = loc("/Users/mac/Projects/mlir/cpp-to-ops-converter/script/..//ITK_POM2K/pom2k_fun.c":3302:21)
#loc14 = loc("/Users/mac/Projects/mlir/cpp-to-ops-converter/script/..//ITK_POM2K/pom2k_fun.c":3303:23)
#loc16 = loc("/Users/mac/Projects/mlir/cpp-to-ops-converter/script/..//ITK_POM2K/pom2k_fun.c":3304:25)
#loc18 = loc("/Users/mac/Projects/mlir/cpp-to-ops-converter/script/..//ITK_POM2K/pom2k_c_header.h":7:50)
#loc19 = loc("/Users/mac/Projects/mlir/cpp-to-ops-converter/script/..//ITK_POM2K/pom2k_c_header.h":7:45)
#loc20 = loc("/Users/mac/Projects/mlir/cpp-to-ops-converter/script/..//ITK_POM2K/pom2k_c_header.h":7:59)
#loc21 = loc("/Users/mac/Projects/mlir/cpp-to-ops-converter/script/..//ITK_POM2K/pom2k_c_header.h":8:46)
#loc22 = loc("/Users/mac/Projects/mlir/cpp-to-ops-converter/script/..//ITK_POM2K/pom2k_c_header.h":7:62)
#loc23 = loc("/Users/mac/Projects/mlir/cpp-to-ops-converter/script/..//ITK_POM2K/pom2k_c_header.h":7:54)
#loc24 = loc("/Users/mac/Projects/mlir/cpp-to-ops-converter/script/..//ITK_POM2K/pom2k_fun.c":3305:32)
#loc25 = loc("/Users/mac/Projects/mlir/cpp-to-ops-converter/script/..//ITK_POM2K/pom2k_fun.c":3305:9)
#loc26 = loc("/Users/mac/Projects/mlir/cpp-to-ops-converter/script/..//ITK_POM2K/pom2k_fun.c":3305:34)
#loc27 = loc("/Users/mac/Projects/mlir/cpp-to-ops-converter/script/..//ITK_POM2K/pom2k_c_header.h":8:42)
#loc28 = loc("/Users/mac/Projects/mlir/cpp-to-ops-converter/script/..//ITK_POM2K/pom2k_fun.c":3306:32)
#loc29 = loc("/Users/mac/Projects/mlir/cpp-to-ops-converter/script/..//ITK_POM2K/pom2k_fun.c":3306:9)
#loc30 = loc("/Users/mac/Projects/mlir/cpp-to-ops-converter/script/..//ITK_POM2K/pom2k_fun.c":3306:34)
#loc31 = loc("/Users/mac/Projects/mlir/cpp-to-ops-converter/script/..//ITK_POM2K/pom2k_fun.c":3303:30)
#loc32 = loc("/Users/mac/Projects/mlir/cpp-to-ops-converter/script/..//ITK_POM2K/pom2k_fun.c":3302:28)
#loc33 = loc("/Users/mac/Projects/mlir/cpp-to-ops-converter/script/..//ITK_POM2K/pom2k_fun.c":3312:23)
#loc34 = loc("/Users/mac/Projects/mlir/cpp-to-ops-converter/script/..//ITK_POM2K/pom2k_fun.c":3313:25)
#loc35 = loc("/Users/mac/Projects/mlir/cpp-to-ops-converter/script/..//ITK_POM2K/pom2k_fun.c":3312:21)
#loc37 = loc("/Users/mac/Projects/mlir/cpp-to-ops-converter/script/..//ITK_POM2K/pom2k_fun.c":3313:23)
#loc39 = loc("/Users/mac/Projects/mlir/cpp-to-ops-converter/script/..//ITK_POM2K/pom2k_fun.c":3314:27)
#loc40 = loc("/Users/mac/Projects/mlir/cpp-to-ops-converter/script/..//ITK_POM2K/pom2k_fun.c":3314:25)
#loc42 = loc("/Users/mac/Projects/mlir/cpp-to-ops-converter/script/..//ITK_POM2K/pom2k_fun.c":3315:32)
#loc43 = loc("/Users/mac/Projects/mlir/cpp-to-ops-converter/script/..//ITK_POM2K/pom2k_fun.c":3316:32)
#loc44 = loc("/Users/mac/Projects/mlir/cpp-to-ops-converter/script/..//ITK_POM2K/pom2k_c_header.h":5:38)
#loc45 = loc("/Users/mac/Projects/mlir/cpp-to-ops-converter/script/..//ITK_POM2K/pom2k_fun.c":3316:39)
#loc46 = loc("/Users/mac/Projects/mlir/cpp-to-ops-converter/script/..//ITK_POM2K/pom2k_fun.c":3316:22)
#loc47 = loc("/Users/mac/Projects/mlir/cpp-to-ops-converter/script/..//ITK_POM2K/pom2k_fun.c":3316:56)
#loc48 = loc("/Users/mac/Projects/mlir/cpp-to-ops-converter/script/..//ITK_POM2K/pom2k_fun.c":3316:43)
#loc49 = loc("/Users/mac/Projects/mlir/cpp-to-ops-converter/script/..//ITK_POM2K/pom2k_fun.c":3316:41)
#loc50 = loc("/Users/mac/Projects/mlir/cpp-to-ops-converter/script/..//ITK_POM2K/pom2k_fun.c":3316:19)
#loc51 = loc("/Users/mac/Projects/mlir/cpp-to-ops-converter/script/..//ITK_POM2K/pom2k_fun.c":3317:14)
#loc52 = loc("/Users/mac/Projects/mlir/cpp-to-ops-converter/script/..//ITK_POM2K/pom2k_fun.c":3317:35)
#loc53 = loc("/Users/mac/Projects/mlir/cpp-to-ops-converter/script/..//ITK_POM2K/pom2k_fun.c":3317:33)
#loc54 = loc("/Users/mac/Projects/mlir/cpp-to-ops-converter/script/..//ITK_POM2K/pom2k_fun.c":3316:59)
#loc55 = loc("/Users/mac/Projects/mlir/cpp-to-ops-converter/script/..//ITK_POM2K/pom2k_fun.c":3317:53)
#loc56 = loc("/Users/mac/Projects/mlir/cpp-to-ops-converter/script/..//ITK_POM2K/pom2k_fun.c":3317:51)
#loc57 = loc("/Users/mac/Projects/mlir/cpp-to-ops-converter/script/..//ITK_POM2K/pom2k_fun.c":3315:34)
#loc58 = loc("/Users/mac/Projects/mlir/cpp-to-ops-converter/script/..//ITK_POM2K/pom2k_fun.c":3314:32)
#loc59 = loc("/Users/mac/Projects/mlir/cpp-to-ops-converter/script/..//ITK_POM2K/pom2k_fun.c":3313:32)
#loc60 = loc("/Users/mac/Projects/mlir/cpp-to-ops-converter/script/..//ITK_POM2K/pom2k_fun.c":3312:30)
#loc61 = loc("/Users/mac/Projects/mlir/cpp-to-ops-converter/script/..//ITK_POM2K/pom2k_fun.c":3324:27)
#loc62 = loc("/Users/mac/Projects/mlir/cpp-to-ops-converter/script/..//ITK_POM2K/pom2k_fun.c":3322:23)
#loc63 = loc("/Users/mac/Projects/mlir/cpp-to-ops-converter/script/..//ITK_POM2K/pom2k_fun.c":3322:21)
#loc65 = loc("/Users/mac/Projects/mlir/cpp-to-ops-converter/script/..//ITK_POM2K/pom2k_fun.c":3323:25)
#loc66 = loc("/Users/mac/Projects/mlir/cpp-to-ops-converter/script/..//ITK_POM2K/pom2k_fun.c":3323:23)
#loc68 = loc("/Users/mac/Projects/mlir/cpp-to-ops-converter/script/..//ITK_POM2K/pom2k_fun.c":3326:35)
#loc69 = loc("/Users/mac/Projects/mlir/cpp-to-ops-converter/script/..//ITK_POM2K/pom2k_fun.c":3324:25)
#loc71 = loc("/Users/mac/Projects/mlir/cpp-to-ops-converter/script/..//ITK_POM2K/pom2k_fun.c":3325:32)
#loc72 = loc("/Users/mac/Projects/mlir/cpp-to-ops-converter/script/..//ITK_POM2K/pom2k_c_header.h":5:43)
#loc73 = loc("/Users/mac/Projects/mlir/cpp-to-ops-converter/script/..//ITK_POM2K/pom2k_fun.c":3326:39)
#loc74 = loc("/Users/mac/Projects/mlir/cpp-to-ops-converter/script/..//ITK_POM2K/pom2k_fun.c":3326:22)
#loc75 = loc("/Users/mac/Projects/mlir/cpp-to-ops-converter/script/..//ITK_POM2K/pom2k_fun.c":3326:56)
#loc76 = loc("/Users/mac/Projects/mlir/cpp-to-ops-converter/script/..//ITK_POM2K/pom2k_fun.c":3326:43)
#loc77 = loc("/Users/mac/Projects/mlir/cpp-to-ops-converter/script/..//ITK_POM2K/pom2k_fun.c":3326:41)
#loc78 = loc("/Users/mac/Projects/mlir/cpp-to-ops-converter/script/..//ITK_POM2K/pom2k_fun.c":3326:19)
#loc79 = loc("/Users/mac/Projects/mlir/cpp-to-ops-converter/script/..//ITK_POM2K/pom2k_fun.c":3327:14)
#loc80 = loc("/Users/mac/Projects/mlir/cpp-to-ops-converter/script/..//ITK_POM2K/pom2k_fun.c":3327:35)
#loc81 = loc("/Users/mac/Projects/mlir/cpp-to-ops-converter/script/..//ITK_POM2K/pom2k_fun.c":3327:33)
#loc82 = loc("/Users/mac/Projects/mlir/cpp-to-ops-converter/script/..//ITK_POM2K/pom2k_fun.c":3326:59)
#loc83 = loc("/Users/mac/Projects/mlir/cpp-to-ops-converter/script/..//ITK_POM2K/pom2k_fun.c":3327:53)
#loc84 = loc("/Users/mac/Projects/mlir/cpp-to-ops-converter/script/..//ITK_POM2K/pom2k_fun.c":3327:51)
#loc85 = loc("/Users/mac/Projects/mlir/cpp-to-ops-converter/script/..//ITK_POM2K/pom2k_fun.c":3325:34)
#loc86 = loc("/Users/mac/Projects/mlir/cpp-to-ops-converter/script/..//ITK_POM2K/pom2k_fun.c":3324:34)
#loc87 = loc("/Users/mac/Projects/mlir/cpp-to-ops-converter/script/..//ITK_POM2K/pom2k_fun.c":3323:30)
#loc88 = loc("/Users/mac/Projects/mlir/cpp-to-ops-converter/script/..//ITK_POM2K/pom2k_fun.c":3322:30)
#loc89 = loc("/Users/mac/Projects/mlir/cpp-to-ops-converter/script/..//ITK_POM2K/pom2k_fun.c":3335:45)
#loc90 = loc("/Users/mac/Projects/mlir/cpp-to-ops-converter/script/..//ITK_POM2K/pom2k_fun.c":3332:23)
#loc91 = loc("/Users/mac/Projects/mlir/cpp-to-ops-converter/script/..//ITK_POM2K/pom2k_fun.c":3332:21)
#loc93 = loc("/Users/mac/Projects/mlir/cpp-to-ops-converter/script/..//ITK_POM2K/pom2k_fun.c":3333:25)
#loc94 = loc("/Users/mac/Projects/mlir/cpp-to-ops-converter/script/..//ITK_POM2K/pom2k_fun.c":3333:23)
#loc96 = loc("/Users/mac/Projects/mlir/cpp-to-ops-converter/script/..//ITK_POM2K/pom2k_fun.c":3334:21)
#loc97 = loc("/Users/mac/Projects/mlir/cpp-to-ops-converter/script/..//ITK_POM2K/pom2k_fun.c":3334:25)
#loc98 = loc("/Users/mac/Projects/mlir/cpp-to-ops-converter/script/..//ITK_POM2K/pom2k_fun.c":3334:23)
#loc99 = loc("/Users/mac/Projects/mlir/cpp-to-ops-converter/script/..//ITK_POM2K/pom2k_c_header.h":7:56)
#loc100 = loc("/Users/mac/Projects/mlir/cpp-to-ops-converter/script/..//ITK_POM2K/pom2k_fun.c":3335:26)
#loc101 = loc("/Users/mac/Projects/mlir/cpp-to-ops-converter/script/..//ITK_POM2K/pom2k_fun.c":3335:51)
#loc102 = loc("/Users/mac/Projects/mlir/cpp-to-ops-converter/script/..//ITK_POM2K/pom2k_fun.c":3335:30)
#loc103 = loc("/Users/mac/Projects/mlir/cpp-to-ops-converter/script/..//ITK_POM2K/pom2k_fun.c":3335:7)
#loc104 = loc("/Users/mac/Projects/mlir/cpp-to-ops-converter/script/..//ITK_POM2K/pom2k_fun.c":3335:28)
#loc105 = loc("/Users/mac/Projects/mlir/cpp-to-ops-converter/script/..//ITK_POM2K/pom2k_fun.c":3333:30)
#loc106 = loc("/Users/mac/Projects/mlir/cpp-to-ops-converter/script/..//ITK_POM2K/pom2k_fun.c":3332:28)
#loc107 = loc("/Users/mac/Projects/mlir/cpp-to-ops-converter/script/..//ITK_POM2K/pom2k_fun.c":3339:23)
#loc108 = loc("/Users/mac/Projects/mlir/cpp-to-ops-converter/script/..//ITK_POM2K/pom2k_fun.c":3339:21)
#loc110 = loc("/Users/mac/Projects/mlir/cpp-to-ops-converter/script/..//ITK_POM2K/pom2k_fun.c":3340:25)
#loc111 = loc("/Users/mac/Projects/mlir/cpp-to-ops-converter/script/..//ITK_POM2K/pom2k_fun.c":3340:23)
#loc113 = loc("/Users/mac/Projects/mlir/cpp-to-ops-converter/script/..//ITK_POM2K/pom2k_fun.c":3341:27)
#loc114 = loc("/Users/mac/Projects/mlir/cpp-to-ops-converter/script/..//ITK_POM2K/pom2k_fun.c":3341:25)
#loc116 = loc("/Users/mac/Projects/mlir/cpp-to-ops-converter/script/..//ITK_POM2K/pom2k_fun.c":3342:29)
#loc117 = loc("/Users/mac/Projects/mlir/cpp-to-ops-converter/script/..//ITK_POM2K/pom2k_fun.c":3342:33)
#loc118 = loc("/Users/mac/Projects/mlir/cpp-to-ops-converter/script/..//ITK_POM2K/pom2k_fun.c":3342:31)
#loc119 = loc("/Users/mac/Projects/mlir/cpp-to-ops-converter/script/..//ITK_POM2K/pom2k_fun.c":3343:28)
#loc120 = loc("/Users/mac/Projects/mlir/cpp-to-ops-converter/script/..//ITK_POM2K/pom2k_fun.c":3343:32)
#loc121 = loc("/Users/mac/Projects/mlir/cpp-to-ops-converter/script/..//ITK_POM2K/pom2k_fun.c":3343:30)
#loc122 = loc("/Users/mac/Projects/mlir/cpp-to-ops-converter/script/..//ITK_POM2K/pom2k_fun.c":3341:32)
#loc123 = loc("/Users/mac/Projects/mlir/cpp-to-ops-converter/script/..//ITK_POM2K/pom2k_fun.c":3340:30)
#loc124 = loc("/Users/mac/Projects/mlir/cpp-to-ops-converter/script/..//ITK_POM2K/pom2k_fun.c":3339:28)
#loc125 = loc("/Users/mac/Projects/mlir/cpp-to-ops-converter/script/..//ITK_POM2K/pom2k_fun.c":3352:23)
#loc126 = loc("/Users/mac/Projects/mlir/cpp-to-ops-converter/script/..//ITK_POM2K/pom2k_fun.c":3352:21)
#loc128 = loc("/Users/mac/Projects/mlir/cpp-to-ops-converter/script/..//ITK_POM2K/pom2k_fun.c":3353:25)
#loc129 = loc("/Users/mac/Projects/mlir/cpp-to-ops-converter/script/..//ITK_POM2K/pom2k_fun.c":3353:23)
#loc131 = loc("/Users/mac/Projects/mlir/cpp-to-ops-converter/script/..//ITK_POM2K/pom2k_fun.c":3365:34)
#loc132 = loc("/Users/mac/Projects/mlir/cpp-to-ops-converter/script/..//ITK_POM2K/pom2k_fun.c":3354:27)
#loc133 = loc("/Users/mac/Projects/mlir/cpp-to-ops-converter/script/..//ITK_POM2K/pom2k_fun.c":3354:25)
#loc135 = loc("/Users/mac/Projects/mlir/cpp-to-ops-converter/script/..//ITK_POM2K/pom2k_fun.c":3355:28)
#loc136 = loc("/Users/mac/Projects/mlir/cpp-to-ops-converter/script/..//ITK_POM2K/pom2k_fun.c":3357:15)
#loc137 = loc("/Users/mac/Projects/mlir/cpp-to-ops-converter/script/..//ITK_POM2K/pom2k_fun.c":3357:42)
#loc138 = loc("/Users/mac/Projects/mlir/cpp-to-ops-converter/script/..//ITK_POM2K/pom2k_fun.c":3357:40)
#loc139 = loc("/Users/mac/Projects/mlir/cpp-to-ops-converter/script/..//ITK_POM2K/pom2k_fun.c":3358:31)
#loc140 = loc("/Users/mac/Projects/mlir/cpp-to-ops-converter/script/..//ITK_POM2K/pom2k_fun.c":3358:41)
#loc141 = loc("/Users/mac/Projects/mlir/cpp-to-ops-converter/script/..//ITK_POM2K/pom2k_fun.c":3358:18)
#loc142 = loc("/Users/mac/Projects/mlir/cpp-to-ops-converter/script/..//ITK_POM2K/pom2k_fun.c":3357:74)
#loc143 = loc("/Users/mac/Projects/mlir/cpp-to-ops-converter/script/..//ITK_POM2K/pom2k_fun.c":3359:40)
#loc144 = loc("/Users/mac/Projects/mlir/cpp-to-ops-converter/script/..//ITK_POM2K/pom2k_fun.c":3360:18)
#loc145 = loc("/Users/mac/Projects/mlir/cpp-to-ops-converter/script/..//ITK_POM2K/pom2k_fun.c":3359:74)
#loc146 = loc("/Users/mac/Projects/mlir/cpp-to-ops-converter/script/..//ITK_POM2K/pom2k_fun.c":3358:43)
#loc147 = loc("/Users/mac/Projects/mlir/cpp-to-ops-converter/script/..//ITK_POM2K/pom2k_fun.c":3356:18)
#loc148 = loc("/Users/mac/Projects/mlir/cpp-to-ops-converter/script/..//ITK_POM2K/pom2k_fun.c":3355:30)
#loc149 = loc("/Users/mac/Projects/mlir/cpp-to-ops-converter/script/..//ITK_POM2K/pom2k_fun.c":3362:28)
#loc150 = loc("/Users/mac/Projects/mlir/cpp-to-ops-converter/script/..//ITK_POM2K/pom2k_fun.c":3364:15)
#loc151 = loc("/Users/mac/Projects/mlir/cpp-to-ops-converter/script/..//ITK_POM2K/pom2k_fun.c":3364:42)
#loc152 = loc("/Users/mac/Projects/mlir/cpp-to-ops-converter/script/..//ITK_POM2K/pom2k_fun.c":3364:40)
#loc153 = loc("/Users/mac/Projects/mlir/cpp-to-ops-converter/script/..//ITK_POM2K/pom2k_fun.c":3365:41)
#loc154 = loc("/Users/mac/Projects/mlir/cpp-to-ops-converter/script/..//ITK_POM2K/pom2k_fun.c":3365:18)
#loc155 = loc("/Users/mac/Projects/mlir/cpp-to-ops-converter/script/..//ITK_POM2K/pom2k_fun.c":3364:74)
#loc156 = loc("/Users/mac/Projects/mlir/cpp-to-ops-converter/script/..//ITK_POM2K/pom2k_fun.c":3366:40)
#loc157 = loc("/Users/mac/Projects/mlir/cpp-to-ops-converter/script/..//ITK_POM2K/pom2k_fun.c":3367:18)
#loc158 = loc("/Users/mac/Projects/mlir/cpp-to-ops-converter/script/..//ITK_POM2K/pom2k_fun.c":3366:74)
#loc159 = loc("/Users/mac/Projects/mlir/cpp-to-ops-converter/script/..//ITK_POM2K/pom2k_fun.c":3365:43)
#loc160 = loc("/Users/mac/Projects/mlir/cpp-to-ops-converter/script/..//ITK_POM2K/pom2k_fun.c":3363:18)
#loc161 = loc("/Users/mac/Projects/mlir/cpp-to-ops-converter/script/..//ITK_POM2K/pom2k_fun.c":3363:13)
#loc162 = loc("/Users/mac/Projects/mlir/cpp-to-ops-converter/script/..//ITK_POM2K/pom2k_fun.c":3362:30)
#loc163 = loc("/Users/mac/Projects/mlir/cpp-to-ops-converter/script/..//ITK_POM2K/pom2k_fun.c":3354:32)
#loc164 = loc("/Users/mac/Projects/mlir/cpp-to-ops-converter/script/..//ITK_POM2K/pom2k_fun.c":3353:30)
#loc165 = loc("/Users/mac/Projects/mlir/cpp-to-ops-converter/script/..//ITK_POM2K/pom2k_fun.c":3352:30)
#loc166 = loc("/Users/mac/Projects/mlir/cpp-to-ops-converter/script/..//ITK_POM2K/pom2k_fun.c":3372:23)
#loc167 = loc("/Users/mac/Projects/mlir/cpp-to-ops-converter/script/..//ITK_POM2K/pom2k_fun.c":3372:21)
#loc169 = loc("/Users/mac/Projects/mlir/cpp-to-ops-converter/script/..//ITK_POM2K/pom2k_fun.c":3373:25)
#loc170 = loc("/Users/mac/Projects/mlir/cpp-to-ops-converter/script/..//ITK_POM2K/pom2k_fun.c":3373:23)
#loc172 = loc("/Users/mac/Projects/mlir/cpp-to-ops-converter/script/..//ITK_POM2K/pom2k_fun.c":3374:26)
#loc173 = loc("/Users/mac/Projects/mlir/cpp-to-ops-converter/script/..//ITK_POM2K/pom2k_fun.c":3374:7)
#loc174 = loc("/Users/mac/Projects/mlir/cpp-to-ops-converter/script/..//ITK_POM2K/pom2k_fun.c":3374:28)
#loc175 = loc("/Users/mac/Projects/mlir/cpp-to-ops-converter/script/..//ITK_POM2K/pom2k_fun.c":3375:29)
#loc176 = loc("/Users/mac/Projects/mlir/cpp-to-ops-converter/script/..//ITK_POM2K/pom2k_fun.c":3375:7)
#loc177 = loc("/Users/mac/Projects/mlir/cpp-to-ops-converter/script/..//ITK_POM2K/pom2k_fun.c":3375:31)
#loc178 = loc("/Users/mac/Projects/mlir/cpp-to-ops-converter/script/..//ITK_POM2K/pom2k_fun.c":3373:32)
#loc179 = loc("/Users/mac/Projects/mlir/cpp-to-ops-converter/script/..//ITK_POM2K/pom2k_fun.c":3372:30)
#loc180 = loc("/Users/mac/Projects/mlir/cpp-to-ops-converter/script/..//ITK_POM2K/pom2k_fun.c":3379:23)
#loc181 = loc("/Users/mac/Projects/mlir/cpp-to-ops-converter/script/..//ITK_POM2K/pom2k_fun.c":3379:21)
#loc183 = loc("/Users/mac/Projects/mlir/cpp-to-ops-converter/script/..//ITK_POM2K/pom2k_fun.c":3380:25)
#loc184 = loc("/Users/mac/Projects/mlir/cpp-to-ops-converter/script/..//ITK_POM2K/pom2k_fun.c":3380:23)
#loc186 = loc("/Users/mac/Projects/mlir/cpp-to-ops-converter/script/..//ITK_POM2K/pom2k_fun.c":3382:26)
#loc187 = loc("/Users/mac/Projects/mlir/cpp-to-ops-converter/script/..//ITK_POM2K/pom2k_fun.c":3383:11)
#loc188 = loc("/Users/mac/Projects/mlir/cpp-to-ops-converter/script/..//ITK_POM2K/pom2k_fun.c":3383:30)
#loc189 = loc("/Users/mac/Projects/mlir/cpp-to-ops-converter/script/..//ITK_POM2K/pom2k_fun.c":3383:28)
#loc190 = loc("/Users/mac/Projects/mlir/cpp-to-ops-converter/script/..//ITK_POM2K/pom2k_fun.c":3383:63)
#loc191 = loc("/Users/mac/Projects/mlir/cpp-to-ops-converter/script/..//ITK_POM2K/pom2k_fun.c":3383:49)
#loc192 = loc("/Users/mac/Projects/mlir/cpp-to-ops-converter/script/..//ITK_POM2K/pom2k_fun.c":3383:47)
#loc193 = loc("/Users/mac/Projects/mlir/cpp-to-ops-converter/script/..//ITK_POM2K/pom2k_fun.c":3382:28)
#loc194 = loc("/Users/mac/Projects/mlir/cpp-to-ops-converter/script/..//ITK_POM2K/pom2k_fun.c":3380:32)
#loc195 = loc("/Users/mac/Projects/mlir/cpp-to-ops-converter/script/..//ITK_POM2K/pom2k_fun.c":3379:30)
#loc196 = loc("/Users/mac/Projects/mlir/cpp-to-ops-converter/script/..//ITK_POM2K/pom2k_fun.c":3388:23)
#loc197 = loc("/Users/mac/Projects/mlir/cpp-to-ops-converter/script/..//ITK_POM2K/pom2k_fun.c":3388:21)
#loc199 = loc("/Users/mac/Projects/mlir/cpp-to-ops-converter/script/..//ITK_POM2K/pom2k_fun.c":3395:44)
#loc200 = loc("/Users/mac/Projects/mlir/cpp-to-ops-converter/script/..//ITK_POM2K/pom2k_fun.c":3389:25)
#loc201 = loc("/Users/mac/Projects/mlir/cpp-to-ops-converter/script/..//ITK_POM2K/pom2k_fun.c":3389:23)
#loc203 = loc("/Users/mac/Projects/mlir/cpp-to-ops-converter/script/..//ITK_POM2K/pom2k_fun.c":3390:27)
#loc204 = loc("/Users/mac/Projects/mlir/cpp-to-ops-converter/script/..//ITK_POM2K/pom2k_fun.c":3390:25)
#loc206 = loc("/Users/mac/Projects/mlir/cpp-to-ops-converter/script/..//ITK_POM2K/pom2k_fun.c":3391:28)
#loc207 = loc("/Users/mac/Projects/mlir/cpp-to-ops-converter/script/..//ITK_POM2K/pom2k_fun.c":3392:22)
#loc208 = loc("/Users/mac/Projects/mlir/cpp-to-ops-converter/script/..//ITK_POM2K/pom2k_fun.c":3392:46)
#loc209 = loc("/Users/mac/Projects/mlir/cpp-to-ops-converter/script/..//ITK_POM2K/pom2k_fun.c":3392:44)
#loc210 = loc("/Users/mac/Projects/mlir/cpp-to-ops-converter/script/..//ITK_POM2K/pom2k_fun.c":3393:25)
#loc211 = loc("/Users/mac/Projects/mlir/cpp-to-ops-converter/script/..//ITK_POM2K/pom2k_fun.c":3392:75)
#loc212 = loc("/Users/mac/Projects/mlir/cpp-to-ops-converter/script/..//ITK_POM2K/pom2k_fun.c":3394:44)
#loc213 = loc("/Users/mac/Projects/mlir/cpp-to-ops-converter/script/..//ITK_POM2K/pom2k_fun.c":3395:48)
#loc214 = loc("/Users/mac/Projects/mlir/cpp-to-ops-converter/script/..//ITK_POM2K/pom2k_fun.c":3395:25)
#loc215 = loc("/Users/mac/Projects/mlir/cpp-to-ops-converter/script/..//ITK_POM2K/pom2k_fun.c":3394:75)
#loc216 = loc("/Users/mac/Projects/mlir/cpp-to-ops-converter/script/..//ITK_POM2K/pom2k_fun.c":3393:46)
#loc217 = loc("/Users/mac/Projects/mlir/cpp-to-ops-converter/script/..//ITK_POM2K/pom2k_fun.c":3392:18)
#loc218 = loc("/Users/mac/Projects/mlir/cpp-to-ops-converter/script/..//ITK_POM2K/pom2k_fun.c":3392:13)
#loc219 = loc("/Users/mac/Projects/mlir/cpp-to-ops-converter/script/..//ITK_POM2K/pom2k_fun.c":3391:30)
#loc220 = loc("/Users/mac/Projects/mlir/cpp-to-ops-converter/script/..//ITK_POM2K/pom2k_fun.c":3396:28)
#loc221 = loc("/Users/mac/Projects/mlir/cpp-to-ops-converter/script/..//ITK_POM2K/pom2k_fun.c":3396:47)
#loc222 = loc("/Users/mac/Projects/mlir/cpp-to-ops-converter/script/..//ITK_POM2K/pom2k_fun.c":3396:33)
#loc223 = loc("/Users/mac/Projects/mlir/cpp-to-ops-converter/script/..//ITK_POM2K/pom2k_fun.c":3396:9)
#loc224 = loc("/Users/mac/Projects/mlir/cpp-to-ops-converter/script/..//ITK_POM2K/pom2k_fun.c":3396:30)
#loc225 = loc("/Users/mac/Projects/mlir/cpp-to-ops-converter/script/..//ITK_POM2K/pom2k_fun.c":3390:34)
#loc226 = loc("/Users/mac/Projects/mlir/cpp-to-ops-converter/script/..//ITK_POM2K/pom2k_fun.c":3389:32)
#loc227 = loc("/Users/mac/Projects/mlir/cpp-to-ops-converter/script/..//ITK_POM2K/pom2k_fun.c":3388:30)
#loc228 = loc("/Users/mac/Projects/mlir/cpp-to-ops-converter/script/..//ITK_POM2K/pom2k_fun.c":3412:14)
#loc229 = loc("/Users/mac/Projects/mlir/cpp-to-ops-converter/script/..//ITK_POM2K/pom2k_fun.c":3402:23)
#loc230 = loc("/Users/mac/Projects/mlir/cpp-to-ops-converter/script/..//ITK_POM2K/pom2k_fun.c":3402:21)
#loc232 = loc("/Users/mac/Projects/mlir/cpp-to-ops-converter/script/..//ITK_POM2K/pom2k_fun.c":3408:56)
#loc233 = loc("/Users/mac/Projects/mlir/cpp-to-ops-converter/script/..//ITK_POM2K/pom2k_fun.c":3408:69)
#loc234 = loc("/Users/mac/Projects/mlir/cpp-to-ops-converter/script/..//ITK_POM2K/pom2k_fun.c":3408:65)
#loc235 = loc("/Users/mac/Projects/mlir/cpp-to-ops-converter/script/..//ITK_POM2K/pom2k_fun.c":3403:25)
#loc236 = loc("/Users/mac/Projects/mlir/cpp-to-ops-converter/script/..//ITK_POM2K/pom2k_fun.c":3403:23)
#loc238 = loc("/Users/mac/Projects/mlir/cpp-to-ops-converter/script/..//ITK_POM2K/pom2k_fun.c":3407:29)
#loc239 = loc("/Users/mac/Projects/mlir/cpp-to-ops-converter/script/..//ITK_POM2K/pom2k_fun.c":3404:27)
#loc240 = loc("/Users/mac/Projects/mlir/cpp-to-ops-converter/script/..//ITK_POM2K/pom2k_fun.c":3404:25)
#loc242 = loc("/Users/mac/Projects/mlir/cpp-to-ops-converter/script/..//ITK_POM2K/pom2k_fun.c":3405:25)
#loc243 = loc("/Users/mac/Projects/mlir/cpp-to-ops-converter/script/..//ITK_POM2K/pom2k_fun.c":3406:26)
#loc244 = loc("/Users/mac/Projects/mlir/cpp-to-ops-converter/script/..//ITK_POM2K/pom2k_fun.c":3406:36)
#loc245 = loc("/Users/mac/Projects/mlir/cpp-to-ops-converter/script/..//ITK_POM2K/pom2k_fun.c":3406:13)
#loc246 = loc("/Users/mac/Projects/mlir/cpp-to-ops-converter/script/..//ITK_POM2K/pom2k_fun.c":3406:40)
#loc247 = loc("/Users/mac/Projects/mlir/cpp-to-ops-converter/script/..//ITK_POM2K/pom2k_fun.c":3406:38)
#loc248 = loc("/Users/mac/Projects/mlir/cpp-to-ops-converter/script/..//ITK_POM2K/pom2k_fun.c":3407:36)
#loc249 = loc("/Users/mac/Projects/mlir/cpp-to-ops-converter/script/..//ITK_POM2K/pom2k_fun.c":3407:13)
#loc250 = loc("/Users/mac/Projects/mlir/cpp-to-ops-converter/script/..//ITK_POM2K/pom2k_fun.c":3406:61)
#loc251 = loc("/Users/mac/Projects/mlir/cpp-to-ops-converter/script/..//ITK_POM2K/pom2k_fun.c":3407:40)
#loc252 = loc("/Users/mac/Projects/mlir/cpp-to-ops-converter/script/..//ITK_POM2K/pom2k_fun.c":3407:38)
#loc253 = loc("/Users/mac/Projects/mlir/cpp-to-ops-converter/script/..//ITK_POM2K/pom2k_fun.c":3408:14)
#loc254 = loc("/Users/mac/Projects/mlir/cpp-to-ops-converter/script/..//ITK_POM2K/pom2k_fun.c":3408:60)
#loc255 = loc("/Users/mac/Projects/mlir/cpp-to-ops-converter/script/..//ITK_POM2K/pom2k_fun.c":3408:37)
#loc256 = loc("/Users/mac/Projects/mlir/cpp-to-ops-converter/script/..//ITK_POM2K/pom2k_fun.c":3408:35)
#loc257 = loc("/Users/mac/Projects/mlir/cpp-to-ops-converter/script/..//ITK_POM2K/pom2k_fun.c":3408:63)
#loc258 = loc("/Users/mac/Projects/mlir/cpp-to-ops-converter/script/..//ITK_POM2K/pom2k_fun.c":3407:61)
#loc259 = loc("/Users/mac/Projects/mlir/cpp-to-ops-converter/script/..//ITK_POM2K/pom2k_fun.c":3405:27)
#loc260 = loc("/Users/mac/Projects/mlir/cpp-to-ops-converter/script/..//ITK_POM2K/pom2k_fun.c":3409:25)
#loc261 = loc("/Users/mac/Projects/mlir/cpp-to-ops-converter/script/..//ITK_POM2K/pom2k_fun.c":3410:14)
#loc262 = loc("/Users/mac/Projects/mlir/cpp-to-ops-converter/script/..//ITK_POM2K/pom2k_fun.c":3410:50)
#loc263 = loc("/Users/mac/Projects/mlir/cpp-to-ops-converter/script/..//ITK_POM2K/pom2k_fun.c":3410:38)
#loc264 = loc("/Users/mac/Projects/mlir/cpp-to-ops-converter/script/..//ITK_POM2K/pom2k_fun.c":3410:54)
#loc265 = loc("/Users/mac/Projects/mlir/cpp-to-ops-converter/script/..//ITK_POM2K/pom2k_fun.c":3410:52)
#loc266 = loc("/Users/mac/Projects/mlir/cpp-to-ops-converter/script/..//ITK_POM2K/pom2k_fun.c":3410:35)
#loc267 = loc("/Users/mac/Projects/mlir/cpp-to-ops-converter/script/..//ITK_POM2K/pom2k_fun.c":3411:18)
#loc268 = loc("/Users/mac/Projects/mlir/cpp-to-ops-converter/script/..//ITK_POM2K/pom2k_fun.c":3410:71)
#loc269 = loc("/Users/mac/Projects/mlir/cpp-to-ops-converter/script/..//ITK_POM2K/pom2k_fun.c":3412:21)
#loc270 = loc("/Users/mac/Projects/mlir/cpp-to-ops-converter/script/..//ITK_POM2K/pom2k_fun.c":3412:19)
#loc271 = loc("/Users/mac/Projects/mlir/cpp-to-ops-converter/script/..//ITK_POM2K/pom2k_fun.c":3411:34)
#loc272 = loc("/Users/mac/Projects/mlir/cpp-to-ops-converter/script/..//ITK_POM2K/pom2k_fun.c":3413:31)
#loc273 = loc("/Users/mac/Projects/mlir/cpp-to-ops-converter/script/..//ITK_POM2K/pom2k_fun.c":3413:29)
#loc274 = loc("/Users/mac/Projects/mlir/cpp-to-ops-converter/script/..//ITK_POM2K/pom2k_fun.c":3413:48)
#loc275 = loc("/Users/mac/Projects/mlir/cpp-to-ops-converter/script/..//ITK_POM2K/pom2k_fun.c":3412:40)
#loc276 = loc("/Users/mac/Projects/mlir/cpp-to-ops-converter/script/..//ITK_POM2K/pom2k_fun.c":3409:27)
#loc277 = loc("/Users/mac/Projects/mlir/cpp-to-ops-converter/script/..//ITK_POM2K/pom2k_fun.c":3419:3)
#loc278 = loc("/Users/mac/Projects/mlir/cpp-to-ops-converter/script/..//ITK_POM2K/pom2k_fun.c":3421:23)
#loc279 = loc("/Users/mac/Projects/mlir/cpp-to-ops-converter/script/..//ITK_POM2K/pom2k_fun.c":3421:21)
#loc281 = loc("/Users/mac/Projects/mlir/cpp-to-ops-converter/script/..//ITK_POM2K/pom2k_fun.c":3422:25)
#loc282 = loc("/Users/mac/Projects/mlir/cpp-to-ops-converter/script/..//ITK_POM2K/pom2k_fun.c":3422:23)
#loc284 = loc("/Users/mac/Projects/mlir/cpp-to-ops-converter/script/..//ITK_POM2K/pom2k_fun.c":3423:21)
#loc285 = loc("/Users/mac/Projects/mlir/cpp-to-ops-converter/script/..//ITK_POM2K/pom2k_fun.c":3423:25)
#loc286 = loc("/Users/mac/Projects/mlir/cpp-to-ops-converter/script/..//ITK_POM2K/pom2k_fun.c":3423:23)
#loc287 = loc("/Users/mac/Projects/mlir/cpp-to-ops-converter/script/..//ITK_POM2K/pom2k_fun.c":3422:30)
#loc288 = loc("/Users/mac/Projects/mlir/cpp-to-ops-converter/script/..//ITK_POM2K/pom2k_fun.c":3421:28)
#loc289 = loc("/Users/mac/Projects/mlir/cpp-to-ops-converter/script/..//ITK_POM2K/pom2k_fun.c":3427:23)
#loc290 = loc("/Users/mac/Projects/mlir/cpp-to-ops-converter/script/..//ITK_POM2K/pom2k_fun.c":3427:21)
#loc292 = loc("/Users/mac/Projects/mlir/cpp-to-ops-converter/script/..//ITK_POM2K/pom2k_fun.c":3428:25)
#loc293 = loc("/Users/mac/Projects/mlir/cpp-to-ops-converter/script/..//ITK_POM2K/pom2k_fun.c":3428:23)
#loc295 = loc("/Users/mac/Projects/mlir/cpp-to-ops-converter/script/..//ITK_POM2K/pom2k_fun.c":3429:27)
#loc296 = loc("/Users/mac/Projects/mlir/cpp-to-ops-converter/script/..//ITK_POM2K/pom2k_fun.c":3429:25)
#loc298 = loc("/Users/mac/Projects/mlir/cpp-to-ops-converter/script/..//ITK_POM2K/pom2k_fun.c":3430:28)
#loc299 = loc("/Users/mac/Projects/mlir/cpp-to-ops-converter/script/..//ITK_POM2K/pom2k_fun.c":3430:32)
#loc300 = loc("/Users/mac/Projects/mlir/cpp-to-ops-converter/script/..//ITK_POM2K/pom2k_fun.c":3430:30)
#loc301 = loc("/Users/mac/Projects/mlir/cpp-to-ops-converter/script/..//ITK_POM2K/pom2k_fun.c":3429:32)
#loc302 = loc("/Users/mac/Projects/mlir/cpp-to-ops-converter/script/..//ITK_POM2K/pom2k_fun.c":3428:30)
#loc303 = loc("/Users/mac/Projects/mlir/cpp-to-ops-converter/script/..//ITK_POM2K/pom2k_fun.c":3427:28)
#loc304 = loc("/Users/mac/Projects/mlir/cpp-to-ops-converter/script/..//ITK_POM2K/pom2k_fun.c":3441:23)
#loc305 = loc("/Users/mac/Projects/mlir/cpp-to-ops-converter/script/..//ITK_POM2K/pom2k_fun.c":3441:21)
#loc307 = loc("/Users/mac/Projects/mlir/cpp-to-ops-converter/script/..//ITK_POM2K/pom2k_fun.c":3442:25)
#loc308 = loc("/Users/mac/Projects/mlir/cpp-to-ops-converter/script/..//ITK_POM2K/pom2k_fun.c":3442:23)
#loc310 = loc("/Users/mac/Projects/mlir/cpp-to-ops-converter/script/..//ITK_POM2K/pom2k_fun.c":3443:27)
#loc311 = loc("/Users/mac/Projects/mlir/cpp-to-ops-converter/script/..//ITK_POM2K/pom2k_fun.c":3443:25)
#loc313 = loc("/Users/mac/Projects/mlir/cpp-to-ops-converter/script/..//ITK_POM2K/pom2k_fun.c":3444:25)
#loc314 = loc("/Users/mac/Projects/mlir/cpp-to-ops-converter/script/..//ITK_POM2K/pom2k_fun.c":3444:30)
#loc315 = loc("/Users/mac/Projects/mlir/cpp-to-ops-converter/script/..//ITK_POM2K/pom2k_fun.c":3444:27)
#loc316 = loc("/Users/mac/Projects/mlir/cpp-to-ops-converter/script/..//ITK_POM2K/pom2k_fun.c":3443:32)
#loc317 = loc("/Users/mac/Projects/mlir/cpp-to-ops-converter/script/..//ITK_POM2K/pom2k_fun.c":3442:30)
#loc318 = loc("/Users/mac/Projects/mlir/cpp-to-ops-converter/script/..//ITK_POM2K/pom2k_fun.c":3441:28)
#loc319 = loc("/Users/mac/Projects/mlir/cpp-to-ops-converter/script/..//ITK_POM2K/pom2k_fun.c":3449:23)
#loc320 = loc("/Users/mac/Projects/mlir/cpp-to-ops-converter/script/..//ITK_POM2K/pom2k_fun.c":3449:21)
#loc322 = loc("/Users/mac/Projects/mlir/cpp-to-ops-converter/script/..//ITK_POM2K/pom2k_fun.c":3450:25)
#loc323 = loc("/Users/mac/Projects/mlir/cpp-to-ops-converter/script/..//ITK_POM2K/pom2k_fun.c":3450:23)
#loc325 = loc("/Users/mac/Projects/mlir/cpp-to-ops-converter/script/..//ITK_POM2K/pom2k_fun.c":3455:56)
#loc326 = loc("/Users/mac/Projects/mlir/cpp-to-ops-converter/script/..//ITK_POM2K/pom2k_fun.c":3451:27)
#loc327 = loc("/Users/mac/Projects/mlir/cpp-to-ops-converter/script/..//ITK_POM2K/pom2k_fun.c":3451:25)
#loc329 = loc("/Users/mac/Projects/mlir/cpp-to-ops-converter/script/..//ITK_POM2K/pom2k_fun.c":3452:32)
#loc330 = loc("/Users/mac/Projects/mlir/cpp-to-ops-converter/script/..//ITK_POM2K/pom2k_fun.c":3453:21)
#loc331 = loc("/Users/mac/Projects/mlir/cpp-to-ops-converter/script/..//ITK_POM2K/pom2k_fun.c":3453:53)
#loc332 = loc("/Users/mac/Projects/mlir/cpp-to-ops-converter/script/..//ITK_POM2K/pom2k_fun.c":3453:63)
#loc333 = loc("/Users/mac/Projects/mlir/cpp-to-ops-converter/script/..//ITK_POM2K/pom2k_fun.c":3453:42)
#loc334 = loc("/Users/mac/Projects/mlir/cpp-to-ops-converter/script/..//ITK_POM2K/pom2k_fun.c":3453:40)
#loc335 = loc("/Users/mac/Projects/mlir/cpp-to-ops-converter/script/..//ITK_POM2K/pom2k_fun.c":3453:18)
#loc336 = loc("/Users/mac/Projects/mlir/cpp-to-ops-converter/script/..//ITK_POM2K/pom2k_fun.c":3452:34)
#loc337 = loc("/Users/mac/Projects/mlir/cpp-to-ops-converter/script/..//ITK_POM2K/pom2k_fun.c":3454:32)
#loc338 = loc("/Users/mac/Projects/mlir/cpp-to-ops-converter/script/..//ITK_POM2K/pom2k_fun.c":3455:21)
#loc339 = loc("/Users/mac/Projects/mlir/cpp-to-ops-converter/script/..//ITK_POM2K/pom2k_fun.c":3455:63)
#loc340 = loc("/Users/mac/Projects/mlir/cpp-to-ops-converter/script/..//ITK_POM2K/pom2k_fun.c":3455:42)
#loc341 = loc("/Users/mac/Projects/mlir/cpp-to-ops-converter/script/..//ITK_POM2K/pom2k_fun.c":3455:40)
#loc342 = loc("/Users/mac/Projects/mlir/cpp-to-ops-converter/script/..//ITK_POM2K/pom2k_fun.c":3455:18)
#loc343 = loc("/Users/mac/Projects/mlir/cpp-to-ops-converter/script/..//ITK_POM2K/pom2k_fun.c":3454:34)
#loc344 = loc("/Users/mac/Projects/mlir/cpp-to-ops-converter/script/..//ITK_POM2K/pom2k_fun.c":3451:32)
#loc345 = loc("/Users/mac/Projects/mlir/cpp-to-ops-converter/script/..//ITK_POM2K/pom2k_fun.c":3450:30)
#loc346 = loc("/Users/mac/Projects/mlir/cpp-to-ops-converter/script/..//ITK_POM2K/pom2k_fun.c":3449:30)
#loc347 = loc("/Users/mac/Projects/mlir/cpp-to-ops-converter/script/..//ITK_POM2K/pom2k_fun.c":3465:13)
#loc348 = loc("/Users/mac/Projects/mlir/cpp-to-ops-converter/script/..//ITK_POM2K/pom2k_fun.c":3460:23)
#loc349 = loc("/Users/mac/Projects/mlir/cpp-to-ops-converter/script/..//ITK_POM2K/pom2k_fun.c":3460:21)
#loc351 = loc("/Users/mac/Projects/mlir/cpp-to-ops-converter/script/..//ITK_POM2K/pom2k_fun.c":3461:25)
#loc352 = loc("/Users/mac/Projects/mlir/cpp-to-ops-converter/script/..//ITK_POM2K/pom2k_fun.c":3461:23)
#loc354 = loc("/Users/mac/Projects/mlir/cpp-to-ops-converter/script/..//ITK_POM2K/pom2k_fun.c":3469:70)
#loc355 = loc("/Users/mac/Projects/mlir/cpp-to-ops-converter/script/..//ITK_POM2K/pom2k_fun.c":3462:27)
#loc356 = loc("/Users/mac/Projects/mlir/cpp-to-ops-converter/script/..//ITK_POM2K/pom2k_fun.c":3462:25)
#loc358 = loc("/Users/mac/Projects/mlir/cpp-to-ops-converter/script/..//ITK_POM2K/pom2k_fun.c":3463:28)
#loc359 = loc("/Users/mac/Projects/mlir/cpp-to-ops-converter/script/..//ITK_POM2K/pom2k_fun.c":3464:14)
#loc360 = loc("/Users/mac/Projects/mlir/cpp-to-ops-converter/script/..//ITK_POM2K/pom2k_fun.c":3464:13)
#loc361 = loc("/Users/mac/Projects/mlir/cpp-to-ops-converter/script/..//ITK_POM2K/pom2k_fun.c":3464:54)
#loc362 = loc("/Users/mac/Projects/mlir/cpp-to-ops-converter/script/..//ITK_POM2K/pom2k_fun.c":3464:42)
#loc363 = loc("/Users/mac/Projects/mlir/cpp-to-ops-converter/script/..//ITK_POM2K/pom2k_fun.c":3464:67)
#loc364 = loc("/Users/mac/Projects/mlir/cpp-to-ops-converter/script/..//ITK_POM2K/pom2k_fun.c":3464:74)
#loc365 = loc("/Users/mac/Projects/mlir/cpp-to-ops-converter/script/..//ITK_POM2K/pom2k_fun.c":3464:58)
#loc366 = loc("/Users/mac/Projects/mlir/cpp-to-ops-converter/script/..//ITK_POM2K/pom2k_fun.c":3464:56)
#loc367 = loc("/Users/mac/Projects/mlir/cpp-to-ops-converter/script/..//ITK_POM2K/pom2k_fun.c":3464:39)
#loc368 = loc("/Users/mac/Projects/mlir/cpp-to-ops-converter/script/..//ITK_POM2K/pom2k_fun.c":3464:77)
#loc369 = loc("/Users/mac/Projects/mlir/cpp-to-ops-converter/script/..//ITK_POM2K/pom2k_fun.c":3465:22)
#loc370 = loc("/Users/mac/Projects/mlir/cpp-to-ops-converter/script/..//ITK_POM2K/pom2k_fun.c":3465:62)
#loc371 = loc("/Users/mac/Projects/mlir/cpp-to-ops-converter/script/..//ITK_POM2K/pom2k_fun.c":3465:42)
#loc372 = loc("/Users/mac/Projects/mlir/cpp-to-ops-converter/script/..//ITK_POM2K/pom2k_fun.c":3465:40)
#loc373 = loc("/Users/mac/Projects/mlir/cpp-to-ops-converter/script/..//ITK_POM2K/pom2k_fun.c":3465:19)
#loc374 = loc("/Users/mac/Projects/mlir/cpp-to-ops-converter/script/..//ITK_POM2K/pom2k_fun.c":3466:13)
#loc375 = loc("/Users/mac/Projects/mlir/cpp-to-ops-converter/script/..//ITK_POM2K/pom2k_fun.c":3465:65)
#loc376 = loc("/Users/mac/Projects/mlir/cpp-to-ops-converter/script/..//ITK_POM2K/pom2k_fun.c":3466:32)
#loc377 = loc("/Users/mac/Projects/mlir/cpp-to-ops-converter/script/..//ITK_POM2K/pom2k_fun.c":3466:49)
#loc378 = loc("/Users/mac/Projects/mlir/cpp-to-ops-converter/script/..//ITK_POM2K/pom2k_fun.c":3466:47)
#loc379 = loc("/Users/mac/Projects/mlir/cpp-to-ops-converter/script/..//ITK_POM2K/pom2k_fun.c":3466:29)
#loc380 = loc("/Users/mac/Projects/mlir/cpp-to-ops-converter/script/..//ITK_POM2K/pom2k_fun.c":3466:69)
#loc381 = loc("/Users/mac/Projects/mlir/cpp-to-ops-converter/script/..//ITK_POM2K/pom2k_fun.c":3467:14)
#loc382 = loc("/Users/mac/Projects/mlir/cpp-to-ops-converter/script/..//ITK_POM2K/pom2k_fun.c":3467:31)
#loc383 = loc("/Users/mac/Projects/mlir/cpp-to-ops-converter/script/..//ITK_POM2K/pom2k_fun.c":3467:29)
#loc384 = loc("/Users/mac/Projects/mlir/cpp-to-ops-converter/script/..//ITK_POM2K/pom2k_fun.c":3466:76)
#loc385 = loc("/Users/mac/Projects/mlir/cpp-to-ops-converter/script/..//ITK_POM2K/pom2k_fun.c":3463:30)
#loc386 = loc("/Users/mac/Projects/mlir/cpp-to-ops-converter/script/..//ITK_POM2K/pom2k_fun.c":3468:28)
#loc387 = loc("/Users/mac/Projects/mlir/cpp-to-ops-converter/script/..//ITK_POM2K/pom2k_fun.c":3469:14)
#loc388 = loc("/Users/mac/Projects/mlir/cpp-to-ops-converter/script/..//ITK_POM2K/pom2k_fun.c":3469:13)
#loc389 = loc("/Users/mac/Projects/mlir/cpp-to-ops-converter/script/..//ITK_POM2K/pom2k_fun.c":3469:54)
#loc390 = loc("/Users/mac/Projects/mlir/cpp-to-ops-converter/script/..//ITK_POM2K/pom2k_fun.c":3469:42)
#loc391 = loc("/Users/mac/Projects/mlir/cpp-to-ops-converter/script/..//ITK_POM2K/pom2k_fun.c":3469:74)
#loc392 = loc("/Users/mac/Projects/mlir/cpp-to-ops-converter/script/..//ITK_POM2K/pom2k_fun.c":3469:58)
#loc393 = loc("/Users/mac/Projects/mlir/cpp-to-ops-converter/script/..//ITK_POM2K/pom2k_fun.c":3469:56)
#loc394 = loc("/Users/mac/Projects/mlir/cpp-to-ops-converter/script/..//ITK_POM2K/pom2k_fun.c":3469:39)
#loc395 = loc("/Users/mac/Projects/mlir/cpp-to-ops-converter/script/..//ITK_POM2K/pom2k_fun.c":3470:13)
#loc396 = loc("/Users/mac/Projects/mlir/cpp-to-ops-converter/script/..//ITK_POM2K/pom2k_fun.c":3469:77)
#loc397 = loc("/Users/mac/Projects/mlir/cpp-to-ops-converter/script/..//ITK_POM2K/pom2k_fun.c":3470:22)
#loc398 = loc("/Users/mac/Projects/mlir/cpp-to-ops-converter/script/..//ITK_POM2K/pom2k_fun.c":3470:62)
#loc399 = loc("/Users/mac/Projects/mlir/cpp-to-ops-converter/script/..//ITK_POM2K/pom2k_fun.c":3470:42)
#loc400 = loc("/Users/mac/Projects/mlir/cpp-to-ops-converter/script/..//ITK_POM2K/pom2k_fun.c":3470:40)
#loc401 = loc("/Users/mac/Projects/mlir/cpp-to-ops-converter/script/..//ITK_POM2K/pom2k_fun.c":3470:19)
#loc402 = loc("/Users/mac/Projects/mlir/cpp-to-ops-converter/script/..//ITK_POM2K/pom2k_fun.c":3471:13)
#loc403 = loc("/Users/mac/Projects/mlir/cpp-to-ops-converter/script/..//ITK_POM2K/pom2k_fun.c":3470:65)
#loc404 = loc("/Users/mac/Projects/mlir/cpp-to-ops-converter/script/..//ITK_POM2K/pom2k_fun.c":3471:32)
#loc405 = loc("/Users/mac/Projects/mlir/cpp-to-ops-converter/script/..//ITK_POM2K/pom2k_fun.c":3471:49)
#loc406 = loc("/Users/mac/Projects/mlir/cpp-to-ops-converter/script/..//ITK_POM2K/pom2k_fun.c":3471:47)
#loc407 = loc("/Users/mac/Projects/mlir/cpp-to-ops-converter/script/..//ITK_POM2K/pom2k_fun.c":3471:29)
#loc408 = loc("/Users/mac/Projects/mlir/cpp-to-ops-converter/script/..//ITK_POM2K/pom2k_fun.c":3471:69)
#loc409 = loc("/Users/mac/Projects/mlir/cpp-to-ops-converter/script/..//ITK_POM2K/pom2k_fun.c":3472:14)
#loc410 = loc("/Users/mac/Projects/mlir/cpp-to-ops-converter/script/..//ITK_POM2K/pom2k_fun.c":3472:31)
#loc411 = loc("/Users/mac/Projects/mlir/cpp-to-ops-converter/script/..//ITK_POM2K/pom2k_fun.c":3472:29)
#loc412 = loc("/Users/mac/Projects/mlir/cpp-to-ops-converter/script/..//ITK_POM2K/pom2k_fun.c":3471:76)
#loc413 = loc("/Users/mac/Projects/mlir/cpp-to-ops-converter/script/..//ITK_POM2K/pom2k_fun.c":3468:30)
#loc414 = loc("/Users/mac/Projects/mlir/cpp-to-ops-converter/script/..//ITK_POM2K/pom2k_fun.c":3462:32)
#loc415 = loc("/Users/mac/Projects/mlir/cpp-to-ops-converter/script/..//ITK_POM2K/pom2k_fun.c":3461:30)
#loc416 = loc("/Users/mac/Projects/mlir/cpp-to-ops-converter/script/..//ITK_POM2K/pom2k_fun.c":3460:30)
#loc417 = loc("/Users/mac/Projects/mlir/cpp-to-ops-converter/script/..//ITK_POM2K/pom2k_fun.c":3477:23)
#loc418 = loc("/Users/mac/Projects/mlir/cpp-to-ops-converter/script/..//ITK_POM2K/pom2k_fun.c":3477:21)
#loc420 = loc("/Users/mac/Projects/mlir/cpp-to-ops-converter/script/..//ITK_POM2K/pom2k_fun.c":3478:25)
#loc421 = loc("/Users/mac/Projects/mlir/cpp-to-ops-converter/script/..//ITK_POM2K/pom2k_fun.c":3478:23)
#loc423 = loc("/Users/mac/Projects/mlir/cpp-to-ops-converter/script/..//ITK_POM2K/pom2k_fun.c":3479:27)
#loc424 = loc("/Users/mac/Projects/mlir/cpp-to-ops-converter/script/..//ITK_POM2K/pom2k_fun.c":3479:25)
#loc426 = loc("/Users/mac/Projects/mlir/cpp-to-ops-converter/script/..//ITK_POM2K/pom2k_fun.c":3480:25)
#loc427 = loc("/Users/mac/Projects/mlir/cpp-to-ops-converter/script/..//ITK_POM2K/pom2k_fun.c":3480:30)
#loc428 = loc("/Users/mac/Projects/mlir/cpp-to-ops-converter/script/..//ITK_POM2K/pom2k_fun.c":3480:27)
#loc429 = loc("/Users/mac/Projects/mlir/cpp-to-ops-converter/script/..//ITK_POM2K/pom2k_fun.c":3479:32)
#loc430 = loc("/Users/mac/Projects/mlir/cpp-to-ops-converter/script/..//ITK_POM2K/pom2k_fun.c":3478:30)
#loc431 = loc("/Users/mac/Projects/mlir/cpp-to-ops-converter/script/..//ITK_POM2K/pom2k_fun.c":3477:28)
#loc432 = loc("/Users/mac/Projects/mlir/cpp-to-ops-converter/script/..//ITK_POM2K/pom2k_fun.c":3486:23)
#loc433 = loc("/Users/mac/Projects/mlir/cpp-to-ops-converter/script/..//ITK_POM2K/pom2k_fun.c":3486:21)
#loc435 = loc("/Users/mac/Projects/mlir/cpp-to-ops-converter/script/..//ITK_POM2K/pom2k_fun.c":3487:25)
#loc436 = loc("/Users/mac/Projects/mlir/cpp-to-ops-converter/script/..//ITK_POM2K/pom2k_fun.c":3487:23)
#loc438 = loc("/Users/mac/Projects/mlir/cpp-to-ops-converter/script/..//ITK_POM2K/pom2k_fun.c":3493:34)
#loc439 = loc("/Users/mac/Projects/mlir/cpp-to-ops-converter/script/..//ITK_POM2K/pom2k_fun.c":3488:27)
#loc440 = loc("/Users/mac/Projects/mlir/cpp-to-ops-converter/script/..//ITK_POM2K/pom2k_fun.c":3488:25)
#loc442 = loc("/Users/mac/Projects/mlir/cpp-to-ops-converter/script/..//ITK_POM2K/pom2k_fun.c":3489:25)
#loc443 = loc("/Users/mac/Projects/mlir/cpp-to-ops-converter/script/..//ITK_POM2K/pom2k_fun.c":3489:9)
#loc444 = loc("/Users/mac/Projects/mlir/cpp-to-ops-converter/script/..//ITK_POM2K/pom2k_fun.c":3490:13)
#loc445 = loc("/Users/mac/Projects/mlir/cpp-to-ops-converter/script/..//ITK_POM2K/pom2k_fun.c":3491:13)
#loc446 = loc("/Users/mac/Projects/mlir/cpp-to-ops-converter/script/..//ITK_POM2K/pom2k_fun.c":3492:31)
#loc447 = loc("/Users/mac/Projects/mlir/cpp-to-ops-converter/script/..//ITK_POM2K/pom2k_fun.c":3492:41)
#loc448 = loc("/Users/mac/Projects/mlir/cpp-to-ops-converter/script/..//ITK_POM2K/pom2k_fun.c":3492:18)
#loc449 = loc("/Users/mac/Projects/mlir/cpp-to-ops-converter/script/..//ITK_POM2K/pom2k_fun.c":3492:45)
#loc450 = loc("/Users/mac/Projects/mlir/cpp-to-ops-converter/script/..//ITK_POM2K/pom2k_fun.c":3492:43)
#loc451 = loc("/Users/mac/Projects/mlir/cpp-to-ops-converter/script/..//ITK_POM2K/pom2k_fun.c":3493:41)
#loc452 = loc("/Users/mac/Projects/mlir/cpp-to-ops-converter/script/..//ITK_POM2K/pom2k_fun.c":3493:18)
#loc453 = loc("/Users/mac/Projects/mlir/cpp-to-ops-converter/script/..//ITK_POM2K/pom2k_fun.c":3492:66)
#loc454 = loc("/Users/mac/Projects/mlir/cpp-to-ops-converter/script/..//ITK_POM2K/pom2k_fun.c":3493:45)
#loc455 = loc("/Users/mac/Projects/mlir/cpp-to-ops-converter/script/..//ITK_POM2K/pom2k_fun.c":3493:43)
#loc456 = loc("/Users/mac/Projects/mlir/cpp-to-ops-converter/script/..//ITK_POM2K/pom2k_fun.c":3491:18)
#loc457 = loc("/Users/mac/Projects/mlir/cpp-to-ops-converter/script/..//ITK_POM2K/pom2k_fun.c":3494:31)
#loc458 = loc("/Users/mac/Projects/mlir/cpp-to-ops-converter/script/..//ITK_POM2K/pom2k_fun.c":3494:19)
#loc459 = loc("/Users/mac/Projects/mlir/cpp-to-ops-converter/script/..//ITK_POM2K/pom2k_fun.c":3494:35)
#loc460 = loc("/Users/mac/Projects/mlir/cpp-to-ops-converter/script/..//ITK_POM2K/pom2k_fun.c":3494:33)
#loc461 = loc("/Users/mac/Projects/mlir/cpp-to-ops-converter/script/..//ITK_POM2K/pom2k_fun.c":3494:54)
#loc462 = loc("/Users/mac/Projects/mlir/cpp-to-ops-converter/script/..//ITK_POM2K/pom2k_fun.c":3494:52)
#loc463 = loc("/Users/mac/Projects/mlir/cpp-to-ops-converter/script/..//ITK_POM2K/pom2k_fun.c":3493:67)
#loc464 = loc("/Users/mac/Projects/mlir/cpp-to-ops-converter/script/..//ITK_POM2K/pom2k_fun.c":3490:31)
#loc465 = loc("/Users/mac/Projects/mlir/cpp-to-ops-converter/script/..//ITK_POM2K/pom2k_fun.c":3489:27)
#loc466 = loc("/Users/mac/Projects/mlir/cpp-to-ops-converter/script/..//ITK_POM2K/pom2k_fun.c":3486:30)
#loc467 = loc("/Users/mac/Projects/mlir/cpp-to-ops-converter/script/..//ITK_POM2K/pom2k_fun.c":3498:1)
#loc469 = loc("/Users/mac/Projects/mlir/cpp-to-ops-converter/script/..//ITK_POM2K/pom2k_fun.c":3107:32)
#loc470 = loc("/Users/mac/Projects/mlir/cpp-to-ops-converter/script/..//ITK_POM2K/pom2k_fun.c":3100:1)
#loc471 = loc("/Users/mac/Projects/mlir/cpp-to-ops-converter/script/..//ITK_POM2K/pom2k_fun.c":3126:18)
#loc472 = loc("/Users/mac/Projects/mlir/cpp-to-ops-converter/script/..//ITK_POM2K/pom2k_fun.c":3122:38)
#loc473 = loc("/Users/mac/Projects/mlir/cpp-to-ops-converter/script/..//ITK_POM2K/pom2k_fun.c":3105:16)
#loc475 = loc("/Users/mac/Projects/mlir/cpp-to-ops-converter/script/..//ITK_POM2K/pom2k_fun.c":3105:23)
#loc476 = loc("/Users/mac/Projects/mlir/cpp-to-ops-converter/script/..//ITK_POM2K/pom2k_fun.c":3106:25)
#loc477 = loc("/Users/mac/Projects/mlir/cpp-to-ops-converter/script/..//ITK_POM2K/pom2k_fun.c":3107:27)
#loc478 = loc("/Users/mac/Projects/mlir/cpp-to-ops-converter/script/..//ITK_POM2K/pom2k_fun.c":3105:21)
#loc480 = loc("/Users/mac/Projects/mlir/cpp-to-ops-converter/script/..//ITK_POM2K/pom2k_fun.c":3106:23)
#loc482 = loc("/Users/mac/Projects/mlir/cpp-to-ops-converter/script/..//ITK_POM2K/pom2k_fun.c":3107:25)
#loc484 = loc("/Users/mac/Projects/mlir/cpp-to-ops-converter/script/..//ITK_POM2K/pom2k_fun.c":3108:25)
#loc485 = loc("/Users/mac/Projects/mlir/cpp-to-ops-converter/script/..//ITK_POM2K/pom2k_fun.c":3108:44)
#loc486 = loc("/Users/mac/Projects/mlir/cpp-to-ops-converter/script/..//ITK_POM2K/pom2k_fun.c":3108:30)
#loc487 = loc("/Users/mac/Projects/mlir/cpp-to-ops-converter/script/..//ITK_POM2K/pom2k_fun.c":3108:9)
#loc488 = loc("/Users/mac/Projects/mlir/cpp-to-ops-converter/script/..//ITK_POM2K/pom2k_fun.c":3108:27)
#loc489 = loc("/Users/mac/Projects/mlir/cpp-to-ops-converter/script/..//ITK_POM2K/pom2k_fun.c":3106:30)
#loc490 = loc("/Users/mac/Projects/mlir/cpp-to-ops-converter/script/..//ITK_POM2K/pom2k_fun.c":3105:28)
#loc491 = loc("/Users/mac/Projects/mlir/cpp-to-ops-converter/script/..//ITK_POM2K/pom2k_fun.c":3114:23)
#loc492 = loc("/Users/mac/Projects/mlir/cpp-to-ops-converter/script/..//ITK_POM2K/pom2k_fun.c":3115:25)
#loc493 = loc("/Users/mac/Projects/mlir/cpp-to-ops-converter/script/..//ITK_POM2K/pom2k_fun.c":3120:34)
#loc494 = loc("/Users/mac/Projects/mlir/cpp-to-ops-converter/script/..//ITK_POM2K/pom2k_fun.c":3114:21)
#loc496 = loc("/Users/mac/Projects/mlir/cpp-to-ops-converter/script/..//ITK_POM2K/pom2k_fun.c":3115:23)
#loc498 = loc("/Users/mac/Projects/mlir/cpp-to-ops-converter/script/..//ITK_POM2K/pom2k_fun.c":3116:27)
#loc499 = loc("/Users/mac/Projects/mlir/cpp-to-ops-converter/script/..//ITK_POM2K/pom2k_fun.c":3116:25)
#loc501 = loc("/Users/mac/Projects/mlir/cpp-to-ops-converter/script/..//ITK_POM2K/pom2k_fun.c":3120:30)
#loc502 = loc("/Users/mac/Projects/mlir/cpp-to-ops-converter/script/..//ITK_POM2K/pom2k_fun.c":3120:14)
#loc503 = loc("/Users/mac/Projects/mlir/cpp-to-ops-converter/script/..//ITK_POM2K/pom2k_fun.c":3120:32)
#loc504 = loc("/Users/mac/Projects/mlir/cpp-to-ops-converter/script/..//ITK_POM2K/pom2k_fun.c":3120:45)
#loc505 = loc("/Users/mac/Projects/mlir/cpp-to-ops-converter/script/..//ITK_POM2K/pom2k_fun.c":3121:24)
#loc506 = loc("/Users/mac/Projects/mlir/cpp-to-ops-converter/script/..//ITK_POM2K/pom2k_fun.c":3121:34)
#loc507 = loc("/Users/mac/Projects/mlir/cpp-to-ops-converter/script/..//ITK_POM2K/pom2k_fun.c":3121:14)
#loc508 = loc("/Users/mac/Projects/mlir/cpp-to-ops-converter/script/..//ITK_POM2K/pom2k_fun.c":3121:36)
#loc509 = loc("/Users/mac/Projects/mlir/cpp-to-ops-converter/script/..//ITK_POM2K/pom2k_fun.c":3120:9)
#loc510 = loc("/Users/mac/Projects/mlir/cpp-to-ops-converter/script/..//ITK_POM2K/pom2k_fun.c":3122:36)
#loc511 = loc("/Users/mac/Projects/mlir/cpp-to-ops-converter/script/..//ITK_POM2K/pom2k_fun.c":3124:22)
#loc512 = loc("/Users/mac/Projects/mlir/cpp-to-ops-converter/script/..//ITK_POM2K/pom2k_fun.c":3124:17)
#loc513 = loc("/Users/mac/Projects/mlir/cpp-to-ops-converter/script/..//ITK_POM2K/pom2k_fun.c":3125:18)
#loc514 = loc("/Users/mac/Projects/mlir/cpp-to-ops-converter/script/..//ITK_POM2K/pom2k_fun.c":3125:23)
#loc515 = loc("/Users/mac/Projects/mlir/cpp-to-ops-converter/script/..//ITK_POM2K/pom2k_fun.c":3125:50)
#loc516 = loc("/Users/mac/Projects/mlir/cpp-to-ops-converter/script/..//ITK_POM2K/pom2k_fun.c":3125:77)
#loc517 = loc("/Users/mac/Projects/mlir/cpp-to-ops-converter/script/..//ITK_POM2K/pom2k_fun.c":3127:33)
#loc518 = loc("/Users/mac/Projects/mlir/cpp-to-ops-converter/script/..//ITK_POM2K/pom2k_fun.c":3127:19)
#loc519 = loc("/Users/mac/Projects/mlir/cpp-to-ops-converter/script/..//ITK_POM2K/pom2k_fun.c":3127:48)
#loc520 = loc("/Users/mac/Projects/mlir/cpp-to-ops-converter/script/..//ITK_POM2K/pom2k_fun.c":3127:55)
#loc521 = loc("/Users/mac/Projects/mlir/cpp-to-ops-converter/script/..//ITK_POM2K/pom2k_fun.c":3127:38)
#loc522 = loc("/Users/mac/Projects/mlir/cpp-to-ops-converter/script/..//ITK_POM2K/pom2k_fun.c":3127:59)
#loc523 = loc("/Users/mac/Projects/mlir/cpp-to-ops-converter/script/..//ITK_POM2K/pom2k_fun.c":3127:57)
#loc524 = loc("/Users/mac/Projects/mlir/cpp-to-ops-converter/script/..//ITK_POM2K/pom2k_fun.c":3127:35)
#loc525 = loc("/Users/mac/Projects/mlir/cpp-to-ops-converter/script/..//ITK_POM2K/pom2k_fun.c":3126:23)
#loc526 = loc("/Users/mac/Projects/mlir/cpp-to-ops-converter/script/..//ITK_POM2K/pom2k_fun.c":3128:18)
#loc527 = loc("/Users/mac/Projects/mlir/cpp-to-ops-converter/script/..//ITK_POM2K/pom2k_fun.c":3128:58)
#loc528 = loc("/Users/mac/Projects/mlir/cpp-to-ops-converter/script/..//ITK_POM2K/pom2k_fun.c":3128:38)
#loc529 = loc("/Users/mac/Projects/mlir/cpp-to-ops-converter/script/..//ITK_POM2K/pom2k_fun.c":3128:36)
#loc530 = loc("/Users/mac/Projects/mlir/cpp-to-ops-converter/script/..//ITK_POM2K/pom2k_fun.c":3129:40)
#loc531 = loc("/Users/mac/Projects/mlir/cpp-to-ops-converter/script/..//ITK_POM2K/pom2k_fun.c":3129:62)
#loc532 = loc("/Users/mac/Projects/mlir/cpp-to-ops-converter/script/..//ITK_POM2K/pom2k_fun.c":3129:60)
#loc533 = loc("/Users/mac/Projects/mlir/cpp-to-ops-converter/script/..//ITK_POM2K/pom2k_fun.c":3128:61)
#loc534 = loc("/Users/mac/Projects/mlir/cpp-to-ops-converter/script/..//ITK_POM2K/pom2k_fun.c":3130:43)
#loc535 = loc("/Users/mac/Projects/mlir/cpp-to-ops-converter/script/..//ITK_POM2K/pom2k_fun.c":3130:51)
#loc536 = loc("/Users/mac/Projects/mlir/cpp-to-ops-converter/script/..//ITK_POM2K/pom2k_fun.c":3130:59)
#loc537 = loc("/Users/mac/Projects/mlir/cpp-to-ops-converter/script/..//ITK_POM2K/pom2k_fun.c":3130:57)
#loc538 = loc("/Users/mac/Projects/mlir/cpp-to-ops-converter/script/..//ITK_POM2K/pom2k_fun.c":3130:36)
#loc539 = loc("/Users/mac/Projects/mlir/cpp-to-ops-converter/script/..//ITK_POM2K/pom2k_fun.c":3132:20)
#loc540 = loc("/Users/mac/Projects/mlir/cpp-to-ops-converter/script/..//ITK_POM2K/pom2k_fun.c":3132:15)
#loc541 = loc("/Users/mac/Projects/mlir/cpp-to-ops-converter/script/..//ITK_POM2K/pom2k_fun.c":3132:32)
#loc542 = loc("/Users/mac/Projects/mlir/cpp-to-ops-converter/script/..//ITK_POM2K/pom2k_fun.c":3132:27)
#loc543 = loc("/Users/mac/Projects/mlir/cpp-to-ops-converter/script/..//ITK_POM2K/pom2k_fun.c":3132:25)
#loc544 = loc("/Users/mac/Projects/mlir/cpp-to-ops-converter/script/..//ITK_POM2K/pom2k_fun.c":3133:36)
#loc545 = loc("/Users/mac/Projects/mlir/cpp-to-ops-converter/script/..//ITK_POM2K/pom2k_fun.c":3133:13)
#loc546 = loc("/Users/mac/Projects/mlir/cpp-to-ops-converter/script/..//ITK_POM2K/pom2k_fun.c":3133:38)
#loc547 = loc("/Users/mac/Projects/mlir/cpp-to-ops-converter/script/..//ITK_POM2K/pom2k_fun.c":3116:32)
#loc548 = loc("/Users/mac/Projects/mlir/cpp-to-ops-converter/script/..//ITK_POM2K/pom2k_fun.c":3115:32)
#loc549 = loc("/Users/mac/Projects/mlir/cpp-to-ops-converter/script/..//ITK_POM2K/pom2k_fun.c":3114:30)
#loc550 = loc("/Users/mac/Projects/mlir/cpp-to-ops-converter/script/..//ITK_POM2K/pom2k_fun.c":3142:27)
#loc551 = loc("/Users/mac/Projects/mlir/cpp-to-ops-converter/script/..//ITK_POM2K/pom2k_fun.c":3140:23)
#loc552 = loc("/Users/mac/Projects/mlir/cpp-to-ops-converter/script/..//ITK_POM2K/pom2k_fun.c":3140:21)
#loc554 = loc("/Users/mac/Projects/mlir/cpp-to-ops-converter/script/..//ITK_POM2K/pom2k_fun.c":3141:25)
#loc555 = loc("/Users/mac/Projects/mlir/cpp-to-ops-converter/script/..//ITK_POM2K/pom2k_fun.c":3141:23)
#loc557 = loc("/Users/mac/Projects/mlir/cpp-to-ops-converter/script/..//ITK_POM2K/pom2k_fun.c":3142:25)
#loc559 = loc("/Users/mac/Projects/mlir/cpp-to-ops-converter/script/..//ITK_POM2K/pom2k_fun.c":3146:30)
#loc560 = loc("/Users/mac/Projects/mlir/cpp-to-ops-converter/script/..//ITK_POM2K/pom2k_fun.c":3146:14)
#loc561 = loc("/Users/mac/Projects/mlir/cpp-to-ops-converter/script/..//ITK_POM2K/pom2k_fun.c":3146:34)
#loc562 = loc("/Users/mac/Projects/mlir/cpp-to-ops-converter/script/..//ITK_POM2K/pom2k_fun.c":3146:32)
#loc563 = loc("/Users/mac/Projects/mlir/cpp-to-ops-converter/script/..//ITK_POM2K/pom2k_fun.c":3146:45)
#loc564 = loc("/Users/mac/Projects/mlir/cpp-to-ops-converter/script/..//ITK_POM2K/pom2k_fun.c":3147:27)
#loc565 = loc("/Users/mac/Projects/mlir/cpp-to-ops-converter/script/..//ITK_POM2K/pom2k_fun.c":3147:34)
#loc566 = loc("/Users/mac/Projects/mlir/cpp-to-ops-converter/script/..//ITK_POM2K/pom2k_fun.c":3147:14)
#loc567 = loc("/Users/mac/Projects/mlir/cpp-to-ops-converter/script/..//ITK_POM2K/pom2k_fun.c":3147:36)
#loc568 = loc("/Users/mac/Projects/mlir/cpp-to-ops-converter/script/..//ITK_POM2K/pom2k_fun.c":3146:9)
#loc569 = loc("/Users/mac/Projects/mlir/cpp-to-ops-converter/script/..//ITK_POM2K/pom2k_fun.c":3148:36)
#loc570 = loc("/Users/mac/Projects/mlir/cpp-to-ops-converter/script/..//ITK_POM2K/pom2k_fun.c":3150:22)
#loc571 = loc("/Users/mac/Projects/mlir/cpp-to-ops-converter/script/..//ITK_POM2K/pom2k_fun.c":3150:17)
#loc572 = loc("/Users/mac/Projects/mlir/cpp-to-ops-converter/script/..//ITK_POM2K/pom2k_fun.c":3151:18)
#loc573 = loc("/Users/mac/Projects/mlir/cpp-to-ops-converter/script/..//ITK_POM2K/pom2k_fun.c":3151:23)
#loc574 = loc("/Users/mac/Projects/mlir/cpp-to-ops-converter/script/..//ITK_POM2K/pom2k_fun.c":3151:50)
#loc575 = loc("/Users/mac/Projects/mlir/cpp-to-ops-converter/script/..//ITK_POM2K/pom2k_fun.c":3151:77)
#loc576 = loc("/Users/mac/Projects/mlir/cpp-to-ops-converter/script/..//ITK_POM2K/pom2k_fun.c":3153:33)
#loc577 = loc("/Users/mac/Projects/mlir/cpp-to-ops-converter/script/..//ITK_POM2K/pom2k_fun.c":3153:19)
#loc578 = loc("/Users/mac/Projects/mlir/cpp-to-ops-converter/script/..//ITK_POM2K/pom2k_fun.c":3153:51)
#loc579 = loc("/Users/mac/Projects/mlir/cpp-to-ops-converter/script/..//ITK_POM2K/pom2k_fun.c":3153:55)
#loc580 = loc("/Users/mac/Projects/mlir/cpp-to-ops-converter/script/..//ITK_POM2K/pom2k_fun.c":3153:38)
#loc581 = loc("/Users/mac/Projects/mlir/cpp-to-ops-converter/script/..//ITK_POM2K/pom2k_fun.c":3153:59)
#loc582 = loc("/Users/mac/Projects/mlir/cpp-to-ops-converter/script/..//ITK_POM2K/pom2k_fun.c":3153:57)
#loc583 = loc("/Users/mac/Projects/mlir/cpp-to-ops-converter/script/..//ITK_POM2K/pom2k_fun.c":3153:35)
#loc584 = loc("/Users/mac/Projects/mlir/cpp-to-ops-converter/script/..//ITK_POM2K/pom2k_fun.c":3152:23)
#loc585 = loc("/Users/mac/Projects/mlir/cpp-to-ops-converter/script/..//ITK_POM2K/pom2k_fun.c":3154:18)
#loc586 = loc("/Users/mac/Projects/mlir/cpp-to-ops-converter/script/..//ITK_POM2K/pom2k_fun.c":3154:58)
#loc587 = loc("/Users/mac/Projects/mlir/cpp-to-ops-converter/script/..//ITK_POM2K/pom2k_fun.c":3154:38)
#loc588 = loc("/Users/mac/Projects/mlir/cpp-to-ops-converter/script/..//ITK_POM2K/pom2k_fun.c":3154:36)
#loc589 = loc("/Users/mac/Projects/mlir/cpp-to-ops-converter/script/..//ITK_POM2K/pom2k_fun.c":3155:40)
#loc590 = loc("/Users/mac/Projects/mlir/cpp-to-ops-converter/script/..//ITK_POM2K/pom2k_fun.c":3155:62)
#loc591 = loc("/Users/mac/Projects/mlir/cpp-to-ops-converter/script/..//ITK_POM2K/pom2k_fun.c":3155:60)
#loc592 = loc("/Users/mac/Projects/mlir/cpp-to-ops-converter/script/..//ITK_POM2K/pom2k_fun.c":3154:61)
#loc593 = loc("/Users/mac/Projects/mlir/cpp-to-ops-converter/script/..//ITK_POM2K/pom2k_fun.c":3156:43)
#loc594 = loc("/Users/mac/Projects/mlir/cpp-to-ops-converter/script/..//ITK_POM2K/pom2k_fun.c":3156:51)
#loc595 = loc("/Users/mac/Projects/mlir/cpp-to-ops-converter/script/..//ITK_POM2K/pom2k_fun.c":3156:59)
#loc596 = loc("/Users/mac/Projects/mlir/cpp-to-ops-converter/script/..//ITK_POM2K/pom2k_fun.c":3156:57)
#loc597 = loc("/Users/mac/Projects/mlir/cpp-to-ops-converter/script/..//ITK_POM2K/pom2k_fun.c":3156:36)
#loc598 = loc("/Users/mac/Projects/mlir/cpp-to-ops-converter/script/..//ITK_POM2K/pom2k_fun.c":3158:20)
#loc599 = loc("/Users/mac/Projects/mlir/cpp-to-ops-converter/script/..//ITK_POM2K/pom2k_fun.c":3158:15)
#loc600 = loc("/Users/mac/Projects/mlir/cpp-to-ops-converter/script/..//ITK_POM2K/pom2k_fun.c":3158:32)
#loc601 = loc("/Users/mac/Projects/mlir/cpp-to-ops-converter/script/..//ITK_POM2K/pom2k_fun.c":3158:27)
#loc602 = loc("/Users/mac/Projects/mlir/cpp-to-ops-converter/script/..//ITK_POM2K/pom2k_fun.c":3158:25)
#loc603 = loc("/Users/mac/Projects/mlir/cpp-to-ops-converter/script/..//ITK_POM2K/pom2k_fun.c":3159:36)
#loc604 = loc("/Users/mac/Projects/mlir/cpp-to-ops-converter/script/..//ITK_POM2K/pom2k_fun.c":3159:13)
#loc605 = loc("/Users/mac/Projects/mlir/cpp-to-ops-converter/script/..//ITK_POM2K/pom2k_fun.c":3159:38)
#loc606 = loc("/Users/mac/Projects/mlir/cpp-to-ops-converter/script/..//ITK_POM2K/pom2k_fun.c":3142:34)
#loc607 = loc("/Users/mac/Projects/mlir/cpp-to-ops-converter/script/..//ITK_POM2K/pom2k_fun.c":3141:30)
#loc608 = loc("/Users/mac/Projects/mlir/cpp-to-ops-converter/script/..//ITK_POM2K/pom2k_fun.c":3140:30)
#loc609 = loc("/Users/mac/Projects/mlir/cpp-to-ops-converter/script/..//ITK_POM2K/pom2k_fun.c":3166:23)
#loc610 = loc("/Users/mac/Projects/mlir/cpp-to-ops-converter/script/..//ITK_POM2K/pom2k_fun.c":3166:21)
#loc612 = loc("/Users/mac/Projects/mlir/cpp-to-ops-converter/script/..//ITK_POM2K/pom2k_fun.c":3167:25)
#loc613 = loc("/Users/mac/Projects/mlir/cpp-to-ops-converter/script/..//ITK_POM2K/pom2k_fun.c":3167:23)
#loc615 = loc("/Users/mac/Projects/mlir/cpp-to-ops-converter/script/..//ITK_POM2K/pom2k_fun.c":3168:27)
#loc616 = loc("/Users/mac/Projects/mlir/cpp-to-ops-converter/script/..//ITK_POM2K/pom2k_fun.c":3168:25)
#loc618 = loc("/Users/mac/Projects/mlir/cpp-to-ops-converter/script/..//ITK_POM2K/pom2k_fun.c":3172:30)
#loc619 = loc("/Users/mac/Projects/mlir/cpp-to-ops-converter/script/..//ITK_POM2K/pom2k_fun.c":3172:14)
#loc620 = loc("/Users/mac/Projects/mlir/cpp-to-ops-converter/script/..//ITK_POM2K/pom2k_fun.c":3172:34)
#loc621 = loc("/Users/mac/Projects/mlir/cpp-to-ops-converter/script/..//ITK_POM2K/pom2k_fun.c":3172:32)
#loc622 = loc("/Users/mac/Projects/mlir/cpp-to-ops-converter/script/..//ITK_POM2K/pom2k_fun.c":3172:45)
#loc623 = loc("/Users/mac/Projects/mlir/cpp-to-ops-converter/script/..//ITK_POM2K/pom2k_fun.c":3173:30)
#loc624 = loc("/Users/mac/Projects/mlir/cpp-to-ops-converter/script/..//ITK_POM2K/pom2k_fun.c":3173:34)
#loc625 = loc("/Users/mac/Projects/mlir/cpp-to-ops-converter/script/..//ITK_POM2K/pom2k_fun.c":3173:14)
#loc626 = loc("/Users/mac/Projects/mlir/cpp-to-ops-converter/script/..//ITK_POM2K/pom2k_fun.c":3173:36)
#loc627 = loc("/Users/mac/Projects/mlir/cpp-to-ops-converter/script/..//ITK_POM2K/pom2k_fun.c":3172:9)
#loc628 = loc("/Users/mac/Projects/mlir/cpp-to-ops-converter/script/..//ITK_POM2K/pom2k_fun.c":3174:33)
#loc629 = loc("/Users/mac/Projects/mlir/cpp-to-ops-converter/script/..//ITK_POM2K/pom2k_fun.c":3176:22)
#loc630 = loc("/Users/mac/Projects/mlir/cpp-to-ops-converter/script/..//ITK_POM2K/pom2k_fun.c":3176:17)
#loc631 = loc("/Users/mac/Projects/mlir/cpp-to-ops-converter/script/..//ITK_POM2K/pom2k_fun.c":3177:18)
#loc632 = loc("/Users/mac/Projects/mlir/cpp-to-ops-converter/script/..//ITK_POM2K/pom2k_fun.c":3177:23)
#loc633 = loc("/Users/mac/Projects/mlir/cpp-to-ops-converter/script/..//ITK_POM2K/pom2k_fun.c":3177:47)
#loc634 = loc("/Users/mac/Projects/mlir/cpp-to-ops-converter/script/..//ITK_POM2K/pom2k_fun.c":3178:25)
#loc635 = loc("/Users/mac/Projects/mlir/cpp-to-ops-converter/script/..//ITK_POM2K/pom2k_fun.c":3178:28)
#loc636 = loc("/Users/mac/Projects/mlir/cpp-to-ops-converter/script/..//ITK_POM2K/pom2k_fun.c":3178:19)
#loc637 = loc("/Users/mac/Projects/mlir/cpp-to-ops-converter/script/..//ITK_POM2K/pom2k_fun.c":3178:45)
#loc638 = loc("/Users/mac/Projects/mlir/cpp-to-ops-converter/script/..//ITK_POM2K/pom2k_fun.c":3178:32)
#loc639 = loc("/Users/mac/Projects/mlir/cpp-to-ops-converter/script/..//ITK_POM2K/pom2k_fun.c":3178:30)
#loc640 = loc("/Users/mac/Projects/mlir/cpp-to-ops-converter/script/..//ITK_POM2K/pom2k_fun.c":3177:71)
#loc641 = loc("/Users/mac/Projects/mlir/cpp-to-ops-converter/script/..//ITK_POM2K/pom2k_fun.c":3179:38)
#loc642 = loc("/Users/mac/Projects/mlir/cpp-to-ops-converter/script/..//ITK_POM2K/pom2k_fun.c":3179:18)
#loc643 = loc("/Users/mac/Projects/mlir/cpp-to-ops-converter/script/..//ITK_POM2K/pom2k_fun.c":3179:42)
#loc644 = loc("/Users/mac/Projects/mlir/cpp-to-ops-converter/script/..//ITK_POM2K/pom2k_fun.c":3179:40)
#loc645 = loc("/Users/mac/Projects/mlir/cpp-to-ops-converter/script/..//ITK_POM2K/pom2k_fun.c":3180:36)
#loc646 = loc("/Users/mac/Projects/mlir/cpp-to-ops-converter/script/..//ITK_POM2K/pom2k_fun.c":3180:62)
#loc647 = loc("/Users/mac/Projects/mlir/cpp-to-ops-converter/script/..//ITK_POM2K/pom2k_fun.c":3180:60)
#loc648 = loc("/Users/mac/Projects/mlir/cpp-to-ops-converter/script/..//ITK_POM2K/pom2k_fun.c":3179:61)
#loc649 = loc("/Users/mac/Projects/mlir/cpp-to-ops-converter/script/..//ITK_POM2K/pom2k_fun.c":3181:40)
#loc650 = loc("/Users/mac/Projects/mlir/cpp-to-ops-converter/script/..//ITK_POM2K/pom2k_fun.c":3181:48)
#loc651 = loc("/Users/mac/Projects/mlir/cpp-to-ops-converter/script/..//ITK_POM2K/pom2k_fun.c":3181:56)
#loc652 = loc("/Users/mac/Projects/mlir/cpp-to-ops-converter/script/..//ITK_POM2K/pom2k_fun.c":3181:54)
#loc653 = loc("/Users/mac/Projects/mlir/cpp-to-ops-converter/script/..//ITK_POM2K/pom2k_fun.c":3181:33)
#loc654 = loc("/Users/mac/Projects/mlir/cpp-to-ops-converter/script/..//ITK_POM2K/pom2k_fun.c":3183:20)
#loc655 = loc("/Users/mac/Projects/mlir/cpp-to-ops-converter/script/..//ITK_POM2K/pom2k_fun.c":3183:15)
#loc656 = loc("/Users/mac/Projects/mlir/cpp-to-ops-converter/script/..//ITK_POM2K/pom2k_fun.c":3183:32)
#loc657 = loc("/Users/mac/Projects/mlir/cpp-to-ops-converter/script/..//ITK_POM2K/pom2k_fun.c":3183:27)
#loc658 = loc("/Users/mac/Projects/mlir/cpp-to-ops-converter/script/..//ITK_POM2K/pom2k_fun.c":3183:25)
#loc659 = loc("/Users/mac/Projects/mlir/cpp-to-ops-converter/script/..//ITK_POM2K/pom2k_fun.c":3184:33)
#loc660 = loc("/Users/mac/Projects/mlir/cpp-to-ops-converter/script/..//ITK_POM2K/pom2k_fun.c":3184:13)
#loc661 = loc("/Users/mac/Projects/mlir/cpp-to-ops-converter/script/..//ITK_POM2K/pom2k_fun.c":3184:35)
#loc662 = loc("/Users/mac/Projects/mlir/cpp-to-ops-converter/script/..//ITK_POM2K/pom2k_fun.c":3168:34)
#loc663 = loc("/Users/mac/Projects/mlir/cpp-to-ops-converter/script/..//ITK_POM2K/pom2k_fun.c":3167:32)
#loc664 = loc("/Users/mac/Projects/mlir/cpp-to-ops-converter/script/..//ITK_POM2K/pom2k_fun.c":3166:30)
#loc665 = loc("/Users/mac/Projects/mlir/cpp-to-ops-converter/script/..//ITK_POM2K/pom2k_fun.c":3190:1)

