#loc1 = loc("/Users/mac/Projects/mlir/cpp-to-ops-converter/script/..//in/test.c":345:6)
#loc12 = loc("/Users/mac/Projects/mlir/cpp-to-ops-converter/script/..//in/test.c":379:3)
#loc14 = loc("/Users/mac/Projects/mlir/cpp-to-ops-converter/script/..//in/test.c":380:5)
#loc23 = loc("/Users/mac/Projects/mlir/cpp-to-ops-converter/script/..//in/test.c":391:3)
#loc27 = loc("/Users/mac/Projects/mlir/cpp-to-ops-converter/script/..//in/test.c":392:5)
#loc44 = loc("/Users/mac/Projects/mlir/cpp-to-ops-converter/script/..//in/test.c":406:3)
#loc47 = loc("/Users/mac/Projects/mlir/cpp-to-ops-converter/script/..//in/test.c":407:5)
#loc51 = loc("/Users/mac/Projects/mlir/cpp-to-ops-converter/script/..//in/test.c":408:7)
#loc72 = loc("/Users/mac/Projects/mlir/cpp-to-ops-converter/script/..//in/test.c":425:3)
#loc80 = loc("/Users/mac/Projects/mlir/cpp-to-ops-converter/script/..//in/test.c":426:5)
#loc83 = loc("/Users/mac/Projects/mlir/cpp-to-ops-converter/script/..//in/test.c":427:7)
#loc122 = loc("/Users/mac/Projects/mlir/cpp-to-ops-converter/script/..//in/test.c":446:3)
#loc125 = loc("/Users/mac/Projects/mlir/cpp-to-ops-converter/script/..//in/test.c":447:5)
#loc152 = loc("/Users/mac/Projects/mlir/cpp-to-ops-converter/script/..//in/test.c":466:3)
#loc156 = loc("/Users/mac/Projects/mlir/cpp-to-ops-converter/script/..//in/test.c":467:5)
#loc159 = loc("/Users/mac/Projects/mlir/cpp-to-ops-converter/script/..//in/test.c":468:7)
#loc192 = loc("/Users/mac/Projects/mlir/cpp-to-ops-converter/script/..//in/test.c":493:3)
#loc195 = loc("/Users/mac/Projects/mlir/cpp-to-ops-converter/script/..//in/test.c":494:5)
#loc266 = loc("/Users/mac/Projects/mlir/cpp-to-ops-converter/script/..//in/test.c":524:3)
#loc273 = loc("/Users/mac/Projects/mlir/cpp-to-ops-converter/script/..//in/test.c":526:5)
#loc276 = loc("/Users/mac/Projects/mlir/cpp-to-ops-converter/script/..//in/test.c":527:7)
#loc293 = loc("/Users/mac/Projects/mlir/cpp-to-ops-converter/script/..//in/test.c":542:3)
#loc296 = loc("/Users/mac/Projects/mlir/cpp-to-ops-converter/script/..//in/test.c":543:5)
module attributes {dlti.dl_spec = #dlti.dl_spec<#dlti.dl_entry<"dlti.endianness", "little">, #dlti.dl_entry<i64, dense<64> : vector<2xi32>>, #dlti.dl_entry<f80, dense<128> : vector<2xi32>>, #dlti.dl_entry<i1, dense<8> : vector<2xi32>>, #dlti.dl_entry<i8, dense<8> : vector<2xi32>>, #dlti.dl_entry<i16, dense<16> : vector<2xi32>>, #dlti.dl_entry<i32, dense<32> : vector<2xi32>>, #dlti.dl_entry<f16, dense<16> : vector<2xi32>>, #dlti.dl_entry<f64, dense<64> : vector<2xi32>>, #dlti.dl_entry<f128, dense<128> : vector<2xi32>>>, llvm.data_layout = "e-m:o-p270:32:32-p271:32:32-p272:64:64-i64:64-f80:128-n8:16:32:64-S128", llvm.target_triple = "x86_64-apple-macosx13.0.0", "polygeist.target-cpu" = "penryn", "polygeist.target-features" = "+cx16,+cx8,+fxsr,+mmx,+sahf,+sse,+sse2,+sse3,+sse4.1,+ssse3,+x87", "polygeist.tune-cpu" = "generic"} {
  memref.global @imm1 : memref<1xi32> loc(#loc0)
  memref.global @jmm1 : memref<1xi32> loc(#loc0)
  memref.global @kbm2 : memref<1xi32> loc(#loc0)
  memref.global @umol : memref<1xf32> loc(#loc0)
  memref.global @dti2 : memref<1xf32> loc(#loc0)
  memref.global @kbm1 : memref<1xi32> loc(#loc0)
  memref.global @kb : memref<1xi32> loc(#loc0)
  memref.global @im : memref<1xi32> loc(#loc0)
  memref.global @jm : memref<1xi32> loc(#loc0)
  func.func @ext_profv_(%arg0: memref<?xf32> loc("/Users/mac/Projects/mlir/cpp-to-ops-converter/script/..//in/test.c":345:6), %arg1: memref<?xf32> loc("/Users/mac/Projects/mlir/cpp-to-ops-converter/script/..//in/test.c":345:6), %arg2: memref<?xf32> loc("/Users/mac/Projects/mlir/cpp-to-ops-converter/script/..//in/test.c":345:6), %arg3: memref<?xf32> loc("/Users/mac/Projects/mlir/cpp-to-ops-converter/script/..//in/test.c":345:6), %arg4: memref<?xf32> loc("/Users/mac/Projects/mlir/cpp-to-ops-converter/script/..//in/test.c":345:6), %arg5: memref<?xf32> loc("/Users/mac/Projects/mlir/cpp-to-ops-converter/script/..//in/test.c":345:6), %arg6: memref<?xf32> loc("/Users/mac/Projects/mlir/cpp-to-ops-converter/script/..//in/test.c":345:6), %arg7: memref<?xf32> loc("/Users/mac/Projects/mlir/cpp-to-ops-converter/script/..//in/test.c":345:6), %arg8: memref<?xf32> loc("/Users/mac/Projects/mlir/cpp-to-ops-converter/script/..//in/test.c":345:6), %arg9: memref<?xf32> loc("/Users/mac/Projects/mlir/cpp-to-ops-converter/script/..//in/test.c":345:6), %arg10: memref<?xf32> loc("/Users/mac/Projects/mlir/cpp-to-ops-converter/script/..//in/test.c":345:6), %arg11: memref<?xf32> loc("/Users/mac/Projects/mlir/cpp-to-ops-converter/script/..//in/test.c":345:6), %arg12: memref<?xf32> loc("/Users/mac/Projects/mlir/cpp-to-ops-converter/script/..//in/test.c":345:6), %arg13: memref<?xf32> loc("/Users/mac/Projects/mlir/cpp-to-ops-converter/script/..//in/test.c":345:6), %arg14: memref<?xf32> loc("/Users/mac/Projects/mlir/cpp-to-ops-converter/script/..//in/test.c":345:6), %arg15: memref<?xf32> loc("/Users/mac/Projects/mlir/cpp-to-ops-converter/script/..//in/test.c":345:6), %arg16: memref<?xf32> loc("/Users/mac/Projects/mlir/cpp-to-ops-converter/script/..//in/test.c":345:6)) attributes {llvm.linkage = #llvm.linkage<external>} {
    %c-1_i32 = arith.constant -1 : i32 loc(#loc2)
    %cst = arith.constant 2.500000e-01 : f32 loc(#loc3)
    %cst_0 = arith.constant 5.000000e-01 : f32 loc(#loc4)
    %c1_i32 = arith.constant 1 : i32 loc(#loc2)
    %cst_1 = arith.constant 1.000000e+00 : f32 loc(#loc5)
    %c0_i32 = arith.constant 0 : i32 loc(#loc6)
    %c0 = arith.constant 0 : index loc(#loc7)
    %0 = memref.alloca() : memref<memref<?xf32>> loc(#loc8)
    %1 = memref.get_global @jm : memref<1xi32> loc(#loc9)
    %2 = memref.get_global @im : memref<1xi32> loc(#loc10)
    %3 = scf.while (%arg17 = %c0_i32) : (i32) -> i32 {
      %c0_2 = arith.constant 0 : index loc(#loc9)
      %20 = memref.load %1[%c0_2] : memref<1xi32> loc(#loc9)
      %21 = arith.cmpi slt, %arg17, %20 : i32 loc(#loc11)
      scf.condition(%21) %arg17 : i32 loc(#loc12)
    } do {
    ^bb0(%arg17: i32 loc("/Users/mac/Projects/mlir/cpp-to-ops-converter/script/..//in/test.c":379:3)):
      %20:2 = scf.while (%arg18 = %c0_i32) : (i32) -> (i32, i32) {
        %c0_2 = arith.constant 0 : index loc(#loc10)
        %22 = memref.load %2[%c0_2] : memref<1xi32> loc(#loc10)
        %23 = arith.cmpi slt, %arg18, %22 : i32 loc(#loc13)
        scf.condition(%23) %22, %arg18 : i32, i32 loc(#loc14)
      } do {
      ^bb0(%arg18: i32 loc("/Users/mac/Projects/mlir/cpp-to-ops-converter/script/..//in/test.c":380:5), %arg19: i32 loc("/Users/mac/Projects/mlir/cpp-to-ops-converter/script/..//in/test.c":380:5)):
        %22 = memref.load %0[] : memref<memref<?xf32>> loc(#loc15)
        %23 = arith.muli %arg17, %arg18 : i32 loc(#loc16)
        %24 = arith.addi %arg19, %23 : i32 loc(#loc17)
        %25 = arith.index_cast %24 : i32 to index loc(#loc18)
        %26 = arith.addi %25, %c0 : index loc(#loc15)
        memref.store %cst_1, %22[%26] : memref<?xf32> loc(#loc19)
        %27 = arith.addi %arg19, %c1_i32 : i32 loc(#loc2)
        scf.yield %27 : i32 loc(#loc14)
      } loc(#loc10)
      %21 = arith.addi %arg17, %c1_i32 : i32 loc(#loc20)
      scf.yield %21 : i32 loc(#loc12)
    } loc(#loc9)
    %4 = scf.while (%arg17 = %c1_i32) : (i32) -> i32 {
      %c0_2 = arith.constant 0 : index loc(#loc21)
      %20 = memref.load %1[%c0_2] : memref<1xi32> loc(#loc21)
      %21 = arith.cmpi slt, %arg17, %20 : i32 loc(#loc22)
      scf.condition(%21) %arg17 : i32 loc(#loc23)
    } do {
    ^bb0(%arg17: i32 loc("/Users/mac/Projects/mlir/cpp-to-ops-converter/script/..//in/test.c":391:3)):
      %20 = arith.addi %arg17, %c-1_i32 : i32 loc(#loc24)
      %21:2 = scf.while (%arg18 = %c1_i32) : (i32) -> (i32, i32) {
        %c0_2 = arith.constant 0 : index loc(#loc25)
        %23 = memref.load %2[%c0_2] : memref<1xi32> loc(#loc25)
        %24 = arith.cmpi slt, %arg18, %23 : i32 loc(#loc26)
        scf.condition(%24) %23, %arg18 : i32, i32 loc(#loc27)
      } do {
      ^bb0(%arg18: i32 loc("/Users/mac/Projects/mlir/cpp-to-ops-converter/script/..//in/test.c":392:5), %arg19: i32 loc("/Users/mac/Projects/mlir/cpp-to-ops-converter/script/..//in/test.c":392:5)):
        %23 = memref.load %0[] : memref<memref<?xf32>> loc(#loc28)
        %24 = arith.muli %arg17, %arg18 : i32 loc(#loc16)
        %25 = arith.addi %arg19, %24 : i32 loc(#loc17)
        %26 = arith.index_cast %25 : i32 to index loc(#loc29)
        %27 = arith.addi %26, %c0 : index loc(#loc30)
        %28 = memref.load %arg1[%27] : memref<?xf32> loc(#loc30)
        %29 = memref.load %arg0[%27] : memref<?xf32> loc(#loc31)
        %30 = arith.addf %28, %29 : f32 loc(#loc32)
        %31 = arith.muli %20, %arg18 : i32 loc(#loc16)
        %32 = arith.addi %arg19, %31 : i32 loc(#loc17)
        %33 = arith.index_cast %32 : i32 to index loc(#loc33)
        %34 = arith.addi %33, %c0 : index loc(#loc34)
        %35 = memref.load %arg1[%34] : memref<?xf32> loc(#loc34)
        %36 = arith.addf %30, %35 : f32 loc(#loc35)
        %37 = memref.load %arg0[%34] : memref<?xf32> loc(#loc36)
        %38 = arith.addf %36, %37 : f32 loc(#loc37)
        %39 = arith.mulf %38, %cst_0 : f32 loc(#loc38)
        memref.store %39, %23[%27] : memref<?xf32> loc(#loc39)
        %40 = arith.addi %arg19, %c1_i32 : i32 loc(#loc40)
        scf.yield %40 : i32 loc(#loc27)
      } loc(#loc25)
      %22 = arith.addi %arg17, %c1_i32 : i32 loc(#loc41)
      scf.yield %22 : i32 loc(#loc23)
    } loc(#loc21)
    %5 = memref.get_global @kb : memref<1xi32> loc(#loc42)
    %6 = scf.while (%arg17 = %c0_i32) : (i32) -> i32 {
      %c0_2 = arith.constant 0 : index loc(#loc42)
      %20 = memref.load %5[%c0_2] : memref<1xi32> loc(#loc42)
      %21 = arith.cmpi slt, %arg17, %20 : i32 loc(#loc43)
      scf.condition(%21) %arg17 : i32 loc(#loc44)
    } do {
    ^bb0(%arg17: i32 loc("/Users/mac/Projects/mlir/cpp-to-ops-converter/script/..//in/test.c":406:3)):
      %20 = scf.while (%arg18 = %c1_i32) : (i32) -> i32 {
        %c0_2 = arith.constant 0 : index loc(#loc45)
        %22 = memref.load %1[%c0_2] : memref<1xi32> loc(#loc45)
        %23 = arith.cmpi slt, %arg18, %22 : i32 loc(#loc46)
        scf.condition(%23) %arg18 : i32 loc(#loc47)
      } do {
      ^bb0(%arg18: i32 loc("/Users/mac/Projects/mlir/cpp-to-ops-converter/script/..//in/test.c":407:5)):
        %22 = arith.addi %arg18, %c-1_i32 : i32 loc(#loc48)
        %23:2 = scf.while (%arg19 = %c1_i32) : (i32) -> (i32, i32) {
          %c0_2 = arith.constant 0 : index loc(#loc49)
          %25 = memref.load %2[%c0_2] : memref<1xi32> loc(#loc49)
          %26 = arith.cmpi slt, %arg19, %25 : i32 loc(#loc50)
          scf.condition(%26) %25, %arg19 : i32, i32 loc(#loc51)
        } do {
        ^bb0(%arg19: i32 loc("/Users/mac/Projects/mlir/cpp-to-ops-converter/script/..//in/test.c":408:7), %arg20: i32 loc("/Users/mac/Projects/mlir/cpp-to-ops-converter/script/..//in/test.c":408:7)):
          %25 = arith.muli %arg18, %arg19 : i32 loc(#loc52)
          %26 = arith.addi %arg20, %25 : i32 loc(#loc53)
          %27 = arith.muli %arg17, %arg19 : i32 loc(#loc54)
          %c0_2 = arith.constant 0 : index loc(#loc55)
          %28 = memref.load %1[%c0_2] : memref<1xi32> loc(#loc55)
          %29 = arith.muli %27, %28 : i32 loc(#loc56)
          %30 = arith.addi %26, %29 : i32 loc(#loc57)
          %31 = arith.index_cast %30 : i32 to index loc(#loc58)
          %32 = arith.addi %31, %c0 : index loc(#loc59)
          %33 = memref.load %arg3[%32] : memref<?xf32> loc(#loc59)
          %34 = arith.muli %22, %arg19 : i32 loc(#loc52)
          %35 = arith.addi %arg20, %34 : i32 loc(#loc53)
          %36 = arith.addi %35, %29 : i32 loc(#loc57)
          %37 = arith.index_cast %36 : i32 to index loc(#loc60)
          %38 = arith.addi %37, %c0 : index loc(#loc61)
          %39 = memref.load %arg3[%38] : memref<?xf32> loc(#loc61)
          %40 = arith.addf %33, %39 : f32 loc(#loc62)
          %41 = arith.mulf %40, %cst_0 : f32 loc(#loc63)
          memref.store %41, %arg2[%32] : memref<?xf32> loc(#loc64)
          %42 = arith.addi %arg20, %c1_i32 : i32 loc(#loc65)
          scf.yield %42 : i32 loc(#loc51)
        } loc(#loc49)
        %24 = arith.addi %arg18, %c1_i32 : i32 loc(#loc66)
        scf.yield %24 : i32 loc(#loc47)
      } loc(#loc45)
      %21 = arith.addi %arg17, %c1_i32 : i32 loc(#loc67)
      scf.yield %21 : i32 loc(#loc44)
    } loc(#loc42)
    %7 = memref.get_global @kbm1 : memref<1xi32> loc(#loc68)
    %8 = memref.get_global @dti2 : memref<1xf32> loc(#loc69)
    %9 = memref.get_global @umol : memref<1xf32> loc(#loc70)
    %10 = scf.while (%arg17 = %c1_i32) : (i32) -> i32 {
      %c0_2 = arith.constant 0 : index loc(#loc68)
      %20 = memref.load %7[%c0_2] : memref<1xi32> loc(#loc68)
      %21 = arith.cmpi slt, %arg17, %20 : i32 loc(#loc71)
      scf.condition(%21) %arg17 : i32 loc(#loc72)
    } do {
    ^bb0(%arg17: i32 loc("/Users/mac/Projects/mlir/cpp-to-ops-converter/script/..//in/test.c":425:3)):
      %20 = arith.addi %arg17, %c-1_i32 : i32 loc(#loc73)
      %21 = arith.index_cast %20 : i32 to index loc(#loc74)
      %22 = arith.addi %21, %c0 : index loc(#loc75)
      %23 = arith.index_cast %arg17 : i32 to index loc(#loc76)
      %24 = arith.addi %23, %c0 : index loc(#loc77)
      %25 = scf.while (%arg18 = %c0_i32) : (i32) -> i32 {
        %c0_2 = arith.constant 0 : index loc(#loc78)
        %27 = memref.load %1[%c0_2] : memref<1xi32> loc(#loc78)
        %28 = arith.cmpi slt, %arg18, %27 : i32 loc(#loc79)
        scf.condition(%28) %arg18 : i32 loc(#loc80)
      } do {
      ^bb0(%arg18: i32 loc("/Users/mac/Projects/mlir/cpp-to-ops-converter/script/..//in/test.c":426:5)):
        %27:2 = scf.while (%arg19 = %c0_i32) : (i32) -> (i32, i32) {
          %c0_2 = arith.constant 0 : index loc(#loc81)
          %29 = memref.load %2[%c0_2] : memref<1xi32> loc(#loc81)
          %30 = arith.cmpi slt, %arg19, %29 : i32 loc(#loc82)
          scf.condition(%30) %29, %arg19 : i32, i32 loc(#loc83)
        } do {
        ^bb0(%arg19: i32 loc("/Users/mac/Projects/mlir/cpp-to-ops-converter/script/..//in/test.c":427:7), %arg20: i32 loc("/Users/mac/Projects/mlir/cpp-to-ops-converter/script/..//in/test.c":427:7)):
          %29 = arith.muli %arg18, %arg19 : i32 loc(#loc52)
          %30 = arith.addi %arg20, %29 : i32 loc(#loc53)
          %31 = arith.muli %20, %arg19 : i32 loc(#loc54)
          %c0_2 = arith.constant 0 : index loc(#loc55)
          %32 = memref.load %1[%c0_2] : memref<1xi32> loc(#loc55)
          %33 = arith.muli %31, %32 : i32 loc(#loc56)
          %34 = arith.addi %30, %33 : i32 loc(#loc57)
          %35 = arith.index_cast %34 : i32 to index loc(#loc84)
          %c0_3 = arith.constant 0 : index loc(#loc85)
          %36 = memref.load %8[%c0_3] : memref<1xf32> loc(#loc85)
          %37 = arith.negf %36 : f32 loc(#loc86)
          %38 = arith.muli %arg17, %arg19 : i32 loc(#loc54)
          %39 = arith.muli %38, %32 : i32 loc(#loc56)
          %40 = arith.addi %30, %39 : i32 loc(#loc57)
          %41 = arith.index_cast %40 : i32 to index loc(#loc87)
          %42 = arith.addi %41, %c0 : index loc(#loc88)
          %43 = memref.load %arg2[%42] : memref<?xf32> loc(#loc88)
          %c0_4 = arith.constant 0 : index loc(#loc70)
          %44 = memref.load %9[%c0_4] : memref<1xf32> loc(#loc70)
          %45 = arith.addf %43, %44 : f32 loc(#loc89)
          %46 = arith.mulf %37, %45 : f32 loc(#loc90)
          %47 = memref.load %arg5[%22] : memref<?xf32> loc(#loc75)
          %48 = memref.load %arg6[%22] : memref<?xf32> loc(#loc91)
          %49 = arith.mulf %47, %48 : f32 loc(#loc92)
          %50 = memref.load %0[] : memref<memref<?xf32>> loc(#loc93)
          %51 = arith.index_cast %30 : i32 to index loc(#loc94)
          %52 = arith.addi %51, %c0 : index loc(#loc93)
          %53 = memref.load %50[%52] : memref<?xf32> loc(#loc93)
          %54 = arith.mulf %49, %53 : f32 loc(#loc95)
          %55 = arith.mulf %54, %53 : f32 loc(#loc96)
          %56 = arith.divf %46, %55 : f32 loc(#loc97)
          %57 = arith.addi %35, %c0 : index loc(#loc98)
          memref.store %56, %arg4[%57] : memref<?xf32> loc(#loc99)
          %c0_5 = arith.constant 0 : index loc(#loc100)
          %58 = memref.load %2[%c0_5] : memref<1xi32> loc(#loc100)
          %59 = arith.muli %arg18, %58 : i32 loc(#loc52)
          %60 = arith.addi %arg20, %59 : i32 loc(#loc53)
          %61 = arith.muli %arg17, %58 : i32 loc(#loc54)
          %c0_6 = arith.constant 0 : index loc(#loc55)
          %62 = memref.load %1[%c0_6] : memref<1xi32> loc(#loc55)
          %63 = arith.muli %61, %62 : i32 loc(#loc56)
          %64 = arith.addi %60, %63 : i32 loc(#loc57)
          %65 = arith.index_cast %64 : i32 to index loc(#loc101)
          %c0_7 = arith.constant 0 : index loc(#loc102)
          %66 = memref.load %8[%c0_7] : memref<1xf32> loc(#loc102)
          %67 = arith.negf %66 : f32 loc(#loc103)
          %68 = arith.addi %65, %c0 : index loc(#loc104)
          %69 = memref.load %arg2[%68] : memref<?xf32> loc(#loc105)
          %c0_8 = arith.constant 0 : index loc(#loc106)
          %70 = memref.load %9[%c0_8] : memref<1xf32> loc(#loc106)
          %71 = arith.addf %69, %70 : f32 loc(#loc107)
          %72 = arith.mulf %67, %71 : f32 loc(#loc108)
          %73 = memref.load %arg5[%24] : memref<?xf32> loc(#loc77)
          %74 = memref.load %arg6[%22] : memref<?xf32> loc(#loc109)
          %75 = arith.mulf %73, %74 : f32 loc(#loc110)
          %76 = arith.index_cast %60 : i32 to index loc(#loc111)
          %77 = arith.addi %76, %c0 : index loc(#loc112)
          %78 = memref.load %50[%77] : memref<?xf32> loc(#loc112)
          %79 = arith.mulf %75, %78 : f32 loc(#loc113)
          %80 = arith.mulf %79, %78 : f32 loc(#loc114)
          %81 = arith.divf %72, %80 : f32 loc(#loc115)
          memref.store %81, %arg2[%68] : memref<?xf32> loc(#loc116)
          %82 = arith.addi %arg20, %c1_i32 : i32 loc(#loc117)
          scf.yield %82 : i32 loc(#loc83)
        } loc(#loc81)
        %28 = arith.addi %arg18, %c1_i32 : i32 loc(#loc118)
        scf.yield %28 : i32 loc(#loc80)
      } loc(#loc78)
      %26 = arith.addi %arg17, %c1_i32 : i32 loc(#loc119)
      scf.yield %26 : i32 loc(#loc72)
    } loc(#loc68)
    %11 = scf.while (%arg17 = %c0_i32) : (i32) -> i32 {
      %c0_2 = arith.constant 0 : index loc(#loc120)
      %20 = memref.load %1[%c0_2] : memref<1xi32> loc(#loc120)
      %21 = arith.cmpi slt, %arg17, %20 : i32 loc(#loc121)
      scf.condition(%21) %arg17 : i32 loc(#loc122)
    } do {
    ^bb0(%arg17: i32 loc("/Users/mac/Projects/mlir/cpp-to-ops-converter/script/..//in/test.c":446:3)):
      %20:2 = scf.while (%arg18 = %c0_i32) : (i32) -> (i32, i32) {
        %c0_2 = arith.constant 0 : index loc(#loc123)
        %22 = memref.load %2[%c0_2] : memref<1xi32> loc(#loc123)
        %23 = arith.cmpi slt, %arg18, %22 : i32 loc(#loc124)
        scf.condition(%23) %22, %arg18 : i32, i32 loc(#loc125)
      } do {
      ^bb0(%arg18: i32 loc("/Users/mac/Projects/mlir/cpp-to-ops-converter/script/..//in/test.c":447:5), %arg19: i32 loc("/Users/mac/Projects/mlir/cpp-to-ops-converter/script/..//in/test.c":447:5)):
        %22 = arith.muli %arg17, %arg18 : i32 loc(#loc52)
        %23 = arith.addi %arg19, %22 : i32 loc(#loc53)
        %24 = arith.muli %arg18, %c0_i32 : i32 loc(#loc54)
        %c0_2 = arith.constant 0 : index loc(#loc55)
        %25 = memref.load %1[%c0_2] : memref<1xi32> loc(#loc55)
        %26 = arith.muli %24, %25 : i32 loc(#loc56)
        %27 = arith.addi %23, %26 : i32 loc(#loc57)
        %28 = arith.index_cast %27 : i32 to index loc(#loc126)
        %29 = arith.addi %28, %c0 : index loc(#loc127)
        %30 = memref.load %arg4[%29] : memref<?xf32> loc(#loc127)
        %31 = arith.subf %30, %cst_1 : f32 loc(#loc128)
        %32 = arith.divf %30, %31 : f32 loc(#loc129)
        memref.store %32, %arg7[%29] : memref<?xf32> loc(#loc130)
        %c0_3 = arith.constant 0 : index loc(#loc100)
        %33 = memref.load %2[%c0_3] : memref<1xi32> loc(#loc100)
        %34 = arith.muli %arg17, %33 : i32 loc(#loc52)
        %35 = arith.addi %arg19, %34 : i32 loc(#loc53)
        %36 = arith.muli %33, %c0_i32 : i32 loc(#loc54)
        %c0_4 = arith.constant 0 : index loc(#loc55)
        %37 = memref.load %1[%c0_4] : memref<1xi32> loc(#loc55)
        %38 = arith.muli %36, %37 : i32 loc(#loc56)
        %39 = arith.addi %35, %38 : i32 loc(#loc57)
        %40 = arith.index_cast %39 : i32 to index loc(#loc131)
        %c0_5 = arith.constant 0 : index loc(#loc132)
        %41 = memref.load %8[%c0_5] : memref<1xf32> loc(#loc132)
        %42 = arith.negf %41 : f32 loc(#loc133)
        %43 = arith.index_cast %35 : i32 to index loc(#loc134)
        %44 = arith.addi %43, %c0 : index loc(#loc135)
        %45 = memref.load %arg9[%44] : memref<?xf32> loc(#loc135)
        %46 = arith.mulf %42, %45 : f32 loc(#loc136)
        %c0_6 = arith.constant 0 : index loc(#loc137)
        %47 = memref.load %arg5[%c0_6] : memref<?xf32> loc(#loc137)
        %48 = arith.negf %47 : f32 loc(#loc138)
        %49 = memref.load %0[] : memref<memref<?xf32>> loc(#loc139)
        %50 = memref.load %49[%44] : memref<?xf32> loc(#loc139)
        %51 = arith.mulf %48, %50 : f32 loc(#loc140)
        %52 = arith.divf %46, %51 : f32 loc(#loc141)
        %53 = arith.addi %40, %c0 : index loc(#loc142)
        %54 = memref.load %arg10[%53] : memref<?xf32> loc(#loc142)
        %55 = arith.subf %52, %54 : f32 loc(#loc143)
        %56 = memref.load %arg4[%53] : memref<?xf32> loc(#loc144)
        %57 = arith.subf %56, %cst_1 : f32 loc(#loc145)
        %58 = arith.divf %55, %57 : f32 loc(#loc146)
        memref.store %58, %arg8[%53] : memref<?xf32> loc(#loc147)
        %59 = arith.addi %arg19, %c1_i32 : i32 loc(#loc148)
        scf.yield %59 : i32 loc(#loc125)
      } loc(#loc123)
      %21 = arith.addi %arg17, %c1_i32 : i32 loc(#loc149)
      scf.yield %21 : i32 loc(#loc122)
    } loc(#loc120)
    %12 = memref.get_global @kbm2 : memref<1xi32> loc(#loc150)
    %13 = scf.while (%arg17 = %c1_i32) : (i32) -> i32 {
      %c0_2 = arith.constant 0 : index loc(#loc150)
      %20 = memref.load %12[%c0_2] : memref<1xi32> loc(#loc150)
      %21 = arith.cmpi slt, %arg17, %20 : i32 loc(#loc151)
      scf.condition(%21) %arg17 : i32 loc(#loc152)
    } do {
    ^bb0(%arg17: i32 loc("/Users/mac/Projects/mlir/cpp-to-ops-converter/script/..//in/test.c":466:3)):
      %20 = arith.addi %arg17, %c-1_i32 : i32 loc(#loc153)
      %21 = scf.while (%arg18 = %c0_i32) : (i32) -> i32 {
        %c0_2 = arith.constant 0 : index loc(#loc154)
        %23 = memref.load %1[%c0_2] : memref<1xi32> loc(#loc154)
        %24 = arith.cmpi slt, %arg18, %23 : i32 loc(#loc155)
        scf.condition(%24) %arg18 : i32 loc(#loc156)
      } do {
      ^bb0(%arg18: i32 loc("/Users/mac/Projects/mlir/cpp-to-ops-converter/script/..//in/test.c":467:5)):
        %23:2 = scf.while (%arg19 = %c0_i32) : (i32) -> (i32, i32) {
          %c0_2 = arith.constant 0 : index loc(#loc157)
          %25 = memref.load %2[%c0_2] : memref<1xi32> loc(#loc157)
          %26 = arith.cmpi slt, %arg19, %25 : i32 loc(#loc158)
          scf.condition(%26) %25, %arg19 : i32, i32 loc(#loc159)
        } do {
        ^bb0(%arg19: i32 loc("/Users/mac/Projects/mlir/cpp-to-ops-converter/script/..//in/test.c":468:7), %arg20: i32 loc("/Users/mac/Projects/mlir/cpp-to-ops-converter/script/..//in/test.c":468:7)):
          %25 = arith.muli %arg18, %arg19 : i32 loc(#loc52)
          %26 = arith.addi %arg20, %25 : i32 loc(#loc53)
          %27 = arith.muli %arg17, %arg19 : i32 loc(#loc54)
          %c0_2 = arith.constant 0 : index loc(#loc55)
          %28 = memref.load %1[%c0_2] : memref<1xi32> loc(#loc55)
          %29 = arith.muli %27, %28 : i32 loc(#loc56)
          %30 = arith.addi %26, %29 : i32 loc(#loc57)
          %31 = arith.index_cast %30 : i32 to index loc(#loc160)
          %32 = arith.addi %31, %c0 : index loc(#loc161)
          %33 = memref.load %arg4[%32] : memref<?xf32> loc(#loc161)
          %34 = memref.load %arg2[%32] : memref<?xf32> loc(#loc162)
          %35 = arith.muli %20, %arg19 : i32 loc(#loc54)
          %36 = arith.muli %35, %28 : i32 loc(#loc56)
          %37 = arith.addi %26, %36 : i32 loc(#loc57)
          %38 = arith.index_cast %37 : i32 to index loc(#loc163)
          %39 = arith.addi %38, %c0 : index loc(#loc164)
          %40 = memref.load %arg7[%39] : memref<?xf32> loc(#loc164)
          %41 = arith.subf %cst_1, %40 : f32 loc(#loc165)
          %42 = arith.mulf %34, %41 : f32 loc(#loc166)
          %43 = arith.addf %33, %42 : f32 loc(#loc167)
          %44 = arith.subf %43, %cst_1 : f32 loc(#loc168)
          %45 = arith.divf %cst_1, %44 : f32 loc(#loc169)
          memref.store %45, %arg8[%32] : memref<?xf32> loc(#loc170)
          %c0_3 = arith.constant 0 : index loc(#loc100)
          %46 = memref.load %2[%c0_3] : memref<1xi32> loc(#loc100)
          %47 = arith.muli %arg18, %46 : i32 loc(#loc52)
          %48 = arith.addi %arg20, %47 : i32 loc(#loc53)
          %49 = arith.muli %arg17, %46 : i32 loc(#loc54)
          %c0_4 = arith.constant 0 : index loc(#loc55)
          %50 = memref.load %1[%c0_4] : memref<1xi32> loc(#loc55)
          %51 = arith.muli %49, %50 : i32 loc(#loc56)
          %52 = arith.addi %48, %51 : i32 loc(#loc57)
          %53 = arith.index_cast %52 : i32 to index loc(#loc171)
          %54 = arith.addi %53, %c0 : index loc(#loc172)
          %55 = memref.load %arg4[%54] : memref<?xf32> loc(#loc172)
          %56 = memref.load %arg8[%54] : memref<?xf32> loc(#loc173)
          %57 = arith.mulf %55, %56 : f32 loc(#loc174)
          memref.store %57, %arg7[%54] : memref<?xf32> loc(#loc175)
          %c0_5 = arith.constant 0 : index loc(#loc100)
          %58 = memref.load %2[%c0_5] : memref<1xi32> loc(#loc100)
          %59 = arith.muli %arg18, %58 : i32 loc(#loc52)
          %60 = arith.addi %arg20, %59 : i32 loc(#loc53)
          %61 = arith.muli %arg17, %58 : i32 loc(#loc54)
          %c0_6 = arith.constant 0 : index loc(#loc55)
          %62 = memref.load %1[%c0_6] : memref<1xi32> loc(#loc55)
          %63 = arith.muli %61, %62 : i32 loc(#loc56)
          %64 = arith.addi %60, %63 : i32 loc(#loc57)
          %65 = arith.index_cast %64 : i32 to index loc(#loc176)
          %66 = arith.addi %65, %c0 : index loc(#loc177)
          %67 = memref.load %arg2[%66] : memref<?xf32> loc(#loc177)
          %68 = arith.muli %20, %58 : i32 loc(#loc54)
          %69 = arith.muli %68, %62 : i32 loc(#loc56)
          %70 = arith.addi %60, %69 : i32 loc(#loc57)
          %71 = arith.index_cast %70 : i32 to index loc(#loc178)
          %72 = arith.addi %71, %c0 : index loc(#loc179)
          %73 = memref.load %arg8[%72] : memref<?xf32> loc(#loc179)
          %74 = arith.mulf %67, %73 : f32 loc(#loc180)
          %75 = memref.load %arg10[%66] : memref<?xf32> loc(#loc181)
          %76 = arith.subf %74, %75 : f32 loc(#loc182)
          %77 = memref.load %arg8[%66] : memref<?xf32> loc(#loc183)
          %78 = arith.mulf %76, %77 : f32 loc(#loc184)
          memref.store %78, %arg8[%66] : memref<?xf32> loc(#loc185)
          %79 = arith.addi %arg20, %c1_i32 : i32 loc(#loc186)
          scf.yield %79 : i32 loc(#loc159)
        } loc(#loc157)
        %24 = arith.addi %arg18, %c1_i32 : i32 loc(#loc187)
        scf.yield %24 : i32 loc(#loc156)
      } loc(#loc154)
      %22 = arith.addi %arg17, %c1_i32 : i32 loc(#loc188)
      scf.yield %22 : i32 loc(#loc152)
    } loc(#loc150)
    %14 = memref.get_global @jmm1 : memref<1xi32> loc(#loc189)
    %15 = memref.get_global @imm1 : memref<1xi32> loc(#loc190)
    %16 = scf.while (%arg17 = %c1_i32) : (i32) -> i32 {
      %c0_2 = arith.constant 0 : index loc(#loc189)
      %20 = memref.load %14[%c0_2] : memref<1xi32> loc(#loc189)
      %21 = arith.cmpi slt, %arg17, %20 : i32 loc(#loc191)
      scf.condition(%21) %arg17 : i32 loc(#loc192)
    } do {
    ^bb0(%arg17: i32 loc("/Users/mac/Projects/mlir/cpp-to-ops-converter/script/..//in/test.c":493:3)):
      %20 = arith.addi %arg17, %c-1_i32 : i32 loc(#loc193)
      %21 = scf.while (%arg18 = %c1_i32) : (i32) -> i32 {
        %c0_2 = arith.constant 0 : index loc(#loc190)
        %23 = memref.load %15[%c0_2] : memref<1xi32> loc(#loc190)
        %24 = arith.cmpi slt, %arg18, %23 : i32 loc(#loc194)
        scf.condition(%24) %arg18 : i32 loc(#loc195)
      } do {
      ^bb0(%arg18: i32 loc("/Users/mac/Projects/mlir/cpp-to-ops-converter/script/..//in/test.c":494:5)):
        %c0_2 = arith.constant 0 : index loc(#loc196)
        %23 = memref.load %2[%c0_2] : memref<1xi32> loc(#loc196)
        %24 = arith.muli %arg17, %23 : i32 loc(#loc16)
        %25 = arith.addi %arg18, %24 : i32 loc(#loc17)
        %26 = arith.index_cast %25 : i32 to index loc(#loc197)
        %27 = arith.addi %26, %c0 : index loc(#loc198)
        %28 = memref.load %arg12[%27] : memref<?xf32> loc(#loc198)
        %29 = arith.muli %20, %23 : i32 loc(#loc16)
        %30 = arith.addi %arg18, %29 : i32 loc(#loc17)
        %31 = arith.index_cast %30 : i32 to index loc(#loc199)
        %32 = arith.addi %31, %c0 : index loc(#loc200)
        %33 = memref.load %arg12[%32] : memref<?xf32> loc(#loc200)
        %34 = arith.addf %28, %33 : f32 loc(#loc201)
        %35 = arith.mulf %34, %cst_0 : f32 loc(#loc202)
        %c0_3 = arith.constant 0 : index loc(#loc203)
        %36 = memref.load %7[%c0_3] : memref<1xi32> loc(#loc203)
        %37 = arith.addi %36, %c-1_i32 : i32 loc(#loc204)
        %38 = arith.muli %37, %23 : i32 loc(#loc54)
        %c0_4 = arith.constant 0 : index loc(#loc55)
        %39 = memref.load %1[%c0_4] : memref<1xi32> loc(#loc55)
        %40 = arith.muli %38, %39 : i32 loc(#loc56)
        %41 = arith.addi %25, %40 : i32 loc(#loc57)
        %42 = arith.index_cast %41 : i32 to index loc(#loc205)
        %43 = arith.addi %42, %c0 : index loc(#loc206)
        %44 = memref.load %arg13[%43] : memref<?xf32> loc(#loc206)
        %45 = arith.addi %arg18, %c1_i32 : i32 loc(#loc207)
        %46 = arith.addi %45, %24 : i32 loc(#loc53)
        %47 = arith.addi %46, %40 : i32 loc(#loc57)
        %48 = arith.index_cast %47 : i32 to index loc(#loc208)
        %49 = arith.addi %48, %c0 : index loc(#loc209)
        %50 = memref.load %arg13[%49] : memref<?xf32> loc(#loc209)
        %51 = arith.addf %44, %50 : f32 loc(#loc210)
        %52 = arith.addi %30, %40 : i32 loc(#loc57)
        %53 = arith.index_cast %52 : i32 to index loc(#loc211)
        %54 = arith.addi %53, %c0 : index loc(#loc212)
        %55 = memref.load %arg13[%54] : memref<?xf32> loc(#loc212)
        %56 = arith.addf %51, %55 : f32 loc(#loc213)
        %57 = arith.addi %45, %29 : i32 loc(#loc53)
        %58 = arith.addi %57, %40 : i32 loc(#loc57)
        %59 = arith.index_cast %58 : i32 to index loc(#loc214)
        %60 = arith.addi %59, %c0 : index loc(#loc215)
        %61 = memref.load %arg13[%60] : memref<?xf32> loc(#loc215)
        %62 = arith.addf %56, %61 : f32 loc(#loc216)
        %63 = arith.mulf %62, %cst : f32 loc(#loc217)
        %64 = arith.mulf %63, %63 : f32 loc(#loc218)
        %65 = memref.load %arg14[%43] : memref<?xf32> loc(#loc219)
        %66 = arith.mulf %65, %65 : f32 loc(#loc220)
        %67 = arith.addf %64, %66 : f32 loc(#loc221)
        %68 = math.sqrt %67 : f32 loc(#loc222)
        %69 = arith.mulf %35, %68 : f32 loc(#loc223)
        memref.store %69, %arg11[%27] : memref<?xf32> loc(#loc224)
        %c0_5 = arith.constant 0 : index loc(#loc100)
        %70 = memref.load %2[%c0_5] : memref<1xi32> loc(#loc100)
        %71 = arith.muli %arg17, %70 : i32 loc(#loc52)
        %72 = arith.addi %arg18, %71 : i32 loc(#loc53)
        %c0_6 = arith.constant 0 : index loc(#loc225)
        %73 = memref.load %7[%c0_6] : memref<1xi32> loc(#loc225)
        %74 = arith.addi %73, %c-1_i32 : i32 loc(#loc226)
        %75 = arith.muli %74, %70 : i32 loc(#loc54)
        %c0_7 = arith.constant 0 : index loc(#loc55)
        %76 = memref.load %1[%c0_7] : memref<1xi32> loc(#loc55)
        %77 = arith.muli %75, %76 : i32 loc(#loc56)
        %78 = arith.addi %72, %77 : i32 loc(#loc57)
        %79 = arith.index_cast %78 : i32 to index loc(#loc227)
        %80 = arith.addi %79, %c0 : index loc(#loc228)
        %81 = memref.load %arg2[%80] : memref<?xf32> loc(#loc228)
        %c0_8 = arith.constant 0 : index loc(#loc229)
        %82 = memref.load %12[%c0_8] : memref<1xi32> loc(#loc229)
        %83 = arith.addi %82, %c-1_i32 : i32 loc(#loc230)
        %84 = arith.muli %83, %70 : i32 loc(#loc54)
        %85 = arith.muli %84, %76 : i32 loc(#loc56)
        %86 = arith.addi %72, %85 : i32 loc(#loc57)
        %87 = arith.index_cast %86 : i32 to index loc(#loc231)
        %88 = arith.addi %87, %c0 : index loc(#loc232)
        %89 = memref.load %arg8[%88] : memref<?xf32> loc(#loc232)
        %90 = arith.mulf %81, %89 : f32 loc(#loc233)
        %91 = memref.load %arg10[%80] : memref<?xf32> loc(#loc234)
        %92 = arith.subf %90, %91 : f32 loc(#loc235)
        %93 = arith.index_cast %72 : i32 to index loc(#loc236)
        %94 = arith.addi %93, %c0 : index loc(#loc237)
        %95 = memref.load %arg11[%94] : memref<?xf32> loc(#loc237)
        %c0_9 = arith.constant 0 : index loc(#loc238)
        %96 = memref.load %8[%c0_9] : memref<1xf32> loc(#loc238)
        %97 = arith.mulf %95, %96 : f32 loc(#loc239)
        %98 = arith.index_cast %74 : i32 to index loc(#loc240)
        %99 = arith.addi %98, %c0 : index loc(#loc241)
        %100 = memref.load %arg5[%99] : memref<?xf32> loc(#loc242)
        %101 = arith.negf %100 : f32 loc(#loc243)
        %102 = memref.load %0[] : memref<memref<?xf32>> loc(#loc244)
        %103 = memref.load %102[%94] : memref<?xf32> loc(#loc244)
        %104 = arith.mulf %101, %103 : f32 loc(#loc245)
        %105 = arith.divf %97, %104 : f32 loc(#loc246)
        %106 = arith.subf %105, %cst_1 : f32 loc(#loc247)
        %107 = memref.load %arg7[%88] : memref<?xf32> loc(#loc248)
        %108 = arith.subf %107, %cst_1 : f32 loc(#loc249)
        %109 = arith.mulf %108, %81 : f32 loc(#loc250)
        %110 = arith.subf %106, %109 : f32 loc(#loc251)
        %111 = arith.divf %92, %110 : f32 loc(#loc252)
        memref.store %111, %arg10[%80] : memref<?xf32> loc(#loc253)
        %c0_10 = arith.constant 0 : index loc(#loc100)
        %112 = memref.load %2[%c0_10] : memref<1xi32> loc(#loc100)
        %113 = arith.muli %arg17, %112 : i32 loc(#loc52)
        %114 = arith.addi %arg18, %113 : i32 loc(#loc53)
        %c0_11 = arith.constant 0 : index loc(#loc254)
        %115 = memref.load %7[%c0_11] : memref<1xi32> loc(#loc254)
        %116 = arith.addi %115, %c-1_i32 : i32 loc(#loc255)
        %117 = arith.muli %116, %112 : i32 loc(#loc54)
        %c0_12 = arith.constant 0 : index loc(#loc55)
        %118 = memref.load %1[%c0_12] : memref<1xi32> loc(#loc55)
        %119 = arith.muli %117, %118 : i32 loc(#loc56)
        %120 = arith.addi %114, %119 : i32 loc(#loc57)
        %121 = arith.index_cast %120 : i32 to index loc(#loc256)
        %122 = arith.addi %121, %c0 : index loc(#loc257)
        %123 = memref.load %arg10[%122] : memref<?xf32> loc(#loc258)
        %124 = arith.index_cast %114 : i32 to index loc(#loc259)
        %125 = arith.addi %124, %c0 : index loc(#loc260)
        %126 = memref.load %arg15[%125] : memref<?xf32> loc(#loc260)
        %127 = arith.mulf %123, %126 : f32 loc(#loc261)
        memref.store %127, %arg10[%122] : memref<?xf32> loc(#loc262)
        scf.yield %45 : i32 loc(#loc195)
      } loc(#loc190)
      %22 = arith.addi %arg17, %c1_i32 : i32 loc(#loc263)
      scf.yield %22 : i32 loc(#loc192)
    } loc(#loc189)
    %17 = scf.while (%arg17 = %c1_i32) : (i32) -> i32 {
      %c0_2 = arith.constant 0 : index loc(#loc264)
      %20 = memref.load %7[%c0_2] : memref<1xi32> loc(#loc264)
      %21 = arith.cmpi slt, %arg17, %20 : i32 loc(#loc265)
      scf.condition(%21) %arg17 : i32 loc(#loc266)
    } do {
    ^bb0(%arg17: i32 loc("/Users/mac/Projects/mlir/cpp-to-ops-converter/script/..//in/test.c":524:3)):
      %c0_2 = arith.constant 0 : index loc(#loc267)
      %20 = memref.load %5[%c0_2] : memref<1xi32> loc(#loc267)
      %21 = arith.addi %20, %c-1_i32 : i32 loc(#loc268)
      %22 = arith.subi %21, %arg17 : i32 loc(#loc269)
      %23 = arith.addi %22, %c-1_i32 : i32 loc(#loc270)
      %24 = scf.while (%arg18 = %c1_i32) : (i32) -> i32 {
        %c0_3 = arith.constant 0 : index loc(#loc271)
        %26 = memref.load %14[%c0_3] : memref<1xi32> loc(#loc271)
        %27 = arith.cmpi slt, %arg18, %26 : i32 loc(#loc272)
        scf.condition(%27) %arg18 : i32 loc(#loc273)
      } do {
      ^bb0(%arg18: i32 loc("/Users/mac/Projects/mlir/cpp-to-ops-converter/script/..//in/test.c":526:5)):
        %26 = scf.while (%arg19 = %c1_i32) : (i32) -> i32 {
          %c0_3 = arith.constant 0 : index loc(#loc274)
          %28 = memref.load %15[%c0_3] : memref<1xi32> loc(#loc274)
          %29 = arith.cmpi slt, %arg19, %28 : i32 loc(#loc275)
          scf.condition(%29) %arg19 : i32 loc(#loc276)
        } do {
        ^bb0(%arg19: i32 loc("/Users/mac/Projects/mlir/cpp-to-ops-converter/script/..//in/test.c":527:7)):
          %c0_3 = arith.constant 0 : index loc(#loc100)
          %28 = memref.load %2[%c0_3] : memref<1xi32> loc(#loc100)
          %29 = arith.muli %arg18, %28 : i32 loc(#loc52)
          %30 = arith.addi %arg19, %29 : i32 loc(#loc53)
          %31 = arith.muli %23, %28 : i32 loc(#loc54)
          %c0_4 = arith.constant 0 : index loc(#loc55)
          %32 = memref.load %1[%c0_4] : memref<1xi32> loc(#loc55)
          %33 = arith.muli %31, %32 : i32 loc(#loc56)
          %34 = arith.addi %30, %33 : i32 loc(#loc57)
          %35 = arith.index_cast %34 : i32 to index loc(#loc277)
          %36 = arith.addi %35, %c0 : index loc(#loc278)
          %37 = memref.load %arg7[%36] : memref<?xf32> loc(#loc278)
          %38 = arith.muli %22, %28 : i32 loc(#loc54)
          %39 = arith.muli %38, %32 : i32 loc(#loc56)
          %40 = arith.addi %30, %39 : i32 loc(#loc57)
          %41 = arith.index_cast %40 : i32 to index loc(#loc279)
          %42 = arith.addi %41, %c0 : index loc(#loc280)
          %43 = memref.load %arg10[%42] : memref<?xf32> loc(#loc280)
          %44 = arith.mulf %37, %43 : f32 loc(#loc281)
          %45 = memref.load %arg8[%36] : memref<?xf32> loc(#loc282)
          %46 = arith.addf %44, %45 : f32 loc(#loc283)
          %47 = arith.index_cast %30 : i32 to index loc(#loc284)
          %48 = arith.addi %47, %c0 : index loc(#loc285)
          %49 = memref.load %arg15[%48] : memref<?xf32> loc(#loc285)
          %50 = arith.mulf %46, %49 : f32 loc(#loc286)
          memref.store %50, %arg10[%36] : memref<?xf32> loc(#loc287)
          %51 = arith.addi %arg19, %c1_i32 : i32 loc(#loc288)
          scf.yield %51 : i32 loc(#loc276)
        } loc(#loc274)
        %27 = arith.addi %arg18, %c1_i32 : i32 loc(#loc289)
        scf.yield %27 : i32 loc(#loc273)
      } loc(#loc271)
      %25 = arith.addi %arg17, %c1_i32 : i32 loc(#loc290)
      scf.yield %25 : i32 loc(#loc266)
    } loc(#loc264)
    %18 = scf.while (%arg17 = %c1_i32) : (i32) -> i32 {
      %c0_2 = arith.constant 0 : index loc(#loc291)
      %20 = memref.load %14[%c0_2] : memref<1xi32> loc(#loc291)
      %21 = arith.cmpi slt, %arg17, %20 : i32 loc(#loc292)
      scf.condition(%21) %arg17 : i32 loc(#loc293)
    } do {
    ^bb0(%arg17: i32 loc("/Users/mac/Projects/mlir/cpp-to-ops-converter/script/..//in/test.c":542:3)):
      %20 = scf.while (%arg18 = %c1_i32) : (i32) -> i32 {
        %c0_2 = arith.constant 0 : index loc(#loc294)
        %22 = memref.load %15[%c0_2] : memref<1xi32> loc(#loc294)
        %23 = arith.cmpi slt, %arg18, %22 : i32 loc(#loc295)
        scf.condition(%23) %arg18 : i32 loc(#loc296)
      } do {
      ^bb0(%arg18: i32 loc("/Users/mac/Projects/mlir/cpp-to-ops-converter/script/..//in/test.c":543:5)):
        %c0_2 = arith.constant 0 : index loc(#loc196)
        %22 = memref.load %2[%c0_2] : memref<1xi32> loc(#loc196)
        %23 = arith.muli %arg17, %22 : i32 loc(#loc16)
        %24 = arith.addi %arg18, %23 : i32 loc(#loc17)
        %25 = arith.index_cast %24 : i32 to index loc(#loc297)
        %26 = arith.addi %25, %c0 : index loc(#loc298)
        %27 = memref.load %arg11[%26] : memref<?xf32> loc(#loc298)
        %28 = arith.negf %27 : f32 loc(#loc299)
        %c0_3 = arith.constant 0 : index loc(#loc300)
        %29 = memref.load %7[%c0_3] : memref<1xi32> loc(#loc300)
        %30 = arith.addi %29, %c-1_i32 : i32 loc(#loc301)
        %31 = arith.muli %30, %22 : i32 loc(#loc54)
        %c0_4 = arith.constant 0 : index loc(#loc55)
        %32 = memref.load %1[%c0_4] : memref<1xi32> loc(#loc55)
        %33 = arith.muli %31, %32 : i32 loc(#loc56)
        %34 = arith.addi %24, %33 : i32 loc(#loc57)
        %35 = arith.index_cast %34 : i32 to index loc(#loc302)
        %36 = arith.addi %35, %c0 : index loc(#loc303)
        %37 = memref.load %arg10[%36] : memref<?xf32> loc(#loc303)
        %38 = arith.mulf %28, %37 : f32 loc(#loc304)
        memref.store %38, %arg16[%26] : memref<?xf32> loc(#loc305)
        %39 = arith.addi %arg18, %c1_i32 : i32 loc(#loc306)
        scf.yield %39 : i32 loc(#loc296)
      } loc(#loc294)
      %21 = arith.addi %arg17, %c1_i32 : i32 loc(#loc307)
      scf.yield %21 : i32 loc(#loc293)
    } loc(#loc291)
    %19 = memref.load %0[] : memref<memref<?xf32>> loc(#loc308)
    memref.dealloc %19 : memref<?xf32> loc(#loc308)
    return loc(#loc309)
  } loc(#loc1)
} loc(#loc0)
#loc0 = loc(unknown)
#loc2 = loc("/Users/mac/Projects/mlir/cpp-to-ops-converter/script/..//in/test.c":380:30)
#loc3 = loc("/Users/mac/Projects/mlir/cpp-to-ops-converter/script/..//in/test.c":497:18)
#loc4 = loc("/Users/mac/Projects/mlir/cpp-to-ops-converter/script/..//in/test.c":393:24)
#loc5 = loc("/Users/mac/Projects/mlir/cpp-to-ops-converter/script/..//in/test.c":381:24)
#loc6 = loc("/Users/mac/Projects/mlir/cpp-to-ops-converter/script/..//in/test.c":379:16)
#loc7 = loc("/Users/mac/Projects/mlir/cpp-to-ops-converter/script/..//in/test.c":543:10)
#loc8 = loc("/Users/mac/Projects/mlir/cpp-to-ops-converter/script/..//in/pom2k_c_header.h":4:16)
#loc9 = loc("/Users/mac/Projects/mlir/cpp-to-ops-converter/script/..//in/test.c":379:23)
#loc10 = loc("/Users/mac/Projects/mlir/cpp-to-ops-converter/script/..//in/test.c":380:25)
#loc11 = loc("/Users/mac/Projects/mlir/cpp-to-ops-converter/script/..//in/test.c":379:21)
#loc13 = loc("/Users/mac/Projects/mlir/cpp-to-ops-converter/script/..//in/test.c":380:23)
#loc15 = loc("/Users/mac/Projects/mlir/cpp-to-ops-converter/script/..//in/test.c":381:7)
#loc16 = loc("/Users/mac/Projects/mlir/cpp-to-ops-converter/script/..//in/pom2k_c_header.h":5:43)
#loc17 = loc("/Users/mac/Projects/mlir/cpp-to-ops-converter/script/..//in/pom2k_c_header.h":5:38)
#loc18 = loc("/Users/mac/Projects/mlir/cpp-to-ops-converter/script/..//in/test.c":381:20)
#loc19 = loc("/Users/mac/Projects/mlir/cpp-to-ops-converter/script/..//in/test.c":381:22)
#loc20 = loc("/Users/mac/Projects/mlir/cpp-to-ops-converter/script/..//in/test.c":379:28)
#loc21 = loc("/Users/mac/Projects/mlir/cpp-to-ops-converter/script/..//in/test.c":391:23)
#loc22 = loc("/Users/mac/Projects/mlir/cpp-to-ops-converter/script/..//in/test.c":391:21)
#loc24 = loc("/Users/mac/Projects/mlir/cpp-to-ops-converter/script/..//in/test.c":394:44)
#loc25 = loc("/Users/mac/Projects/mlir/cpp-to-ops-converter/script/..//in/test.c":392:25)
#loc26 = loc("/Users/mac/Projects/mlir/cpp-to-ops-converter/script/..//in/test.c":392:23)
#loc28 = loc("/Users/mac/Projects/mlir/cpp-to-ops-converter/script/..//in/test.c":393:7)
#loc29 = loc("/Users/mac/Projects/mlir/cpp-to-ops-converter/script/..//in/test.c":393:20)
#loc30 = loc("/Users/mac/Projects/mlir/cpp-to-ops-converter/script/..//in/test.c":393:32)
#loc31 = loc("/Users/mac/Projects/mlir/cpp-to-ops-converter/script/..//in/test.c":393:48)
#loc32 = loc("/Users/mac/Projects/mlir/cpp-to-ops-converter/script/..//in/test.c":393:46)
#loc33 = loc("/Users/mac/Projects/mlir/cpp-to-ops-converter/script/..//in/test.c":394:48)
#loc34 = loc("/Users/mac/Projects/mlir/cpp-to-ops-converter/script/..//in/test.c":394:32)
#loc35 = loc("/Users/mac/Projects/mlir/cpp-to-ops-converter/script/..//in/test.c":393:64)
#loc36 = loc("/Users/mac/Projects/mlir/cpp-to-ops-converter/script/..//in/test.c":394:52)
#loc37 = loc("/Users/mac/Projects/mlir/cpp-to-ops-converter/script/..//in/test.c":394:50)
#loc38 = loc("/Users/mac/Projects/mlir/cpp-to-ops-converter/script/..//in/test.c":393:29)
#loc39 = loc("/Users/mac/Projects/mlir/cpp-to-ops-converter/script/..//in/test.c":393:22)
#loc40 = loc("/Users/mac/Projects/mlir/cpp-to-ops-converter/script/..//in/test.c":392:30)
#loc41 = loc("/Users/mac/Projects/mlir/cpp-to-ops-converter/script/..//in/test.c":391:28)
#loc42 = loc("/Users/mac/Projects/mlir/cpp-to-ops-converter/script/..//in/test.c":406:23)
#loc43 = loc("/Users/mac/Projects/mlir/cpp-to-ops-converter/script/..//in/test.c":406:21)
#loc45 = loc("/Users/mac/Projects/mlir/cpp-to-ops-converter/script/..//in/test.c":407:25)
#loc46 = loc("/Users/mac/Projects/mlir/cpp-to-ops-converter/script/..//in/test.c":407:23)
#loc48 = loc("/Users/mac/Projects/mlir/cpp-to-ops-converter/script/..//in/test.c":409:62)
#loc49 = loc("/Users/mac/Projects/mlir/cpp-to-ops-converter/script/..//in/test.c":408:27)
#loc50 = loc("/Users/mac/Projects/mlir/cpp-to-ops-converter/script/..//in/test.c":408:25)
#loc52 = loc("/Users/mac/Projects/mlir/cpp-to-ops-converter/script/..//in/pom2k_c_header.h":7:50)
#loc53 = loc("/Users/mac/Projects/mlir/cpp-to-ops-converter/script/..//in/pom2k_c_header.h":7:45)
#loc54 = loc("/Users/mac/Projects/mlir/cpp-to-ops-converter/script/..//in/pom2k_c_header.h":7:59)
#loc55 = loc("/Users/mac/Projects/mlir/cpp-to-ops-converter/script/..//in/pom2k_c_header.h":8:46)
#loc56 = loc("/Users/mac/Projects/mlir/cpp-to-ops-converter/script/..//in/pom2k_c_header.h":7:62)
#loc57 = loc("/Users/mac/Projects/mlir/cpp-to-ops-converter/script/..//in/pom2k_c_header.h":7:54)
#loc58 = loc("/Users/mac/Projects/mlir/cpp-to-ops-converter/script/..//in/test.c":409:24)
#loc59 = loc("/Users/mac/Projects/mlir/cpp-to-ops-converter/script/..//in/test.c":409:29)
#loc60 = loc("/Users/mac/Projects/mlir/cpp-to-ops-converter/script/..//in/test.c":409:69)
#loc61 = loc("/Users/mac/Projects/mlir/cpp-to-ops-converter/script/..//in/test.c":409:49)
#loc62 = loc("/Users/mac/Projects/mlir/cpp-to-ops-converter/script/..//in/test.c":409:47)
#loc63 = loc("/Users/mac/Projects/mlir/cpp-to-ops-converter/script/..//in/test.c":409:72)
#loc64 = loc("/Users/mac/Projects/mlir/cpp-to-ops-converter/script/..//in/test.c":409:26)
#loc65 = loc("/Users/mac/Projects/mlir/cpp-to-ops-converter/script/..//in/test.c":408:32)
#loc66 = loc("/Users/mac/Projects/mlir/cpp-to-ops-converter/script/..//in/test.c":407:30)
#loc67 = loc("/Users/mac/Projects/mlir/cpp-to-ops-converter/script/..//in/test.c":406:28)
#loc68 = loc("/Users/mac/Projects/mlir/cpp-to-ops-converter/script/..//in/test.c":425:23)
#loc69 = loc("/Users/mac/Projects/mlir/cpp-to-ops-converter/script/..//in/test.c":429:15)
#loc70 = loc("/Users/mac/Projects/mlir/cpp-to-ops-converter/script/..//in/test.c":429:43)
#loc71 = loc("/Users/mac/Projects/mlir/cpp-to-ops-converter/script/..//in/test.c":425:21)
#loc73 = loc("/Users/mac/Projects/mlir/cpp-to-ops-converter/script/..//in/test.c":428:24)
#loc74 = loc("/Users/mac/Projects/mlir/cpp-to-ops-converter/script/..//in/test.c":430:22)
#loc75 = loc("/Users/mac/Projects/mlir/cpp-to-ops-converter/script/..//in/test.c":430:14)
#loc76 = loc("/Users/mac/Projects/mlir/cpp-to-ops-converter/script/..//in/test.c":433:18)
#loc77 = loc("/Users/mac/Projects/mlir/cpp-to-ops-converter/script/..//in/test.c":433:14)
#loc78 = loc("/Users/mac/Projects/mlir/cpp-to-ops-converter/script/..//in/test.c":426:25)
#loc79 = loc("/Users/mac/Projects/mlir/cpp-to-ops-converter/script/..//in/test.c":426:23)
#loc81 = loc("/Users/mac/Projects/mlir/cpp-to-ops-converter/script/..//in/test.c":427:27)
#loc82 = loc("/Users/mac/Projects/mlir/cpp-to-ops-converter/script/..//in/test.c":427:25)
#loc84 = loc("/Users/mac/Projects/mlir/cpp-to-ops-converter/script/..//in/test.c":428:28)
#loc85 = loc("/Users/mac/Projects/mlir/cpp-to-ops-converter/script/..//in/test.c":429:14)
#loc86 = loc("/Users/mac/Projects/mlir/cpp-to-ops-converter/script/..//in/test.c":429:13)
#loc87 = loc("/Users/mac/Projects/mlir/cpp-to-ops-converter/script/..//in/test.c":429:39)
#loc88 = loc("/Users/mac/Projects/mlir/cpp-to-ops-converter/script/..//in/test.c":429:24)
#loc89 = loc("/Users/mac/Projects/mlir/cpp-to-ops-converter/script/..//in/test.c":429:41)
#loc90 = loc("/Users/mac/Projects/mlir/cpp-to-ops-converter/script/..//in/test.c":429:21)
#loc91 = loc("/Users/mac/Projects/mlir/cpp-to-ops-converter/script/..//in/test.c":430:26)
#loc92 = loc("/Users/mac/Projects/mlir/cpp-to-ops-converter/script/..//in/test.c":430:24)
#loc93 = loc("/Users/mac/Projects/mlir/cpp-to-ops-converter/script/..//in/test.c":430:39)
#loc94 = loc("/Users/mac/Projects/mlir/cpp-to-ops-converter/script/..//in/test.c":430:52)
#loc95 = loc("/Users/mac/Projects/mlir/cpp-to-ops-converter/script/..//in/test.c":430:37)
#loc96 = loc("/Users/mac/Projects/mlir/cpp-to-ops-converter/script/..//in/test.c":430:54)
#loc97 = loc("/Users/mac/Projects/mlir/cpp-to-ops-converter/script/..//in/test.c":429:49)
#loc98 = loc("/Users/mac/Projects/mlir/cpp-to-ops-converter/script/..//in/test.c":428:9)
#loc99 = loc("/Users/mac/Projects/mlir/cpp-to-ops-converter/script/..//in/test.c":428:30)
#loc100 = loc("/Users/mac/Projects/mlir/cpp-to-ops-converter/script/..//in/pom2k_c_header.h":8:42)
#loc101 = loc("/Users/mac/Projects/mlir/cpp-to-ops-converter/script/..//in/test.c":431:24)
#loc102 = loc("/Users/mac/Projects/mlir/cpp-to-ops-converter/script/..//in/test.c":432:14)
#loc103 = loc("/Users/mac/Projects/mlir/cpp-to-ops-converter/script/..//in/test.c":432:13)
#loc104 = loc("/Users/mac/Projects/mlir/cpp-to-ops-converter/script/..//in/test.c":431:9)
#loc105 = loc("/Users/mac/Projects/mlir/cpp-to-ops-converter/script/..//in/test.c":432:24)
#loc106 = loc("/Users/mac/Projects/mlir/cpp-to-ops-converter/script/..//in/test.c":432:43)
#loc107 = loc("/Users/mac/Projects/mlir/cpp-to-ops-converter/script/..//in/test.c":432:41)
#loc108 = loc("/Users/mac/Projects/mlir/cpp-to-ops-converter/script/..//in/test.c":432:21)
#loc109 = loc("/Users/mac/Projects/mlir/cpp-to-ops-converter/script/..//in/test.c":433:22)
#loc110 = loc("/Users/mac/Projects/mlir/cpp-to-ops-converter/script/..//in/test.c":433:20)
#loc111 = loc("/Users/mac/Projects/mlir/cpp-to-ops-converter/script/..//in/test.c":433:48)
#loc112 = loc("/Users/mac/Projects/mlir/cpp-to-ops-converter/script/..//in/test.c":433:35)
#loc113 = loc("/Users/mac/Projects/mlir/cpp-to-ops-converter/script/..//in/test.c":433:33)
#loc114 = loc("/Users/mac/Projects/mlir/cpp-to-ops-converter/script/..//in/test.c":433:50)
#loc115 = loc("/Users/mac/Projects/mlir/cpp-to-ops-converter/script/..//in/test.c":432:49)
#loc116 = loc("/Users/mac/Projects/mlir/cpp-to-ops-converter/script/..//in/test.c":431:26)
#loc117 = loc("/Users/mac/Projects/mlir/cpp-to-ops-converter/script/..//in/test.c":427:32)
#loc118 = loc("/Users/mac/Projects/mlir/cpp-to-ops-converter/script/..//in/test.c":426:30)
#loc119 = loc("/Users/mac/Projects/mlir/cpp-to-ops-converter/script/..//in/test.c":425:30)
#loc120 = loc("/Users/mac/Projects/mlir/cpp-to-ops-converter/script/..//in/test.c":446:23)
#loc121 = loc("/Users/mac/Projects/mlir/cpp-to-ops-converter/script/..//in/test.c":446:21)
#loc123 = loc("/Users/mac/Projects/mlir/cpp-to-ops-converter/script/..//in/test.c":447:25)
#loc124 = loc("/Users/mac/Projects/mlir/cpp-to-ops-converter/script/..//in/test.c":447:23)
#loc126 = loc("/Users/mac/Projects/mlir/cpp-to-ops-converter/script/..//in/test.c":448:23)
#loc127 = loc("/Users/mac/Projects/mlir/cpp-to-ops-converter/script/..//in/test.c":448:27)
#loc128 = loc("/Users/mac/Projects/mlir/cpp-to-ops-converter/script/..//in/test.c":448:64)
#loc129 = loc("/Users/mac/Projects/mlir/cpp-to-ops-converter/script/..//in/test.c":448:44)
#loc130 = loc("/Users/mac/Projects/mlir/cpp-to-ops-converter/script/..//in/test.c":448:25)
#loc131 = loc("/Users/mac/Projects/mlir/cpp-to-ops-converter/script/..//in/test.c":449:23)
#loc132 = loc("/Users/mac/Projects/mlir/cpp-to-ops-converter/script/..//in/test.c":450:13)
#loc133 = loc("/Users/mac/Projects/mlir/cpp-to-ops-converter/script/..//in/test.c":450:12)
#loc134 = loc("/Users/mac/Projects/mlir/cpp-to-ops-converter/script/..//in/test.c":450:37)
#loc135 = loc("/Users/mac/Projects/mlir/cpp-to-ops-converter/script/..//in/test.c":450:20)
#loc136 = loc("/Users/mac/Projects/mlir/cpp-to-ops-converter/script/..//in/test.c":450:18)
#loc137 = loc("/Users/mac/Projects/mlir/cpp-to-ops-converter/script/..//in/test.c":450:43)
#loc138 = loc("/Users/mac/Projects/mlir/cpp-to-ops-converter/script/..//in/test.c":450:42)
#loc139 = loc("/Users/mac/Projects/mlir/cpp-to-ops-converter/script/..//in/test.c":450:53)
#loc140 = loc("/Users/mac/Projects/mlir/cpp-to-ops-converter/script/..//in/test.c":450:51)
#loc141 = loc("/Users/mac/Projects/mlir/cpp-to-ops-converter/script/..//in/test.c":450:39)
#loc142 = loc("/Users/mac/Projects/mlir/cpp-to-ops-converter/script/..//in/test.c":451:12)
#loc143 = loc("/Users/mac/Projects/mlir/cpp-to-ops-converter/script/..//in/test.c":450:69)
#loc144 = loc("/Users/mac/Projects/mlir/cpp-to-ops-converter/script/..//in/test.c":452:12)
#loc145 = loc("/Users/mac/Projects/mlir/cpp-to-ops-converter/script/..//in/test.c":452:29)
#loc146 = loc("/Users/mac/Projects/mlir/cpp-to-ops-converter/script/..//in/test.c":451:31)
#loc147 = loc("/Users/mac/Projects/mlir/cpp-to-ops-converter/script/..//in/test.c":449:25)
#loc148 = loc("/Users/mac/Projects/mlir/cpp-to-ops-converter/script/..//in/test.c":447:30)
#loc149 = loc("/Users/mac/Projects/mlir/cpp-to-ops-converter/script/..//in/test.c":446:28)
#loc150 = loc("/Users/mac/Projects/mlir/cpp-to-ops-converter/script/..//in/test.c":466:23)
#loc151 = loc("/Users/mac/Projects/mlir/cpp-to-ops-converter/script/..//in/test.c":466:21)
#loc153 = loc("/Users/mac/Projects/mlir/cpp-to-ops-converter/script/..//in/test.c":471:64)
#loc154 = loc("/Users/mac/Projects/mlir/cpp-to-ops-converter/script/..//in/test.c":467:25)
#loc155 = loc("/Users/mac/Projects/mlir/cpp-to-ops-converter/script/..//in/test.c":467:23)
#loc157 = loc("/Users/mac/Projects/mlir/cpp-to-ops-converter/script/..//in/test.c":468:27)
#loc158 = loc("/Users/mac/Projects/mlir/cpp-to-ops-converter/script/..//in/test.c":468:25)
#loc160 = loc("/Users/mac/Projects/mlir/cpp-to-ops-converter/script/..//in/test.c":469:25)
#loc161 = loc("/Users/mac/Projects/mlir/cpp-to-ops-converter/script/..//in/test.c":470:21)
#loc162 = loc("/Users/mac/Projects/mlir/cpp-to-ops-converter/script/..//in/test.c":471:21)
#loc163 = loc("/Users/mac/Projects/mlir/cpp-to-ops-converter/script/..//in/test.c":471:68)
#loc164 = loc("/Users/mac/Projects/mlir/cpp-to-ops-converter/script/..//in/test.c":471:48)
#loc165 = loc("/Users/mac/Projects/mlir/cpp-to-ops-converter/script/..//in/test.c":471:46)
#loc166 = loc("/Users/mac/Projects/mlir/cpp-to-ops-converter/script/..//in/test.c":471:38)
#loc167 = loc("/Users/mac/Projects/mlir/cpp-to-ops-converter/script/..//in/test.c":470:38)
#loc168 = loc("/Users/mac/Projects/mlir/cpp-to-ops-converter/script/..//in/test.c":471:71)
#loc169 = loc("/Users/mac/Projects/mlir/cpp-to-ops-converter/script/..//in/test.c":470:18)
#loc170 = loc("/Users/mac/Projects/mlir/cpp-to-ops-converter/script/..//in/test.c":469:27)
#loc171 = loc("/Users/mac/Projects/mlir/cpp-to-ops-converter/script/..//in/test.c":472:25)
#loc172 = loc("/Users/mac/Projects/mlir/cpp-to-ops-converter/script/..//in/test.c":472:29)
#loc173 = loc("/Users/mac/Projects/mlir/cpp-to-ops-converter/script/..//in/test.c":472:48)
#loc174 = loc("/Users/mac/Projects/mlir/cpp-to-ops-converter/script/..//in/test.c":472:46)
#loc175 = loc("/Users/mac/Projects/mlir/cpp-to-ops-converter/script/..//in/test.c":472:27)
#loc176 = loc("/Users/mac/Projects/mlir/cpp-to-ops-converter/script/..//in/test.c":473:25)
#loc177 = loc("/Users/mac/Projects/mlir/cpp-to-ops-converter/script/..//in/test.c":474:14)
#loc178 = loc("/Users/mac/Projects/mlir/cpp-to-ops-converter/script/..//in/test.c":474:53)
#loc179 = loc("/Users/mac/Projects/mlir/cpp-to-ops-converter/script/..//in/test.c":474:33)
#loc180 = loc("/Users/mac/Projects/mlir/cpp-to-ops-converter/script/..//in/test.c":474:31)
#loc181 = loc("/Users/mac/Projects/mlir/cpp-to-ops-converter/script/..//in/test.c":474:57)
#loc182 = loc("/Users/mac/Projects/mlir/cpp-to-ops-converter/script/..//in/test.c":474:55)
#loc183 = loc("/Users/mac/Projects/mlir/cpp-to-ops-converter/script/..//in/test.c":475:13)
#loc184 = loc("/Users/mac/Projects/mlir/cpp-to-ops-converter/script/..//in/test.c":474:76)
#loc185 = loc("/Users/mac/Projects/mlir/cpp-to-ops-converter/script/..//in/test.c":473:27)
#loc186 = loc("/Users/mac/Projects/mlir/cpp-to-ops-converter/script/..//in/test.c":468:32)
#loc187 = loc("/Users/mac/Projects/mlir/cpp-to-ops-converter/script/..//in/test.c":467:30)
#loc188 = loc("/Users/mac/Projects/mlir/cpp-to-ops-converter/script/..//in/test.c":466:30)
#loc189 = loc("/Users/mac/Projects/mlir/cpp-to-ops-converter/script/..//in/test.c":493:23)
#loc190 = loc("/Users/mac/Projects/mlir/cpp-to-ops-converter/script/..//in/test.c":494:25)
#loc191 = loc("/Users/mac/Projects/mlir/cpp-to-ops-converter/script/..//in/test.c":493:21)
#loc193 = loc("/Users/mac/Projects/mlir/cpp-to-ops-converter/script/..//in/test.c":496:51)
#loc194 = loc("/Users/mac/Projects/mlir/cpp-to-ops-converter/script/..//in/test.c":494:23)
#loc196 = loc("/Users/mac/Projects/mlir/cpp-to-ops-converter/script/..//in/pom2k_c_header.h":6:36)
#loc197 = loc("/Users/mac/Projects/mlir/cpp-to-ops-converter/script/..//in/test.c":495:21)
#loc198 = loc("/Users/mac/Projects/mlir/cpp-to-ops-converter/script/..//in/test.c":496:19)
#loc199 = loc("/Users/mac/Projects/mlir/cpp-to-ops-converter/script/..//in/test.c":496:55)
#loc200 = loc("/Users/mac/Projects/mlir/cpp-to-ops-converter/script/..//in/test.c":496:37)
#loc201 = loc("/Users/mac/Projects/mlir/cpp-to-ops-converter/script/..//in/test.c":496:35)
#loc202 = loc("/Users/mac/Projects/mlir/cpp-to-ops-converter/script/..//in/test.c":496:16)
#loc203 = loc("/Users/mac/Projects/mlir/cpp-to-ops-converter/script/..//in/test.c":498:33)
#loc204 = loc("/Users/mac/Projects/mlir/cpp-to-ops-converter/script/..//in/test.c":498:38)
#loc205 = loc("/Users/mac/Projects/mlir/cpp-to-ops-converter/script/..//in/test.c":498:42)
#loc206 = loc("/Users/mac/Projects/mlir/cpp-to-ops-converter/script/..//in/test.c":498:19)
#loc207 = loc("/Users/mac/Projects/mlir/cpp-to-ops-converter/script/..//in/test.c":498:56)
#loc208 = loc("/Users/mac/Projects/mlir/cpp-to-ops-converter/script/..//in/test.c":498:73)
#loc209 = loc("/Users/mac/Projects/mlir/cpp-to-ops-converter/script/..//in/test.c":498:46)
#loc210 = loc("/Users/mac/Projects/mlir/cpp-to-ops-converter/script/..//in/test.c":498:44)
#loc211 = loc("/Users/mac/Projects/mlir/cpp-to-ops-converter/script/..//in/test.c":499:46)
#loc212 = loc("/Users/mac/Projects/mlir/cpp-to-ops-converter/script/..//in/test.c":499:19)
#loc213 = loc("/Users/mac/Projects/mlir/cpp-to-ops-converter/script/..//in/test.c":498:75)
#loc214 = loc("/Users/mac/Projects/mlir/cpp-to-ops-converter/script/..//in/test.c":500:50)
#loc215 = loc("/Users/mac/Projects/mlir/cpp-to-ops-converter/script/..//in/test.c":500:19)
#loc216 = loc("/Users/mac/Projects/mlir/cpp-to-ops-converter/script/..//in/test.c":499:48)
#loc217 = loc("/Users/mac/Projects/mlir/cpp-to-ops-converter/script/..//in/test.c":497:24)
#loc218 = loc("/Users/mac/Projects/mlir/cpp-to-ops-converter/script/..//in/test.c":500:54)
#loc219 = loc("/Users/mac/Projects/mlir/cpp-to-ops-converter/script/..//in/test.c":505:17)
#loc220 = loc("/Users/mac/Projects/mlir/cpp-to-ops-converter/script/..//in/test.c":505:42)
#loc221 = loc("/Users/mac/Projects/mlir/cpp-to-ops-converter/script/..//in/test.c":504:58)
#loc222 = loc("/Users/mac/Projects/mlir/cpp-to-ops-converter/script/..//in/test.c":497:11)
#loc223 = loc("/Users/mac/Projects/mlir/cpp-to-ops-converter/script/..//in/test.c":496:58)
#loc224 = loc("/Users/mac/Projects/mlir/cpp-to-ops-converter/script/..//in/test.c":495:23)
#loc225 = loc("/Users/mac/Projects/mlir/cpp-to-ops-converter/script/..//in/test.c":506:21)
#loc226 = loc("/Users/mac/Projects/mlir/cpp-to-ops-converter/script/..//in/test.c":506:26)
#loc227 = loc("/Users/mac/Projects/mlir/cpp-to-ops-converter/script/..//in/test.c":506:30)
#loc228 = loc("/Users/mac/Projects/mlir/cpp-to-ops-converter/script/..//in/test.c":507:12)
#loc229 = loc("/Users/mac/Projects/mlir/cpp-to-ops-converter/script/..//in/test.c":507:52)
#loc230 = loc("/Users/mac/Projects/mlir/cpp-to-ops-converter/script/..//in/test.c":507:57)
#loc231 = loc("/Users/mac/Projects/mlir/cpp-to-ops-converter/script/..//in/test.c":507:61)
#loc232 = loc("/Users/mac/Projects/mlir/cpp-to-ops-converter/script/..//in/test.c":507:38)
#loc233 = loc("/Users/mac/Projects/mlir/cpp-to-ops-converter/script/..//in/test.c":507:36)
#loc234 = loc("/Users/mac/Projects/mlir/cpp-to-ops-converter/script/..//in/test.c":508:12)
#loc235 = loc("/Users/mac/Projects/mlir/cpp-to-ops-converter/script/..//in/test.c":507:63)
#loc236 = loc("/Users/mac/Projects/mlir/cpp-to-ops-converter/script/..//in/test.c":509:26)
#loc237 = loc("/Users/mac/Projects/mlir/cpp-to-ops-converter/script/..//in/test.c":509:12)
#loc238 = loc("/Users/mac/Projects/mlir/cpp-to-ops-converter/script/..//in/test.c":509:30)
#loc239 = loc("/Users/mac/Projects/mlir/cpp-to-ops-converter/script/..//in/test.c":509:28)
#loc240 = loc("/Users/mac/Projects/mlir/cpp-to-ops-converter/script/..//in/test.c":509:51)
#loc241 = loc("/Users/mac/Projects/mlir/cpp-to-ops-converter/script/..//in/test.c":509:40)
#loc242 = loc("/Users/mac/Projects/mlir/cpp-to-ops-converter/script/..//in/test.c":509:39)
#loc243 = loc("/Users/mac/Projects/mlir/cpp-to-ops-converter/script/..//in/test.c":509:38)
#loc244 = loc("/Users/mac/Projects/mlir/cpp-to-ops-converter/script/..//in/test.c":509:56)
#loc245 = loc("/Users/mac/Projects/mlir/cpp-to-ops-converter/script/..//in/test.c":509:54)
#loc246 = loc("/Users/mac/Projects/mlir/cpp-to-ops-converter/script/..//in/test.c":509:35)
#loc247 = loc("/Users/mac/Projects/mlir/cpp-to-ops-converter/script/..//in/test.c":509:72)
#loc248 = loc("/Users/mac/Projects/mlir/cpp-to-ops-converter/script/..//in/test.c":510:13)
#loc249 = loc("/Users/mac/Projects/mlir/cpp-to-ops-converter/script/..//in/test.c":510:38)
#loc250 = loc("/Users/mac/Projects/mlir/cpp-to-ops-converter/script/..//in/test.c":510:46)
#loc251 = loc("/Users/mac/Projects/mlir/cpp-to-ops-converter/script/..//in/test.c":509:79)
#loc252 = loc("/Users/mac/Projects/mlir/cpp-to-ops-converter/script/..//in/test.c":508:38)
#loc253 = loc("/Users/mac/Projects/mlir/cpp-to-ops-converter/script/..//in/test.c":506:32)
#loc254 = loc("/Users/mac/Projects/mlir/cpp-to-ops-converter/script/..//in/test.c":511:21)
#loc255 = loc("/Users/mac/Projects/mlir/cpp-to-ops-converter/script/..//in/test.c":511:26)
#loc256 = loc("/Users/mac/Projects/mlir/cpp-to-ops-converter/script/..//in/test.c":511:30)
#loc257 = loc("/Users/mac/Projects/mlir/cpp-to-ops-converter/script/..//in/test.c":511:7)
#loc258 = loc("/Users/mac/Projects/mlir/cpp-to-ops-converter/script/..//in/test.c":511:34)
#loc259 = loc("/Users/mac/Projects/mlir/cpp-to-ops-converter/script/..//in/test.c":511:75)
#loc260 = loc("/Users/mac/Projects/mlir/cpp-to-ops-converter/script/..//in/test.c":511:61)
#loc261 = loc("/Users/mac/Projects/mlir/cpp-to-ops-converter/script/..//in/test.c":511:59)
#loc262 = loc("/Users/mac/Projects/mlir/cpp-to-ops-converter/script/..//in/test.c":511:32)
#loc263 = loc("/Users/mac/Projects/mlir/cpp-to-ops-converter/script/..//in/test.c":493:30)
#loc264 = loc("/Users/mac/Projects/mlir/cpp-to-ops-converter/script/..//in/test.c":524:23)
#loc265 = loc("/Users/mac/Projects/mlir/cpp-to-ops-converter/script/..//in/test.c":524:21)
#loc267 = loc("/Users/mac/Projects/mlir/cpp-to-ops-converter/script/..//in/test.c":525:14)
#loc268 = loc("/Users/mac/Projects/mlir/cpp-to-ops-converter/script/..//in/test.c":525:17)
#loc269 = loc("/Users/mac/Projects/mlir/cpp-to-ops-converter/script/..//in/test.c":525:21)
#loc270 = loc("/Users/mac/Projects/mlir/cpp-to-ops-converter/script/..//in/test.c":528:26)
#loc271 = loc("/Users/mac/Projects/mlir/cpp-to-ops-converter/script/..//in/test.c":526:25)
#loc272 = loc("/Users/mac/Projects/mlir/cpp-to-ops-converter/script/..//in/test.c":526:23)
#loc274 = loc("/Users/mac/Projects/mlir/cpp-to-ops-converter/script/..//in/test.c":527:27)
#loc275 = loc("/Users/mac/Projects/mlir/cpp-to-ops-converter/script/..//in/test.c":527:25)
#loc277 = loc("/Users/mac/Projects/mlir/cpp-to-ops-converter/script/..//in/test.c":528:30)
#loc278 = loc("/Users/mac/Projects/mlir/cpp-to-ops-converter/script/..//in/test.c":529:14)
#loc279 = loc("/Users/mac/Projects/mlir/cpp-to-ops-converter/script/..//in/test.c":529:64)
#loc280 = loc("/Users/mac/Projects/mlir/cpp-to-ops-converter/script/..//in/test.c":529:39)
#loc281 = loc("/Users/mac/Projects/mlir/cpp-to-ops-converter/script/..//in/test.c":529:37)
#loc282 = loc("/Users/mac/Projects/mlir/cpp-to-ops-converter/script/..//in/test.c":530:14)
#loc283 = loc("/Users/mac/Projects/mlir/cpp-to-ops-converter/script/..//in/test.c":529:66)
#loc284 = loc("/Users/mac/Projects/mlir/cpp-to-ops-converter/script/..//in/test.c":531:27)
#loc285 = loc("/Users/mac/Projects/mlir/cpp-to-ops-converter/script/..//in/test.c":531:13)
#loc286 = loc("/Users/mac/Projects/mlir/cpp-to-ops-converter/script/..//in/test.c":530:38)
#loc287 = loc("/Users/mac/Projects/mlir/cpp-to-ops-converter/script/..//in/test.c":528:32)
#loc288 = loc("/Users/mac/Projects/mlir/cpp-to-ops-converter/script/..//in/test.c":527:34)
#loc289 = loc("/Users/mac/Projects/mlir/cpp-to-ops-converter/script/..//in/test.c":526:32)
#loc290 = loc("/Users/mac/Projects/mlir/cpp-to-ops-converter/script/..//in/test.c":524:30)
#loc291 = loc("/Users/mac/Projects/mlir/cpp-to-ops-converter/script/..//in/test.c":542:23)
#loc292 = loc("/Users/mac/Projects/mlir/cpp-to-ops-converter/script/..//in/test.c":542:21)
#loc294 = loc("/Users/mac/Projects/mlir/cpp-to-ops-converter/script/..//in/test.c":543:25)
#loc295 = loc("/Users/mac/Projects/mlir/cpp-to-ops-converter/script/..//in/test.c":543:23)
#loc297 = loc("/Users/mac/Projects/mlir/cpp-to-ops-converter/script/..//in/test.c":544:23)
#loc298 = loc("/Users/mac/Projects/mlir/cpp-to-ops-converter/script/..//in/test.c":544:28)
#loc299 = loc("/Users/mac/Projects/mlir/cpp-to-ops-converter/script/..//in/test.c":544:27)
#loc300 = loc("/Users/mac/Projects/mlir/cpp-to-ops-converter/script/..//in/test.c":544:60)
#loc301 = loc("/Users/mac/Projects/mlir/cpp-to-ops-converter/script/..//in/test.c":544:65)
#loc302 = loc("/Users/mac/Projects/mlir/cpp-to-ops-converter/script/..//in/test.c":544:69)
#loc303 = loc("/Users/mac/Projects/mlir/cpp-to-ops-converter/script/..//in/test.c":544:46)
#loc304 = loc("/Users/mac/Projects/mlir/cpp-to-ops-converter/script/..//in/test.c":544:44)
#loc305 = loc("/Users/mac/Projects/mlir/cpp-to-ops-converter/script/..//in/test.c":544:25)
#loc306 = loc("/Users/mac/Projects/mlir/cpp-to-ops-converter/script/..//in/test.c":543:32)
#loc307 = loc("/Users/mac/Projects/mlir/cpp-to-ops-converter/script/..//in/test.c":542:30)
#loc308 = loc("/Users/mac/Projects/mlir/cpp-to-ops-converter/script/..//in/test.c":548:3)
#loc309 = loc("/Users/mac/Projects/mlir/cpp-to-ops-converter/script/..//in/test.c":549:1)

